…
I1127 14:44:48.097801  3860 net.cpp:323] The NetState phase (0) differed from the phase (1) specified by a rule in layer accuracy
I1127 14:44:48.098024  3860 net.cpp:52] Initializing net from parameters:
state {
phase: TRAIN
}
layer {
name: "train-data"
type: "Data"
top: "data"
top: "label"
include {
phase: TRAIN
}
transform_param {
mirror: true
crop_size: 227
mean_file: "/media/myuser/120Gb/DIGITS/digits/jobs/20160917-133511-8c62/mean.binaryproto"
}
data_param {
source: "/media/myuser/120Gb/DIGITS/digits/jobs/20160917-133511-8c62/train_db"
batch_size: 128
backend: LMDB
}
}
layer {
name: "conv1"
type: "Convolution"
bottom: "data"
top: "conv1"
param {
lr_mult: 1
decay_mult: 1
}
param {
lr_mult: 2
decay_mult: 0
}
convolution_param {
num_output: 96
kernel_size: 11
stride: 4
weight_filler {
type: "gaussian"
std: 0.01
}
bias_filler {
type: "constant"
value: 0
}
}
}
layer {
name: "relu1"
type: "ReLU"
bottom: "conv1"
top: "conv1"
}
layer {
name: "norm1"
type: "LRN"
bottom: "conv1"
top: "norm1"
lrn_param {
local_size: 5
alpha: 0.0001
beta: 0.75
}
}
layer {
name: "pool1"
type: "Pooling"
bottom: "norm1"
top: "pool1"
pooling_param {
pool: MAX
kernel_size: 3
stride: 2
}
}
layer {
name: "conv2"
type: "Convolution"
bottom: "pool1"
top: "conv2"
param {
lr_mult: 1
decay_mult: 1
}
param {
lr_mult: 2
decay_mult: 0
}
convolution_param {
num_output: 256
pad: 2
kernel_size: 5
group: 2
weight_filler {
type: "gaussian"
std: 0.01
}
bias_filler {
type: "constant"
value: 0.1
}
}
}
layer {
name: "relu2"
type: "ReLU"
bottom: "conv2"
top: "conv2"
}
layer {
name: "norm2"
type: "LRN"
bottom: "conv2"
top: "norm2"
lrn_param {
local_size: 5
alpha: 0.0001
beta: 0.75
}
}
layer {
name: "pool2"
type: "Pooling"
bottom: "norm2"
top: "pool2"
pooling_param {
pool: MAX
kernel_size: 3
stride: 2
}
}
layer {
name: "conv3"
type: "Convolution"
bottom: "pool2"
top: "conv3"
param {
lr_mult: 1
decay_mult: 1
}
param {
lr_mult: 2
decay_mult: 0
}
convolution_param {
num_output: 384
pad: 1
kernel_size: 3
weight_filler {
type: "gaussian"
std: 0.01
}
bias_filler {
type: "constant"
value: 0
}
}
}
layer {
name: "relu3"
type: "ReLU"
bottom: "conv3"
top: "conv3"
}
layer {
name: "conv4"
type: "Convolution"
bottom: "conv3"
top: "conv4"
param {
lr_mult: 1
decay_mult: 1
}
param {
lr_mult: 2
decay_mult: 0
}
convolution_param {
num_output: 384
pad: 1
kernel_size: 3
group: 2
weight_filler {
type: "gaussian"
std: 0.01
}
bias_filler {
type: "constant"
value: 0.1
}
}
}
layer {
name: "relu4"
type: "ReLU"
bottom: "conv4"
top: "conv4"
}
layer {
name: "conv5"
type: "Convolution"
bottom: "conv4"
top: "conv5"
param {
lr_mult: 1
decay_mult: 1
}
param {
lr_mult: 2
decay_mult: 0
}
convolution_param {
num_output: 256
pad: 1
kernel_size: 3
group: 2
weight_filler {
type: "gaussian"
std: 0.01
}
bias_filler {
type: "constant"
value: 0.1
}
}
}
layer {
name: "relu5"
type: "ReLU"
bottom: "conv5"
top: "conv5"
}
layer {
name: "pool5"
type: "Pooling"
bottom: "conv5"
top: "pool5"
pooling_param {
pool: MAX
kernel_size: 3
stride: 2
}
}
layer {
name: "fc6"
type: "InnerProduct"
bottom: "pool5"
top: "fc6"
param {
lr_mult: 1
decay_mult: 1
}
param {
lr_mult: 2
decay_mult: 0
}
inner_product_param {
num_output: 4096
weight_filler {
type: "gaussian"
std: 0.005
}
bias_filler {
type: "constant"
value: 0.1
}
}
}
layer {
name: "relu6"
type: "ReLU"
bottom: "fc6"
top: "fc6"
}
layer {
name: "drop6"
type: "Dropout"
bottom: "fc6"
top: "fc6"
dropout_param {
dropout_ratio: 0.5
}
}
layer {
name: "fc7"
type: "InnerProduct"
bottom: "fc6"
top: "fc7"
param {
lr_mult: 1
decay_mult: 1
}
param {
lr_mult: 2
decay_mult: 0
}
inner_product_param {
num_output: 4096
weight_filler {
type: "gaussian"
std: 0.005
}
bias_filler {
type: "constant"
value: 0.1
}
}
}
layer {
name: "relu7"
type: "ReLU"
bottom: "fc7"
top: "fc7"
}
layer {
name: "drop7"
type: "Dropout"
bottom: "fc7"
top: "fc7"
dropout_param {
dropout_ratio: 0.5
}
}
layer {
name: "fc8_output"
type: "InnerProduct"
bottom: "fc7"
top: "fc8_output"
param {
lr_mult: 1
decay_mult: 1
}
param {
lr_mult: 2
decay_mult: 0
}
inner_product_param {
num_output: 2
weight_filler {
type: "gaussian"
std: 0.01
}
bias_filler {
type: "constant"
value: 0
}
}
}
layer {
name: "loss"
type: "SoftmaxWithLoss"
bottom: "fc8_output"
bottom: "label"
top: "loss"
}
I1127 14:44:48.098158  3860 layer_factory.hpp:77] Creating layer train-data
I1127 14:44:48.098667  3860 net.cpp:94] Creating Layer train-data
I1127 14:44:48.098682  3860 net.cpp:409] train-data -> data
I1127 14:44:48.098713  3860 net.cpp:409] train-data -> label
I1127 14:44:48.098731  3860 data_transformer.cpp:25] Loading mean file from: /media/myuser/120Gb/DIGITS/digits/jobs/20160917-133511-8c62/mean.binaryproto
I1127 14:44:48.114047  3867 db_lmdb.cpp:35] Opened lmdb /media/myuser/120Gb/DIGITS/digits/jobs/20160917-133511-8c62/train_db
I1127 14:44:48.125674  3860 data_layer.cpp:76] output data size: 128,3,227,227
I1127 14:44:48.394974  3860 net.cpp:144] Setting up train-data
I1127 14:44:48.395017  3860 net.cpp:151] Top shape: 128 3 227 227 (19787136)
I1127 14:44:48.395030  3860 net.cpp:151] Top shape: 128 (128)
I1127 14:44:48.395037  3860 net.cpp:159] Memory required for data: 79149056
I1127 14:44:48.395052  3860 layer_factory.hpp:77] Creating layer conv1
I1127 14:44:48.395082  3860 net.cpp:94] Creating Layer conv1
I1127 14:44:48.395092  3860 net.cpp:435] conv1 <- data
I1127 14:44:48.395110  3860 net.cpp:409] conv1 -> conv1
I1127 14:44:52.935287  3860 net.cpp:144] Setting up conv1
I1127 14:44:52.935356  3860 net.cpp:151] Top shape: 128 96 55 55 (37171200)
I1127 14:44:52.935366  3860 net.cpp:159] Memory required for data: 227833856
I1127 14:44:52.935400  3860 layer_factory.hpp:77] Creating layer relu1
I1127 14:44:52.935425  3860 net.cpp:94] Creating Layer relu1
I1127 14:44:52.935434  3860 net.cpp:435] relu1 <- conv1
I1127 14:44:52.935447  3860 net.cpp:396] relu1 -> conv1 (in-place)
I1127 14:44:52.935498  3860 net.cpp:144] Setting up relu1
I1127 14:44:52.935508  3860 net.cpp:151] Top shape: 128 96 55 55 (37171200)
I1127 14:44:52.935515  3860 net.cpp:159] Memory required for data: 376518656
I1127 14:44:52.935523  3860 layer_factory.hpp:77] Creating layer norm1
I1127 14:44:52.935542  3860 net.cpp:94] Creating Layer norm1
I1127 14:44:52.935550  3860 net.cpp:435] norm1 <- conv1
I1127 14:44:52.935607  3860 net.cpp:409] norm1 -> norm1
I1127 14:44:52.935732  3860 net.cpp:144] Setting up norm1
I1127 14:44:52.935744  3860 net.cpp:151] Top shape: 128 96 55 55 (37171200)
I1127 14:44:52.935751  3860 net.cpp:159] Memory required for data: 525203456
I1127 14:44:52.935760  3860 layer_factory.hpp:77] Creating layer pool1
I1127 14:44:52.935775  3860 net.cpp:94] Creating Layer pool1
I1127 14:44:52.935782  3860 net.cpp:435] pool1 <- norm1
I1127 14:44:52.935793  3860 net.cpp:409] pool1 -> pool1
I1127 14:44:52.935863  3860 net.cpp:144] Setting up pool1
I1127 14:44:52.935873  3860 net.cpp:151] Top shape: 128 96 27 27 (8957952)
I1127 14:44:52.935881  3860 net.cpp:159] Memory required for data: 561035264
I1127 14:44:52.935889  3860 layer_factory.hpp:77] Creating layer conv2
I1127 14:44:52.935907  3860 net.cpp:94] Creating Layer conv2
I1127 14:44:52.935915  3860 net.cpp:435] conv2 <- pool1
I1127 14:44:52.935926  3860 net.cpp:409] conv2 -> conv2
I1127 14:44:53.056859  3860 net.cpp:144] Setting up conv2
I1127 14:44:53.056897  3860 net.cpp:151] Top shape: 128 256 27 27 (23887872)
I1127 14:44:53.056905  3860 net.cpp:159] Memory required for data: 656586752
I1127 14:44:53.056924  3860 layer_factory.hpp:77] Creating layer relu2
I1127 14:44:53.056939  3860 net.cpp:94] Creating Layer relu2
I1127 14:44:53.056947  3860 net.cpp:435] relu2 <- conv2
I1127 14:44:53.056957  3860 net.cpp:396] relu2 -> conv2 (in-place)
I1127 14:44:53.056974  3860 net.cpp:144] Setting up relu2
I1127 14:44:53.056983  3860 net.cpp:151] Top shape: 128 256 27 27 (23887872)
I1127 14:44:53.056989  3860 net.cpp:159] Memory required for data: 752138240
I1127 14:44:53.056996  3860 layer_factory.hpp:77] Creating layer norm2
I1127 14:44:53.057008  3860 net.cpp:94] Creating Layer norm2
I1127 14:44:53.057016  3860 net.cpp:435] norm2 <- conv2
I1127 14:44:53.057025  3860 net.cpp:409] norm2 -> norm2
I1127 14:44:53.057116  3860 net.cpp:144] Setting up norm2
I1127 14:44:53.057126  3860 net.cpp:151] Top shape: 128 256 27 27 (23887872)
I1127 14:44:53.057133  3860 net.cpp:159] Memory required for data: 847689728
I1127 14:44:53.057140  3860 layer_factory.hpp:77] Creating layer pool2
I1127 14:44:53.057155  3860 net.cpp:94] Creating Layer pool2
I1127 14:44:53.057163  3860 net.cpp:435] pool2 <- norm2
I1127 14:44:53.057173  3860 net.cpp:409] pool2 -> pool2
I1127 14:44:53.057214  3860 net.cpp:144] Setting up pool2
I1127 14:44:53.057224  3860 net.cpp:151] Top shape: 128 256 13 13 (5537792)
I1127 14:44:53.057231  3860 net.cpp:159] Memory required for data: 869840896
I1127 14:44:53.057240  3860 layer_factory.hpp:77] Creating layer conv3
I1127 14:44:53.057256  3860 net.cpp:94] Creating Layer conv3
I1127 14:44:53.057265  3860 net.cpp:435] conv3 <- pool2
I1127 14:44:53.057274  3860 net.cpp:409] conv3 -> conv3
I1127 14:44:53.234519  3860 net.cpp:144] Setting up conv3
I1127 14:44:53.234572  3860 net.cpp:151] Top shape: 128 384 13 13 (8306688)
I1127 14:44:53.234581  3860 net.cpp:159] Memory required for data: 903067648
I1127 14:44:53.234606  3860 layer_factory.hpp:77] Creating layer relu3
I1127 14:44:53.234625  3860 net.cpp:94] Creating Layer relu3
I1127 14:44:53.234634  3860 net.cpp:435] relu3 <- conv3
I1127 14:44:53.234645  3860 net.cpp:396] relu3 -> conv3 (in-place)
I1127 14:44:53.234663  3860 net.cpp:144] Setting up relu3
I1127 14:44:53.234673  3860 net.cpp:151] Top shape: 128 384 13 13 (8306688)
I1127 14:44:53.234679  3860 net.cpp:159] Memory required for data: 936294400
I1127 14:44:53.234688  3860 layer_factory.hpp:77] Creating layer conv4
I1127 14:44:53.234706  3860 net.cpp:94] Creating Layer conv4
I1127 14:44:53.234714  3860 net.cpp:435] conv4 <- conv3
I1127 14:44:53.234724  3860 net.cpp:409] conv4 -> conv4
I1127 14:44:53.326936  3860 net.cpp:144] Setting up conv4
I1127 14:44:53.326972  3860 net.cpp:151] Top shape: 128 384 13 13 (8306688)
I1127 14:44:53.326979  3860 net.cpp:159] Memory required for data: 969521152
I1127 14:44:53.326995  3860 layer_factory.hpp:77] Creating layer relu4
I1127 14:44:53.327009  3860 net.cpp:94] Creating Layer relu4
I1127 14:44:53.327018  3860 net.cpp:435] relu4 <- conv4
I1127 14:44:53.327055  3860 net.cpp:396] relu4 -> conv4 (in-place)
I1127 14:44:53.327072  3860 net.cpp:144] Setting up relu4
I1127 14:44:53.327081  3860 net.cpp:151] Top shape: 128 384 13 13 (8306688)
I1127 14:44:53.327087  3860 net.cpp:159] Memory required for data: 1002747904
I1127 14:44:53.327095  3860 layer_factory.hpp:77] Creating layer conv5
I1127 14:44:53.327112  3860 net.cpp:94] Creating Layer conv5
I1127 14:44:53.327119  3860 net.cpp:435] conv5 <- conv4
I1127 14:44:53.327129  3860 net.cpp:409] conv5 -> conv5
I1127 14:44:53.451647  3860 net.cpp:144] Setting up conv5
I1127 14:44:53.451684  3860 net.cpp:151] Top shape: 128 256 13 13 (5537792)
I1127 14:44:53.451692  3860 net.cpp:159] Memory required for data: 1024899072
I1127 14:44:53.451714  3860 layer_factory.hpp:77] Creating layer relu5
I1127 14:44:53.451728  3860 net.cpp:94] Creating Layer relu5
I1127 14:44:53.451737  3860 net.cpp:435] relu5 <- conv5
I1127 14:44:53.451748  3860 net.cpp:396] relu5 -> conv5 (in-place)
I1127 14:44:53.451764  3860 net.cpp:144] Setting up relu5
I1127 14:44:53.451773  3860 net.cpp:151] Top shape: 128 256 13 13 (5537792)
I1127 14:44:53.451781  3860 net.cpp:159] Memory required for data: 1047050240
I1127 14:44:53.451787  3860 layer_factory.hpp:77] Creating layer pool5
I1127 14:44:53.451800  3860 net.cpp:94] Creating Layer pool5
I1127 14:44:53.451807  3860 net.cpp:435] pool5 <- conv5
I1127 14:44:53.451817  3860 net.cpp:409] pool5 -> pool5
I1127 14:44:53.451902  3860 net.cpp:144] Setting up pool5
I1127 14:44:53.451912  3860 net.cpp:151] Top shape: 128 256 6 6 (1179648)
I1127 14:44:53.451920  3860 net.cpp:159] Memory required for data: 1051768832
I1127 14:44:53.451927  3860 layer_factory.hpp:77] Creating layer fc6
I1127 14:44:53.451951  3860 net.cpp:94] Creating Layer fc6
I1127 14:44:53.451958  3860 net.cpp:435] fc6 <- pool5
I1127 14:44:53.451968  3860 net.cpp:409] fc6 -> fc6
I1127 14:44:55.517210  3860 net.cpp:144] Setting up fc6
I1127 14:44:55.517247  3860 net.cpp:151] Top shape: 128 4096 (524288)
I1127 14:44:55.517256  3860 net.cpp:159] Memory required for data: 1053865984
I1127 14:44:55.517271  3860 layer_factory.hpp:77] Creating layer relu6
I1127 14:44:55.517287  3860 net.cpp:94] Creating Layer relu6
I1127 14:44:55.517295  3860 net.cpp:435] relu6 <- fc6
I1127 14:44:55.517307  3860 net.cpp:396] relu6 -> fc6 (in-place)
I1127 14:44:55.517323  3860 net.cpp:144] Setting up relu6
I1127 14:44:55.517331  3860 net.cpp:151] Top shape: 128 4096 (524288)
I1127 14:44:55.517338  3860 net.cpp:159] Memory required for data: 1055963136
I1127 14:44:55.517346  3860 layer_factory.hpp:77] Creating layer drop6
I1127 14:44:55.517357  3860 net.cpp:94] Creating Layer drop6
I1127 14:44:55.517365  3860 net.cpp:435] drop6 <- fc6
I1127 14:44:55.517374  3860 net.cpp:396] drop6 -> fc6 (in-place)
I1127 14:44:55.517402  3860 net.cpp:144] Setting up drop6
I1127 14:44:55.517412  3860 net.cpp:151] Top shape: 128 4096 (524288)
I1127 14:44:55.517419  3860 net.cpp:159] Memory required for data: 1058060288
I1127 14:44:55.517426  3860 layer_factory.hpp:77] Creating layer fc7
I1127 14:44:55.517438  3860 net.cpp:94] Creating Layer fc7
I1127 14:44:55.517446  3860 net.cpp:435] fc7 <- fc6
I1127 14:44:55.517457  3860 net.cpp:409] fc7 -> fc7
I1127 14:44:56.291386  3860 net.cpp:144] Setting up fc7
I1127 14:44:56.291426  3860 net.cpp:151] Top shape: 128 4096 (524288)
I1127 14:44:56.291445  3860 net.cpp:159] Memory required for data: 1060157440
I1127 14:44:56.291461  3860 layer_factory.hpp:77] Creating layer relu7
I1127 14:44:56.291476  3860 net.cpp:94] Creating Layer relu7
I1127 14:44:56.291486  3860 net.cpp:435] relu7 <- fc7
I1127 14:44:56.291497  3860 net.cpp:396] relu7 -> fc7 (in-place)
I1127 14:44:56.291514  3860 net.cpp:144] Setting up relu7
I1127 14:44:56.291523  3860 net.cpp:151] Top shape: 128 4096 (524288)
I1127 14:44:56.291530  3860 net.cpp:159] Memory required for data: 1062254592
I1127 14:44:56.291538  3860 layer_factory.hpp:77] Creating layer drop7
I1127 14:44:56.291549  3860 net.cpp:94] Creating Layer drop7
I1127 14:44:56.291574  3860 net.cpp:435] drop7 <- fc7
I1127 14:44:56.291605  3860 net.cpp:396] drop7 -> fc7 (in-place)
I1127 14:44:56.291631  3860 net.cpp:144] Setting up drop7
I1127 14:44:56.291640  3860 net.cpp:151] Top shape: 128 4096 (524288)
I1127 14:44:56.291647  3860 net.cpp:159] Memory required for data: 1064351744
I1127 14:44:56.291654  3860 layer_factory.hpp:77] Creating layer fc8_output
I1127 14:44:56.291666  3860 net.cpp:94] Creating Layer fc8_output
I1127 14:44:56.291683  3860 net.cpp:435] fc8_output <- fc7
I1127 14:44:56.291694  3860 net.cpp:409] fc8_output -> fc8_output
I1127 14:44:56.293725  3860 net.cpp:144] Setting up fc8_output
I1127 14:44:56.293756  3860 net.cpp:151] Top shape: 128 2 (256)
I1127 14:44:56.293776  3860 net.cpp:159] Memory required for data: 1064352768
I1127 14:44:56.293795  3860 layer_factory.hpp:77] Creating layer loss
I1127 14:44:56.293859  3860 net.cpp:94] Creating Layer loss
I1127 14:44:56.293869  3860 net.cpp:435] loss <- fc8_output
I1127 14:44:56.293879  3860 net.cpp:435] loss <- label
I1127 14:44:56.293901  3860 net.cpp:409] loss -> loss
I1127 14:44:56.293920  3860 layer_factory.hpp:77] Creating layer loss
…
I1127 14:44:56.295339  3860 net.cpp:323] The NetState phase (1) differed from the phase (0) specified by a rule in layer train-data
I1127 14:44:56.295594  3860 net.cpp:52] Initializing net from parameters:
state {
phase: TEST
}
layer {
name: "val-data"
type: "Data"
top: "data"
top: "label"
include {
phase: TEST
}
transform_param {
crop_size: 227
mean_file: "/media/myuser/120Gb/DIGITS/digits/jobs/20160917-133511-8c62/mean.binaryproto"
}
data_param {
source: "/media/myuser/120Gb/DIGITS/digits/jobs/20160917-133511-8c62/val_db"
batch_size: 32
backend: LMDB
}
}
layer {
name: "conv1"
type: "Convolution"
bottom: "data"
top: "conv1"
param {
lr_mult: 1
decay_mult: 1
}
param {
lr_mult: 2
decay_mult: 0
}
convolution_param {
num_output: 96
kernel_size: 11
stride: 4
weight_filler {
type: "gaussian"
std: 0.01
}
bias_filler {
type: "constant"
value: 0
}
}
}
layer {
name: "relu1"
type: "ReLU"
bottom: "conv1"
top: "conv1"
}
layer {
name: "norm1"
type: "LRN"
bottom: "conv1"
top: "norm1"
lrn_param {
local_size: 5
alpha: 0.0001
beta: 0.75
}
}
layer {
name: "pool1"
type: "Pooling"
bottom: "norm1"
top: "pool1"
pooling_param {
pool: MAX
kernel_size: 3
stride: 2
}
}
layer {
name: "conv2"
type: "Convolution"
bottom: "pool1"
top: "conv2"
param {
lr_mult: 1
decay_mult: 1
}
param {
lr_mult: 2
decay_mult: 0
}
convolution_param {
num_output: 256
pad: 2
kernel_size: 5
group: 2
weight_filler {
type: "gaussian"
std: 0.01
}
bias_filler {
type: "constant"
value: 0.1
}
}
}
layer {
name: "relu2"
type: "ReLU"
bottom: "conv2"
top: "conv2"
}
layer {
name: "norm2"
type: "LRN"
bottom: "conv2"
top: "norm2"
lrn_param {
local_size: 5
alpha: 0.0001
beta: 0.75
}
}
layer {
name: "pool2"
type: "Pooling"
bottom: "norm2"
top: "pool2"
pooling_param {
pool: MAX
kernel_size: 3
stride: 2
}
}
layer {
name: "conv3"
type: "Convolution"
bottom: "pool2"
top: "conv3"
param {
lr_mult: 1
decay_mult: 1
}
param {
lr_mult: 2
decay_mult: 0
}
convolution_param {
num_output: 384
pad: 1
kernel_size: 3
weight_filler {
type: "gaussian"
std: 0.01
}
bias_filler {
type: "constant"
value: 0
}
}
}
layer {
name: "relu3"
type: "ReLU"
bottom: "conv3"
top: "conv3"
}
layer {
name: "conv4"
type: "Convolution"
bottom: "conv3"
top: "conv4"
param {
lr_mult: 1
decay_mult: 1
}
param {
lr_mult: 2
decay_mult: 0
}
convolution_param {
num_output: 384
pad: 1
kernel_size: 3
group: 2
weight_filler {
type: "gaussian"
std: 0.01
}
bias_filler {
type: "constant"
value: 0.1
}
}
}
layer {
name: "relu4"
type: "ReLU"
bottom: "conv4"
top: "conv4"
}
layer {
name: "conv5"
type: "Convolution"
bottom: "conv4"
top: "conv5"
param {
lr_mult: 1
decay_mult: 1
}
param {
lr_mult: 2
decay_mult: 0
}
convolution_param {
num_output: 256
pad: 1
kernel_size: 3
group: 2
weight_filler {
type: "gaussian"
std: 0.01
}
bias_filler {
type: "constant"
value: 0.1
}
}
}
layer {
name: "relu5"
type: "ReLU"
bottom: "conv5"
top: "conv5"
}
layer {
name: "pool5"
type: "Pooling"
bottom: "conv5"
top: "pool5"
pooling_param {
pool: MAX
kernel_size: 3
stride: 2
}
}
layer {
name: "fc6"
type: "InnerProduct"
bottom: "pool5"
top: "fc6"
param {
lr_mult: 1
decay_mult: 1
}
param {
lr_mult: 2
decay_mult: 0
}
inner_product_param {
num_output: 4096
weight_filler {
type: "gaussian"
std: 0.005
}
bias_filler {
type: "constant"
value: 0.1
}
}
}
layer {
name: "relu6"
type: "ReLU"
bottom: "fc6"
top: "fc6"
}
layer {
name: "drop6"
type: "Dropout"
bottom: "fc6"
top: "fc6"
dropout_param {
dropout_ratio: 0.5
}
}
layer {
name: "fc7"
type: "InnerProduct"
bottom: "fc6"
top: "fc7"
param {
lr_mult: 1
decay_mult: 1
}
param {
lr_mult: 2
decay_mult: 0
}
inner_product_param {
num_output: 4096
weight_filler {
type: "gaussian"
std: 0.005
}
bias_filler {
type: "constant"
value: 0.1
}
}
}
layer {
name: "relu7"
type: "ReLU"
bottom: "fc7"
top: "fc7"
}
layer {
name: "drop7"
type: "Dropout"
bottom: "fc7"
top: "fc7"
dropout_param {
dropout_ratio: 0.5
}
}
layer {
name: "fc8_output"
type: "InnerProduct"
bottom: "fc7"
top: "fc8_output"
param {
lr_mult: 1
decay_mult: 1
}
param {
lr_mult: 2
decay_mult: 0
}
inner_product_param {
num_output: 2
weight_filler {
type: "gaussian"
std: 0.01
}
bias_filler {
type: "constant"
value: 0
}
}
}
layer {
name: "accuracy"
type: "Accuracy"
bottom: "fc8_output"
bottom: "label"
top: "accuracy"
include {
phase: TEST
}
}
layer {
name: "loss"
type: "SoftmaxWithLoss"
bottom: "fc8_output"
bottom: "label"
top: "loss"
}
I1127 14:44:56.296097  3860 layer_factory.hpp:77] Creating layer val-data
I1127 14:44:56.296802  3860 net.cpp:94] Creating Layer val-data
I1127 14:44:56.296823  3860 net.cpp:409] val-data -> data
I1127 14:44:56.296840  3860 net.cpp:409] val-data -> label
I1127 14:44:56.296854  3860 data_transformer.cpp:25] Loading mean file from: /media/myuser/120Gb/DIGITS/digits/jobs/20160917-133511-8c62/mean.binaryproto
I1127 14:44:56.311167  3871 db_lmdb.cpp:35] Opened lmdb /media/myuser/120Gb/DIGITS/digits/jobs/20160917-133511-8c62/val_db
I1127 14:44:56.320749  3860 data_layer.cpp:76] output data size: 32,3,227,227
I1127 14:44:56.390745  3860 net.cpp:144] Setting up val-data
I1127 14:44:56.390781  3860 net.cpp:151] Top shape: 32 3 227 227 (4946784)
I1127 14:44:56.390792  3860 net.cpp:151] Top shape: 32 (32)
I1127 14:44:56.390799  3860 net.cpp:159] Memory required for data: 19787264
I1127 14:44:56.390810  3860 layer_factory.hpp:77] Creating layer label_val-data_1_split
I1127 14:44:56.390828  3860 net.cpp:94] Creating Layer label_val-data_1_split
I1127 14:44:56.390837  3860 net.cpp:435] label_val-data_1_split <- label
I1127 14:44:56.390848  3860 net.cpp:409] label_val-data_1_split -> label_val-data_1_split_0
I1127 14:44:56.390863  3860 net.cpp:409] label_val-data_1_split -> label_val-data_1_split_1
I1127 14:44:56.390924  3860 net.cpp:144] Setting up label_val-data_1_split
I1127 14:44:56.390935  3860 net.cpp:151] Top shape: 32 (32)
I1127 14:44:56.390944  3860 net.cpp:151] Top shape: 32 (32)
I1127 14:44:56.390951  3860 net.cpp:159] Memory required for data: 19787520
I1127 14:44:56.390959  3860 layer_factory.hpp:77] Creating layer conv1
I1127 14:44:56.390977  3860 net.cpp:94] Creating Layer conv1
I1127 14:44:56.390985  3860 net.cpp:435] conv1 <- data
I1127 14:44:56.390996  3860 net.cpp:409] conv1 -> conv1
I1127 14:44:56.421087  3860 net.cpp:144] Setting up conv1
I1127 14:44:56.421123  3860 net.cpp:151] Top shape: 32 96 55 55 (9292800)
I1127 14:44:56.421131  3860 net.cpp:159] Memory required for data: 56958720
I1127 14:44:56.421151  3860 layer_factory.hpp:77] Creating layer relu1
I1127 14:44:56.421165  3860 net.cpp:94] Creating Layer relu1
I1127 14:44:56.421175  3860 net.cpp:435] relu1 <- conv1
I1127 14:44:56.421185  3860 net.cpp:396] relu1 -> conv1 (in-place)
I1127 14:44:56.421200  3860 net.cpp:144] Setting up relu1
I1127 14:44:56.421210  3860 net.cpp:151] Top shape: 32 96 55 55 (9292800)
I1127 14:44:56.421221  3860 net.cpp:159] Memory required for data: 94129920
I1127 14:44:56.421227  3860 layer_factory.hpp:77] Creating layer norm1
I1127 14:44:56.421241  3860 net.cpp:94] Creating Layer norm1
I1127 14:44:56.421249  3860 net.cpp:435] norm1 <- conv1
I1127 14:44:56.421258  3860 net.cpp:409] norm1 -> norm1
I1127 14:44:56.421351  3860 net.cpp:144] Setting up norm1
I1127 14:44:56.421361  3860 net.cpp:151] Top shape: 32 96 55 55 (9292800)
I1127 14:44:56.421370  3860 net.cpp:159] Memory required for data: 131301120
I1127 14:44:56.421376  3860 layer_factory.hpp:77] Creating layer pool1
I1127 14:44:56.421387  3860 net.cpp:94] Creating Layer pool1
I1127 14:44:56.421394  3860 net.cpp:435] pool1 <- norm1
I1127 14:44:56.421404  3860 net.cpp:409] pool1 -> pool1
I1127 14:44:56.421447  3860 net.cpp:144] Setting up pool1
I1127 14:44:56.421456  3860 net.cpp:151] Top shape: 32 96 27 27 (2239488)
I1127 14:44:56.421463  3860 net.cpp:159] Memory required for data: 140259072
I1127 14:44:56.421470  3860 layer_factory.hpp:77] Creating layer conv2
I1127 14:44:56.421486  3860 net.cpp:94] Creating Layer conv2
I1127 14:44:56.421509  3860 net.cpp:435] conv2 <- pool1
I1127 14:44:56.421520  3860 net.cpp:409] conv2 -> conv2
I1127 14:44:56.455842  3860 net.cpp:144] Setting up conv2
I1127 14:44:56.455878  3860 net.cpp:151] Top shape: 32 256 27 27 (5971968)
I1127 14:44:56.455885  3860 net.cpp:159] Memory required for data: 164146944
I1127 14:44:56.455904  3860 layer_factory.hpp:77] Creating layer relu2
I1127 14:44:56.455919  3860 net.cpp:94] Creating Layer relu2
I1127 14:44:56.455926  3860 net.cpp:435] relu2 <- conv2
I1127 14:44:56.455936  3860 net.cpp:396] relu2 -> conv2 (in-place)
I1127 14:44:56.455952  3860 net.cpp:144] Setting up relu2
I1127 14:44:56.455961  3860 net.cpp:151] Top shape: 32 256 27 27 (5971968)
I1127 14:44:56.455968  3860 net.cpp:159] Memory required for data: 188034816
I1127 14:44:56.455976  3860 layer_factory.hpp:77] Creating layer norm2
I1127 14:44:56.455991  3860 net.cpp:94] Creating Layer norm2
I1127 14:44:56.455998  3860 net.cpp:435] norm2 <- conv2
I1127 14:44:56.456008  3860 net.cpp:409] norm2 -> norm2
I1127 14:44:56.456097  3860 net.cpp:144] Setting up norm2
I1127 14:44:56.456107  3860 net.cpp:151] Top shape: 32 256 27 27 (5971968)
I1127 14:44:56.456115  3860 net.cpp:159] Memory required for data: 211922688
I1127 14:44:56.456122  3860 layer_factory.hpp:77] Creating layer pool2
I1127 14:44:56.456133  3860 net.cpp:94] Creating Layer pool2
I1127 14:44:56.456140  3860 net.cpp:435] pool2 <- norm2
I1127 14:44:56.456149  3860 net.cpp:409] pool2 -> pool2
I1127 14:44:56.456192  3860 net.cpp:144] Setting up pool2
I1127 14:44:56.456202  3860 net.cpp:151] Top shape: 32 256 13 13 (1384448)
I1127 14:44:56.456209  3860 net.cpp:159] Memory required for data: 217460480
I1127 14:44:56.456217  3860 layer_factory.hpp:77] Creating layer conv3
I1127 14:44:56.456233  3860 net.cpp:94] Creating Layer conv3
I1127 14:44:56.456240  3860 net.cpp:435] conv3 <- pool2
I1127 14:44:56.456250  3860 net.cpp:409] conv3 -> conv3
I1127 14:44:56.574563  3860 net.cpp:144] Setting up conv3
I1127 14:44:56.574597  3860 net.cpp:151] Top shape: 32 384 13 13 (2076672)
I1127 14:44:56.574605  3860 net.cpp:159] Memory required for data: 225767168
I1127 14:44:56.574625  3860 layer_factory.hpp:77] Creating layer relu3
I1127 14:44:56.574640  3860 net.cpp:94] Creating Layer relu3
I1127 14:44:56.574648  3860 net.cpp:435] relu3 <- conv3
I1127 14:44:56.574658  3860 net.cpp:396] relu3 -> conv3 (in-place)
I1127 14:44:56.574674  3860 net.cpp:144] Setting up relu3
I1127 14:44:56.574683  3860 net.cpp:151] Top shape: 32 384 13 13 (2076672)
I1127 14:44:56.574690  3860 net.cpp:159] Memory required for data: 234073856
I1127 14:44:56.574697  3860 layer_factory.hpp:77] Creating layer conv4
I1127 14:44:56.574714  3860 net.cpp:94] Creating Layer conv4
I1127 14:44:56.574722  3860 net.cpp:435] conv4 <- conv3
I1127 14:44:56.574733  3860 net.cpp:409] conv4 -> conv4
I1127 14:44:56.652724  3860 net.cpp:144] Setting up conv4
I1127 14:44:56.652760  3860 net.cpp:151] Top shape: 32 384 13 13 (2076672)
I1127 14:44:56.652767  3860 net.cpp:159] Memory required for data: 242380544
I1127 14:44:56.652783  3860 layer_factory.hpp:77] Creating layer relu4
I1127 14:44:56.652797  3860 net.cpp:94] Creating Layer relu4
I1127 14:44:56.652806  3860 net.cpp:435] relu4 <- conv4
I1127 14:44:56.652817  3860 net.cpp:396] relu4 -> conv4 (in-place)
I1127 14:44:56.652832  3860 net.cpp:144] Setting up relu4
I1127 14:44:56.652842  3860 net.cpp:151] Top shape: 32 384 13 13 (2076672)
I1127 14:44:56.652848  3860 net.cpp:159] Memory required for data: 250687232
I1127 14:44:56.652855  3860 layer_factory.hpp:77] Creating layer conv5
I1127 14:44:56.652873  3860 net.cpp:94] Creating Layer conv5
I1127 14:44:56.652879  3860 net.cpp:435] conv5 <- conv4
I1127 14:44:56.652890  3860 net.cpp:409] conv5 -> conv5
I1127 14:44:56.713148  3860 net.cpp:144] Setting up conv5
I1127 14:44:56.713179  3860 net.cpp:151] Top shape: 32 256 13 13 (1384448)
I1127 14:44:56.713188  3860 net.cpp:159] Memory required for data: 256225024
I1127 14:44:56.713210  3860 layer_factory.hpp:77] Creating layer relu5
I1127 14:44:56.713225  3860 net.cpp:94] Creating Layer relu5
I1127 14:44:56.713251  3860 net.cpp:435] relu5 <- conv5
I1127 14:44:56.713263  3860 net.cpp:396] relu5 -> conv5 (in-place)
I1127 14:44:56.713277  3860 net.cpp:144] Setting up relu5
I1127 14:44:56.713286  3860 net.cpp:151] Top shape: 32 256 13 13 (1384448)
I1127 14:44:56.713294  3860 net.cpp:159] Memory required for data: 261762816
I1127 14:44:56.713300  3860 layer_factory.hpp:77] Creating layer pool5
I1127 14:44:56.713316  3860 net.cpp:94] Creating Layer pool5
I1127 14:44:56.713325  3860 net.cpp:435] pool5 <- conv5
I1127 14:44:56.713335  3860 net.cpp:409] pool5 -> pool5
I1127 14:44:56.713413  3860 net.cpp:144] Setting up pool5
I1127 14:44:56.713423  3860 net.cpp:151] Top shape: 32 256 6 6 (294912)
I1127 14:44:56.713430  3860 net.cpp:159] Memory required for data: 262942464
I1127 14:44:56.713438  3860 layer_factory.hpp:77] Creating layer fc6
I1127 14:44:56.713450  3860 net.cpp:94] Creating Layer fc6
I1127 14:44:56.713457  3860 net.cpp:435] fc6 <- pool5
I1127 14:44:56.713467  3860 net.cpp:409] fc6 -> fc6
I1127 14:44:58.810890  3860 net.cpp:144] Setting up fc6
I1127 14:44:58.810935  3860 net.cpp:151] Top shape: 32 4096 (131072)
I1127 14:44:58.810943  3860 net.cpp:159] Memory required for data: 263466752
I1127 14:44:58.810958  3860 layer_factory.hpp:77] Creating layer relu6
I1127 14:44:58.810974  3860 net.cpp:94] Creating Layer relu6
I1127 14:44:58.810984  3860 net.cpp:435] relu6 <- fc6
I1127 14:44:58.810995  3860 net.cpp:396] relu6 -> fc6 (in-place)
I1127 14:44:58.811013  3860 net.cpp:144] Setting up relu6
I1127 14:44:58.811022  3860 net.cpp:151] Top shape: 32 4096 (131072)
I1127 14:44:58.811029  3860 net.cpp:159] Memory required for data: 263991040
I1127 14:44:58.811036  3860 layer_factory.hpp:77] Creating layer drop6
I1127 14:44:58.811049  3860 net.cpp:94] Creating Layer drop6
I1127 14:44:58.811056  3860 net.cpp:435] drop6 <- fc6
I1127 14:44:58.811066  3860 net.cpp:396] drop6 -> fc6 (in-place)
I1127 14:44:58.811100  3860 net.cpp:144] Setting up drop6
I1127 14:44:58.811110  3860 net.cpp:151] Top shape: 32 4096 (131072)
I1127 14:44:58.811117  3860 net.cpp:159] Memory required for data: 264515328
I1127 14:44:58.811125  3860 layer_factory.hpp:77] Creating layer fc7
I1127 14:44:58.811139  3860 net.cpp:94] Creating Layer fc7
I1127 14:44:58.811146  3860 net.cpp:435] fc7 <- fc6
I1127 14:44:58.811157  3860 net.cpp:409] fc7 -> fc7
I1127 14:44:59.582042  3860 net.cpp:144] Setting up fc7
I1127 14:44:59.582080  3860 net.cpp:151] Top shape: 32 4096 (131072)
I1127 14:44:59.582089  3860 net.cpp:159] Memory required for data: 265039616
I1127 14:44:59.582104  3860 layer_factory.hpp:77] Creating layer relu7
I1127 14:44:59.582119  3860 net.cpp:94] Creating Layer relu7
I1127 14:44:59.582129  3860 net.cpp:435] relu7 <- fc7
I1127 14:44:59.582141  3860 net.cpp:396] relu7 -> fc7 (in-place)
I1127 14:44:59.582159  3860 net.cpp:144] Setting up relu7
I1127 14:44:59.582167  3860 net.cpp:151] Top shape: 32 4096 (131072)
I1127 14:44:59.582175  3860 net.cpp:159] Memory required for data: 265563904
I1127 14:44:59.582181  3860 layer_factory.hpp:77] Creating layer drop7
I1127 14:44:59.582193  3860 net.cpp:94] Creating Layer drop7
I1127 14:44:59.582201  3860 net.cpp:435] drop7 <- fc7
I1127 14:44:59.582211  3860 net.cpp:396] drop7 -> fc7 (in-place)
I1127 14:44:59.582245  3860 net.cpp:144] Setting up drop7
I1127 14:44:59.582254  3860 net.cpp:151] Top shape: 32 4096 (131072)
I1127 14:44:59.582262  3860 net.cpp:159] Memory required for data: 266088192
I1127 14:44:59.582269  3860 layer_factory.hpp:77] Creating layer fc8_output
I1127 14:44:59.582283  3860 net.cpp:94] Creating Layer fc8_output
I1127 14:44:59.582291  3860 net.cpp:435] fc8_output <- fc7
I1127 14:44:59.582301  3860 net.cpp:409] fc8_output -> fc8_output
I1127 14:44:59.582773  3860 net.cpp:144] Setting up fc8_output
I1127 14:44:59.582784  3860 net.cpp:151] Top shape: 32 2 (64)
I1127 14:44:59.582792  3860 net.cpp:159] Memory required for data: 266088448
I1127 14:44:59.582803  3860 layer_factory.hpp:77] Creating layer fc8_output_fc8_output_0_split
I1127 14:44:59.582813  3860 net.cpp:94] Creating Layer fc8_output_fc8_output_0_split
I1127 14:44:59.582854  3860 net.cpp:435] fc8_output_fc8_output_0_split <- fc8_output
I1127 14:44:59.582864  3860 net.cpp:409] fc8_output_fc8_output_0_split -> fc8_output_fc8_output_0_split_0
I1127 14:44:59.582875  3860 net.cpp:409] fc8_output_fc8_output_0_split -> fc8_output_fc8_output_0_split_1
I1127 14:44:59.582919  3860 net.cpp:144] Setting up fc8_output_fc8_output_0_split
I1127 14:44:59.582928  3860 net.cpp:151] Top shape: 32 2 (64)
I1127 14:44:59.582937  3860 net.cpp:151] Top shape: 32 2 (64)
I1127 14:44:59.582944  3860 net.cpp:159] Memory required for data: 266088960
I1127 14:44:59.582952  3860 layer_factory.hpp:77] Creating layer accuracy
I1127 14:44:59.582962  3860 net.cpp:94] Creating Layer accuracy
I1127 14:44:59.582970  3860 net.cpp:435] accuracy <- fc8_output_fc8_output_0_split_0
I1127 14:44:59.582978  3860 net.cpp:435] accuracy <- label_val-data_1_split_0
I1127 14:44:59.582988  3860 net.cpp:409] accuracy -> accuracy
…
