…
I1129 15:37:54.350749  4463 net.cpp:323] The NetState phase (0) differed from the phase (1) specified by a rule in layer accuracy
I1129 15:37:54.351847  4463 net.cpp:52] Initializing net from parameters:
state {
phase: TRAIN
}
layer {
name: "train-data"
type: "Data"
top: "data"
top: "label"
include {
phase: TRAIN
}
transform_param {
mirror: true
crop_size: 224
mean_file: "/media/myuser/120Gb/DIGITS/digits/jobs/20161129-134034-22c4/mean.binaryproto"
}
data_param {
source: "/media/myuser/120Gb/DIGITS/digits/jobs/20161129-134034-22c4/train_db"
batch_size: 128
backend: LMDB
}
}
layer {
name: "conv1"
type: "Convolution"
bottom: "data"
top: "conv1"
param {
lr_mult: 1
decay_mult: 1
}
param {
lr_mult: 2
decay_mult: 0
}
convolution_param {
num_output: 96
kernel_size: 11
stride: 4
weight_filler {
type: "gaussian"
mean: 0
std: 0.01
}
bias_filler {
type: "constant"
value: 0
}
}
}
layer {
name: "relu0"
type: "ReLU"
bottom: "conv1"
top: "conv1"
}
layer {
name: "cccp1"
type: "Convolution"
bottom: "conv1"
top: "cccp1"
param {
lr_mult: 1
decay_mult: 1
}
param {
lr_mult: 2
decay_mult: 0
}
convolution_param {
num_output: 96
kernel_size: 1
stride: 1
weight_filler {
type: "gaussian"
mean: 0
std: 0.05
}
bias_filler {
type: "constant"
value: 0
}
}
}
layer {
name: "relu1"
type: "ReLU"
bottom: "cccp1"
top: "cccp1"
}
layer {
name: "cccp2"
type: "Convolution"
bottom: "cccp1"
top: "cccp2"
param {
lr_mult: 1
decay_mult: 1
}
param {
lr_mult: 2
decay_mult: 0
}
convolution_param {
num_output: 96
kernel_size: 1
stride: 1
weight_filler {
type: "gaussian"
mean: 0
std: 0.05
}
bias_filler {
type: "constant"
value: 0
}
}
}
layer {
name: "relu2"
type: "ReLU"
bottom: "cccp2"
top: "cccp2"
}
layer {
name: "pool0"
type: "Pooling"
bottom: "cccp2"
top: "pool0"
pooling_param {
pool: MAX
kernel_size: 3
stride: 2
}
}
layer {
name: "conv2"
type: "Convolution"
bottom: "pool0"
top: "conv2"
param {
lr_mult: 1
decay_mult: 1
}
param {
lr_mult: 2
decay_mult: 0
}
convolution_param {
num_output: 256
pad: 2
kernel_size: 5
stride: 1
weight_filler {
type: "gaussian"
mean: 0
std: 0.05
}
bias_filler {
type: "constant"
value: 0
}
}
}
layer {
name: "relu3"
type: "ReLU"
bottom: "conv2"
top: "conv2"
}
layer {
name: "cccp3"
type: "Convolution"
bottom: "conv2"
top: "cccp3"
param {
lr_mult: 1
decay_mult: 1
}
param {
lr_mult: 2
decay_mult: 0
}
convolution_param {
num_output: 256
kernel_size: 1
stride: 1
weight_filler {
type: "gaussian"
mean: 0
std: 0.05
}
bias_filler {
type: "constant"
value: 0
}
}
}
layer {
name: "relu5"
type: "ReLU"
bottom: "cccp3"
top: "cccp3"
}
layer {
name: "cccp4"
type: "Convolution"
bottom: "cccp3"
top: "cccp4"
param {
lr_mult: 1
decay_mult: 1
}
param {
lr_mult: 2
decay_mult: 0
}
convolution_param {
num_output: 256
kernel_size: 1
stride: 1
weight_filler {
type: "gaussian"
mean: 0
std: 0.05
}
bias_filler {
type: "constant"
value: 0
}
}
}
layer {
name: "relu6"
type: "ReLU"
bottom: "cccp4"
top: "cccp4"
}
layer {
name: "pool2"
type: "Pooling"
bottom: "cccp4"
top: "pool2"
pooling_param {
pool: MAX
kernel_size: 3
stride: 2
}
}
layer {
name: "conv3"
type: "Convolution"
bottom: "pool2"
top: "conv3"
param {
lr_mult: 1
decay_mult: 1
}
param {
lr_mult: 2
decay_mult: 0
}
convolution_param {
num_output: 384
pad: 1
kernel_size: 3
stride: 1
weight_filler {
type: "gaussian"
mean: 0
std: 0.01
}
bias_filler {
type: "constant"
value: 0
}
}
}
layer {
name: "relu7"
type: "ReLU"
bottom: "conv3"
top: "conv3"
}
layer {
name: "cccp5"
type: "Convolution"
bottom: "conv3"
top: "cccp5"
param {
lr_mult: 1
decay_mult: 1
}
param {
lr_mult: 2
decay_mult: 0
}
convolution_param {
num_output: 384
kernel_size: 1
stride: 1
weight_filler {
type: "gaussian"
mean: 0
std: 0.05
}
bias_filler {
type: "constant"
value: 0
}
}
}
layer {
name: "relu8"
type: "ReLU"
bottom: "cccp5"
top: "cccp5"
}
layer {
name: "cccp6"
type: "Convolution"
bottom: "cccp5"
top: "cccp6"
param {
lr_mult: 1
decay_mult: 1
}
param {
lr_mult: 2
decay_mult: 0
}
convolution_param {
num_output: 384
kernel_size: 1
stride: 1
weight_filler {
type: "gaussian"
mean: 0
std: 0.05
}
bias_filler {
type: "constant"
value: 0
}
}
}
layer {
name: "relu9"
type: "ReLU"
bottom: "cccp6"
top: "cccp6"
}
layer {
name: "pool3"
type: "Pooling"
bottom: "cccp6"
top: "pool3"
pooling_param {
pool: MAX
kernel_size: 3
stride: 2
}
}
layer {
name: "drop"
type: "Dropout"
bottom: "pool3"
top: "pool3"
dropout_param {
dropout_ratio: 0.5
}
}
layer {
name: "conv4-1024"
type: "Convolution"
bottom: "pool3"
top: "conv4"
param {
lr_mult: 1
decay_mult: 1
}
param {
lr_mult: 2
decay_mult: 0
}
convolution_param {
num_output: 1024
pad: 1
kernel_size: 3
stride: 1
weight_filler {
type: "gaussian"
mean: 0
std: 0.05
}
bias_filler {
type: "constant"
value: 0
}
}
}
layer {
name: "relu10"
type: "ReLU"
bottom: "conv4"
top: "conv4"
}
layer {
name: "cccp7-1024"
type: "Convolution"
bottom: "conv4"
top: "cccp7"
param {
lr_mult: 1
decay_mult: 1
}
param {
lr_mult: 2
decay_mult: 0
}
convolution_param {
num_output: 1024
kernel_size: 1
stride: 1
weight_filler {
type: "gaussian"
mean: 0
std: 0.05
}
bias_filler {
type: "constant"
value: 0
}
}
}
layer {
name: "relu11"
type: "ReLU"
bottom: "cccp7"
top: "cccp7"
}
layer {
name: "cccp8_output"
type: "Convolution"
bottom: "cccp7"
top: "cccp8_output"
param {
lr_mult: 1
decay_mult: 1
}
param {
lr_mult: 2
decay_mult: 0
}
convolution_param {
num_output: 2
kernel_size: 1
stride: 1
weight_filler {
type: "gaussian"
mean: 0
std: 0.01
}
bias_filler {
type: "constant"
value: 0
}
}
}
layer {
name: "relu12"
type: "ReLU"
bottom: "cccp8_output"
top: "cccp8_output"
}
layer {
name: "pool4"
type: "Pooling"
bottom: "cccp8_output"
top: "pool4"
pooling_param {
pool: AVE
kernel_size: 6
stride: 1
}
}
layer {
name: "loss"
type: "SoftmaxWithLoss"
bottom: "pool4"
bottom: "label"
top: "loss"
}
I1129 15:37:54.352011  4463 layer_factory.hpp:77] Creating layer train-data
I1129 15:37:54.358021  4463 net.cpp:94] Creating Layer train-data
I1129 15:37:54.358037  4463 net.cpp:409] train-data -> data
I1129 15:37:54.358067  4463 net.cpp:409] train-data -> label
I1129 15:37:54.359244  4470 db_lmdb.cpp:35] Opened lmdb /media/myuser/120Gb/DIGITS/digits/jobs/20161129-134034-22c4/train_db
I1129 15:37:54.368047  4463 data_transformer.cpp:25] Loading mean file from: /media/myuser/120Gb/DIGITS/digits/jobs/20161129-134034-22c4/mean.binaryproto
I1129 15:37:54.378975  4463 data_layer.cpp:76] output data size: 128,3,224,224
I1129 15:37:54.634932  4463 net.cpp:144] Setting up train-data
I1129 15:37:54.634975  4463 net.cpp:151] Top shape: 128 3 224 224 (19267584)
I1129 15:37:54.634986  4463 net.cpp:151] Top shape: 128 (128)
I1129 15:37:54.634994  4463 net.cpp:159] Memory required for data: 77070848
I1129 15:37:54.635010  4463 layer_factory.hpp:77] Creating layer conv1
I1129 15:37:54.635040  4463 net.cpp:94] Creating Layer conv1
I1129 15:37:54.635049  4463 net.cpp:435] conv1 <- data
I1129 15:37:54.635067  4463 net.cpp:409] conv1 -> conv1
I1129 15:37:59.103929  4463 net.cpp:144] Setting up conv1
I1129 15:37:59.103977  4463 net.cpp:151] Top shape: 128 96 54 54 (35831808)
I1129 15:37:59.103986  4463 net.cpp:159] Memory required for data: 220398080
I1129 15:37:59.104012  4463 layer_factory.hpp:77] Creating layer relu0
I1129 15:37:59.104032  4463 net.cpp:94] Creating Layer relu0
I1129 15:37:59.104041  4463 net.cpp:435] relu0 <- conv1
I1129 15:37:59.104053  4463 net.cpp:396] relu0 -> conv1 (in-place)
I1129 15:37:59.105353  4463 net.cpp:144] Setting up relu0
I1129 15:37:59.105365  4463 net.cpp:151] Top shape: 128 96 54 54 (35831808)
I1129 15:37:59.105372  4463 net.cpp:159] Memory required for data: 363725312
I1129 15:37:59.105379  4463 layer_factory.hpp:77] Creating layer cccp1
I1129 15:37:59.105399  4463 net.cpp:94] Creating Layer cccp1
I1129 15:37:59.105406  4463 net.cpp:435] cccp1 <- conv1
I1129 15:37:59.105417  4463 net.cpp:409] cccp1 -> cccp1
I1129 15:37:59.211621  4463 net.cpp:144] Setting up cccp1
I1129 15:37:59.211663  4463 net.cpp:151] Top shape: 128 96 54 54 (35831808)
I1129 15:37:59.211671  4463 net.cpp:159] Memory required for data: 507052544
I1129 15:37:59.211693  4463 layer_factory.hpp:77] Creating layer relu1
I1129 15:37:59.211711  4463 net.cpp:94] Creating Layer relu1
I1129 15:37:59.211720  4463 net.cpp:435] relu1 <- cccp1
I1129 15:37:59.211731  4463 net.cpp:396] relu1 -> cccp1 (in-place)
I1129 15:37:59.211750  4463 net.cpp:144] Setting up relu1
I1129 15:37:59.211760  4463 net.cpp:151] Top shape: 128 96 54 54 (35831808)
I1129 15:37:59.211767  4463 net.cpp:159] Memory required for data: 650379776
I1129 15:37:59.211774  4463 layer_factory.hpp:77] Creating layer cccp2
I1129 15:37:59.211794  4463 net.cpp:94] Creating Layer cccp2
I1129 15:37:59.211802  4463 net.cpp:435] cccp2 <- cccp1
I1129 15:37:59.211814  4463 net.cpp:409] cccp2 -> cccp2
I1129 15:37:59.284389  4463 net.cpp:144] Setting up cccp2
I1129 15:37:59.284423  4463 net.cpp:151] Top shape: 128 96 54 54 (35831808)
I1129 15:37:59.284431  4463 net.cpp:159] Memory required for data: 793707008
I1129 15:37:59.284451  4463 layer_factory.hpp:77] Creating layer relu2
I1129 15:37:59.284464  4463 net.cpp:94] Creating Layer relu2
I1129 15:37:59.284473  4463 net.cpp:435] relu2 <- cccp2
I1129 15:37:59.284484  4463 net.cpp:396] relu2 -> cccp2 (in-place)
I1129 15:37:59.284499  4463 net.cpp:144] Setting up relu2
I1129 15:37:59.284508  4463 net.cpp:151] Top shape: 128 96 54 54 (35831808)
I1129 15:37:59.284514  4463 net.cpp:159] Memory required for data: 937034240
I1129 15:37:59.284521  4463 layer_factory.hpp:77] Creating layer pool0
I1129 15:37:59.284536  4463 net.cpp:94] Creating Layer pool0
I1129 15:37:59.284544  4463 net.cpp:435] pool0 <- cccp2
I1129 15:37:59.284554  4463 net.cpp:409] pool0 -> pool0
I1129 15:37:59.290915  4463 net.cpp:144] Setting up pool0
I1129 15:37:59.290951  4463 net.cpp:151] Top shape: 128 96 27 27 (8957952)
I1129 15:37:59.290958  4463 net.cpp:159] Memory required for data: 972866048
I1129 15:37:59.290968  4463 layer_factory.hpp:77] Creating layer conv2
I1129 15:37:59.291024  4463 net.cpp:94] Creating Layer conv2
I1129 15:37:59.291033  4463 net.cpp:435] conv2 <- pool0
I1129 15:37:59.291046  4463 net.cpp:409] conv2 -> conv2
I1129 15:37:59.660145  4463 net.cpp:144] Setting up conv2
I1129 15:37:59.660183  4463 net.cpp:151] Top shape: 128 256 27 27 (23887872)
I1129 15:37:59.660192  4463 net.cpp:159] Memory required for data: 1068417536
I1129 15:37:59.660267  4463 layer_factory.hpp:77] Creating layer relu3
I1129 15:37:59.660285  4463 net.cpp:94] Creating Layer relu3
I1129 15:37:59.660295  4463 net.cpp:435] relu3 <- conv2
I1129 15:37:59.660306  4463 net.cpp:396] relu3 -> conv2 (in-place)
I1129 15:37:59.660325  4463 net.cpp:144] Setting up relu3
I1129 15:37:59.660333  4463 net.cpp:151] Top shape: 128 256 27 27 (23887872)
I1129 15:37:59.660341  4463 net.cpp:159] Memory required for data: 1163969024
I1129 15:37:59.660348  4463 layer_factory.hpp:77] Creating layer cccp3
I1129 15:37:59.660367  4463 net.cpp:94] Creating Layer cccp3
I1129 15:37:59.660374  4463 net.cpp:435] cccp3 <- conv2
I1129 15:37:59.660385  4463 net.cpp:409] cccp3 -> cccp3
I1129 15:37:59.706924  4463 net.cpp:144] Setting up cccp3
I1129 15:37:59.706961  4463 net.cpp:151] Top shape: 128 256 27 27 (23887872)
I1129 15:37:59.706969  4463 net.cpp:159] Memory required for data: 1259520512
I1129 15:37:59.706992  4463 layer_factory.hpp:77] Creating layer relu5
I1129 15:37:59.707008  4463 net.cpp:94] Creating Layer relu5
I1129 15:37:59.707017  4463 net.cpp:435] relu5 <- cccp3
I1129 15:37:59.707028  4463 net.cpp:396] relu5 -> cccp3 (in-place)
I1129 15:37:59.707044  4463 net.cpp:144] Setting up relu5
I1129 15:37:59.707053  4463 net.cpp:151] Top shape: 128 256 27 27 (23887872)
I1129 15:37:59.707060  4463 net.cpp:159] Memory required for data: 1355072000
I1129 15:37:59.707067  4463 layer_factory.hpp:77] Creating layer cccp4
I1129 15:37:59.707084  4463 net.cpp:94] Creating Layer cccp4
I1129 15:37:59.707093  4463 net.cpp:435] cccp4 <- cccp3
I1129 15:37:59.707103  4463 net.cpp:409] cccp4 -> cccp4
I1129 15:37:59.751330  4463 net.cpp:144] Setting up cccp4
I1129 15:37:59.751370  4463 net.cpp:151] Top shape: 128 256 27 27 (23887872)
I1129 15:37:59.751379  4463 net.cpp:159] Memory required for data: 1450623488
I1129 15:37:59.751396  4463 layer_factory.hpp:77] Creating layer relu6
I1129 15:37:59.751412  4463 net.cpp:94] Creating Layer relu6
I1129 15:37:59.751421  4463 net.cpp:435] relu6 <- cccp4
I1129 15:37:59.751432  4463 net.cpp:396] relu6 -> cccp4 (in-place)
I1129 15:37:59.751449  4463 net.cpp:144] Setting up relu6
I1129 15:37:59.751458  4463 net.cpp:151] Top shape: 128 256 27 27 (23887872)
I1129 15:37:59.751466  4463 net.cpp:159] Memory required for data: 1546174976
I1129 15:37:59.751472  4463 layer_factory.hpp:77] Creating layer pool2
I1129 15:37:59.751484  4463 net.cpp:94] Creating Layer pool2
I1129 15:37:59.751492  4463 net.cpp:435] pool2 <- cccp4
I1129 15:37:59.751502  4463 net.cpp:409] pool2 -> pool2
I1129 15:37:59.751590  4463 net.cpp:144] Setting up pool2
I1129 15:37:59.751600  4463 net.cpp:151] Top shape: 128 256 13 13 (5537792)
I1129 15:37:59.751606  4463 net.cpp:159] Memory required for data: 1568326144
I1129 15:37:59.751613  4463 layer_factory.hpp:77] Creating layer conv3
I1129 15:37:59.751629  4463 net.cpp:94] Creating Layer conv3
I1129 15:37:59.751637  4463 net.cpp:435] conv3 <- pool2
I1129 15:37:59.751647  4463 net.cpp:409] conv3 -> conv3
I1129 15:37:59.916249  4463 net.cpp:144] Setting up conv3
I1129 15:37:59.916285  4463 net.cpp:151] Top shape: 128 384 13 13 (8306688)
I1129 15:37:59.916296  4463 net.cpp:159] Memory required for data: 1601552896
I1129 15:37:59.916318  4463 layer_factory.hpp:77] Creating layer relu7
I1129 15:37:59.916345  4463 net.cpp:94] Creating Layer relu7
I1129 15:37:59.916354  4463 net.cpp:435] relu7 <- conv3
I1129 15:37:59.916365  4463 net.cpp:396] relu7 -> conv3 (in-place)
I1129 15:37:59.916381  4463 net.cpp:144] Setting up relu7
I1129 15:37:59.916390  4463 net.cpp:151] Top shape: 128 384 13 13 (8306688)
I1129 15:37:59.916398  4463 net.cpp:159] Memory required for data: 1634779648
I1129 15:37:59.916432  4463 layer_factory.hpp:77] Creating layer cccp5
I1129 15:37:59.916450  4463 net.cpp:94] Creating Layer cccp5
I1129 15:37:59.916456  4463 net.cpp:435] cccp5 <- conv3
I1129 15:37:59.916467  4463 net.cpp:409] cccp5 -> cccp5
I1129 15:37:59.944562  4463 net.cpp:144] Setting up cccp5
I1129 15:37:59.944599  4463 net.cpp:151] Top shape: 128 384 13 13 (8306688)
I1129 15:37:59.944612  4463 net.cpp:159] Memory required for data: 1668006400
I1129 15:37:59.944633  4463 layer_factory.hpp:77] Creating layer relu8
I1129 15:37:59.944651  4463 net.cpp:94] Creating Layer relu8
I1129 15:37:59.944666  4463 net.cpp:435] relu8 <- cccp5
I1129 15:37:59.944676  4463 net.cpp:396] relu8 -> cccp5 (in-place)
I1129 15:37:59.944691  4463 net.cpp:144] Setting up relu8
I1129 15:37:59.944710  4463 net.cpp:151] Top shape: 128 384 13 13 (8306688)
I1129 15:37:59.944716  4463 net.cpp:159] Memory required for data: 1701233152
I1129 15:37:59.944723  4463 layer_factory.hpp:77] Creating layer cccp6
I1129 15:37:59.944738  4463 net.cpp:94] Creating Layer cccp6
I1129 15:37:59.944746  4463 net.cpp:435] cccp6 <- cccp5
I1129 15:37:59.944756  4463 net.cpp:409] cccp6 -> cccp6
I1129 15:37:59.972867  4463 net.cpp:144] Setting up cccp6
I1129 15:37:59.972895  4463 net.cpp:151] Top shape: 128 384 13 13 (8306688)
I1129 15:37:59.972908  4463 net.cpp:159] Memory required for data: 1734459904
I1129 15:37:59.972934  4463 layer_factory.hpp:77] Creating layer relu9
I1129 15:37:59.972951  4463 net.cpp:94] Creating Layer relu9
I1129 15:37:59.972968  4463 net.cpp:435] relu9 <- cccp6
I1129 15:37:59.972978  4463 net.cpp:396] relu9 -> cccp6 (in-place)
I1129 15:37:59.972991  4463 net.cpp:144] Setting up relu9
I1129 15:37:59.973001  4463 net.cpp:151] Top shape: 128 384 13 13 (8306688)
I1129 15:37:59.973007  4463 net.cpp:159] Memory required for data: 1767686656
I1129 15:37:59.973014  4463 layer_factory.hpp:77] Creating layer pool3
I1129 15:37:59.973026  4463 net.cpp:94] Creating Layer pool3
I1129 15:37:59.973032  4463 net.cpp:435] pool3 <- cccp6
I1129 15:37:59.973042  4463 net.cpp:409] pool3 -> pool3
I1129 15:37:59.973094  4463 net.cpp:144] Setting up pool3
I1129 15:37:59.973104  4463 net.cpp:151] Top shape: 128 384 6 6 (1769472)
I1129 15:37:59.973111  4463 net.cpp:159] Memory required for data: 1774764544
I1129 15:37:59.973119  4463 layer_factory.hpp:77] Creating layer drop
I1129 15:37:59.973129  4463 net.cpp:94] Creating Layer drop
I1129 15:37:59.973136  4463 net.cpp:435] drop <- pool3
I1129 15:37:59.973145  4463 net.cpp:396] drop -> pool3 (in-place)
I1129 15:37:59.973178  4463 net.cpp:144] Setting up drop
I1129 15:37:59.973187  4463 net.cpp:151] Top shape: 128 384 6 6 (1769472)
I1129 15:37:59.973194  4463 net.cpp:159] Memory required for data: 1781842432
I1129 15:37:59.973201  4463 layer_factory.hpp:77] Creating layer conv4-1024
I1129 15:37:59.973217  4463 net.cpp:94] Creating Layer conv4-1024
I1129 15:37:59.973223  4463 net.cpp:435] conv4-1024 <- pool3
I1129 15:37:59.973234  4463 net.cpp:409] conv4-1024 -> conv4
I1129 15:38:00.324589  4463 net.cpp:144] Setting up conv4-1024
I1129 15:38:00.324630  4463 net.cpp:151] Top shape: 128 1024 6 6 (4718592)
I1129 15:38:00.324638  4463 net.cpp:159] Memory required for data: 1800716800
I1129 15:38:00.324656  4463 layer_factory.hpp:77] Creating layer relu10
I1129 15:38:00.324673  4463 net.cpp:94] Creating Layer relu10
I1129 15:38:00.324682  4463 net.cpp:435] relu10 <- conv4
I1129 15:38:00.324693  4463 net.cpp:396] relu10 -> conv4 (in-place)
I1129 15:38:00.324723  4463 net.cpp:144] Setting up relu10
I1129 15:38:00.324733  4463 net.cpp:151] Top shape: 128 1024 6 6 (4718592)
I1129 15:38:00.324740  4463 net.cpp:159] Memory required for data: 1819591168
I1129 15:38:00.324748  4463 layer_factory.hpp:77] Creating layer cccp7-1024
I1129 15:38:00.324765  4463 net.cpp:94] Creating Layer cccp7-1024
I1129 15:38:00.324774  4463 net.cpp:435] cccp7-1024 <- conv4
I1129 15:38:00.324784  4463 net.cpp:409] cccp7-1024 -> cccp7
I1129 15:38:00.458231  4463 net.cpp:144] Setting up cccp7-1024
I1129 15:38:00.458289  4463 net.cpp:151] Top shape: 128 1024 6 6 (4718592)
I1129 15:38:00.458336  4463 net.cpp:159] Memory required for data: 1838465536
I1129 15:38:00.458361  4463 layer_factory.hpp:77] Creating layer relu11
I1129 15:38:00.458384  4463 net.cpp:94] Creating Layer relu11
I1129 15:38:00.458397  4463 net.cpp:435] relu11 <- cccp7
I1129 15:38:00.458415  4463 net.cpp:396] relu11 -> cccp7 (in-place)
I1129 15:38:00.458439  4463 net.cpp:144] Setting up relu11
I1129 15:38:00.458453  4463 net.cpp:151] Top shape: 128 1024 6 6 (4718592)
I1129 15:38:00.458463  4463 net.cpp:159] Memory required for data: 1857339904
I1129 15:38:00.458474  4463 layer_factory.hpp:77] Creating layer cccp8_output
I1129 15:38:00.458498  4463 net.cpp:94] Creating Layer cccp8_output
I1129 15:38:00.458509  4463 net.cpp:435] cccp8_output <- cccp7
I1129 15:38:00.458525  4463 net.cpp:409] cccp8_output -> cccp8_output
I1129 15:38:00.466282  4463 net.cpp:144] Setting up cccp8_output
I1129 15:38:00.466320  4463 net.cpp:151] Top shape: 128 2 6 6 (9216)
I1129 15:38:00.466332  4463 net.cpp:159] Memory required for data: 1857376768
I1129 15:38:00.466356  4463 layer_factory.hpp:77] Creating layer relu12
I1129 15:38:00.466377  4463 net.cpp:94] Creating Layer relu12
I1129 15:38:00.466389  4463 net.cpp:435] relu12 <- cccp8_output
I1129 15:38:00.466404  4463 net.cpp:396] relu12 -> cccp8_output (in-place)
I1129 15:38:00.466428  4463 net.cpp:144] Setting up relu12
I1129 15:38:00.466442  4463 net.cpp:151] Top shape: 128 2 6 6 (9216)
I1129 15:38:00.466452  4463 net.cpp:159] Memory required for data: 1857413632
I1129 15:38:00.466464  4463 layer_factory.hpp:77] Creating layer pool4
I1129 15:38:00.466480  4463 net.cpp:94] Creating Layer pool4
I1129 15:38:00.466491  4463 net.cpp:435] pool4 <- cccp8_output
I1129 15:38:00.466507  4463 net.cpp:409] pool4 -> pool4
I1129 15:38:00.466617  4463 net.cpp:144] Setting up pool4
I1129 15:38:00.466632  4463 net.cpp:151] Top shape: 128 2 1 1 (256)
I1129 15:38:00.466644  4463 net.cpp:159] Memory required for data: 1857414656
I1129 15:38:00.466655  4463 layer_factory.hpp:77] Creating layer loss
I1129 15:38:00.467607  4463 net.cpp:94] Creating Layer loss
I1129 15:38:00.467624  4463 net.cpp:435] loss <- pool4
I1129 15:38:00.467638  4463 net.cpp:435] loss <- label
I1129 15:38:00.467654  4463 net.cpp:409] loss -> loss
I1129 15:38:00.467676  4463 layer_factory.hpp:77] Creating layer loss
…
I1129 15:38:00.471252  4463 net.cpp:323] The NetState phase (1) differed from the phase (0) specified by a rule in layer train-data
I1129 15:38:00.471560  4463 net.cpp:52] Initializing net from parameters:
state {
phase: TEST
}
layer {
name: "val-data"
type: "Data"
top: "data"
top: "label"
include {
phase: TEST
}
transform_param {
crop_size: 224
mean_file: "/media/myuser/120Gb/DIGITS/digits/jobs/20161129-134034-22c4/mean.binaryproto"
}
data_param {
source: "/media/myuser/120Gb/DIGITS/digits/jobs/20161129-134034-22c4/val_db"
batch_size: 128
backend: LMDB
}
}
layer {
name: "conv1"
type: "Convolution"
bottom: "data"
top: "conv1"
param {
lr_mult: 1
decay_mult: 1
}
param {
lr_mult: 2
decay_mult: 0
}
convolution_param {
num_output: 96
kernel_size: 11
stride: 4
weight_filler {
type: "gaussian"
mean: 0
std: 0.01
}
bias_filler {
type: "constant"
value: 0
}
}
}
layer {
name: "relu0"
type: "ReLU"
bottom: "conv1"
top: "conv1"
}
layer {
name: "cccp1"
type: "Convolution"
bottom: "conv1"
top: "cccp1"
param {
lr_mult: 1
decay_mult: 1
}
param {
lr_mult: 2
decay_mult: 0
}
convolution_param {
num_output: 96
kernel_size: 1
stride: 1
weight_filler {
type: "gaussian"
mean: 0
std: 0.05
}
bias_filler {
type: "constant"
value: 0
}
}
}
layer {
name: "relu1"
type: "ReLU"
bottom: "cccp1"
top: "cccp1"
}
layer {
name: "cccp2"
type: "Convolution"
bottom: "cccp1"
top: "cccp2"
param {
lr_mult: 1
decay_mult: 1
}
param {
lr_mult: 2
decay_mult: 0
}
convolution_param {
num_output: 96
kernel_size: 1
stride: 1
weight_filler {
type: "gaussian"
mean: 0
std: 0.05
}
bias_filler {
type: "constant"
value: 0
}
}
}
layer {
name: "relu2"
type: "ReLU"
bottom: "cccp2"
top: "cccp2"
}
layer {
name: "pool0"
type: "Pooling"
bottom: "cccp2"
top: "pool0"
pooling_param {
pool: MAX
kernel_size: 3
stride: 2
}
}
layer {
name: "conv2"
type: "Convolution"
bottom: "pool0"
top: "conv2"
param {
lr_mult: 1
decay_mult: 1
}
param {
lr_mult: 2
decay_mult: 0
}
convolution_param {
num_output: 256
pad: 2
kernel_size: 5
stride: 1
weight_filler {
type: "gaussian"
mean: 0
std: 0.05
}
bias_filler {
type: "constant"
value: 0
}
}
}
layer {
name: "relu3"
type: "ReLU"
bottom: "conv2"
top: "conv2"
}
layer {
name: "cccp3"
type: "Convolution"
bottom: "conv2"
top: "cccp3"
param {
lr_mult: 1
decay_mult: 1
}
param {
lr_mult: 2
decay_mult: 0
}
convolution_param {
num_output: 256
kernel_size: 1
stride: 1
weight_filler {
type: "gaussian"
mean: 0
std: 0.05
}
bias_filler {
type: "constant"
value: 0
}
}
}
layer {
name: "relu5"
type: "ReLU"
bottom: "cccp3"
top: "cccp3"
}
layer {
name: "cccp4"
type: "Convolution"
bottom: "cccp3"
top: "cccp4"
param {
lr_mult: 1
decay_mult: 1
}
param {
lr_mult: 2
decay_mult: 0
}
convolution_param {
num_output: 256
kernel_size: 1
stride: 1
weight_filler {
type: "gaussian"
mean: 0
std: 0.05
}
bias_filler {
type: "constant"
value: 0
}
}
}
layer {
name: "relu6"
type: "ReLU"
bottom: "cccp4"
top: "cccp4"
}
layer {
name: "pool2"
type: "Pooling"
bottom: "cccp4"
top: "pool2"
pooling_param {
pool: MAX
kernel_size: 3
stride: 2
}
}
layer {
name: "conv3"
type: "Convolution"
bottom: "pool2"
top: "conv3"
param {
lr_mult: 1
decay_mult: 1
}
param {
lr_mult: 2
decay_mult: 0
}
convolution_param {
num_output: 384
pad: 1
kernel_size: 3
stride: 1
weight_filler {
type: "gaussian"
mean: 0
std: 0.01
}
bias_filler {
type: "constant"
value: 0
}
}
}
layer {
name: "relu7"
type: "ReLU"
bottom: "conv3"
top: "conv3"
}
layer {
name: "cccp5"
type: "Convolution"
bottom: "conv3"
top: "cccp5"
param {
lr_mult: 1
decay_mult: 1
}
param {
lr_mult: 2
decay_mult: 0
}
convolution_param {
num_output: 384
kernel_size: 1
stride: 1
weight_filler {
type: "gaussian"
mean: 0
std: 0.05
}
bias_filler {
type: "constant"
value: 0
}
}
}
layer {
name: "relu8"
type: "ReLU"
bottom: "cccp5"
top: "cccp5"
}
layer {
name: "cccp6"
type: "Convolution"
bottom: "cccp5"
top: "cccp6"
param {
lr_mult: 1
decay_mult: 1
}
param {
lr_mult: 2
decay_mult: 0
}
convolution_param {
num_output: 384
kernel_size: 1
stride: 1
weight_filler {
type: "gaussian"
mean: 0
std: 0.05
}
bias_filler {
type: "constant"
value: 0
}
}
}
layer {
name: "relu9"
type: "ReLU"
bottom: "cccp6"
top: "cccp6"
}
layer {
name: "pool3"
type: "Pooling"
bottom: "cccp6"
top: "pool3"
pooling_param {
pool: MAX
kernel_size: 3
stride: 2
}
}
layer {
name: "drop"
type: "Dropout"
bottom: "pool3"
top: "pool3"
dropout_param {
dropout_ratio: 0.5
}
}
layer {
name: "conv4-1024"
type: "Convolution"
bottom: "pool3"
top: "conv4"
param {
lr_mult: 1
decay_mult: 1
}
param {
lr_mult: 2
decay_mult: 0
}
convolution_param {
num_output: 1024
pad: 1
kernel_size: 3
stride: 1
weight_filler {
type: "gaussian"
mean: 0
std: 0.05
}
bias_filler {
type: "constant"
value: 0
}
}
}
layer {
name: "relu10"
type: "ReLU"
bottom: "conv4"
top: "conv4"
}
layer {
name: "cccp7-1024"
type: "Convolution"
bottom: "conv4"
top: "cccp7"
param {
lr_mult: 1
decay_mult: 1
}
param {
lr_mult: 2
decay_mult: 0
}
convolution_param {
num_output: 1024
kernel_size: 1
stride: 1
weight_filler {
type: "gaussian"
mean: 0
std: 0.05
}
bias_filler {
type: "constant"
value: 0
}
}
}
layer {
name: "relu11"
type: "ReLU"
bottom: "cccp7"
top: "cccp7"
}
layer {
name: "cccp8_output"
type: "Convolution"
bottom: "cccp7"
top: "cccp8_output"
param {
lr_mult: 1
decay_mult: 1
}
param {
lr_mult: 2
decay_mult: 0
}
convolution_param {
num_output: 2
kernel_size: 1
stride: 1
weight_filler {
type: "gaussian"
mean: 0
std: 0.01
}
bias_filler {
type: "constant"
value: 0
}
}
}
layer {
name: "relu12"
type: "ReLU"
bottom: "cccp8_output"
top: "cccp8_output"
}
layer {
name: "pool4"
type: "Pooling"
bottom: "cccp8_output"
top: "pool4"
pooling_param {
pool: AVE
kernel_size: 6
stride: 1
}
}
layer {
name: "accuracy"
type: "Accuracy"
bottom: "pool4"
bottom: "label"
top: "accuracy"
include {
phase: TEST
}
}
layer {
name: "loss"
type: "SoftmaxWithLoss"
bottom: "pool4"
bottom: "label"
top: "loss"
}
I1129 15:38:00.471765  4463 layer_factory.hpp:77] Creating layer val-data
I1129 15:38:00.472470  4463 net.cpp:94] Creating Layer val-data
I1129 15:38:00.472491  4463 net.cpp:409] val-data -> data
I1129 15:38:00.472512  4463 net.cpp:409] val-data -> label
I1129 15:38:00.472527  4463 data_transformer.cpp:25] Loading mean file from: /media/myuser/120Gb/DIGITS/digits/jobs/20161129-134034-22c4/mean.binaryproto
I1129 15:38:00.479079  4474 db_lmdb.cpp:35] Opened lmdb /media/myuser/120Gb/DIGITS/digits/jobs/20161129-134034-22c4/val_db
I1129 15:38:00.482528  4463 data_layer.cpp:76] output data size: 128,3,224,224
I1129 15:38:00.753955  4463 net.cpp:144] Setting up val-data
I1129 15:38:00.753999  4463 net.cpp:151] Top shape: 128 3 224 224 (19267584)
I1129 15:38:00.754010  4463 net.cpp:151] Top shape: 128 (128)
I1129 15:38:00.754017  4463 net.cpp:159] Memory required for data: 77070848
I1129 15:38:00.754029  4463 layer_factory.hpp:77] Creating layer label_val-data_1_split
I1129 15:38:00.754053  4463 net.cpp:94] Creating Layer label_val-data_1_split
I1129 15:38:00.754062  4463 net.cpp:435] label_val-data_1_split <- label
I1129 15:38:00.754075  4463 net.cpp:409] label_val-data_1_split -> label_val-data_1_split_0
I1129 15:38:00.754091  4463 net.cpp:409] label_val-data_1_split -> label_val-data_1_split_1
I1129 15:38:00.754153  4463 net.cpp:144] Setting up label_val-data_1_split
I1129 15:38:00.754163  4463 net.cpp:151] Top shape: 128 (128)
I1129 15:38:00.754171  4463 net.cpp:151] Top shape: 128 (128)
I1129 15:38:00.754179  4463 net.cpp:159] Memory required for data: 77071872
I1129 15:38:00.754186  4463 layer_factory.hpp:77] Creating layer conv1
I1129 15:38:00.754204  4463 net.cpp:94] Creating Layer conv1
I1129 15:38:00.754212  4463 net.cpp:435] conv1 <- data
I1129 15:38:00.754223  4463 net.cpp:409] conv1 -> conv1
I1129 15:38:00.799391  4463 net.cpp:144] Setting up conv1
I1129 15:38:00.799434  4463 net.cpp:151] Top shape: 128 96 54 54 (35831808)
I1129 15:38:00.799443  4463 net.cpp:159] Memory required for data: 220399104
I1129 15:38:00.799463  4463 layer_factory.hpp:77] Creating layer relu0
I1129 15:38:00.799479  4463 net.cpp:94] Creating Layer relu0
I1129 15:38:00.799487  4463 net.cpp:435] relu0 <- conv1
I1129 15:38:00.799497  4463 net.cpp:396] relu0 -> conv1 (in-place)
I1129 15:38:00.799515  4463 net.cpp:144] Setting up relu0
I1129 15:38:00.799523  4463 net.cpp:151] Top shape: 128 96 54 54 (35831808)
I1129 15:38:00.799545  4463 net.cpp:159] Memory required for data: 363726336
I1129 15:38:00.799551  4463 layer_factory.hpp:77] Creating layer cccp1
I1129 15:38:00.799571  4463 net.cpp:94] Creating Layer cccp1
I1129 15:38:00.799578  4463 net.cpp:435] cccp1 <- conv1
I1129 15:38:00.799590  4463 net.cpp:409] cccp1 -> cccp1
I1129 15:38:00.811614  4463 net.cpp:144] Setting up cccp1
I1129 15:38:00.811650  4463 net.cpp:151] Top shape: 128 96 54 54 (35831808)
I1129 15:38:00.811657  4463 net.cpp:159] Memory required for data: 507053568
I1129 15:38:00.811676  4463 layer_factory.hpp:77] Creating layer relu1
I1129 15:38:00.811691  4463 net.cpp:94] Creating Layer relu1
I1129 15:38:00.811699  4463 net.cpp:435] relu1 <- cccp1
I1129 15:38:00.811709  4463 net.cpp:396] relu1 -> cccp1 (in-place)
I1129 15:38:00.811725  4463 net.cpp:144] Setting up relu1
I1129 15:38:00.811734  4463 net.cpp:151] Top shape: 128 96 54 54 (35831808)
I1129 15:38:00.811741  4463 net.cpp:159] Memory required for data: 650380800
I1129 15:38:00.811748  4463 layer_factory.hpp:77] Creating layer cccp2
I1129 15:38:00.811764  4463 net.cpp:94] Creating Layer cccp2
I1129 15:38:00.811771  4463 net.cpp:435] cccp2 <- cccp1
I1129 15:38:00.811781  4463 net.cpp:409] cccp2 -> cccp2
I1129 15:38:00.823707  4463 net.cpp:144] Setting up cccp2
I1129 15:38:00.823745  4463 net.cpp:151] Top shape: 128 96 54 54 (35831808)
I1129 15:38:00.823752  4463 net.cpp:159] Memory required for data: 793708032
I1129 15:38:00.823773  4463 layer_factory.hpp:77] Creating layer relu2
I1129 15:38:00.823817  4463 net.cpp:94] Creating Layer relu2
I1129 15:38:00.823827  4463 net.cpp:435] relu2 <- cccp2
I1129 15:38:00.823837  4463 net.cpp:396] relu2 -> cccp2 (in-place)
I1129 15:38:00.823853  4463 net.cpp:144] Setting up relu2
I1129 15:38:00.823861  4463 net.cpp:151] Top shape: 128 96 54 54 (35831808)
I1129 15:38:00.823868  4463 net.cpp:159] Memory required for data: 937035264
I1129 15:38:00.823875  4463 layer_factory.hpp:77] Creating layer pool0
I1129 15:38:00.823890  4463 net.cpp:94] Creating Layer pool0
I1129 15:38:00.823897  4463 net.cpp:435] pool0 <- cccp2
I1129 15:38:00.823907  4463 net.cpp:409] pool0 -> pool0
I1129 15:38:00.824012  4463 net.cpp:144] Setting up pool0
I1129 15:38:00.824021  4463 net.cpp:151] Top shape: 128 96 27 27 (8957952)
I1129 15:38:00.824028  4463 net.cpp:159] Memory required for data: 972867072
I1129 15:38:00.824036  4463 layer_factory.hpp:77] Creating layer conv2
I1129 15:38:00.824055  4463 net.cpp:94] Creating Layer conv2
I1129 15:38:00.824064  4463 net.cpp:435] conv2 <- pool0
I1129 15:38:00.824074  4463 net.cpp:409] conv2 -> conv2
I1129 15:38:00.928630  4463 net.cpp:144] Setting up conv2
I1129 15:38:00.928669  4463 net.cpp:151] Top shape: 128 256 27 27 (23887872)
I1129 15:38:00.928678  4463 net.cpp:159] Memory required for data: 1068418560
I1129 15:38:00.928694  4463 layer_factory.hpp:77] Creating layer relu3
I1129 15:38:00.928719  4463 net.cpp:94] Creating Layer relu3
I1129 15:38:00.928727  4463 net.cpp:435] relu3 <- conv2
I1129 15:38:00.928738  4463 net.cpp:396] relu3 -> conv2 (in-place)
I1129 15:38:00.928753  4463 net.cpp:144] Setting up relu3
I1129 15:38:00.928762  4463 net.cpp:151] Top shape: 128 256 27 27 (23887872)
I1129 15:38:00.928769  4463 net.cpp:159] Memory required for data: 1163970048
I1129 15:38:00.928776  4463 layer_factory.hpp:77] Creating layer cccp3
I1129 15:38:00.928793  4463 net.cpp:94] Creating Layer cccp3
I1129 15:38:00.928802  4463 net.cpp:435] cccp3 <- conv2
I1129 15:38:00.928812  4463 net.cpp:409] cccp3 -> cccp3
I1129 15:38:00.943490  4463 net.cpp:144] Setting up cccp3
I1129 15:38:00.943527  4463 net.cpp:151] Top shape: 128 256 27 27 (23887872)
I1129 15:38:00.943534  4463 net.cpp:159] Memory required for data: 1259521536
I1129 15:38:00.943557  4463 layer_factory.hpp:77] Creating layer relu5
I1129 15:38:00.943572  4463 net.cpp:94] Creating Layer relu5
I1129 15:38:00.943580  4463 net.cpp:435] relu5 <- cccp3
I1129 15:38:00.943590  4463 net.cpp:396] relu5 -> cccp3 (in-place)
I1129 15:38:00.943606  4463 net.cpp:144] Setting up relu5
I1129 15:38:00.943615  4463 net.cpp:151] Top shape: 128 256 27 27 (23887872)
I1129 15:38:00.943622  4463 net.cpp:159] Memory required for data: 1355073024
I1129 15:38:00.943629  4463 layer_factory.hpp:77] Creating layer cccp4
I1129 15:38:00.943645  4463 net.cpp:94] Creating Layer cccp4
I1129 15:38:00.943652  4463 net.cpp:435] cccp4 <- cccp3
I1129 15:38:00.943663  4463 net.cpp:409] cccp4 -> cccp4
I1129 15:38:00.959393  4463 net.cpp:144] Setting up cccp4
I1129 15:38:00.959429  4463 net.cpp:151] Top shape: 128 256 27 27 (23887872)
I1129 15:38:00.959437  4463 net.cpp:159] Memory required for data: 1450624512
I1129 15:38:00.959455  4463 layer_factory.hpp:77] Creating layer relu6
I1129 15:38:00.959468  4463 net.cpp:94] Creating Layer relu6
I1129 15:38:00.959477  4463 net.cpp:435] relu6 <- cccp4
I1129 15:38:00.959488  4463 net.cpp:396] relu6 -> cccp4 (in-place)
I1129 15:38:00.959504  4463 net.cpp:144] Setting up relu6
I1129 15:38:00.959513  4463 net.cpp:151] Top shape: 128 256 27 27 (23887872)
I1129 15:38:00.959519  4463 net.cpp:159] Memory required for data: 1546176000
I1129 15:38:00.959527  4463 layer_factory.hpp:77] Creating layer pool2
I1129 15:38:00.959538  4463 net.cpp:94] Creating Layer pool2
I1129 15:38:00.959545  4463 net.cpp:435] pool2 <- cccp4
I1129 15:38:00.959555  4463 net.cpp:409] pool2 -> pool2
I1129 15:38:00.959662  4463 net.cpp:144] Setting up pool2
I1129 15:38:00.959672  4463 net.cpp:151] Top shape: 128 256 13 13 (5537792)
I1129 15:38:00.959679  4463 net.cpp:159] Memory required for data: 1568327168
I1129 15:38:00.959704  4463 layer_factory.hpp:77] Creating layer conv3
I1129 15:38:00.959728  4463 net.cpp:94] Creating Layer conv3
I1129 15:38:00.959734  4463 net.cpp:435] conv3 <- pool2
I1129 15:38:00.959746  4463 net.cpp:409] conv3 -> conv3
I1129 15:38:01.078490  4463 net.cpp:144] Setting up conv3
I1129 15:38:01.078537  4463 net.cpp:151] Top shape: 128 384 13 13 (8306688)
I1129 15:38:01.078546  4463 net.cpp:159] Memory required for data: 1601553920
I1129 15:38:01.078565  4463 layer_factory.hpp:77] Creating layer relu7
I1129 15:38:01.078583  4463 net.cpp:94] Creating Layer relu7
I1129 15:38:01.078593  4463 net.cpp:435] relu7 <- conv3
I1129 15:38:01.078604  4463 net.cpp:396] relu7 -> conv3 (in-place)
I1129 15:38:01.078622  4463 net.cpp:144] Setting up relu7
I1129 15:38:01.078631  4463 net.cpp:151] Top shape: 128 384 13 13 (8306688)
I1129 15:38:01.078639  4463 net.cpp:159] Memory required for data: 1634780672
I1129 15:38:01.078646  4463 layer_factory.hpp:77] Creating layer cccp5
I1129 15:38:01.078665  4463 net.cpp:94] Creating Layer cccp5
I1129 15:38:01.078672  4463 net.cpp:435] cccp5 <- conv3
I1129 15:38:01.078685  4463 net.cpp:409] cccp5 -> cccp5
I1129 15:38:01.099741  4463 net.cpp:144] Setting up cccp5
I1129 15:38:01.099776  4463 net.cpp:151] Top shape: 128 384 13 13 (8306688)
I1129 15:38:01.099783  4463 net.cpp:159] Memory required for data: 1668007424
I1129 15:38:01.099798  4463 layer_factory.hpp:77] Creating layer relu8
I1129 15:38:01.099812  4463 net.cpp:94] Creating Layer relu8
I1129 15:38:01.099822  4463 net.cpp:435] relu8 <- cccp5
I1129 15:38:01.099833  4463 net.cpp:396] relu8 -> cccp5 (in-place)
I1129 15:38:01.099848  4463 net.cpp:144] Setting up relu8
I1129 15:38:01.099856  4463 net.cpp:151] Top shape: 128 384 13 13 (8306688)
I1129 15:38:01.099864  4463 net.cpp:159] Memory required for data: 1701234176
I1129 15:38:01.099870  4463 layer_factory.hpp:77] Creating layer cccp6
I1129 15:38:01.099886  4463 net.cpp:94] Creating Layer cccp6
I1129 15:38:01.099894  4463 net.cpp:435] cccp6 <- cccp5
I1129 15:38:01.099905  4463 net.cpp:409] cccp6 -> cccp6
I1129 15:38:01.118111  4463 net.cpp:144] Setting up cccp6
I1129 15:38:01.118139  4463 net.cpp:151] Top shape: 128 384 13 13 (8306688)
I1129 15:38:01.118147  4463 net.cpp:159] Memory required for data: 1734460928
I1129 15:38:01.119688  4463 layer_factory.hpp:77] Creating layer relu9
I1129 15:38:01.119714  4463 net.cpp:94] Creating Layer relu9
I1129 15:38:01.119724  4463 net.cpp:435] relu9 <- cccp6
I1129 15:38:01.119735  4463 net.cpp:396] relu9 -> cccp6 (in-place)
I1129 15:38:01.119753  4463 net.cpp:144] Setting up relu9
I1129 15:38:01.119762  4463 net.cpp:151] Top shape: 128 384 13 13 (8306688)
I1129 15:38:01.119771  4463 net.cpp:159] Memory required for data: 1767687680
I1129 15:38:01.119777  4463 layer_factory.hpp:77] Creating layer pool3
I1129 15:38:01.119789  4463 net.cpp:94] Creating Layer pool3
I1129 15:38:01.119796  4463 net.cpp:435] pool3 <- cccp6
I1129 15:38:01.119807  4463 net.cpp:409] pool3 -> pool3
I1129 15:38:01.119910  4463 net.cpp:144] Setting up pool3
I1129 15:38:01.119920  4463 net.cpp:151] Top shape: 128 384 6 6 (1769472)
I1129 15:38:01.119926  4463 net.cpp:159] Memory required for data: 1774765568
I1129 15:38:01.119935  4463 layer_factory.hpp:77] Creating layer drop
I1129 15:38:01.119946  4463 net.cpp:94] Creating Layer drop
I1129 15:38:01.119952  4463 net.cpp:435] drop <- pool3
I1129 15:38:01.119961  4463 net.cpp:396] drop -> pool3 (in-place)
I1129 15:38:01.119989  4463 net.cpp:144] Setting up drop
I1129 15:38:01.119999  4463 net.cpp:151] Top shape: 128 384 6 6 (1769472)
I1129 15:38:01.120007  4463 net.cpp:159] Memory required for data: 1781843456
I1129 15:38:01.120013  4463 layer_factory.hpp:77] Creating layer conv4-1024
I1129 15:38:01.120029  4463 net.cpp:94] Creating Layer conv4-1024
I1129 15:38:01.120038  4463 net.cpp:435] conv4-1024 <- pool3
I1129 15:38:01.120048  4463 net.cpp:409] conv4-1024 -> conv4
I1129 15:38:01.336863  4463 net.cpp:144] Setting up conv4-1024
I1129 15:38:01.336902  4463 net.cpp:151] Top shape: 128 1024 6 6 (4718592)
I1129 15:38:01.336941  4463 net.cpp:159] Memory required for data: 1800717824
I1129 15:38:01.336957  4463 layer_factory.hpp:77] Creating layer relu10
I1129 15:38:01.336972  4463 net.cpp:94] Creating Layer relu10
I1129 15:38:01.336982  4463 net.cpp:435] relu10 <- conv4
I1129 15:38:01.336992  4463 net.cpp:396] relu10 -> conv4 (in-place)
I1129 15:38:01.337008  4463 net.cpp:144] Setting up relu10
I1129 15:38:01.337018  4463 net.cpp:151] Top shape: 128 1024 6 6 (4718592)
I1129 15:38:01.337023  4463 net.cpp:159] Memory required for data: 1819592192
I1129 15:38:01.337031  4463 layer_factory.hpp:77] Creating layer cccp7-1024
I1129 15:38:01.337047  4463 net.cpp:94] Creating Layer cccp7-1024
I1129 15:38:01.337055  4463 net.cpp:435] cccp7-1024 <- conv4
I1129 15:38:01.337066  4463 net.cpp:409] cccp7-1024 -> cccp7
I1129 15:38:01.437738  4463 net.cpp:144] Setting up cccp7-1024
I1129 15:38:01.437778  4463 net.cpp:151] Top shape: 128 1024 6 6 (4718592)
I1129 15:38:01.437788  4463 net.cpp:159] Memory required for data: 1838466560
I1129 15:38:01.437805  4463 layer_factory.hpp:77] Creating layer relu11
I1129 15:38:01.437821  4463 net.cpp:94] Creating Layer relu11
I1129 15:38:01.437830  4463 net.cpp:435] relu11 <- cccp7
I1129 15:38:01.437842  4463 net.cpp:396] relu11 -> cccp7 (in-place)
I1129 15:38:01.437860  4463 net.cpp:144] Setting up relu11
I1129 15:38:01.437868  4463 net.cpp:151] Top shape: 128 1024 6 6 (4718592)
I1129 15:38:01.437875  4463 net.cpp:159] Memory required for data: 1857340928
I1129 15:38:01.437882  4463 layer_factory.hpp:77] Creating layer cccp8_output
I1129 15:38:01.437901  4463 net.cpp:94] Creating Layer cccp8_output
I1129 15:38:01.437908  4463 net.cpp:435] cccp8_output <- cccp7
I1129 15:38:01.437918  4463 net.cpp:409] cccp8_output -> cccp8_output
I1129 15:38:01.439469  4463 net.cpp:144] Setting up cccp8_output
I1129 15:38:01.439491  4463 net.cpp:151] Top shape: 128 2 6 6 (9216)
I1129 15:38:01.439498  4463 net.cpp:159] Memory required for data: 1857377792
I1129 15:38:01.439512  4463 layer_factory.hpp:77] Creating layer relu12
I1129 15:38:01.439522  4463 net.cpp:94] Creating Layer relu12
I1129 15:38:01.439530  4463 net.cpp:435] relu12 <- cccp8_output
I1129 15:38:01.439540  4463 net.cpp:396] relu12 -> cccp8_output (in-place)
I1129 15:38:01.439553  4463 net.cpp:144] Setting up relu12
I1129 15:38:01.439563  4463 net.cpp:151] Top shape: 128 2 6 6 (9216)
I1129 15:38:01.439570  4463 net.cpp:159] Memory required for data: 1857414656
I1129 15:38:01.439577  4463 layer_factory.hpp:77] Creating layer pool4
I1129 15:38:01.439589  4463 net.cpp:94] Creating Layer pool4
I1129 15:38:01.439596  4463 net.cpp:435] pool4 <- cccp8_output
I1129 15:38:01.439606  4463 net.cpp:409] pool4 -> pool4
I1129 15:38:01.439651  4463 net.cpp:144] Setting up pool4
I1129 15:38:01.439661  4463 net.cpp:151] Top shape: 128 2 1 1 (256)
I1129 15:38:01.439667  4463 net.cpp:159] Memory required for data: 1857415680
I1129 15:38:01.439674  4463 layer_factory.hpp:77] Creating layer pool4_pool4_0_split
I1129 15:38:01.439685  4463 net.cpp:94] Creating Layer pool4_pool4_0_split
I1129 15:38:01.439692  4463 net.cpp:435] pool4_pool4_0_split <- pool4
I1129 15:38:01.439702  4463 net.cpp:409] pool4_pool4_0_split -> pool4_pool4_0_split_0
I1129 15:38:01.439713  4463 net.cpp:409] pool4_pool4_0_split -> pool4_pool4_0_split_1
I1129 15:38:01.439760  4463 net.cpp:144] Setting up pool4_pool4_0_split
I1129 15:38:01.439770  4463 net.cpp:151] Top shape: 128 2 1 1 (256)
I1129 15:38:01.439779  4463 net.cpp:151] Top shape: 128 2 1 1 (256)
I1129 15:38:01.439785  4463 net.cpp:159] Memory required for data: 1857417728
I1129 15:38:01.439792  4463 layer_factory.hpp:77] Creating layer accuracy
I1129 15:38:01.439812  4463 net.cpp:94] Creating Layer accuracy
I1129 15:38:01.439821  4463 net.cpp:435] accuracy <- pool4_pool4_0_split_0
I1129 15:38:01.439828  4463 net.cpp:435] accuracy <- label_val-data_1_split_0
I1129 15:38:01.439838  4463 net.cpp:409] accuracy -> accuracy
…
