…
I1112 16:54:28.095811  3366 net.cpp:323] The NetState phase (0) differed from the phase (1) specified by a rule in layer accuracy
I1112 16:54:28.096108  3366 net.cpp:52] Initializing net from parameters:
state {
phase: TRAIN
}
layer {
name: "train-data"
type: "Data"
top: "data"
top: "label"
include {
phase: TRAIN
}
transform_param {
mirror: true
crop_size: 227
mean_file: "/media/myuser/120Gb/DIGITS/digits/jobs/20160917-133511-8c62/mean.binaryproto"
}
data_param {
source: "/media/myuser/120Gb/DIGITS/digits/jobs/20160917-133511-8c62/train_db"
batch_size: 64
backend: LMDB
}
}
layer {
name: "conv1"
type: "Convolution"
bottom: "data"
top: "conv1"
convolution_param {
num_output: 64
kernel_size: 3
stride: 2
weight_filler {
type: "xavier"
}
}
}
layer {
name: "relu_conv1"
type: "ReLU"
bottom: "conv1"
top: "conv1"
}
layer {
name: "pool1"
type: "Pooling"
bottom: "conv1"
top: "pool1"
pooling_param {
pool: MAX
kernel_size: 3
stride: 2
}
}
layer {
name: "fire2/squeeze1x1"
type: "Convolution"
bottom: "pool1"
top: "fire2/squeeze1x1"
convolution_param {
num_output: 16
kernel_size: 1
weight_filler {
type: "xavier"
}
}
}
layer {
name: "fire2/relu_squeeze1x1"
type: "ReLU"
bottom: "fire2/squeeze1x1"
top: "fire2/squeeze1x1"
}
layer {
name: "fire2/expand1x1"
type: "Convolution"
bottom: "fire2/squeeze1x1"
top: "fire2/expand1x1"
convolution_param {
num_output: 64
kernel_size: 1
weight_filler {
type: "xavier"
}
}
}
layer {
name: "fire2/relu_expand1x1"
type: "ReLU"
bottom: "fire2/expand1x1"
top: "fire2/expand1x1"
}
layer {
name: "fire2/expand3x3"
type: "Convolution"
bottom: "fire2/squeeze1x1"
top: "fire2/expand3x3"
convolution_param {
num_output: 64
pad: 1
kernel_size: 3
weight_filler {
type: "xavier"
}
}
}
layer {
name: "fire2/relu_expand3x3"
type: "ReLU"
bottom: "fire2/expand3x3"
top: "fire2/expand3x3"
}
layer {
name: "fire2/concat"
type: "Concat"
bottom: "fire2/expand1x1"
bottom: "fire2/expand3x3"
top: "fire2/concat"
}
layer {
name: "fire3/squeeze1x1"
type: "Convolution"
bottom: "fire2/concat"
top: "fire3/squeeze1x1"
convolution_param {
num_output: 16
kernel_size: 1
weight_filler {
type: "xavier"
}
}
}
layer {
name: "fire3/relu_squeeze1x1"
type: "ReLU"
bottom: "fire3/squeeze1x1"
top: "fire3/squeeze1x1"
}
layer {
name: "fire3/expand1x1"
type: "Convolution"
bottom: "fire3/squeeze1x1"
top: "fire3/expand1x1"
convolution_param {
num_output: 64
kernel_size: 1
weight_filler {
type: "xavier"
}
}
}
layer {
name: "fire3/relu_expand1x1"
type: "ReLU"
bottom: "fire3/expand1x1"
top: "fire3/expand1x1"
}
layer {
name: "fire3/expand3x3"
type: "Convolution"
bottom: "fire3/squeeze1x1"
top: "fire3/expand3x3"
convolution_param {
num_output: 64
pad: 1
kernel_size: 3
weight_filler {
type: "xavier"
}
}
}
layer {
name: "fire3/relu_expand3x3"
type: "ReLU"
bottom: "fire3/expand3x3"
top: "fire3/expand3x3"
}
layer {
name: "fire3/concat"
type: "Concat"
bottom: "fire3/expand1x1"
bottom: "fire3/expand3x3"
top: "fire3/concat"
}
layer {
name: "pool3"
type: "Pooling"
bottom: "fire3/concat"
top: "pool3"
pooling_param {
pool: MAX
kernel_size: 3
stride: 2
}
}
layer {
name: "fire4/squeeze1x1"
type: "Convolution"
bottom: "pool3"
top: "fire4/squeeze1x1"
convolution_param {
num_output: 32
kernel_size: 1
weight_filler {
type: "xavier"
}
}
}
layer {
name: "fire4/relu_squeeze1x1"
type: "ReLU"
bottom: "fire4/squeeze1x1"
top: "fire4/squeeze1x1"
}
layer {
name: "fire4/expand1x1"
type: "Convolution"
bottom: "fire4/squeeze1x1"
top: "fire4/expand1x1"
convolution_param {
num_output: 128
kernel_size: 1
weight_filler {
type: "xavier"
}
}
}
layer {
name: "fire4/relu_expand1x1"
type: "ReLU"
bottom: "fire4/expand1x1"
top: "fire4/expand1x1"
}
layer {
name: "fire4/expand3x3"
type: "Convolution"
bottom: "fire4/squeeze1x1"
top: "fire4/expand3x3"
convolution_param {
num_output: 128
pad: 1
kernel_size: 3
weight_filler {
type: "xavier"
}
}
}
layer {
name: "fire4/relu_expand3x3"
type: "ReLU"
bottom: "fire4/expand3x3"
top: "fire4/expand3x3"
}
layer {
name: "fire4/concat"
type: "Concat"
bottom: "fire4/expand1x1"
bottom: "fire4/expand3x3"
top: "fire4/concat"
}
layer {
name: "fire5/squeeze1x1"
type: "Convolution"
bottom: "fire4/concat"
top: "fire5/squeeze1x1"
convolution_param {
num_output: 32
kernel_size: 1
weight_filler {
type: "xavier"
}
}
}
layer {
name: "fire5/relu_squeeze1x1"
type: "ReLU"
bottom: "fire5/squeeze1x1"
top: "fire5/squeeze1x1"
}
layer {
name: "fire5/expand1x1"
type: "Convolution"
bottom: "fire5/squeeze1x1"
top: "fire5/expand1x1"
convolution_param {
num_output: 128
kernel_size: 1
weight_filler {
type: "xavier"
}
}
}
layer {
name: "fire5/relu_expand1x1"
type: "ReLU"
bottom: "fire5/expand1x1"
top: "fire5/expand1x1"
}
layer {
name: "fire5/expand3x3"
type: "Convolution"
bottom: "fire5/squeeze1x1"
top: "fire5/expand3x3"
convolution_param {
num_output: 128
pad: 1
kernel_size: 3
weight_filler {
type: "xavier"
}
}
}
layer {
name: "fire5/relu_expand3x3"
type: "ReLU"
bottom: "fire5/expand3x3"
top: "fire5/expand3x3"
}
layer {
name: "fire5/concat"
type: "Concat"
bottom: "fire5/expand1x1"
bottom: "fire5/expand3x3"
top: "fire5/concat"
}
layer {
name: "pool5"
type: "Pooling"
bottom: "fire5/concat"
top: "pool5"
pooling_param {
pool: MAX
kernel_size: 3
stride: 2
}
}
layer {
name: "fire6/squeeze1x1"
type: "Convolution"
bottom: "pool5"
top: "fire6/squeeze1x1"
convolution_param {
num_output: 48
kernel_size: 1
weight_filler {
type: "xavier"
}
}
}
layer {
name: "fire6/relu_squeeze1x1"
type: "ReLU"
bottom: "fire6/squeeze1x1"
top: "fire6/squeeze1x1"
}
layer {
name: "fire6/expand1x1"
type: "Convolution"
bottom: "fire6/squeeze1x1"
top: "fire6/expand1x1"
convolution_param {
num_output: 192
kernel_size: 1
weight_filler {
type: "xavier"
}
}
}
layer {
name: "fire6/relu_expand1x1"
type: "ReLU"
bottom: "fire6/expand1x1"
top: "fire6/expand1x1"
}
layer {
name: "fire6/expand3x3"
type: "Convolution"
bottom: "fire6/squeeze1x1"
top: "fire6/expand3x3"
convolution_param {
num_output: 192
pad: 1
kernel_size: 3
weight_filler {
type: "xavier"
}
}
}
layer {
name: "fire6/relu_expand3x3"
type: "ReLU"
bottom: "fire6/expand3x3"
top: "fire6/expand3x3"
}
layer {
name: "fire6/concat"
type: "Concat"
bottom: "fire6/expand1x1"
bottom: "fire6/expand3x3"
top: "fire6/concat"
}
layer {
name: "fire7/squeeze1x1"
type: "Convolution"
bottom: "fire6/concat"
top: "fire7/squeeze1x1"
convolution_param {
num_output: 48
kernel_size: 1
weight_filler {
type: "xavier"
}
}
}
layer {
name: "fire7/relu_squeeze1x1"
type: "ReLU"
bottom: "fire7/squeeze1x1"
top: "fire7/squeeze1x1"
}
layer {
name: "fire7/expand1x1"
type: "Convolution"
bottom: "fire7/squeeze1x1"
top: "fire7/expand1x1"
convolution_param {
num_output: 192
kernel_size: 1
weight_filler {
type: "xavier"
}
}
}
layer {
name: "fire7/relu_expand1x1"
type: "ReLU"
bottom: "fire7/expand1x1"
top: "fire7/expand1x1"
}
layer {
name: "fire7/expand3x3"
type: "Convolution"
bottom: "fire7/squeeze1x1"
top: "fire7/expand3x3"
convolution_param {
num_output: 192
pad: 1
kernel_size: 3
weight_filler {
type: "xavier"
}
}
}
layer {
name: "fire7/relu_expand3x3"
type: "ReLU"
bottom: "fire7/expand3x3"
top: "fire7/expand3x3"
}
layer {
name: "fire7/concat"
type: "Concat"
bottom: "fire7/expand1x1"
bottom: "fire7/expand3x3"
top: "fire7/concat"
}
layer {
name: "fire8/squeeze1x1"
type: "Convolution"
bottom: "fire7/concat"
top: "fire8/squeeze1x1"
convolution_param {
num_output: 64
kernel_size: 1
weight_filler {
type: "xavier"
}
}
}
layer {
name: "fire8/relu_squeeze1x1"
type: "ReLU"
bottom: "fire8/squeeze1x1"
top: "fire8/squeeze1x1"
}
layer {
name: "fire8/expand1x1"
type: "Convolution"
bottom: "fire8/squeeze1x1"
top: "fire8/expand1x1"
convolution_param {
num_output: 256
kernel_size: 1
weight_filler {
type: "xavier"
}
}
}
layer {
name: "fire8/relu_expand1x1"
type: "ReLU"
bottom: "fire8/expand1x1"
top: "fire8/expand1x1"
}
layer {
name: "fire8/expand3x3"
type: "Convolution"
bottom: "fire8/squeeze1x1"
top: "fire8/expand3x3"
convolution_param {
num_output: 256
pad: 1
kernel_size: 3
weight_filler {
type: "xavier"
}
}
}
layer {
name: "fire8/relu_expand3x3"
type: "ReLU"
bottom: "fire8/expand3x3"
top: "fire8/expand3x3"
}
layer {
name: "fire8/concat"
type: "Concat"
bottom: "fire8/expand1x1"
bottom: "fire8/expand3x3"
top: "fire8/concat"
}
layer {
name: "fire9/squeeze1x1"
type: "Convolution"
bottom: "fire8/concat"
top: "fire9/squeeze1x1"
convolution_param {
num_output: 64
kernel_size: 1
weight_filler {
type: "xavier"
}
}
}
layer {
name: "fire9/relu_squeeze1x1"
type: "ReLU"
bottom: "fire9/squeeze1x1"
top: "fire9/squeeze1x1"
}
layer {
name: "fire9/expand1x1"
type: "Convolution"
bottom: "fire9/squeeze1x1"
top: "fire9/expand1x1"
convolution_param {
num_output: 256
kernel_size: 1
weight_filler {
type: "xavier"
}
}
}
layer {
name: "fire9/relu_expand1x1"
type: "ReLU"
bottom: "fire9/expand1x1"
top: "fire9/expand1x1"
}
layer {
name: "fire9/expand3x3"
type: "Convolution"
bottom: "fire9/squeeze1x1"
top: "fire9/expand3x3"
convolution_param {
num_output: 256
pad: 1
kernel_size: 3
weight_filler {
type: "xavier"
}
}
}
layer {
name: "fire9/relu_expand3x3"
type: "ReLU"
bottom: "fire9/expand3x3"
top: "fire9/expand3x3"
}
layer {
name: "fire9/concat"
type: "Concat"
bottom: "fire9/expand1x1"
bottom: "fire9/expand3x3"
top: "fire9/concat"
}
layer {
name: "drop9"
type: "Dropout"
bottom: "fire9/concat"
top: "fire9/concat"
dropout_param {
dropout_ratio: 0.5
}
}
layer {
name: "conv10"
type: "Convolution"
bottom: "fire9/concat"
top: "conv10"
convolution_param {
num_output: 2
kernel_size: 1
weight_filler {
type: "gaussian"
mean: 0
std: 0.01
}
}
}
layer {
name: "relu_conv10"
type: "ReLU"
bottom: "conv10"
top: "conv10"
}
layer {
name: "pool10"
type: "Pooling"
bottom: "conv10"
top: "pool10"
pooling_param {
pool: AVE
global_pooling: true
}
}
layer {
name: "loss"
type: "SoftmaxWithLoss"
bottom: "pool10"
bottom: "label"
top: "loss"
}
I1112 16:54:28.096431  3366 layer_factory.hpp:77] Creating layer train-data
I1112 16:54:28.097326  3366 net.cpp:94] Creating Layer train-data
I1112 16:54:28.097347  3366 net.cpp:409] train-data -> data
I1112 16:54:28.097396  3366 net.cpp:409] train-data -> label
I1112 16:54:28.097419  3366 data_transformer.cpp:25] Loading mean file from: /media/myuser/120Gb/DIGITS/digits/jobs/20160917-133511-8c62/mean.binaryproto
I1112 16:54:28.098618  3373 db_lmdb.cpp:35] Opened lmdb /media/myuser/120Gb/DIGITS/digits/jobs/20160917-133511-8c62/train_db
I1112 16:54:28.106511  3366 data_layer.cpp:76] output data size: 64,3,227,227
I1112 16:54:28.236836  3366 net.cpp:144] Setting up train-data
I1112 16:54:28.236874  3366 net.cpp:151] Top shape: 64 3 227 227 (9893568)
I1112 16:54:28.236886  3366 net.cpp:151] Top shape: 64 (64)
I1112 16:54:28.236893  3366 net.cpp:159] Memory required for data: 39574528
I1112 16:54:28.236909  3366 layer_factory.hpp:77] Creating layer conv1
I1112 16:54:28.236937  3366 net.cpp:94] Creating Layer conv1
I1112 16:54:28.236948  3366 net.cpp:435] conv1 <- data
I1112 16:54:28.236966  3366 net.cpp:409] conv1 -> conv1
I1112 16:54:28.449759  3366 net.cpp:144] Setting up conv1
I1112 16:54:28.449786  3366 net.cpp:151] Top shape: 64 64 113 113 (52301824)
I1112 16:54:28.449795  3366 net.cpp:159] Memory required for data: 248781824
I1112 16:54:28.449817  3366 layer_factory.hpp:77] Creating layer relu_conv1
I1112 16:54:28.449833  3366 net.cpp:94] Creating Layer relu_conv1
I1112 16:54:28.449842  3366 net.cpp:435] relu_conv1 <- conv1
I1112 16:54:28.449852  3366 net.cpp:396] relu_conv1 -> conv1 (in-place)
I1112 16:54:28.449887  3366 net.cpp:144] Setting up relu_conv1
I1112 16:54:28.449897  3366 net.cpp:151] Top shape: 64 64 113 113 (52301824)
I1112 16:54:28.449903  3366 net.cpp:159] Memory required for data: 457989120
I1112 16:54:28.449926  3366 layer_factory.hpp:77] Creating layer pool1
I1112 16:54:28.449939  3366 net.cpp:94] Creating Layer pool1
I1112 16:54:28.449946  3366 net.cpp:435] pool1 <- conv1
I1112 16:54:28.449956  3366 net.cpp:409] pool1 -> pool1
I1112 16:54:28.450050  3366 net.cpp:144] Setting up pool1
I1112 16:54:28.450062  3366 net.cpp:151] Top shape: 64 64 56 56 (12845056)
I1112 16:54:28.450068  3366 net.cpp:159] Memory required for data: 509369344
I1112 16:54:28.450076  3366 layer_factory.hpp:77] Creating layer fire2/squeeze1x1
I1112 16:54:28.450091  3366 net.cpp:94] Creating Layer fire2/squeeze1x1
I1112 16:54:28.450099  3366 net.cpp:435] fire2/squeeze1x1 <- pool1
I1112 16:54:28.450109  3366 net.cpp:409] fire2/squeeze1x1 -> fire2/squeeze1x1
I1112 16:54:28.476946  3366 net.cpp:144] Setting up fire2/squeeze1x1
I1112 16:54:28.476980  3366 net.cpp:151] Top shape: 64 16 56 56 (3211264)
I1112 16:54:28.476989  3366 net.cpp:159] Memory required for data: 522214400
I1112 16:54:28.477010  3366 layer_factory.hpp:77] Creating layer fire2/relu_squeeze1x1
I1112 16:54:28.477025  3366 net.cpp:94] Creating Layer fire2/relu_squeeze1x1
I1112 16:54:28.477035  3366 net.cpp:435] fire2/relu_squeeze1x1 <- fire2/squeeze1x1
I1112 16:54:28.477044  3366 net.cpp:396] fire2/relu_squeeze1x1 -> fire2/squeeze1x1 (in-place)
I1112 16:54:28.477061  3366 net.cpp:144] Setting up fire2/relu_squeeze1x1
I1112 16:54:28.477071  3366 net.cpp:151] Top shape: 64 16 56 56 (3211264)
I1112 16:54:28.477077  3366 net.cpp:159] Memory required for data: 535059456
I1112 16:54:28.477085  3366 layer_factory.hpp:77] Creating layer fire2/squeeze1x1_fire2/relu_squeeze1x1_0_split
I1112 16:54:28.477102  3366 net.cpp:94] Creating Layer fire2/squeeze1x1_fire2/relu_squeeze1x1_0_split
I1112 16:54:28.477110  3366 net.cpp:435] fire2/squeeze1x1_fire2/relu_squeeze1x1_0_split <- fire2/squeeze1x1
I1112 16:54:28.477120  3366 net.cpp:409] fire2/squeeze1x1_fire2/relu_squeeze1x1_0_split -> fire2/squeeze1x1_fire2/relu_squeeze1x1_0_split_0
I1112 16:54:28.477133  3366 net.cpp:409] fire2/squeeze1x1_fire2/relu_squeeze1x1_0_split -> fire2/squeeze1x1_fire2/relu_squeeze1x1_0_split_1
I1112 16:54:28.477211  3366 net.cpp:144] Setting up fire2/squeeze1x1_fire2/relu_squeeze1x1_0_split
I1112 16:54:28.477221  3366 net.cpp:151] Top shape: 64 16 56 56 (3211264)
I1112 16:54:28.477231  3366 net.cpp:151] Top shape: 64 16 56 56 (3211264)
I1112 16:54:28.477237  3366 net.cpp:159] Memory required for data: 560749568
I1112 16:54:28.477278  3366 layer_factory.hpp:77] Creating layer fire2/expand1x1
I1112 16:54:28.477296  3366 net.cpp:94] Creating Layer fire2/expand1x1
I1112 16:54:28.477304  3366 net.cpp:435] fire2/expand1x1 <- fire2/squeeze1x1_fire2/relu_squeeze1x1_0_split_0
I1112 16:54:28.477314  3366 net.cpp:409] fire2/expand1x1 -> fire2/expand1x1
I1112 16:54:28.496393  3366 net.cpp:144] Setting up fire2/expand1x1
I1112 16:54:28.496428  3366 net.cpp:151] Top shape: 64 64 56 56 (12845056)
I1112 16:54:28.496436  3366 net.cpp:159] Memory required for data: 612129792
I1112 16:54:28.496455  3366 layer_factory.hpp:77] Creating layer fire2/relu_expand1x1
I1112 16:54:28.496472  3366 net.cpp:94] Creating Layer fire2/relu_expand1x1
I1112 16:54:28.496481  3366 net.cpp:435] fire2/relu_expand1x1 <- fire2/expand1x1
I1112 16:54:28.496491  3366 net.cpp:396] fire2/relu_expand1x1 -> fire2/expand1x1 (in-place)
I1112 16:54:28.496508  3366 net.cpp:144] Setting up fire2/relu_expand1x1
I1112 16:54:28.496517  3366 net.cpp:151] Top shape: 64 64 56 56 (12845056)
I1112 16:54:28.496525  3366 net.cpp:159] Memory required for data: 663510016
I1112 16:54:28.496531  3366 layer_factory.hpp:77] Creating layer fire2/expand3x3
I1112 16:54:28.496547  3366 net.cpp:94] Creating Layer fire2/expand3x3
I1112 16:54:28.496556  3366 net.cpp:435] fire2/expand3x3 <- fire2/squeeze1x1_fire2/relu_squeeze1x1_0_split_1
I1112 16:54:28.496565  3366 net.cpp:409] fire2/expand3x3 -> fire2/expand3x3
I1112 16:54:28.526010  3366 net.cpp:144] Setting up fire2/expand3x3
I1112 16:54:28.526046  3366 net.cpp:151] Top shape: 64 64 56 56 (12845056)
I1112 16:54:28.526054  3366 net.cpp:159] Memory required for data: 714890240
I1112 16:54:28.526070  3366 layer_factory.hpp:77] Creating layer fire2/relu_expand3x3
I1112 16:54:28.526084  3366 net.cpp:94] Creating Layer fire2/relu_expand3x3
I1112 16:54:28.526093  3366 net.cpp:435] fire2/relu_expand3x3 <- fire2/expand3x3
I1112 16:54:28.526104  3366 net.cpp:396] fire2/relu_expand3x3 -> fire2/expand3x3 (in-place)
I1112 16:54:28.526120  3366 net.cpp:144] Setting up fire2/relu_expand3x3
I1112 16:54:28.526129  3366 net.cpp:151] Top shape: 64 64 56 56 (12845056)
I1112 16:54:28.526136  3366 net.cpp:159] Memory required for data: 766270464
I1112 16:54:28.526144  3366 layer_factory.hpp:77] Creating layer fire2/concat
I1112 16:54:28.526154  3366 net.cpp:94] Creating Layer fire2/concat
I1112 16:54:28.526162  3366 net.cpp:435] fire2/concat <- fire2/expand1x1
I1112 16:54:28.526170  3366 net.cpp:435] fire2/concat <- fire2/expand3x3
I1112 16:54:28.526180  3366 net.cpp:409] fire2/concat -> fire2/concat
I1112 16:54:28.526248  3366 net.cpp:144] Setting up fire2/concat
I1112 16:54:28.526258  3366 net.cpp:151] Top shape: 64 128 56 56 (25690112)
I1112 16:54:28.526267  3366 net.cpp:159] Memory required for data: 869030912
I1112 16:54:28.526273  3366 layer_factory.hpp:77] Creating layer fire3/squeeze1x1
I1112 16:54:28.526288  3366 net.cpp:94] Creating Layer fire3/squeeze1x1
I1112 16:54:28.526295  3366 net.cpp:435] fire3/squeeze1x1 <- fire2/concat
I1112 16:54:28.526306  3366 net.cpp:409] fire3/squeeze1x1 -> fire3/squeeze1x1
I1112 16:54:28.546085  3366 net.cpp:144] Setting up fire3/squeeze1x1
I1112 16:54:28.546123  3366 net.cpp:151] Top shape: 64 16 56 56 (3211264)
I1112 16:54:28.546130  3366 net.cpp:159] Memory required for data: 881875968
I1112 16:54:28.546152  3366 layer_factory.hpp:77] Creating layer fire3/relu_squeeze1x1
I1112 16:54:28.546166  3366 net.cpp:94] Creating Layer fire3/relu_squeeze1x1
I1112 16:54:28.546175  3366 net.cpp:435] fire3/relu_squeeze1x1 <- fire3/squeeze1x1
I1112 16:54:28.546186  3366 net.cpp:396] fire3/relu_squeeze1x1 -> fire3/squeeze1x1 (in-place)
I1112 16:54:28.546202  3366 net.cpp:144] Setting up fire3/relu_squeeze1x1
I1112 16:54:28.546211  3366 net.cpp:151] Top shape: 64 16 56 56 (3211264)
I1112 16:54:28.546218  3366 net.cpp:159] Memory required for data: 894721024
I1112 16:54:28.546226  3366 layer_factory.hpp:77] Creating layer fire3/squeeze1x1_fire3/relu_squeeze1x1_0_split
I1112 16:54:28.546236  3366 net.cpp:94] Creating Layer fire3/squeeze1x1_fire3/relu_squeeze1x1_0_split
I1112 16:54:28.546273  3366 net.cpp:435] fire3/squeeze1x1_fire3/relu_squeeze1x1_0_split <- fire3/squeeze1x1
I1112 16:54:28.546283  3366 net.cpp:409] fire3/squeeze1x1_fire3/relu_squeeze1x1_0_split -> fire3/squeeze1x1_fire3/relu_squeeze1x1_0_split_0
I1112 16:54:28.546295  3366 net.cpp:409] fire3/squeeze1x1_fire3/relu_squeeze1x1_0_split -> fire3/squeeze1x1_fire3/relu_squeeze1x1_0_split_1
I1112 16:54:28.546380  3366 net.cpp:144] Setting up fire3/squeeze1x1_fire3/relu_squeeze1x1_0_split
I1112 16:54:28.546389  3366 net.cpp:151] Top shape: 64 16 56 56 (3211264)
I1112 16:54:28.546398  3366 net.cpp:151] Top shape: 64 16 56 56 (3211264)
I1112 16:54:28.546406  3366 net.cpp:159] Memory required for data: 920411136
I1112 16:54:28.546412  3366 layer_factory.hpp:77] Creating layer fire3/expand1x1
I1112 16:54:28.546428  3366 net.cpp:94] Creating Layer fire3/expand1x1
I1112 16:54:28.546437  3366 net.cpp:435] fire3/expand1x1 <- fire3/squeeze1x1_fire3/relu_squeeze1x1_0_split_0
I1112 16:54:28.546447  3366 net.cpp:409] fire3/expand1x1 -> fire3/expand1x1
I1112 16:54:28.556872  3366 net.cpp:144] Setting up fire3/expand1x1
I1112 16:54:28.556915  3366 net.cpp:151] Top shape: 64 64 56 56 (12845056)
I1112 16:54:28.556923  3366 net.cpp:159] Memory required for data: 971791360
I1112 16:54:28.556942  3366 layer_factory.hpp:77] Creating layer fire3/relu_expand1x1
I1112 16:54:28.556973  3366 net.cpp:94] Creating Layer fire3/relu_expand1x1
I1112 16:54:28.556984  3366 net.cpp:435] fire3/relu_expand1x1 <- fire3/expand1x1
I1112 16:54:28.556999  3366 net.cpp:396] fire3/relu_expand1x1 -> fire3/expand1x1 (in-place)
I1112 16:54:28.557018  3366 net.cpp:144] Setting up fire3/relu_expand1x1
I1112 16:54:28.557027  3366 net.cpp:151] Top shape: 64 64 56 56 (12845056)
I1112 16:54:28.557034  3366 net.cpp:159] Memory required for data: 1023171584
I1112 16:54:28.557041  3366 layer_factory.hpp:77] Creating layer fire3/expand3x3
I1112 16:54:28.557059  3366 net.cpp:94] Creating Layer fire3/expand3x3
I1112 16:54:28.557066  3366 net.cpp:435] fire3/expand3x3 <- fire3/squeeze1x1_fire3/relu_squeeze1x1_0_split_1
I1112 16:54:28.557076  3366 net.cpp:409] fire3/expand3x3 -> fire3/expand3x3
I1112 16:54:28.580938  3366 net.cpp:144] Setting up fire3/expand3x3
I1112 16:54:28.580974  3366 net.cpp:151] Top shape: 64 64 56 56 (12845056)
I1112 16:54:28.580982  3366 net.cpp:159] Memory required for data: 1074551808
I1112 16:54:28.580998  3366 layer_factory.hpp:77] Creating layer fire3/relu_expand3x3
I1112 16:54:28.581012  3366 net.cpp:94] Creating Layer fire3/relu_expand3x3
I1112 16:54:28.581022  3366 net.cpp:435] fire3/relu_expand3x3 <- fire3/expand3x3
I1112 16:54:28.581032  3366 net.cpp:396] fire3/relu_expand3x3 -> fire3/expand3x3 (in-place)
I1112 16:54:28.581049  3366 net.cpp:144] Setting up fire3/relu_expand3x3
I1112 16:54:28.581058  3366 net.cpp:151] Top shape: 64 64 56 56 (12845056)
I1112 16:54:28.581065  3366 net.cpp:159] Memory required for data: 1125932032
I1112 16:54:28.581073  3366 layer_factory.hpp:77] Creating layer fire3/concat
I1112 16:54:28.581084  3366 net.cpp:94] Creating Layer fire3/concat
I1112 16:54:28.581092  3366 net.cpp:435] fire3/concat <- fire3/expand1x1
I1112 16:54:28.581100  3366 net.cpp:435] fire3/concat <- fire3/expand3x3
I1112 16:54:28.581110  3366 net.cpp:409] fire3/concat -> fire3/concat
I1112 16:54:28.581188  3366 net.cpp:144] Setting up fire3/concat
I1112 16:54:28.581198  3366 net.cpp:151] Top shape: 64 128 56 56 (25690112)
I1112 16:54:28.581207  3366 net.cpp:159] Memory required for data: 1228692480
I1112 16:54:28.581213  3366 layer_factory.hpp:77] Creating layer pool3
I1112 16:54:28.581228  3366 net.cpp:94] Creating Layer pool3
I1112 16:54:28.581234  3366 net.cpp:435] pool3 <- fire3/concat
I1112 16:54:28.581244  3366 net.cpp:409] pool3 -> pool3
I1112 16:54:28.581300  3366 net.cpp:144] Setting up pool3
I1112 16:54:28.581311  3366 net.cpp:151] Top shape: 64 128 28 28 (6422528)
I1112 16:54:28.581320  3366 net.cpp:159] Memory required for data: 1254382592
I1112 16:54:28.581326  3366 layer_factory.hpp:77] Creating layer fire4/squeeze1x1
I1112 16:54:28.581380  3366 net.cpp:94] Creating Layer fire4/squeeze1x1
I1112 16:54:28.581388  3366 net.cpp:435] fire4/squeeze1x1 <- pool3
I1112 16:54:28.581398  3366 net.cpp:409] fire4/squeeze1x1 -> fire4/squeeze1x1
I1112 16:54:28.588055  3366 net.cpp:144] Setting up fire4/squeeze1x1
I1112 16:54:28.588081  3366 net.cpp:151] Top shape: 64 32 28 28 (1605632)
I1112 16:54:28.588088  3366 net.cpp:159] Memory required for data: 1260805120
I1112 16:54:28.588102  3366 layer_factory.hpp:77] Creating layer fire4/relu_squeeze1x1
I1112 16:54:28.588115  3366 net.cpp:94] Creating Layer fire4/relu_squeeze1x1
I1112 16:54:28.588124  3366 net.cpp:435] fire4/relu_squeeze1x1 <- fire4/squeeze1x1
I1112 16:54:28.588135  3366 net.cpp:396] fire4/relu_squeeze1x1 -> fire4/squeeze1x1 (in-place)
I1112 16:54:28.588150  3366 net.cpp:144] Setting up fire4/relu_squeeze1x1
I1112 16:54:28.588158  3366 net.cpp:151] Top shape: 64 32 28 28 (1605632)
I1112 16:54:28.588165  3366 net.cpp:159] Memory required for data: 1267227648
I1112 16:54:28.588172  3366 layer_factory.hpp:77] Creating layer fire4/squeeze1x1_fire4/relu_squeeze1x1_0_split
I1112 16:54:28.588182  3366 net.cpp:94] Creating Layer fire4/squeeze1x1_fire4/relu_squeeze1x1_0_split
I1112 16:54:28.588191  3366 net.cpp:435] fire4/squeeze1x1_fire4/relu_squeeze1x1_0_split <- fire4/squeeze1x1
I1112 16:54:28.588199  3366 net.cpp:409] fire4/squeeze1x1_fire4/relu_squeeze1x1_0_split -> fire4/squeeze1x1_fire4/relu_squeeze1x1_0_split_0
I1112 16:54:28.588212  3366 net.cpp:409] fire4/squeeze1x1_fire4/relu_squeeze1x1_0_split -> fire4/squeeze1x1_fire4/relu_squeeze1x1_0_split_1
I1112 16:54:28.588268  3366 net.cpp:144] Setting up fire4/squeeze1x1_fire4/relu_squeeze1x1_0_split
I1112 16:54:28.588277  3366 net.cpp:151] Top shape: 64 32 28 28 (1605632)
I1112 16:54:28.588286  3366 net.cpp:151] Top shape: 64 32 28 28 (1605632)
I1112 16:54:28.588294  3366 net.cpp:159] Memory required for data: 1280072704
I1112 16:54:28.588301  3366 layer_factory.hpp:77] Creating layer fire4/expand1x1
I1112 16:54:28.588315  3366 net.cpp:94] Creating Layer fire4/expand1x1
I1112 16:54:28.588323  3366 net.cpp:435] fire4/expand1x1 <- fire4/squeeze1x1_fire4/relu_squeeze1x1_0_split_0
I1112 16:54:28.588335  3366 net.cpp:409] fire4/expand1x1 -> fire4/expand1x1
I1112 16:54:28.594715  3366 net.cpp:144] Setting up fire4/expand1x1
I1112 16:54:28.594744  3366 net.cpp:151] Top shape: 64 128 28 28 (6422528)
I1112 16:54:28.594751  3366 net.cpp:159] Memory required for data: 1305762816
I1112 16:54:28.594774  3366 layer_factory.hpp:77] Creating layer fire4/relu_expand1x1
I1112 16:54:28.594786  3366 net.cpp:94] Creating Layer fire4/relu_expand1x1
I1112 16:54:28.594796  3366 net.cpp:435] fire4/relu_expand1x1 <- fire4/expand1x1
I1112 16:54:28.594806  3366 net.cpp:396] fire4/relu_expand1x1 -> fire4/expand1x1 (in-place)
I1112 16:54:28.594821  3366 net.cpp:144] Setting up fire4/relu_expand1x1
I1112 16:54:28.594830  3366 net.cpp:151] Top shape: 64 128 28 28 (6422528)
I1112 16:54:28.594837  3366 net.cpp:159] Memory required for data: 1331452928
I1112 16:54:28.594846  3366 layer_factory.hpp:77] Creating layer fire4/expand3x3
I1112 16:54:28.594861  3366 net.cpp:94] Creating Layer fire4/expand3x3
I1112 16:54:28.594868  3366 net.cpp:435] fire4/expand3x3 <- fire4/squeeze1x1_fire4/relu_squeeze1x1_0_split_1
I1112 16:54:28.594879  3366 net.cpp:409] fire4/expand3x3 -> fire4/expand3x3
I1112 16:54:28.628726  3366 net.cpp:144] Setting up fire4/expand3x3
I1112 16:54:28.628751  3366 net.cpp:151] Top shape: 64 128 28 28 (6422528)
I1112 16:54:28.628759  3366 net.cpp:159] Memory required for data: 1357143040
I1112 16:54:28.628774  3366 layer_factory.hpp:77] Creating layer fire4/relu_expand3x3
I1112 16:54:28.628788  3366 net.cpp:94] Creating Layer fire4/relu_expand3x3
I1112 16:54:28.628798  3366 net.cpp:435] fire4/relu_expand3x3 <- fire4/expand3x3
I1112 16:54:28.628808  3366 net.cpp:396] fire4/relu_expand3x3 -> fire4/expand3x3 (in-place)
I1112 16:54:28.628823  3366 net.cpp:144] Setting up fire4/relu_expand3x3
I1112 16:54:28.628832  3366 net.cpp:151] Top shape: 64 128 28 28 (6422528)
I1112 16:54:28.628862  3366 net.cpp:159] Memory required for data: 1382833152
I1112 16:54:28.628870  3366 layer_factory.hpp:77] Creating layer fire4/concat
I1112 16:54:28.628881  3366 net.cpp:94] Creating Layer fire4/concat
I1112 16:54:28.628888  3366 net.cpp:435] fire4/concat <- fire4/expand1x1
I1112 16:54:28.628896  3366 net.cpp:435] fire4/concat <- fire4/expand3x3
I1112 16:54:28.628906  3366 net.cpp:409] fire4/concat -> fire4/concat
I1112 16:54:28.628963  3366 net.cpp:144] Setting up fire4/concat
I1112 16:54:28.628973  3366 net.cpp:151] Top shape: 64 256 28 28 (12845056)
I1112 16:54:28.628980  3366 net.cpp:159] Memory required for data: 1434213376
I1112 16:54:28.628988  3366 layer_factory.hpp:77] Creating layer fire5/squeeze1x1
I1112 16:54:28.629003  3366 net.cpp:94] Creating Layer fire5/squeeze1x1
I1112 16:54:28.629010  3366 net.cpp:435] fire5/squeeze1x1 <- fire4/concat
I1112 16:54:28.629020  3366 net.cpp:409] fire5/squeeze1x1 -> fire5/squeeze1x1
I1112 16:54:28.639461  3366 net.cpp:144] Setting up fire5/squeeze1x1
I1112 16:54:28.639492  3366 net.cpp:151] Top shape: 64 32 28 28 (1605632)
I1112 16:54:28.639499  3366 net.cpp:159] Memory required for data: 1440635904
I1112 16:54:28.639515  3366 layer_factory.hpp:77] Creating layer fire5/relu_squeeze1x1
I1112 16:54:28.639528  3366 net.cpp:94] Creating Layer fire5/relu_squeeze1x1
I1112 16:54:28.639777  3366 net.cpp:435] fire5/relu_squeeze1x1 <- fire5/squeeze1x1
I1112 16:54:28.639791  3366 net.cpp:396] fire5/relu_squeeze1x1 -> fire5/squeeze1x1 (in-place)
I1112 16:54:28.639806  3366 net.cpp:144] Setting up fire5/relu_squeeze1x1
I1112 16:54:28.639816  3366 net.cpp:151] Top shape: 64 32 28 28 (1605632)
I1112 16:54:28.639823  3366 net.cpp:159] Memory required for data: 1447058432
I1112 16:54:28.639830  3366 layer_factory.hpp:77] Creating layer fire5/squeeze1x1_fire5/relu_squeeze1x1_0_split
I1112 16:54:28.639840  3366 net.cpp:94] Creating Layer fire5/squeeze1x1_fire5/relu_squeeze1x1_0_split
I1112 16:54:28.639848  3366 net.cpp:435] fire5/squeeze1x1_fire5/relu_squeeze1x1_0_split <- fire5/squeeze1x1
I1112 16:54:28.639858  3366 net.cpp:409] fire5/squeeze1x1_fire5/relu_squeeze1x1_0_split -> fire5/squeeze1x1_fire5/relu_squeeze1x1_0_split_0
I1112 16:54:28.639869  3366 net.cpp:409] fire5/squeeze1x1_fire5/relu_squeeze1x1_0_split -> fire5/squeeze1x1_fire5/relu_squeeze1x1_0_split_1
I1112 16:54:28.639945  3366 net.cpp:144] Setting up fire5/squeeze1x1_fire5/relu_squeeze1x1_0_split
I1112 16:54:28.639955  3366 net.cpp:151] Top shape: 64 32 28 28 (1605632)
I1112 16:54:28.639964  3366 net.cpp:151] Top shape: 64 32 28 28 (1605632)
I1112 16:54:28.639971  3366 net.cpp:159] Memory required for data: 1459903488
I1112 16:54:28.639978  3366 layer_factory.hpp:77] Creating layer fire5/expand1x1
I1112 16:54:28.640002  3366 net.cpp:94] Creating Layer fire5/expand1x1
I1112 16:54:28.640010  3366 net.cpp:435] fire5/expand1x1 <- fire5/squeeze1x1_fire5/relu_squeeze1x1_0_split_0
I1112 16:54:28.640020  3366 net.cpp:409] fire5/expand1x1 -> fire5/expand1x1
I1112 16:54:28.646097  3366 net.cpp:144] Setting up fire5/expand1x1
I1112 16:54:28.646124  3366 net.cpp:151] Top shape: 64 128 28 28 (6422528)
I1112 16:54:28.646132  3366 net.cpp:159] Memory required for data: 1485593600
I1112 16:54:28.646147  3366 layer_factory.hpp:77] Creating layer fire5/relu_expand1x1
I1112 16:54:28.646162  3366 net.cpp:94] Creating Layer fire5/relu_expand1x1
I1112 16:54:28.646172  3366 net.cpp:435] fire5/relu_expand1x1 <- fire5/expand1x1
I1112 16:54:28.646181  3366 net.cpp:396] fire5/relu_expand1x1 -> fire5/expand1x1 (in-place)
I1112 16:54:28.646198  3366 net.cpp:144] Setting up fire5/relu_expand1x1
I1112 16:54:28.646206  3366 net.cpp:151] Top shape: 64 128 28 28 (6422528)
I1112 16:54:28.646214  3366 net.cpp:159] Memory required for data: 1511283712
I1112 16:54:28.646221  3366 layer_factory.hpp:77] Creating layer fire5/expand3x3
I1112 16:54:28.646235  3366 net.cpp:94] Creating Layer fire5/expand3x3
I1112 16:54:28.646245  3366 net.cpp:435] fire5/expand3x3 <- fire5/squeeze1x1_fire5/relu_squeeze1x1_0_split_1
I1112 16:54:28.646287  3366 net.cpp:409] fire5/expand3x3 -> fire5/expand3x3
I1112 16:54:28.662256  3366 net.cpp:144] Setting up fire5/expand3x3
I1112 16:54:28.662292  3366 net.cpp:151] Top shape: 64 128 28 28 (6422528)
I1112 16:54:28.662299  3366 net.cpp:159] Memory required for data: 1536973824
I1112 16:54:28.662315  3366 layer_factory.hpp:77] Creating layer fire5/relu_expand3x3
I1112 16:54:28.662330  3366 net.cpp:94] Creating Layer fire5/relu_expand3x3
I1112 16:54:28.662339  3366 net.cpp:435] fire5/relu_expand3x3 <- fire5/expand3x3
I1112 16:54:28.662350  3366 net.cpp:396] fire5/relu_expand3x3 -> fire5/expand3x3 (in-place)
I1112 16:54:28.662367  3366 net.cpp:144] Setting up fire5/relu_expand3x3
I1112 16:54:28.662375  3366 net.cpp:151] Top shape: 64 128 28 28 (6422528)
I1112 16:54:28.662382  3366 net.cpp:159] Memory required for data: 1562663936
I1112 16:54:28.662389  3366 layer_factory.hpp:77] Creating layer fire5/concat
I1112 16:54:28.662400  3366 net.cpp:94] Creating Layer fire5/concat
I1112 16:54:28.662407  3366 net.cpp:435] fire5/concat <- fire5/expand1x1
I1112 16:54:28.662415  3366 net.cpp:435] fire5/concat <- fire5/expand3x3
I1112 16:54:28.662425  3366 net.cpp:409] fire5/concat -> fire5/concat
I1112 16:54:28.662499  3366 net.cpp:144] Setting up fire5/concat
I1112 16:54:28.662509  3366 net.cpp:151] Top shape: 64 256 28 28 (12845056)
I1112 16:54:28.662516  3366 net.cpp:159] Memory required for data: 1614044160
I1112 16:54:28.662523  3366 layer_factory.hpp:77] Creating layer pool5
I1112 16:54:28.662535  3366 net.cpp:94] Creating Layer pool5
I1112 16:54:28.662542  3366 net.cpp:435] pool5 <- fire5/concat
I1112 16:54:28.662551  3366 net.cpp:409] pool5 -> pool5
I1112 16:54:28.662601  3366 net.cpp:144] Setting up pool5
I1112 16:54:28.662611  3366 net.cpp:151] Top shape: 64 256 14 14 (3211264)
I1112 16:54:28.662618  3366 net.cpp:159] Memory required for data: 1626889216
I1112 16:54:28.662626  3366 layer_factory.hpp:77] Creating layer fire6/squeeze1x1
I1112 16:54:28.662639  3366 net.cpp:94] Creating Layer fire6/squeeze1x1
I1112 16:54:28.662647  3366 net.cpp:435] fire6/squeeze1x1 <- pool5
I1112 16:54:28.662657  3366 net.cpp:409] fire6/squeeze1x1 -> fire6/squeeze1x1
I1112 16:54:28.667923  3366 net.cpp:144] Setting up fire6/squeeze1x1
I1112 16:54:28.667948  3366 net.cpp:151] Top shape: 64 48 14 14 (602112)
I1112 16:54:28.667955  3366 net.cpp:159] Memory required for data: 1629297664
I1112 16:54:28.667968  3366 layer_factory.hpp:77] Creating layer fire6/relu_squeeze1x1
I1112 16:54:28.667981  3366 net.cpp:94] Creating Layer fire6/relu_squeeze1x1
I1112 16:54:28.667989  3366 net.cpp:435] fire6/relu_squeeze1x1 <- fire6/squeeze1x1
I1112 16:54:28.667999  3366 net.cpp:396] fire6/relu_squeeze1x1 -> fire6/squeeze1x1 (in-place)
I1112 16:54:28.668012  3366 net.cpp:144] Setting up fire6/relu_squeeze1x1
I1112 16:54:28.668021  3366 net.cpp:151] Top shape: 64 48 14 14 (602112)
I1112 16:54:28.668027  3366 net.cpp:159] Memory required for data: 1631706112
I1112 16:54:28.668035  3366 layer_factory.hpp:77] Creating layer fire6/squeeze1x1_fire6/relu_squeeze1x1_0_split
I1112 16:54:28.668045  3366 net.cpp:94] Creating Layer fire6/squeeze1x1_fire6/relu_squeeze1x1_0_split
I1112 16:54:28.668052  3366 net.cpp:435] fire6/squeeze1x1_fire6/relu_squeeze1x1_0_split <- fire6/squeeze1x1
I1112 16:54:28.668061  3366 net.cpp:409] fire6/squeeze1x1_fire6/relu_squeeze1x1_0_split -> fire6/squeeze1x1_fire6/relu_squeeze1x1_0_split_0
I1112 16:54:28.668072  3366 net.cpp:409] fire6/squeeze1x1_fire6/relu_squeeze1x1_0_split -> fire6/squeeze1x1_fire6/relu_squeeze1x1_0_split_1
I1112 16:54:28.668140  3366 net.cpp:144] Setting up fire6/squeeze1x1_fire6/relu_squeeze1x1_0_split
I1112 16:54:28.668150  3366 net.cpp:151] Top shape: 64 48 14 14 (602112)
I1112 16:54:28.668159  3366 net.cpp:151] Top shape: 64 48 14 14 (602112)
I1112 16:54:28.668166  3366 net.cpp:159] Memory required for data: 1636523008
I1112 16:54:28.668174  3366 layer_factory.hpp:77] Creating layer fire6/expand1x1
I1112 16:54:28.668187  3366 net.cpp:94] Creating Layer fire6/expand1x1
I1112 16:54:28.668195  3366 net.cpp:435] fire6/expand1x1 <- fire6/squeeze1x1_fire6/relu_squeeze1x1_0_split_0
I1112 16:54:28.668232  3366 net.cpp:409] fire6/expand1x1 -> fire6/expand1x1
I1112 16:54:28.676406  3366 net.cpp:144] Setting up fire6/expand1x1
I1112 16:54:28.676429  3366 net.cpp:151] Top shape: 64 192 14 14 (2408448)
I1112 16:54:28.676437  3366 net.cpp:159] Memory required for data: 1646156800
I1112 16:54:28.676451  3366 layer_factory.hpp:77] Creating layer fire6/relu_expand1x1
I1112 16:54:28.676465  3366 net.cpp:94] Creating Layer fire6/relu_expand1x1
I1112 16:54:28.676475  3366 net.cpp:435] fire6/relu_expand1x1 <- fire6/expand1x1
I1112 16:54:28.676484  3366 net.cpp:396] fire6/relu_expand1x1 -> fire6/expand1x1 (in-place)
I1112 16:54:28.676499  3366 net.cpp:144] Setting up fire6/relu_expand1x1
I1112 16:54:28.676508  3366 net.cpp:151] Top shape: 64 192 14 14 (2408448)
I1112 16:54:28.676515  3366 net.cpp:159] Memory required for data: 1655790592
I1112 16:54:28.676522  3366 layer_factory.hpp:77] Creating layer fire6/expand3x3
I1112 16:54:28.676537  3366 net.cpp:94] Creating Layer fire6/expand3x3
I1112 16:54:28.676544  3366 net.cpp:435] fire6/expand3x3 <- fire6/squeeze1x1_fire6/relu_squeeze1x1_0_split_1
I1112 16:54:28.676554  3366 net.cpp:409] fire6/expand3x3 -> fire6/expand3x3
I1112 16:54:28.695250  3366 net.cpp:144] Setting up fire6/expand3x3
I1112 16:54:28.695281  3366 net.cpp:151] Top shape: 64 192 14 14 (2408448)
I1112 16:54:28.695287  3366 net.cpp:159] Memory required for data: 1665424384
I1112 16:54:28.695303  3366 layer_factory.hpp:77] Creating layer fire6/relu_expand3x3
I1112 16:54:28.695317  3366 net.cpp:94] Creating Layer fire6/relu_expand3x3
I1112 16:54:28.695327  3366 net.cpp:435] fire6/relu_expand3x3 <- fire6/expand3x3
I1112 16:54:28.695338  3366 net.cpp:396] fire6/relu_expand3x3 -> fire6/expand3x3 (in-place)
I1112 16:54:28.695354  3366 net.cpp:144] Setting up fire6/relu_expand3x3
I1112 16:54:28.695363  3366 net.cpp:151] Top shape: 64 192 14 14 (2408448)
I1112 16:54:28.695370  3366 net.cpp:159] Memory required for data: 1675058176
I1112 16:54:28.695377  3366 layer_factory.hpp:77] Creating layer fire6/concat
I1112 16:54:28.695387  3366 net.cpp:94] Creating Layer fire6/concat
I1112 16:54:28.695394  3366 net.cpp:435] fire6/concat <- fire6/expand1x1
I1112 16:54:28.695402  3366 net.cpp:435] fire6/concat <- fire6/expand3x3
I1112 16:54:28.695412  3366 net.cpp:409] fire6/concat -> fire6/concat
I1112 16:54:28.695480  3366 net.cpp:144] Setting up fire6/concat
I1112 16:54:28.695490  3366 net.cpp:151] Top shape: 64 384 14 14 (4816896)
I1112 16:54:28.695497  3366 net.cpp:159] Memory required for data: 1694325760
I1112 16:54:28.695504  3366 layer_factory.hpp:77] Creating layer fire7/squeeze1x1
I1112 16:54:28.695519  3366 net.cpp:94] Creating Layer fire7/squeeze1x1
I1112 16:54:28.695526  3366 net.cpp:435] fire7/squeeze1x1 <- fire6/concat
I1112 16:54:28.695538  3366 net.cpp:409] fire7/squeeze1x1 -> fire7/squeeze1x1
I1112 16:54:28.701603  3366 net.cpp:144] Setting up fire7/squeeze1x1
I1112 16:54:28.701627  3366 net.cpp:151] Top shape: 64 48 14 14 (602112)
I1112 16:54:28.701634  3366 net.cpp:159] Memory required for data: 1696734208
I1112 16:54:28.701659  3366 layer_factory.hpp:77] Creating layer fire7/relu_squeeze1x1
I1112 16:54:28.701673  3366 net.cpp:94] Creating Layer fire7/relu_squeeze1x1
I1112 16:54:28.701680  3366 net.cpp:435] fire7/relu_squeeze1x1 <- fire7/squeeze1x1
I1112 16:54:28.701690  3366 net.cpp:396] fire7/relu_squeeze1x1 -> fire7/squeeze1x1 (in-place)
I1112 16:54:28.701704  3366 net.cpp:144] Setting up fire7/relu_squeeze1x1
I1112 16:54:28.701714  3366 net.cpp:151] Top shape: 64 48 14 14 (602112)
I1112 16:54:28.701720  3366 net.cpp:159] Memory required for data: 1699142656
I1112 16:54:28.701727  3366 layer_factory.hpp:77] Creating layer fire7/squeeze1x1_fire7/relu_squeeze1x1_0_split
I1112 16:54:28.701737  3366 net.cpp:94] Creating Layer fire7/squeeze1x1_fire7/relu_squeeze1x1_0_split
I1112 16:54:28.701745  3366 net.cpp:435] fire7/squeeze1x1_fire7/relu_squeeze1x1_0_split <- fire7/squeeze1x1
I1112 16:54:28.701755  3366 net.cpp:409] fire7/squeeze1x1_fire7/relu_squeeze1x1_0_split -> fire7/squeeze1x1_fire7/relu_squeeze1x1_0_split_0
I1112 16:54:28.701793  3366 net.cpp:409] fire7/squeeze1x1_fire7/relu_squeeze1x1_0_split -> fire7/squeeze1x1_fire7/relu_squeeze1x1_0_split_1
I1112 16:54:28.701864  3366 net.cpp:144] Setting up fire7/squeeze1x1_fire7/relu_squeeze1x1_0_split
I1112 16:54:28.701874  3366 net.cpp:151] Top shape: 64 48 14 14 (602112)
I1112 16:54:28.701882  3366 net.cpp:151] Top shape: 64 48 14 14 (602112)
I1112 16:54:28.701889  3366 net.cpp:159] Memory required for data: 1703959552
I1112 16:54:28.701896  3366 layer_factory.hpp:77] Creating layer fire7/expand1x1
I1112 16:54:28.701927  3366 net.cpp:94] Creating Layer fire7/expand1x1
I1112 16:54:28.701936  3366 net.cpp:435] fire7/expand1x1 <- fire7/squeeze1x1_fire7/relu_squeeze1x1_0_split_0
I1112 16:54:28.701946  3366 net.cpp:409] fire7/expand1x1 -> fire7/expand1x1
I1112 16:54:28.706464  3366 net.cpp:144] Setting up fire7/expand1x1
I1112 16:54:28.706490  3366 net.cpp:151] Top shape: 64 192 14 14 (2408448)
I1112 16:54:28.706496  3366 net.cpp:159] Memory required for data: 1713593344
I1112 16:54:28.706511  3366 layer_factory.hpp:77] Creating layer fire7/relu_expand1x1
I1112 16:54:28.706524  3366 net.cpp:94] Creating Layer fire7/relu_expand1x1
I1112 16:54:28.706533  3366 net.cpp:435] fire7/relu_expand1x1 <- fire7/expand1x1
I1112 16:54:28.706543  3366 net.cpp:396] fire7/relu_expand1x1 -> fire7/expand1x1 (in-place)
I1112 16:54:28.706558  3366 net.cpp:144] Setting up fire7/relu_expand1x1
I1112 16:54:28.706568  3366 net.cpp:151] Top shape: 64 192 14 14 (2408448)
I1112 16:54:28.706574  3366 net.cpp:159] Memory required for data: 1723227136
I1112 16:54:28.706581  3366 layer_factory.hpp:77] Creating layer fire7/expand3x3
I1112 16:54:28.706596  3366 net.cpp:94] Creating Layer fire7/expand3x3
I1112 16:54:28.706604  3366 net.cpp:435] fire7/expand3x3 <- fire7/squeeze1x1_fire7/relu_squeeze1x1_0_split_1
I1112 16:54:28.706614  3366 net.cpp:409] fire7/expand3x3 -> fire7/expand3x3
I1112 16:54:28.717196  3366 net.cpp:144] Setting up fire7/expand3x3
I1112 16:54:28.717231  3366 net.cpp:151] Top shape: 64 192 14 14 (2408448)
I1112 16:54:28.717239  3366 net.cpp:159] Memory required for data: 1732860928
I1112 16:54:28.717255  3366 layer_factory.hpp:77] Creating layer fire7/relu_expand3x3
I1112 16:54:28.717270  3366 net.cpp:94] Creating Layer fire7/relu_expand3x3
I1112 16:54:28.717280  3366 net.cpp:435] fire7/relu_expand3x3 <- fire7/expand3x3
I1112 16:54:28.717291  3366 net.cpp:396] fire7/relu_expand3x3 -> fire7/expand3x3 (in-place)
I1112 16:54:28.717309  3366 net.cpp:144] Setting up fire7/relu_expand3x3
I1112 16:54:28.717319  3366 net.cpp:151] Top shape: 64 192 14 14 (2408448)
I1112 16:54:28.717326  3366 net.cpp:159] Memory required for data: 1742494720
I1112 16:54:28.717337  3366 layer_factory.hpp:77] Creating layer fire7/concat
I1112 16:54:28.717350  3366 net.cpp:94] Creating Layer fire7/concat
I1112 16:54:28.717358  3366 net.cpp:435] fire7/concat <- fire7/expand1x1
I1112 16:54:28.717366  3366 net.cpp:435] fire7/concat <- fire7/expand3x3
I1112 16:54:28.717377  3366 net.cpp:409] fire7/concat -> fire7/concat
I1112 16:54:28.717463  3366 net.cpp:144] Setting up fire7/concat
I1112 16:54:28.717473  3366 net.cpp:151] Top shape: 64 384 14 14 (4816896)
I1112 16:54:28.717478  3366 net.cpp:159] Memory required for data: 1761762304
I1112 16:54:28.717486  3366 layer_factory.hpp:77] Creating layer fire8/squeeze1x1
I1112 16:54:28.717500  3366 net.cpp:94] Creating Layer fire8/squeeze1x1
I1112 16:54:28.717509  3366 net.cpp:435] fire8/squeeze1x1 <- fire7/concat
I1112 16:54:28.717519  3366 net.cpp:409] fire8/squeeze1x1 -> fire8/squeeze1x1
I1112 16:54:28.723830  3366 net.cpp:144] Setting up fire8/squeeze1x1
I1112 16:54:28.723857  3366 net.cpp:151] Top shape: 64 64 14 14 (802816)
I1112 16:54:28.723865  3366 net.cpp:159] Memory required for data: 1764973568
I1112 16:54:28.723878  3366 layer_factory.hpp:77] Creating layer fire8/relu_squeeze1x1
I1112 16:54:28.723891  3366 net.cpp:94] Creating Layer fire8/relu_squeeze1x1
I1112 16:54:28.723899  3366 net.cpp:435] fire8/relu_squeeze1x1 <- fire8/squeeze1x1
I1112 16:54:28.723938  3366 net.cpp:396] fire8/relu_squeeze1x1 -> fire8/squeeze1x1 (in-place)
I1112 16:54:28.723953  3366 net.cpp:144] Setting up fire8/relu_squeeze1x1
I1112 16:54:28.723963  3366 net.cpp:151] Top shape: 64 64 14 14 (802816)
I1112 16:54:28.723969  3366 net.cpp:159] Memory required for data: 1768184832
I1112 16:54:28.723976  3366 layer_factory.hpp:77] Creating layer fire8/squeeze1x1_fire8/relu_squeeze1x1_0_split
I1112 16:54:28.723986  3366 net.cpp:94] Creating Layer fire8/squeeze1x1_fire8/relu_squeeze1x1_0_split
I1112 16:54:28.723994  3366 net.cpp:435] fire8/squeeze1x1_fire8/relu_squeeze1x1_0_split <- fire8/squeeze1x1
I1112 16:54:28.724004  3366 net.cpp:409] fire8/squeeze1x1_fire8/relu_squeeze1x1_0_split -> fire8/squeeze1x1_fire8/relu_squeeze1x1_0_split_0
I1112 16:54:28.724014  3366 net.cpp:409] fire8/squeeze1x1_fire8/relu_squeeze1x1_0_split -> fire8/squeeze1x1_fire8/relu_squeeze1x1_0_split_1
I1112 16:54:28.724092  3366 net.cpp:144] Setting up fire8/squeeze1x1_fire8/relu_squeeze1x1_0_split
I1112 16:54:28.724102  3366 net.cpp:151] Top shape: 64 64 14 14 (802816)
I1112 16:54:28.724110  3366 net.cpp:151] Top shape: 64 64 14 14 (802816)
I1112 16:54:28.724117  3366 net.cpp:159] Memory required for data: 1774607360
I1112 16:54:28.724125  3366 layer_factory.hpp:77] Creating layer fire8/expand1x1
I1112 16:54:28.724138  3366 net.cpp:94] Creating Layer fire8/expand1x1
I1112 16:54:28.724146  3366 net.cpp:435] fire8/expand1x1 <- fire8/squeeze1x1_fire8/relu_squeeze1x1_0_split_0
I1112 16:54:28.724156  3366 net.cpp:409] fire8/expand1x1 -> fire8/expand1x1
I1112 16:54:28.729286  3366 net.cpp:144] Setting up fire8/expand1x1
I1112 16:54:28.729310  3366 net.cpp:151] Top shape: 64 256 14 14 (3211264)
I1112 16:54:28.729317  3366 net.cpp:159] Memory required for data: 1787452416
I1112 16:54:28.729331  3366 layer_factory.hpp:77] Creating layer fire8/relu_expand1x1
I1112 16:54:28.729343  3366 net.cpp:94] Creating Layer fire8/relu_expand1x1
I1112 16:54:28.729352  3366 net.cpp:435] fire8/relu_expand1x1 <- fire8/expand1x1
I1112 16:54:28.729362  3366 net.cpp:396] fire8/relu_expand1x1 -> fire8/expand1x1 (in-place)
I1112 16:54:28.729377  3366 net.cpp:144] Setting up fire8/relu_expand1x1
I1112 16:54:28.729385  3366 net.cpp:151] Top shape: 64 256 14 14 (3211264)
I1112 16:54:28.729393  3366 net.cpp:159] Memory required for data: 1800297472
I1112 16:54:28.729399  3366 layer_factory.hpp:77] Creating layer fire8/expand3x3
I1112 16:54:28.729414  3366 net.cpp:94] Creating Layer fire8/expand3x3
I1112 16:54:28.729421  3366 net.cpp:435] fire8/expand3x3 <- fire8/squeeze1x1_fire8/relu_squeeze1x1_0_split_1
I1112 16:54:28.729432  3366 net.cpp:409] fire8/expand3x3 -> fire8/expand3x3
I1112 16:54:28.755496  3366 net.cpp:144] Setting up fire8/expand3x3
I1112 16:54:28.755530  3366 net.cpp:151] Top shape: 64 256 14 14 (3211264)
I1112 16:54:28.755537  3366 net.cpp:159] Memory required for data: 1813142528
I1112 16:54:28.755553  3366 layer_factory.hpp:77] Creating layer fire8/relu_expand3x3
I1112 16:54:28.755568  3366 net.cpp:94] Creating Layer fire8/relu_expand3x3
I1112 16:54:28.755576  3366 net.cpp:435] fire8/relu_expand3x3 <- fire8/expand3x3
I1112 16:54:28.755587  3366 net.cpp:396] fire8/relu_expand3x3 -> fire8/expand3x3 (in-place)
I1112 16:54:28.755604  3366 net.cpp:144] Setting up fire8/relu_expand3x3
I1112 16:54:28.755612  3366 net.cpp:151] Top shape: 64 256 14 14 (3211264)
I1112 16:54:28.755620  3366 net.cpp:159] Memory required for data: 1825987584
I1112 16:54:28.755626  3366 layer_factory.hpp:77] Creating layer fire8/concat
I1112 16:54:28.755637  3366 net.cpp:94] Creating Layer fire8/concat
I1112 16:54:28.755645  3366 net.cpp:435] fire8/concat <- fire8/expand1x1
I1112 16:54:28.755652  3366 net.cpp:435] fire8/concat <- fire8/expand3x3
I1112 16:54:28.755662  3366 net.cpp:409] fire8/concat -> fire8/concat
I1112 16:54:28.755746  3366 net.cpp:144] Setting up fire8/concat
I1112 16:54:28.755755  3366 net.cpp:151] Top shape: 64 512 14 14 (6422528)
I1112 16:54:28.755762  3366 net.cpp:159] Memory required for data: 1851677696
I1112 16:54:28.755797  3366 layer_factory.hpp:77] Creating layer fire9/squeeze1x1
I1112 16:54:28.755811  3366 net.cpp:94] Creating Layer fire9/squeeze1x1
I1112 16:54:28.755820  3366 net.cpp:435] fire9/squeeze1x1 <- fire8/concat
I1112 16:54:28.755830  3366 net.cpp:409] fire9/squeeze1x1 -> fire9/squeeze1x1
I1112 16:54:28.765470  3366 net.cpp:144] Setting up fire9/squeeze1x1
I1112 16:54:28.765501  3366 net.cpp:151] Top shape: 64 64 14 14 (802816)
I1112 16:54:28.765507  3366 net.cpp:159] Memory required for data: 1854888960
I1112 16:54:28.765522  3366 layer_factory.hpp:77] Creating layer fire9/relu_squeeze1x1
I1112 16:54:28.765537  3366 net.cpp:94] Creating Layer fire9/relu_squeeze1x1
I1112 16:54:28.765545  3366 net.cpp:435] fire9/relu_squeeze1x1 <- fire9/squeeze1x1
I1112 16:54:28.765557  3366 net.cpp:396] fire9/relu_squeeze1x1 -> fire9/squeeze1x1 (in-place)
I1112 16:54:28.765571  3366 net.cpp:144] Setting up fire9/relu_squeeze1x1
I1112 16:54:28.765580  3366 net.cpp:151] Top shape: 64 64 14 14 (802816)
I1112 16:54:28.765588  3366 net.cpp:159] Memory required for data: 1858100224
I1112 16:54:28.765594  3366 layer_factory.hpp:77] Creating layer fire9/squeeze1x1_fire9/relu_squeeze1x1_0_split
I1112 16:54:28.765620  3366 net.cpp:94] Creating Layer fire9/squeeze1x1_fire9/relu_squeeze1x1_0_split
I1112 16:54:28.765628  3366 net.cpp:435] fire9/squeeze1x1_fire9/relu_squeeze1x1_0_split <- fire9/squeeze1x1
I1112 16:54:28.765638  3366 net.cpp:409] fire9/squeeze1x1_fire9/relu_squeeze1x1_0_split -> fire9/squeeze1x1_fire9/relu_squeeze1x1_0_split_0
I1112 16:54:28.765650  3366 net.cpp:409] fire9/squeeze1x1_fire9/relu_squeeze1x1_0_split -> fire9/squeeze1x1_fire9/relu_squeeze1x1_0_split_1
I1112 16:54:28.765729  3366 net.cpp:144] Setting up fire9/squeeze1x1_fire9/relu_squeeze1x1_0_split
I1112 16:54:28.765739  3366 net.cpp:151] Top shape: 64 64 14 14 (802816)
I1112 16:54:28.765748  3366 net.cpp:151] Top shape: 64 64 14 14 (802816)
I1112 16:54:28.765754  3366 net.cpp:159] Memory required for data: 1864522752
I1112 16:54:28.765763  3366 layer_factory.hpp:77] Creating layer fire9/expand1x1
I1112 16:54:28.765777  3366 net.cpp:94] Creating Layer fire9/expand1x1
I1112 16:54:28.765784  3366 net.cpp:435] fire9/expand1x1 <- fire9/squeeze1x1_fire9/relu_squeeze1x1_0_split_0
I1112 16:54:28.765795  3366 net.cpp:409] fire9/expand1x1 -> fire9/expand1x1
I1112 16:54:28.773036  3366 net.cpp:144] Setting up fire9/expand1x1
I1112 16:54:28.773066  3366 net.cpp:151] Top shape: 64 256 14 14 (3211264)
I1112 16:54:28.773072  3366 net.cpp:159] Memory required for data: 1877367808
I1112 16:54:28.773087  3366 layer_factory.hpp:77] Creating layer fire9/relu_expand1x1
I1112 16:54:28.773102  3366 net.cpp:94] Creating Layer fire9/relu_expand1x1
I1112 16:54:28.773111  3366 net.cpp:435] fire9/relu_expand1x1 <- fire9/expand1x1
I1112 16:54:28.773123  3366 net.cpp:396] fire9/relu_expand1x1 -> fire9/expand1x1 (in-place)
I1112 16:54:28.773138  3366 net.cpp:144] Setting up fire9/relu_expand1x1
I1112 16:54:28.773147  3366 net.cpp:151] Top shape: 64 256 14 14 (3211264)
I1112 16:54:28.773154  3366 net.cpp:159] Memory required for data: 1890212864
I1112 16:54:28.773161  3366 layer_factory.hpp:77] Creating layer fire9/expand3x3
I1112 16:54:28.773176  3366 net.cpp:94] Creating Layer fire9/expand3x3
I1112 16:54:28.773185  3366 net.cpp:435] fire9/expand3x3 <- fire9/squeeze1x1_fire9/relu_squeeze1x1_0_split_1
I1112 16:54:28.773195  3366 net.cpp:409] fire9/expand3x3 -> fire9/expand3x3
I1112 16:54:28.793794  3366 net.cpp:144] Setting up fire9/expand3x3
I1112 16:54:28.793823  3366 net.cpp:151] Top shape: 64 256 14 14 (3211264)
I1112 16:54:28.793830  3366 net.cpp:159] Memory required for data: 1903057920
I1112 16:54:28.793846  3366 layer_factory.hpp:77] Creating layer fire9/relu_expand3x3
I1112 16:54:28.793860  3366 net.cpp:94] Creating Layer fire9/relu_expand3x3
I1112 16:54:28.793870  3366 net.cpp:435] fire9/relu_expand3x3 <- fire9/expand3x3
I1112 16:54:28.793880  3366 net.cpp:396] fire9/relu_expand3x3 -> fire9/expand3x3 (in-place)
I1112 16:54:28.793896  3366 net.cpp:144] Setting up fire9/relu_expand3x3
I1112 16:54:28.793941  3366 net.cpp:151] Top shape: 64 256 14 14 (3211264)
I1112 16:54:28.793947  3366 net.cpp:159] Memory required for data: 1915902976
I1112 16:54:28.793956  3366 layer_factory.hpp:77] Creating layer fire9/concat
I1112 16:54:28.793965  3366 net.cpp:94] Creating Layer fire9/concat
I1112 16:54:28.793973  3366 net.cpp:435] fire9/concat <- fire9/expand1x1
I1112 16:54:28.793982  3366 net.cpp:435] fire9/concat <- fire9/expand3x3
I1112 16:54:28.793992  3366 net.cpp:409] fire9/concat -> fire9/concat
I1112 16:54:28.794067  3366 net.cpp:144] Setting up fire9/concat
I1112 16:54:28.794077  3366 net.cpp:151] Top shape: 64 512 14 14 (6422528)
I1112 16:54:28.794085  3366 net.cpp:159] Memory required for data: 1941593088
I1112 16:54:28.794091  3366 layer_factory.hpp:77] Creating layer drop9
I1112 16:54:28.794103  3366 net.cpp:94] Creating Layer drop9
I1112 16:54:28.794111  3366 net.cpp:435] drop9 <- fire9/concat
I1112 16:54:28.794121  3366 net.cpp:396] drop9 -> fire9/concat (in-place)
I1112 16:54:28.794160  3366 net.cpp:144] Setting up drop9
I1112 16:54:28.794170  3366 net.cpp:151] Top shape: 64 512 14 14 (6422528)
I1112 16:54:28.794178  3366 net.cpp:159] Memory required for data: 1967283200
I1112 16:54:28.794184  3366 layer_factory.hpp:77] Creating layer conv10
I1112 16:54:28.794198  3366 net.cpp:94] Creating Layer conv10
I1112 16:54:28.794205  3366 net.cpp:435] conv10 <- fire9/concat
I1112 16:54:28.794216  3366 net.cpp:409] conv10 -> conv10
I1112 16:54:28.803333  3366 net.cpp:144] Setting up conv10
I1112 16:54:28.803364  3366 net.cpp:151] Top shape: 64 2 14 14 (25088)
I1112 16:54:28.803372  3366 net.cpp:159] Memory required for data: 1967383552
I1112 16:54:28.803388  3366 layer_factory.hpp:77] Creating layer relu_conv10
I1112 16:54:28.803402  3366 net.cpp:94] Creating Layer relu_conv10
I1112 16:54:28.803412  3366 net.cpp:435] relu_conv10 <- conv10
I1112 16:54:28.803423  3366 net.cpp:396] relu_conv10 -> conv10 (in-place)
I1112 16:54:28.803442  3366 net.cpp:144] Setting up relu_conv10
I1112 16:54:28.803450  3366 net.cpp:151] Top shape: 64 2 14 14 (25088)
I1112 16:54:28.803457  3366 net.cpp:159] Memory required for data: 1967483904
I1112 16:54:28.803464  3366 layer_factory.hpp:77] Creating layer pool10
I1112 16:54:28.803478  3366 net.cpp:94] Creating Layer pool10
I1112 16:54:28.803485  3366 net.cpp:435] pool10 <- conv10
I1112 16:54:28.803496  3366 net.cpp:409] pool10 -> pool10
I1112 16:54:28.803596  3366 net.cpp:144] Setting up pool10
I1112 16:54:28.803606  3366 net.cpp:151] Top shape: 64 2 1 1 (128)
I1112 16:54:28.803614  3366 net.cpp:159] Memory required for data: 1967484416
I1112 16:54:28.803622  3366 layer_factory.hpp:77] Creating layer loss
I1112 16:54:28.803645  3366 net.cpp:94] Creating Layer loss
I1112 16:54:28.803653  3366 net.cpp:435] loss <- pool10
I1112 16:54:28.803661  3366 net.cpp:435] loss <- label
I1112 16:54:28.803673  3366 net.cpp:409] loss -> loss
I1112 16:54:28.803688  3366 layer_factory.hpp:77] Creating layer loss
…
I1112 16:54:28.806071  3366 net.cpp:323] The NetState phase (1) differed from the phase (0) specified by a rule in layer train-data
I1112 16:54:28.806387  3366 net.cpp:52] Initializing net from parameters:
state {
phase: TEST
}
layer {
name: "val-data"
type: "Data"
top: "data"
top: "label"
include {
phase: TEST
}
transform_param {
crop_size: 227
mean_file: "/media/myuser/120Gb/DIGITS/digits/jobs/20160917-133511-8c62/mean.binaryproto"
}
data_param {
source: "/media/myuser/120Gb/DIGITS/digits/jobs/20160917-133511-8c62/val_db"
batch_size: 64
backend: LMDB
}
}
layer {
name: "conv1"
type: "Convolution"
bottom: "data"
top: "conv1"
convolution_param {
num_output: 64
kernel_size: 3
stride: 2
weight_filler {
type: "xavier"
}
}
}
layer {
name: "relu_conv1"
type: "ReLU"
bottom: "conv1"
top: "conv1"
}
layer {
name: "pool1"
type: "Pooling"
bottom: "conv1"
top: "pool1"
pooling_param {
pool: MAX
kernel_size: 3
stride: 2
}
}
layer {
name: "fire2/squeeze1x1"
type: "Convolution"
bottom: "pool1"
top: "fire2/squeeze1x1"
convolution_param {
num_output: 16
kernel_size: 1
weight_filler {
type: "xavier"
}
}
}
layer {
name: "fire2/relu_squeeze1x1"
type: "ReLU"
bottom: "fire2/squeeze1x1"
top: "fire2/squeeze1x1"
}
layer {
name: "fire2/expand1x1"
type: "Convolution"
bottom: "fire2/squeeze1x1"
top: "fire2/expand1x1"
convolution_param {
num_output: 64
kernel_size: 1
weight_filler {
type: "xavier"
}
}
}
layer {
name: "fire2/relu_expand1x1"
type: "ReLU"
bottom: "fire2/expand1x1"
top: "fire2/expand1x1"
}
layer {
name: "fire2/expand3x3"
type: "Convolution"
bottom: "fire2/squeeze1x1"
top: "fire2/expand3x3"
convolution_param {
num_output: 64
pad: 1
kernel_size: 3
weight_filler {
type: "xavier"
}
}
}
layer {
name: "fire2/relu_expand3x3"
type: "ReLU"
bottom: "fire2/expand3x3"
top: "fire2/expand3x3"
}
layer {
name: "fire2/concat"
type: "Concat"
bottom: "fire2/expand1x1"
bottom: "fire2/expand3x3"
top: "fire2/concat"
}
layer {
name: "fire3/squeeze1x1"
type: "Convolution"
bottom: "fire2/concat"
top: "fire3/squeeze1x1"
convolution_param {
num_output: 16
kernel_size: 1
weight_filler {
type: "xavier"
}
}
}
layer {
name: "fire3/relu_squeeze1x1"
type: "ReLU"
bottom: "fire3/squeeze1x1"
top: "fire3/squeeze1x1"
}
layer {
name: "fire3/expand1x1"
type: "Convolution"
bottom: "fire3/squeeze1x1"
top: "fire3/expand1x1"
convolution_param {
num_output: 64
kernel_size: 1
weight_filler {
type: "xavier"
}
}
}
layer {
name: "fire3/relu_expand1x1"
type: "ReLU"
bottom: "fire3/expand1x1"
top: "fire3/expand1x1"
}
layer {
name: "fire3/expand3x3"
type: "Convolution"
bottom: "fire3/squeeze1x1"
top: "fire3/expand3x3"
convolution_param {
num_output: 64
pad: 1
kernel_size: 3
weight_filler {
type: "xavier"
}
}
}
layer {
name: "fire3/relu_expand3x3"
type: "ReLU"
bottom: "fire3/expand3x3"
top: "fire3/expand3x3"
}
layer {
name: "fire3/concat"
type: "Concat"
bottom: "fire3/expand1x1"
bottom: "fire3/expand3x3"
top: "fire3/concat"
}
layer {
name: "pool3"
type: "Pooling"
bottom: "fire3/concat"
top: "pool3"
pooling_param {
pool: MAX
kernel_size: 3
stride: 2
}
}
layer {
name: "fire4/squeeze1x1"
type: "Convolution"
bottom: "pool3"
top: "fire4/squeeze1x1"
convolution_param {
num_output: 32
kernel_size: 1
weight_filler {
type: "xavier"
}
}
}
layer {
name: "fire4/relu_squeeze1x1"
type: "ReLU"
bottom: "fire4/squeeze1x1"
top: "fire4/squeeze1x1"
}
layer {
name: "fire4/expand1x1"
type: "Convolution"
bottom: "fire4/squeeze1x1"
top: "fire4/expand1x1"
convolution_param {
num_output: 128
kernel_size: 1
weight_filler {
type: "xavier"
}
}
}
layer {
name: "fire4/relu_expand1x1"
type: "ReLU"
bottom: "fire4/expand1x1"
top: "fire4/expand1x1"
}
layer {
name: "fire4/expand3x3"
type: "Convolution"
bottom: "fire4/squeeze1x1"
top: "fire4/expand3x3"
convolution_param {
num_output: 128
pad: 1
kernel_size: 3
weight_filler {
type: "xavier"
}
}
}
layer {
name: "fire4/relu_expand3x3"
type: "ReLU"
bottom: "fire4/expand3x3"
top: "fire4/expand3x3"
}
layer {
name: "fire4/concat"
type: "Concat"
bottom: "fire4/expand1x1"
bottom: "fire4/expand3x3"
top: "fire4/concat"
}
layer {
name: "fire5/squeeze1x1"
type: "Convolution"
bottom: "fire4/concat"
top: "fire5/squeeze1x1"
convolution_param {
num_output: 32
kernel_size: 1
weight_filler {
type: "xavier"
}
}
}
layer {
name: "fire5/relu_squeeze1x1"
type: "ReLU"
bottom: "fire5/squeeze1x1"
top: "fire5/squeeze1x1"
}
layer {
name: "fire5/expand1x1"
type: "Convolution"
bottom: "fire5/squeeze1x1"
top: "fire5/expand1x1"
convolution_param {
num_output: 128
kernel_size: 1
weight_filler {
type: "xavier"
}
}
}
layer {
name: "fire5/relu_expand1x1"
type: "ReLU"
bottom: "fire5/expand1x1"
top: "fire5/expand1x1"
}
layer {
name: "fire5/expand3x3"
type: "Convolution"
bottom: "fire5/squeeze1x1"
top: "fire5/expand3x3"
convolution_param {
num_output: 128
pad: 1
kernel_size: 3
weight_filler {
type: "xavier"
}
}
}
layer {
name: "fire5/relu_expand3x3"
type: "ReLU"
bottom: "fire5/expand3x3"
top: "fire5/expand3x3"
}
layer {
name: "fire5/concat"
type: "Concat"
bottom: "fire5/expand1x1"
bottom: "fire5/expand3x3"
top: "fire5/concat"
}
layer {
name: "pool5"
type: "Pooling"
bottom: "fire5/concat"
top: "pool5"
pooling_param {
pool: MAX
kernel_size: 3
stride: 2
}
}
layer {
name: "fire6/squeeze1x1"
type: "Convolution"
bottom: "pool5"
top: "fire6/squeeze1x1"
convolution_param {
num_output: 48
kernel_size: 1
weight_filler {
type: "xavier"
}
}
}
layer {
name: "fire6/relu_squeeze1x1"
type: "ReLU"
bottom: "fire6/squeeze1x1"
top: "fire6/squeeze1x1"
}
layer {
name: "fire6/expand1x1"
type: "Convolution"
bottom: "fire6/squeeze1x1"
top: "fire6/expand1x1"
convolution_param {
num_output: 192
kernel_size: 1
weight_filler {
type: "xavier"
}
}
}
layer {
name: "fire6/relu_expand1x1"
type: "ReLU"
bottom: "fire6/expand1x1"
top: "fire6/expand1x1"
}
layer {
name: "fire6/expand3x3"
type: "Convolution"
bottom: "fire6/squeeze1x1"
top: "fire6/expand3x3"
convolution_param {
num_output: 192
pad: 1
kernel_size: 3
weight_filler {
type: "xavier"
}
}
}
layer {
name: "fire6/relu_expand3x3"
type: "ReLU"
bottom: "fire6/expand3x3"
top: "fire6/expand3x3"
}
layer {
name: "fire6/concat"
type: "Concat"
bottom: "fire6/expand1x1"
bottom: "fire6/expand3x3"
top: "fire6/concat"
}
layer {
name: "fire7/squeeze1x1"
type: "Convolution"
bottom: "fire6/concat"
top: "fire7/squeeze1x1"
convolution_param {
num_output: 48
kernel_size: 1
weight_filler {
type: "xavier"
}
}
}
layer {
name: "fire7/relu_squeeze1x1"
type: "ReLU"
bottom: "fire7/squeeze1x1"
top: "fire7/squeeze1x1"
}
layer {
name: "fire7/expand1x1"
type: "Convolution"
bottom: "fire7/squeeze1x1"
top: "fire7/expand1x1"
convolution_param {
num_output: 192
kernel_size: 1
weight_filler {
type: "xavier"
}
}
}
layer {
name: "fire7/relu_expand1x1"
type: "ReLU"
bottom: "fire7/expand1x1"
top: "fire7/expand1x1"
}
layer {
name: "fire7/expand3x3"
type: "Convolution"
bottom: "fire7/squeeze1x1"
top: "fire7/expand3x3"
convolution_param {
num_output: 192
pad: 1
kernel_size: 3
weight_filler {
type: "xavier"
}
}
}
layer {
name: "fire7/relu_expand3x3"
type: "ReLU"
bottom: "fire7/expand3x3"
top: "fire7/expand3x3"
}
layer {
name: "fire7/concat"
type: "Concat"
bottom: "fire7/expand1x1"
bottom: "fire7/expand3x3"
top: "fire7/concat"
}
layer {
name: "fire8/squeeze1x1"
type: "Convolution"
bottom: "fire7/concat"
top: "fire8/squeeze1x1"
convolution_param {
num_output: 64
kernel_size: 1
weight_filler {
type: "xavier"
}
}
}
layer {
name: "fire8/relu_squeeze1x1"
type: "ReLU"
bottom: "fire8/squeeze1x1"
top: "fire8/squeeze1x1"
}
layer {
name: "fire8/expand1x1"
type: "Convolution"
bottom: "fire8/squeeze1x1"
top: "fire8/expand1x1"
convolution_param {
num_output: 256
kernel_size: 1
weight_filler {
type: "xavier"
}
}
}
layer {
name: "fire8/relu_expand1x1"
type: "ReLU"
bottom: "fire8/expand1x1"
top: "fire8/expand1x1"
}
layer {
name: "fire8/expand3x3"
type: "Convolution"
bottom: "fire8/squeeze1x1"
top: "fire8/expand3x3"
convolution_param {
num_output: 256
pad: 1
kernel_size: 3
weight_filler {
type: "xavier"
}
}
}
layer {
name: "fire8/relu_expand3x3"
type: "ReLU"
bottom: "fire8/expand3x3"
top: "fire8/expand3x3"
}
layer {
name: "fire8/concat"
type: "Concat"
bottom: "fire8/expand1x1"
bottom: "fire8/expand3x3"
top: "fire8/concat"
}
layer {
name: "fire9/squeeze1x1"
type: "Convolution"
bottom: "fire8/concat"
top: "fire9/squeeze1x1"
convolution_param {
num_output: 64
kernel_size: 1
weight_filler {
type: "xavier"
}
}
}
layer {
name: "fire9/relu_squeeze1x1"
type: "ReLU"
bottom: "fire9/squeeze1x1"
top: "fire9/squeeze1x1"
}
layer {
name: "fire9/expand1x1"
type: "Convolution"
bottom: "fire9/squeeze1x1"
top: "fire9/expand1x1"
convolution_param {
num_output: 256
kernel_size: 1
weight_filler {
type: "xavier"
}
}
}
layer {
name: "fire9/relu_expand1x1"
type: "ReLU"
bottom: "fire9/expand1x1"
top: "fire9/expand1x1"
}
layer {
name: "fire9/expand3x3"
type: "Convolution"
bottom: "fire9/squeeze1x1"
top: "fire9/expand3x3"
convolution_param {
num_output: 256
pad: 1
kernel_size: 3
weight_filler {
type: "xavier"
}
}
}
layer {
name: "fire9/relu_expand3x3"
type: "ReLU"
bottom: "fire9/expand3x3"
top: "fire9/expand3x3"
}
layer {
name: "fire9/concat"
type: "Concat"
bottom: "fire9/expand1x1"
bottom: "fire9/expand3x3"
top: "fire9/concat"
}
layer {
name: "drop9"
type: "Dropout"
bottom: "fire9/concat"
top: "fire9/concat"
dropout_param {
dropout_ratio: 0.5
}
}
layer {
name: "conv10"
type: "Convolution"
bottom: "fire9/concat"
top: "conv10"
convolution_param {
num_output: 2
kernel_size: 1
weight_filler {
type: "gaussian"
mean: 0
std: 0.01
}
}
}
layer {
name: "relu_conv10"
type: "ReLU"
bottom: "conv10"
top: "conv10"
}
layer {
name: "pool10"
type: "Pooling"
bottom: "conv10"
top: "pool10"
pooling_param {
pool: AVE
global_pooling: true
}
}
layer {
name: "accuracy"
type: "Accuracy"
bottom: "pool10"
bottom: "label"
top: "accuracy"
include {
phase: TEST
}
}
layer {
name: "loss"
type: "SoftmaxWithLoss"
bottom: "pool10"
bottom: "label"
top: "loss"
}
I1112 16:54:28.806704  3366 layer_factory.hpp:77] Creating layer val-data
I1112 16:54:28.806851  3366 net.cpp:94] Creating Layer val-data
I1112 16:54:28.806862  3366 net.cpp:409] val-data -> data
I1112 16:54:28.806875  3366 net.cpp:409] val-data -> label
I1112 16:54:28.806888  3366 data_transformer.cpp:25] Loading mean file from: /media/myuser/120Gb/DIGITS/digits/jobs/20160917-133511-8c62/mean.binaryproto
I1112 16:54:28.816511  3377 db_lmdb.cpp:35] Opened lmdb /media/myuser/120Gb/DIGITS/digits/jobs/20160917-133511-8c62/val_db
I1112 16:54:28.819941  3366 data_layer.cpp:76] output data size: 64,3,227,227
I1112 16:54:28.954008  3366 net.cpp:144] Setting up val-data
I1112 16:54:28.954049  3366 net.cpp:151] Top shape: 64 3 227 227 (9893568)
I1112 16:54:28.954061  3366 net.cpp:151] Top shape: 64 (64)
I1112 16:54:28.954068  3366 net.cpp:159] Memory required for data: 39574528
I1112 16:54:28.954079  3366 layer_factory.hpp:77] Creating layer label_val-data_1_split
I1112 16:54:28.954098  3366 net.cpp:94] Creating Layer label_val-data_1_split
I1112 16:54:28.954107  3366 net.cpp:435] label_val-data_1_split <- label
I1112 16:54:28.954119  3366 net.cpp:409] label_val-data_1_split -> label_val-data_1_split_0
I1112 16:54:28.954134  3366 net.cpp:409] label_val-data_1_split -> label_val-data_1_split_1
I1112 16:54:28.954222  3366 net.cpp:144] Setting up label_val-data_1_split
I1112 16:54:28.954233  3366 net.cpp:151] Top shape: 64 (64)
I1112 16:54:28.954242  3366 net.cpp:151] Top shape: 64 (64)
I1112 16:54:28.954249  3366 net.cpp:159] Memory required for data: 39575040
I1112 16:54:28.954257  3366 layer_factory.hpp:77] Creating layer conv1
I1112 16:54:28.954274  3366 net.cpp:94] Creating Layer conv1
I1112 16:54:28.954282  3366 net.cpp:435] conv1 <- data
I1112 16:54:28.954293  3366 net.cpp:409] conv1 -> conv1
I1112 16:54:28.988842  3366 net.cpp:144] Setting up conv1
I1112 16:54:28.988886  3366 net.cpp:151] Top shape: 64 64 113 113 (52301824)
I1112 16:54:28.988895  3366 net.cpp:159] Memory required for data: 248782336
I1112 16:54:28.988916  3366 layer_factory.hpp:77] Creating layer relu_conv1
I1112 16:54:28.988931  3366 net.cpp:94] Creating Layer relu_conv1
I1112 16:54:28.988940  3366 net.cpp:435] relu_conv1 <- conv1
I1112 16:54:28.988951  3366 net.cpp:396] relu_conv1 -> conv1 (in-place)
I1112 16:54:28.988970  3366 net.cpp:144] Setting up relu_conv1
I1112 16:54:28.988978  3366 net.cpp:151] Top shape: 64 64 113 113 (52301824)
I1112 16:54:28.988986  3366 net.cpp:159] Memory required for data: 457989632
I1112 16:54:28.988993  3366 layer_factory.hpp:77] Creating layer pool1
I1112 16:54:28.989008  3366 net.cpp:94] Creating Layer pool1
I1112 16:54:28.989017  3366 net.cpp:435] pool1 <- conv1
I1112 16:54:28.989027  3366 net.cpp:409] pool1 -> pool1
I1112 16:54:28.989162  3366 net.cpp:144] Setting up pool1
I1112 16:54:28.989172  3366 net.cpp:151] Top shape: 64 64 56 56 (12845056)
I1112 16:54:28.989181  3366 net.cpp:159] Memory required for data: 509369856
I1112 16:54:28.989187  3366 layer_factory.hpp:77] Creating layer fire2/squeeze1x1
I1112 16:54:28.989205  3366 net.cpp:94] Creating Layer fire2/squeeze1x1
I1112 16:54:28.989213  3366 net.cpp:435] fire2/squeeze1x1 <- pool1
I1112 16:54:28.989264  3366 net.cpp:409] fire2/squeeze1x1 -> fire2/squeeze1x1
I1112 16:54:28.992379  3366 net.cpp:144] Setting up fire2/squeeze1x1
I1112 16:54:28.992398  3366 net.cpp:151] Top shape: 64 16 56 56 (3211264)
I1112 16:54:28.992405  3366 net.cpp:159] Memory required for data: 522214912
I1112 16:54:28.992421  3366 layer_factory.hpp:77] Creating layer fire2/relu_squeeze1x1
I1112 16:54:28.992434  3366 net.cpp:94] Creating Layer fire2/relu_squeeze1x1
I1112 16:54:28.992441  3366 net.cpp:435] fire2/relu_squeeze1x1 <- fire2/squeeze1x1
I1112 16:54:28.992451  3366 net.cpp:396] fire2/relu_squeeze1x1 -> fire2/squeeze1x1 (in-place)
I1112 16:54:28.992465  3366 net.cpp:144] Setting up fire2/relu_squeeze1x1
I1112 16:54:28.992473  3366 net.cpp:151] Top shape: 64 16 56 56 (3211264)
I1112 16:54:28.992480  3366 net.cpp:159] Memory required for data: 535059968
I1112 16:54:28.992487  3366 layer_factory.hpp:77] Creating layer fire2/squeeze1x1_fire2/relu_squeeze1x1_0_split
I1112 16:54:28.992497  3366 net.cpp:94] Creating Layer fire2/squeeze1x1_fire2/relu_squeeze1x1_0_split
I1112 16:54:28.992504  3366 net.cpp:435] fire2/squeeze1x1_fire2/relu_squeeze1x1_0_split <- fire2/squeeze1x1
I1112 16:54:28.992514  3366 net.cpp:409] fire2/squeeze1x1_fire2/relu_squeeze1x1_0_split -> fire2/squeeze1x1_fire2/relu_squeeze1x1_0_split_0
I1112 16:54:28.992525  3366 net.cpp:409] fire2/squeeze1x1_fire2/relu_squeeze1x1_0_split -> fire2/squeeze1x1_fire2/relu_squeeze1x1_0_split_1
I1112 16:54:28.992584  3366 net.cpp:144] Setting up fire2/squeeze1x1_fire2/relu_squeeze1x1_0_split
I1112 16:54:28.992594  3366 net.cpp:151] Top shape: 64 16 56 56 (3211264)
I1112 16:54:28.992602  3366 net.cpp:151] Top shape: 64 16 56 56 (3211264)
I1112 16:54:28.992609  3366 net.cpp:159] Memory required for data: 560750080
I1112 16:54:28.992616  3366 layer_factory.hpp:77] Creating layer fire2/expand1x1
I1112 16:54:28.992631  3366 net.cpp:94] Creating Layer fire2/expand1x1
I1112 16:54:28.992638  3366 net.cpp:435] fire2/expand1x1 <- fire2/squeeze1x1_fire2/relu_squeeze1x1_0_split_0
I1112 16:54:28.992648  3366 net.cpp:409] fire2/expand1x1 -> fire2/expand1x1
I1112 16:54:28.995390  3366 net.cpp:144] Setting up fire2/expand1x1
I1112 16:54:28.995406  3366 net.cpp:151] Top shape: 64 64 56 56 (12845056)
I1112 16:54:28.995414  3366 net.cpp:159] Memory required for data: 612130304
I1112 16:54:28.995427  3366 layer_factory.hpp:77] Creating layer fire2/relu_expand1x1
I1112 16:54:28.995440  3366 net.cpp:94] Creating Layer fire2/relu_expand1x1
I1112 16:54:28.995446  3366 net.cpp:435] fire2/relu_expand1x1 <- fire2/expand1x1
I1112 16:54:28.995456  3366 net.cpp:396] fire2/relu_expand1x1 -> fire2/expand1x1 (in-place)
I1112 16:54:28.995468  3366 net.cpp:144] Setting up fire2/relu_expand1x1
I1112 16:54:28.995478  3366 net.cpp:151] Top shape: 64 64 56 56 (12845056)
I1112 16:54:28.995486  3366 net.cpp:159] Memory required for data: 663510528
I1112 16:54:28.995492  3366 layer_factory.hpp:77] Creating layer fire2/expand3x3
I1112 16:54:28.995504  3366 net.cpp:94] Creating Layer fire2/expand3x3
I1112 16:54:28.995512  3366 net.cpp:435] fire2/expand3x3 <- fire2/squeeze1x1_fire2/relu_squeeze1x1_0_split_1
I1112 16:54:28.995522  3366 net.cpp:409] fire2/expand3x3 -> fire2/expand3x3
I1112 16:54:29.001922  3366 net.cpp:144] Setting up fire2/expand3x3
I1112 16:54:29.001955  3366 net.cpp:151] Top shape: 64 64 56 56 (12845056)
I1112 16:54:29.001963  3366 net.cpp:159] Memory required for data: 714890752
I1112 16:54:29.001979  3366 layer_factory.hpp:77] Creating layer fire2/relu_expand3x3
I1112 16:54:29.001993  3366 net.cpp:94] Creating Layer fire2/relu_expand3x3
I1112 16:54:29.002002  3366 net.cpp:435] fire2/relu_expand3x3 <- fire2/expand3x3
I1112 16:54:29.002013  3366 net.cpp:396] fire2/relu_expand3x3 -> fire2/expand3x3 (in-place)
I1112 16:54:29.002029  3366 net.cpp:144] Setting up fire2/relu_expand3x3
I1112 16:54:29.002038  3366 net.cpp:151] Top shape: 64 64 56 56 (12845056)
I1112 16:54:29.002045  3366 net.cpp:159] Memory required for data: 766270976
I1112 16:54:29.002053  3366 layer_factory.hpp:77] Creating layer fire2/concat
I1112 16:54:29.002094  3366 net.cpp:94] Creating Layer fire2/concat
I1112 16:54:29.002101  3366 net.cpp:435] fire2/concat <- fire2/expand1x1
I1112 16:54:29.002110  3366 net.cpp:435] fire2/concat <- fire2/expand3x3
I1112 16:54:29.002120  3366 net.cpp:409] fire2/concat -> fire2/concat
I1112 16:54:29.002212  3366 net.cpp:144] Setting up fire2/concat
I1112 16:54:29.002221  3366 net.cpp:151] Top shape: 64 128 56 56 (25690112)
I1112 16:54:29.002229  3366 net.cpp:159] Memory required for data: 869031424
I1112 16:54:29.002236  3366 layer_factory.hpp:77] Creating layer fire3/squeeze1x1
I1112 16:54:29.002252  3366 net.cpp:94] Creating Layer fire3/squeeze1x1
I1112 16:54:29.002259  3366 net.cpp:435] fire3/squeeze1x1 <- fire2/concat
I1112 16:54:29.002270  3366 net.cpp:409] fire3/squeeze1x1 -> fire3/squeeze1x1
I1112 16:54:29.006400  3366 net.cpp:144] Setting up fire3/squeeze1x1
I1112 16:54:29.006425  3366 net.cpp:151] Top shape: 64 16 56 56 (3211264)
I1112 16:54:29.006433  3366 net.cpp:159] Memory required for data: 881876480
I1112 16:54:29.006453  3366 layer_factory.hpp:77] Creating layer fire3/relu_squeeze1x1
I1112 16:54:29.006464  3366 net.cpp:94] Creating Layer fire3/relu_squeeze1x1
I1112 16:54:29.006472  3366 net.cpp:435] fire3/relu_squeeze1x1 <- fire3/squeeze1x1
I1112 16:54:29.006482  3366 net.cpp:396] fire3/relu_squeeze1x1 -> fire3/squeeze1x1 (in-place)
I1112 16:54:29.006496  3366 net.cpp:144] Setting up fire3/relu_squeeze1x1
I1112 16:54:29.006505  3366 net.cpp:151] Top shape: 64 16 56 56 (3211264)
I1112 16:54:29.006512  3366 net.cpp:159] Memory required for data: 894721536
I1112 16:54:29.006520  3366 layer_factory.hpp:77] Creating layer fire3/squeeze1x1_fire3/relu_squeeze1x1_0_split
I1112 16:54:29.006530  3366 net.cpp:94] Creating Layer fire3/squeeze1x1_fire3/relu_squeeze1x1_0_split
I1112 16:54:29.006536  3366 net.cpp:435] fire3/squeeze1x1_fire3/relu_squeeze1x1_0_split <- fire3/squeeze1x1
I1112 16:54:29.006546  3366 net.cpp:409] fire3/squeeze1x1_fire3/relu_squeeze1x1_0_split -> fire3/squeeze1x1_fire3/relu_squeeze1x1_0_split_0
I1112 16:54:29.006557  3366 net.cpp:409] fire3/squeeze1x1_fire3/relu_squeeze1x1_0_split -> fire3/squeeze1x1_fire3/relu_squeeze1x1_0_split_1
I1112 16:54:29.006639  3366 net.cpp:144] Setting up fire3/squeeze1x1_fire3/relu_squeeze1x1_0_split
I1112 16:54:29.006649  3366 net.cpp:151] Top shape: 64 16 56 56 (3211264)
I1112 16:54:29.006657  3366 net.cpp:151] Top shape: 64 16 56 56 (3211264)
I1112 16:54:29.006664  3366 net.cpp:159] Memory required for data: 920411648
I1112 16:54:29.006671  3366 layer_factory.hpp:77] Creating layer fire3/expand1x1
I1112 16:54:29.006690  3366 net.cpp:94] Creating Layer fire3/expand1x1
I1112 16:54:29.006697  3366 net.cpp:435] fire3/expand1x1 <- fire3/squeeze1x1_fire3/relu_squeeze1x1_0_split_0
I1112 16:54:29.006708  3366 net.cpp:409] fire3/expand1x1 -> fire3/expand1x1
I1112 16:54:29.010859  3366 net.cpp:144] Setting up fire3/expand1x1
I1112 16:54:29.010880  3366 net.cpp:151] Top shape: 64 64 56 56 (12845056)
I1112 16:54:29.010887  3366 net.cpp:159] Memory required for data: 971791872
I1112 16:54:29.010900  3366 layer_factory.hpp:77] Creating layer fire3/relu_expand1x1
I1112 16:54:29.010911  3366 net.cpp:94] Creating Layer fire3/relu_expand1x1
I1112 16:54:29.010920  3366 net.cpp:435] fire3/relu_expand1x1 <- fire3/expand1x1
I1112 16:54:29.010931  3366 net.cpp:396] fire3/relu_expand1x1 -> fire3/expand1x1 (in-place)
I1112 16:54:29.010943  3366 net.cpp:144] Setting up fire3/relu_expand1x1
I1112 16:54:29.010952  3366 net.cpp:151] Top shape: 64 64 56 56 (12845056)
I1112 16:54:29.010959  3366 net.cpp:159] Memory required for data: 1023172096
I1112 16:54:29.010967  3366 layer_factory.hpp:77] Creating layer fire3/expand3x3
I1112 16:54:29.010979  3366 net.cpp:94] Creating Layer fire3/expand3x3
I1112 16:54:29.010987  3366 net.cpp:435] fire3/expand3x3 <- fire3/squeeze1x1_fire3/relu_squeeze1x1_0_split_1
I1112 16:54:29.010998  3366 net.cpp:409] fire3/expand3x3 -> fire3/expand3x3
I1112 16:54:29.017489  3366 net.cpp:144] Setting up fire3/expand3x3
I1112 16:54:29.017545  3366 net.cpp:151] Top shape: 64 64 56 56 (12845056)
I1112 16:54:29.017554  3366 net.cpp:159] Memory required for data: 1074552320
I1112 16:54:29.017568  3366 layer_factory.hpp:77] Creating layer fire3/relu_expand3x3
I1112 16:54:29.017581  3366 net.cpp:94] Creating Layer fire3/relu_expand3x3
I1112 16:54:29.017590  3366 net.cpp:435] fire3/relu_expand3x3 <- fire3/expand3x3
I1112 16:54:29.017601  3366 net.cpp:396] fire3/relu_expand3x3 -> fire3/expand3x3 (in-place)
I1112 16:54:29.017614  3366 net.cpp:144] Setting up fire3/relu_expand3x3
I1112 16:54:29.017623  3366 net.cpp:151] Top shape: 64 64 56 56 (12845056)
I1112 16:54:29.017630  3366 net.cpp:159] Memory required for data: 1125932544
I1112 16:54:29.017638  3366 layer_factory.hpp:77] Creating layer fire3/concat
I1112 16:54:29.017648  3366 net.cpp:94] Creating Layer fire3/concat
I1112 16:54:29.017655  3366 net.cpp:435] fire3/concat <- fire3/expand1x1
I1112 16:54:29.017663  3366 net.cpp:435] fire3/concat <- fire3/expand3x3
I1112 16:54:29.017673  3366 net.cpp:409] fire3/concat -> fire3/concat
I1112 16:54:29.017747  3366 net.cpp:144] Setting up fire3/concat
I1112 16:54:29.017757  3366 net.cpp:151] Top shape: 64 128 56 56 (25690112)
I1112 16:54:29.017765  3366 net.cpp:159] Memory required for data: 1228692992
I1112 16:54:29.017771  3366 layer_factory.hpp:77] Creating layer pool3
I1112 16:54:29.017783  3366 net.cpp:94] Creating Layer pool3
I1112 16:54:29.017791  3366 net.cpp:435] pool3 <- fire3/concat
I1112 16:54:29.017799  3366 net.cpp:409] pool3 -> pool3
I1112 16:54:29.017855  3366 net.cpp:144] Setting up pool3
I1112 16:54:29.017865  3366 net.cpp:151] Top shape: 64 128 28 28 (6422528)
I1112 16:54:29.017873  3366 net.cpp:159] Memory required for data: 1254383104
I1112 16:54:29.017879  3366 layer_factory.hpp:77] Creating layer fire4/squeeze1x1
I1112 16:54:29.017892  3366 net.cpp:94] Creating Layer fire4/squeeze1x1
I1112 16:54:29.017900  3366 net.cpp:435] fire4/squeeze1x1 <- pool3
I1112 16:54:29.017926  3366 net.cpp:409] fire4/squeeze1x1 -> fire4/squeeze1x1
I1112 16:54:29.020069  3366 net.cpp:144] Setting up fire4/squeeze1x1
I1112 16:54:29.020172  3366 net.cpp:151] Top shape: 64 32 28 28 (1605632)
I1112 16:54:29.020180  3366 net.cpp:159] Memory required for data: 1260805632
I1112 16:54:29.020195  3366 layer_factory.hpp:77] Creating layer fire4/relu_squeeze1x1
I1112 16:54:29.020206  3366 net.cpp:94] Creating Layer fire4/relu_squeeze1x1
I1112 16:54:29.020215  3366 net.cpp:435] fire4/relu_squeeze1x1 <- fire4/squeeze1x1
I1112 16:54:29.020226  3366 net.cpp:396] fire4/relu_squeeze1x1 -> fire4/squeeze1x1 (in-place)
I1112 16:54:29.020239  3366 net.cpp:144] Setting up fire4/relu_squeeze1x1
I1112 16:54:29.020248  3366 net.cpp:151] Top shape: 64 32 28 28 (1605632)
I1112 16:54:29.020256  3366 net.cpp:159] Memory required for data: 1267228160
I1112 16:54:29.020263  3366 layer_factory.hpp:77] Creating layer fire4/squeeze1x1_fire4/relu_squeeze1x1_0_split
I1112 16:54:29.020273  3366 net.cpp:94] Creating Layer fire4/squeeze1x1_fire4/relu_squeeze1x1_0_split
I1112 16:54:29.020280  3366 net.cpp:435] fire4/squeeze1x1_fire4/relu_squeeze1x1_0_split <- fire4/squeeze1x1
I1112 16:54:29.020289  3366 net.cpp:409] fire4/squeeze1x1_fire4/relu_squeeze1x1_0_split -> fire4/squeeze1x1_fire4/relu_squeeze1x1_0_split_0
I1112 16:54:29.020301  3366 net.cpp:409] fire4/squeeze1x1_fire4/relu_squeeze1x1_0_split -> fire4/squeeze1x1_fire4/relu_squeeze1x1_0_split_1
I1112 16:54:29.020385  3366 net.cpp:144] Setting up fire4/squeeze1x1_fire4/relu_squeeze1x1_0_split
I1112 16:54:29.020395  3366 net.cpp:151] Top shape: 64 32 28 28 (1605632)
I1112 16:54:29.020402  3366 net.cpp:151] Top shape: 64 32 28 28 (1605632)
I1112 16:54:29.020409  3366 net.cpp:159] Memory required for data: 1280073216
I1112 16:54:29.020417  3366 layer_factory.hpp:77] Creating layer fire4/expand1x1
I1112 16:54:29.020431  3366 net.cpp:94] Creating Layer fire4/expand1x1
I1112 16:54:29.020438  3366 net.cpp:435] fire4/expand1x1 <- fire4/squeeze1x1_fire4/relu_squeeze1x1_0_split_0
I1112 16:54:29.020448  3366 net.cpp:409] fire4/expand1x1 -> fire4/expand1x1
I1112 16:54:29.022768  3366 net.cpp:144] Setting up fire4/expand1x1
I1112 16:54:29.022783  3366 net.cpp:151] Top shape: 64 128 28 28 (6422528)
I1112 16:54:29.022790  3366 net.cpp:159] Memory required for data: 1305763328
I1112 16:54:29.022810  3366 layer_factory.hpp:77] Creating layer fire4/relu_expand1x1
I1112 16:54:29.022821  3366 net.cpp:94] Creating Layer fire4/relu_expand1x1
I1112 16:54:29.022830  3366 net.cpp:435] fire4/relu_expand1x1 <- fire4/expand1x1
I1112 16:54:29.022840  3366 net.cpp:396] fire4/relu_expand1x1 -> fire4/expand1x1 (in-place)
I1112 16:54:29.022852  3366 net.cpp:144] Setting up fire4/relu_expand1x1
I1112 16:54:29.022861  3366 net.cpp:151] Top shape: 64 128 28 28 (6422528)
I1112 16:54:29.022868  3366 net.cpp:159] Memory required for data: 1331453440
I1112 16:54:29.022876  3366 layer_factory.hpp:77] Creating layer fire4/expand3x3
I1112 16:54:29.022889  3366 net.cpp:94] Creating Layer fire4/expand3x3
I1112 16:54:29.022897  3366 net.cpp:435] fire4/expand3x3 <- fire4/squeeze1x1_fire4/relu_squeeze1x1_0_split_1
I1112 16:54:29.022907  3366 net.cpp:409] fire4/expand3x3 -> fire4/expand3x3
I1112 16:54:29.028236  3366 net.cpp:144] Setting up fire4/expand3x3
I1112 16:54:29.028256  3366 net.cpp:151] Top shape: 64 128 28 28 (6422528)
I1112 16:54:29.028264  3366 net.cpp:159] Memory required for data: 1357143552
I1112 16:54:29.028277  3366 layer_factory.hpp:77] Creating layer fire4/relu_expand3x3
I1112 16:54:29.028290  3366 net.cpp:94] Creating Layer fire4/relu_expand3x3
I1112 16:54:29.028298  3366 net.cpp:435] fire4/relu_expand3x3 <- fire4/expand3x3
I1112 16:54:29.028308  3366 net.cpp:396] fire4/relu_expand3x3 -> fire4/expand3x3 (in-place)
I1112 16:54:29.028322  3366 net.cpp:144] Setting up fire4/relu_expand3x3
I1112 16:54:29.028331  3366 net.cpp:151] Top shape: 64 128 28 28 (6422528)
I1112 16:54:29.028338  3366 net.cpp:159] Memory required for data: 1382833664
I1112 16:54:29.028345  3366 layer_factory.hpp:77] Creating layer fire4/concat
I1112 16:54:29.028357  3366 net.cpp:94] Creating Layer fire4/concat
I1112 16:54:29.028363  3366 net.cpp:435] fire4/concat <- fire4/expand1x1
I1112 16:54:29.028373  3366 net.cpp:435] fire4/concat <- fire4/expand3x3
I1112 16:54:29.028383  3366 net.cpp:409] fire4/concat -> fire4/concat
I1112 16:54:29.028439  3366 net.cpp:144] Setting up fire4/concat
I1112 16:54:29.028448  3366 net.cpp:151] Top shape: 64 256 28 28 (12845056)
I1112 16:54:29.028455  3366 net.cpp:159] Memory required for data: 1434213888
I1112 16:54:29.028462  3366 layer_factory.hpp:77] Creating layer fire5/squeeze1x1
I1112 16:54:29.028476  3366 net.cpp:94] Creating Layer fire5/squeeze1x1
I1112 16:54:29.028484  3366 net.cpp:435] fire5/squeeze1x1 <- fire4/concat
I1112 16:54:29.028494  3366 net.cpp:409] fire5/squeeze1x1 -> fire5/squeeze1x1
I1112 16:54:29.031188  3366 net.cpp:144] Setting up fire5/squeeze1x1
I1112 16:54:29.031203  3366 net.cpp:151] Top shape: 64 32 28 28 (1605632)
I1112 16:54:29.031209  3366 net.cpp:159] Memory required for data: 1440636416
I1112 16:54:29.031221  3366 layer_factory.hpp:77] Creating layer fire5/relu_squeeze1x1
I1112 16:54:29.032578  3366 net.cpp:94] Creating Layer fire5/relu_squeeze1x1
I1112 16:54:29.032589  3366 net.cpp:435] fire5/relu_squeeze1x1 <- fire5/squeeze1x1
I1112 16:54:29.032601  3366 net.cpp:396] fire5/relu_squeeze1x1 -> fire5/squeeze1x1 (in-place)
I1112 16:54:29.032616  3366 net.cpp:144] Setting up fire5/relu_squeeze1x1
I1112 16:54:29.032627  3366 net.cpp:151] Top shape: 64 32 28 28 (1605632)
I1112 16:54:29.032634  3366 net.cpp:159] Memory required for data: 1447058944
I1112 16:54:29.032642  3366 layer_factory.hpp:77] Creating layer fire5/squeeze1x1_fire5/relu_squeeze1x1_0_split
I1112 16:54:29.032662  3366 net.cpp:94] Creating Layer fire5/squeeze1x1_fire5/relu_squeeze1x1_0_split
I1112 16:54:29.032670  3366 net.cpp:435] fire5/squeeze1x1_fire5/relu_squeeze1x1_0_split <- fire5/squeeze1x1
I1112 16:54:29.032680  3366 net.cpp:409] fire5/squeeze1x1_fire5/relu_squeeze1x1_0_split -> fire5/squeeze1x1_fire5/relu_squeeze1x1_0_split_0
I1112 16:54:29.032691  3366 net.cpp:409] fire5/squeeze1x1_fire5/relu_squeeze1x1_0_split -> fire5/squeeze1x1_fire5/relu_squeeze1x1_0_split_1
I1112 16:54:29.032821  3366 net.cpp:144] Setting up fire5/squeeze1x1_fire5/relu_squeeze1x1_0_split
I1112 16:54:29.032831  3366 net.cpp:151] Top shape: 64 32 28 28 (1605632)
I1112 16:54:29.032840  3366 net.cpp:151] Top shape: 64 32 28 28 (1605632)
I1112 16:54:29.032847  3366 net.cpp:159] Memory required for data: 1459904000
I1112 16:54:29.032855  3366 layer_factory.hpp:77] Creating layer fire5/expand1x1
I1112 16:54:29.032869  3366 net.cpp:94] Creating Layer fire5/expand1x1
I1112 16:54:29.032877  3366 net.cpp:435] fire5/expand1x1 <- fire5/squeeze1x1_fire5/relu_squeeze1x1_0_split_0
I1112 16:54:29.032887  3366 net.cpp:409] fire5/expand1x1 -> fire5/expand1x1
I1112 16:54:29.039518  3366 net.cpp:144] Setting up fire5/expand1x1
I1112 16:54:29.039535  3366 net.cpp:151] Top shape: 64 128 28 28 (6422528)
I1112 16:54:29.039542  3366 net.cpp:159] Memory required for data: 1485594112
I1112 16:54:29.039556  3366 layer_factory.hpp:77] Creating layer fire5/relu_expand1x1
I1112 16:54:29.039567  3366 net.cpp:94] Creating Layer fire5/relu_expand1x1
I1112 16:54:29.039575  3366 net.cpp:435] fire5/relu_expand1x1 <- fire5/expand1x1
I1112 16:54:29.039584  3366 net.cpp:396] fire5/relu_expand1x1 -> fire5/expand1x1 (in-place)
I1112 16:54:29.039597  3366 net.cpp:144] Setting up fire5/relu_expand1x1
I1112 16:54:29.039607  3366 net.cpp:151] Top shape: 64 128 28 28 (6422528)
I1112 16:54:29.039613  3366 net.cpp:159] Memory required for data: 1511284224
I1112 16:54:29.039620  3366 layer_factory.hpp:77] Creating layer fire5/expand3x3
I1112 16:54:29.039633  3366 net.cpp:94] Creating Layer fire5/expand3x3
I1112 16:54:29.039641  3366 net.cpp:435] fire5/expand3x3 <- fire5/squeeze1x1_fire5/relu_squeeze1x1_0_split_1
I1112 16:54:29.039651  3366 net.cpp:409] fire5/expand3x3 -> fire5/expand3x3
I1112 16:54:29.045665  3366 net.cpp:144] Setting up fire5/expand3x3
I1112 16:54:29.045691  3366 net.cpp:151] Top shape: 64 128 28 28 (6422528)
I1112 16:54:29.045698  3366 net.cpp:159] Memory required for data: 1536974336
I1112 16:54:29.045713  3366 layer_factory.hpp:77] Creating layer fire5/relu_expand3x3
I1112 16:54:29.045727  3366 net.cpp:94] Creating Layer fire5/relu_expand3x3
I1112 16:54:29.045735  3366 net.cpp:435] fire5/relu_expand3x3 <- fire5/expand3x3
I1112 16:54:29.045747  3366 net.cpp:396] fire5/relu_expand3x3 -> fire5/expand3x3 (in-place)
I1112 16:54:29.045761  3366 net.cpp:144] Setting up fire5/relu_expand3x3
I1112 16:54:29.045770  3366 net.cpp:151] Top shape: 64 128 28 28 (6422528)
I1112 16:54:29.045778  3366 net.cpp:159] Memory required for data: 1562664448
I1112 16:54:29.045784  3366 layer_factory.hpp:77] Creating layer fire5/concat
I1112 16:54:29.045795  3366 net.cpp:94] Creating Layer fire5/concat
I1112 16:54:29.045802  3366 net.cpp:435] fire5/concat <- fire5/expand1x1
I1112 16:54:29.045810  3366 net.cpp:435] fire5/concat <- fire5/expand3x3
I1112 16:54:29.045820  3366 net.cpp:409] fire5/concat -> fire5/concat
I1112 16:54:29.045895  3366 net.cpp:144] Setting up fire5/concat
I1112 16:54:29.045924  3366 net.cpp:151] Top shape: 64 256 28 28 (12845056)
I1112 16:54:29.045933  3366 net.cpp:159] Memory required for data: 1614044672
I1112 16:54:29.045940  3366 layer_factory.hpp:77] Creating layer pool5
I1112 16:54:29.045953  3366 net.cpp:94] Creating Layer pool5
I1112 16:54:29.045959  3366 net.cpp:435] pool5 <- fire5/concat
I1112 16:54:29.045969  3366 net.cpp:409] pool5 -> pool5
I1112 16:54:29.046026  3366 net.cpp:144] Setting up pool5
I1112 16:54:29.046036  3366 net.cpp:151] Top shape: 64 256 14 14 (3211264)
I1112 16:54:29.046043  3366 net.cpp:159] Memory required for data: 1626889728
I1112 16:54:29.046051  3366 layer_factory.hpp:77] Creating layer fire6/squeeze1x1
I1112 16:54:29.046064  3366 net.cpp:94] Creating Layer fire6/squeeze1x1
I1112 16:54:29.046072  3366 net.cpp:435] fire6/squeeze1x1 <- pool5
I1112 16:54:29.046082  3366 net.cpp:409] fire6/squeeze1x1 -> fire6/squeeze1x1
I1112 16:54:29.048208  3366 net.cpp:144] Setting up fire6/squeeze1x1
I1112 16:54:29.048226  3366 net.cpp:151] Top shape: 64 48 14 14 (602112)
I1112 16:54:29.048259  3366 net.cpp:159] Memory required for data: 1629298176
I1112 16:54:29.048271  3366 layer_factory.hpp:77] Creating layer fire6/relu_squeeze1x1
I1112 16:54:29.048281  3366 net.cpp:94] Creating Layer fire6/relu_squeeze1x1
I1112 16:54:29.048290  3366 net.cpp:435] fire6/relu_squeeze1x1 <- fire6/squeeze1x1
I1112 16:54:29.048298  3366 net.cpp:396] fire6/relu_squeeze1x1 -> fire6/squeeze1x1 (in-place)
I1112 16:54:29.048311  3366 net.cpp:144] Setting up fire6/relu_squeeze1x1
I1112 16:54:29.048321  3366 net.cpp:151] Top shape: 64 48 14 14 (602112)
I1112 16:54:29.048327  3366 net.cpp:159] Memory required for data: 1631706624
I1112 16:54:29.048334  3366 layer_factory.hpp:77] Creating layer fire6/squeeze1x1_fire6/relu_squeeze1x1_0_split
I1112 16:54:29.048343  3366 net.cpp:94] Creating Layer fire6/squeeze1x1_fire6/relu_squeeze1x1_0_split
I1112 16:54:29.048352  3366 net.cpp:435] fire6/squeeze1x1_fire6/relu_squeeze1x1_0_split <- fire6/squeeze1x1
I1112 16:54:29.048360  3366 net.cpp:409] fire6/squeeze1x1_fire6/relu_squeeze1x1_0_split -> fire6/squeeze1x1_fire6/relu_squeeze1x1_0_split_0
I1112 16:54:29.048372  3366 net.cpp:409] fire6/squeeze1x1_fire6/relu_squeeze1x1_0_split -> fire6/squeeze1x1_fire6/relu_squeeze1x1_0_split_1
I1112 16:54:29.048444  3366 net.cpp:144] Setting up fire6/squeeze1x1_fire6/relu_squeeze1x1_0_split
I1112 16:54:29.048454  3366 net.cpp:151] Top shape: 64 48 14 14 (602112)
I1112 16:54:29.048462  3366 net.cpp:151] Top shape: 64 48 14 14 (602112)
I1112 16:54:29.048468  3366 net.cpp:159] Memory required for data: 1636523520
I1112 16:54:29.048476  3366 layer_factory.hpp:77] Creating layer fire6/expand1x1
I1112 16:54:29.048488  3366 net.cpp:94] Creating Layer fire6/expand1x1
I1112 16:54:29.048496  3366 net.cpp:435] fire6/expand1x1 <- fire6/squeeze1x1_fire6/relu_squeeze1x1_0_split_0
I1112 16:54:29.048506  3366 net.cpp:409] fire6/expand1x1 -> fire6/expand1x1
I1112 16:54:29.050629  3366 net.cpp:144] Setting up fire6/expand1x1
I1112 16:54:29.050642  3366 net.cpp:151] Top shape: 64 192 14 14 (2408448)
I1112 16:54:29.050649  3366 net.cpp:159] Memory required for data: 1646157312
I1112 16:54:29.050660  3366 layer_factory.hpp:77] Creating layer fire6/relu_expand1x1
I1112 16:54:29.050670  3366 net.cpp:94] Creating Layer fire6/relu_expand1x1
I1112 16:54:29.050678  3366 net.cpp:435] fire6/relu_expand1x1 <- fire6/expand1x1
I1112 16:54:29.050688  3366 net.cpp:396] fire6/relu_expand1x1 -> fire6/expand1x1 (in-place)
I1112 16:54:29.050698  3366 net.cpp:144] Setting up fire6/relu_expand1x1
I1112 16:54:29.050707  3366 net.cpp:151] Top shape: 64 192 14 14 (2408448)
I1112 16:54:29.050714  3366 net.cpp:159] Memory required for data: 1655791104
I1112 16:54:29.050721  3366 layer_factory.hpp:77] Creating layer fire6/expand3x3
I1112 16:54:29.050734  3366 net.cpp:94] Creating Layer fire6/expand3x3
I1112 16:54:29.050741  3366 net.cpp:435] fire6/expand3x3 <- fire6/squeeze1x1_fire6/relu_squeeze1x1_0_split_1
I1112 16:54:29.050751  3366 net.cpp:409] fire6/expand3x3 -> fire6/expand3x3
I1112 16:54:29.055785  3366 net.cpp:144] Setting up fire6/expand3x3
I1112 16:54:29.055812  3366 net.cpp:151] Top shape: 64 192 14 14 (2408448)
I1112 16:54:29.055819  3366 net.cpp:159] Memory required for data: 1665424896
I1112 16:54:29.055833  3366 layer_factory.hpp:77] Creating layer fire6/relu_expand3x3
I1112 16:54:29.055846  3366 net.cpp:94] Creating Layer fire6/relu_expand3x3
I1112 16:54:29.055855  3366 net.cpp:435] fire6/relu_expand3x3 <- fire6/expand3x3
I1112 16:54:29.055866  3366 net.cpp:396] fire6/relu_expand3x3 -> fire6/expand3x3 (in-place)
I1112 16:54:29.055879  3366 net.cpp:144] Setting up fire6/relu_expand3x3
I1112 16:54:29.055888  3366 net.cpp:151] Top shape: 64 192 14 14 (2408448)
I1112 16:54:29.055896  3366 net.cpp:159] Memory required for data: 1675058688
I1112 16:54:29.055902  3366 layer_factory.hpp:77] Creating layer fire6/concat
I1112 16:54:29.055912  3366 net.cpp:94] Creating Layer fire6/concat
I1112 16:54:29.055920  3366 net.cpp:435] fire6/concat <- fire6/expand1x1
I1112 16:54:29.055928  3366 net.cpp:435] fire6/concat <- fire6/expand3x3
I1112 16:54:29.055963  3366 net.cpp:409] fire6/concat -> fire6/concat
I1112 16:54:29.056025  3366 net.cpp:144] Setting up fire6/concat
I1112 16:54:29.056035  3366 net.cpp:151] Top shape: 64 384 14 14 (4816896)
I1112 16:54:29.056042  3366 net.cpp:159] Memory required for data: 1694326272
I1112 16:54:29.056049  3366 layer_factory.hpp:77] Creating layer fire7/squeeze1x1
I1112 16:54:29.056062  3366 net.cpp:94] Creating Layer fire7/squeeze1x1
I1112 16:54:29.056071  3366 net.cpp:435] fire7/squeeze1x1 <- fire6/concat
I1112 16:54:29.056080  3366 net.cpp:409] fire7/squeeze1x1 -> fire7/squeeze1x1
I1112 16:54:29.058879  3366 net.cpp:144] Setting up fire7/squeeze1x1
I1112 16:54:29.058900  3366 net.cpp:151] Top shape: 64 48 14 14 (602112)
I1112 16:54:29.058908  3366 net.cpp:159] Memory required for data: 1696734720
I1112 16:54:29.058931  3366 layer_factory.hpp:77] Creating layer fire7/relu_squeeze1x1
I1112 16:54:29.058944  3366 net.cpp:94] Creating Layer fire7/relu_squeeze1x1
I1112 16:54:29.058953  3366 net.cpp:435] fire7/relu_squeeze1x1 <- fire7/squeeze1x1
I1112 16:54:29.058962  3366 net.cpp:396] fire7/relu_squeeze1x1 -> fire7/squeeze1x1 (in-place)
I1112 16:54:29.058976  3366 net.cpp:144] Setting up fire7/relu_squeeze1x1
I1112 16:54:29.058985  3366 net.cpp:151] Top shape: 64 48 14 14 (602112)
I1112 16:54:29.058992  3366 net.cpp:159] Memory required for data: 1699143168
I1112 16:54:29.059000  3366 layer_factory.hpp:77] Creating layer fire7/squeeze1x1_fire7/relu_squeeze1x1_0_split
I1112 16:54:29.059010  3366 net.cpp:94] Creating Layer fire7/squeeze1x1_fire7/relu_squeeze1x1_0_split
I1112 16:54:29.059016  3366 net.cpp:435] fire7/squeeze1x1_fire7/relu_squeeze1x1_0_split <- fire7/squeeze1x1
I1112 16:54:29.059026  3366 net.cpp:409] fire7/squeeze1x1_fire7/relu_squeeze1x1_0_split -> fire7/squeeze1x1_fire7/relu_squeeze1x1_0_split_0
I1112 16:54:29.059037  3366 net.cpp:409] fire7/squeeze1x1_fire7/relu_squeeze1x1_0_split -> fire7/squeeze1x1_fire7/relu_squeeze1x1_0_split_1
I1112 16:54:29.059109  3366 net.cpp:144] Setting up fire7/squeeze1x1_fire7/relu_squeeze1x1_0_split
I1112 16:54:29.059119  3366 net.cpp:151] Top shape: 64 48 14 14 (602112)
I1112 16:54:29.059128  3366 net.cpp:151] Top shape: 64 48 14 14 (602112)
I1112 16:54:29.059134  3366 net.cpp:159] Memory required for data: 1703960064
I1112 16:54:29.059141  3366 layer_factory.hpp:77] Creating layer fire7/expand1x1
I1112 16:54:29.059155  3366 net.cpp:94] Creating Layer fire7/expand1x1
I1112 16:54:29.059162  3366 net.cpp:435] fire7/expand1x1 <- fire7/squeeze1x1_fire7/relu_squeeze1x1_0_split_0
I1112 16:54:29.059172  3366 net.cpp:409] fire7/expand1x1 -> fire7/expand1x1
I1112 16:54:29.062919  3366 net.cpp:144] Setting up fire7/expand1x1
I1112 16:54:29.062935  3366 net.cpp:151] Top shape: 64 192 14 14 (2408448)
I1112 16:54:29.062943  3366 net.cpp:159] Memory required for data: 1713593856
I1112 16:54:29.062955  3366 layer_factory.hpp:77] Creating layer fire7/relu_expand1x1
I1112 16:54:29.062965  3366 net.cpp:94] Creating Layer fire7/relu_expand1x1
I1112 16:54:29.062973  3366 net.cpp:435] fire7/relu_expand1x1 <- fire7/expand1x1
I1112 16:54:29.062983  3366 net.cpp:396] fire7/relu_expand1x1 -> fire7/expand1x1 (in-place)
I1112 16:54:29.062995  3366 net.cpp:144] Setting up fire7/relu_expand1x1
I1112 16:54:29.063004  3366 net.cpp:151] Top shape: 64 192 14 14 (2408448)
I1112 16:54:29.063011  3366 net.cpp:159] Memory required for data: 1723227648
I1112 16:54:29.063019  3366 layer_factory.hpp:77] Creating layer fire7/expand3x3
I1112 16:54:29.063031  3366 net.cpp:94] Creating Layer fire7/expand3x3
I1112 16:54:29.063040  3366 net.cpp:435] fire7/expand3x3 <- fire7/squeeze1x1_fire7/relu_squeeze1x1_0_split_1
I1112 16:54:29.063050  3366 net.cpp:409] fire7/expand3x3 -> fire7/expand3x3
I1112 16:54:29.069340  3366 net.cpp:144] Setting up fire7/expand3x3
I1112 16:54:29.069368  3366 net.cpp:151] Top shape: 64 192 14 14 (2408448)
I1112 16:54:29.069375  3366 net.cpp:159] Memory required for data: 1732861440
I1112 16:54:29.069389  3366 layer_factory.hpp:77] Creating layer fire7/relu_expand3x3
I1112 16:54:29.069429  3366 net.cpp:94] Creating Layer fire7/relu_expand3x3
I1112 16:54:29.069438  3366 net.cpp:435] fire7/relu_expand3x3 <- fire7/expand3x3
I1112 16:54:29.069448  3366 net.cpp:396] fire7/relu_expand3x3 -> fire7/expand3x3 (in-place)
I1112 16:54:29.069463  3366 net.cpp:144] Setting up fire7/relu_expand3x3
I1112 16:54:29.069473  3366 net.cpp:151] Top shape: 64 192 14 14 (2408448)
I1112 16:54:29.069479  3366 net.cpp:159] Memory required for data: 1742495232
I1112 16:54:29.069486  3366 layer_factory.hpp:77] Creating layer fire7/concat
I1112 16:54:29.069496  3366 net.cpp:94] Creating Layer fire7/concat
I1112 16:54:29.069504  3366 net.cpp:435] fire7/concat <- fire7/expand1x1
I1112 16:54:29.069514  3366 net.cpp:435] fire7/concat <- fire7/expand3x3
I1112 16:54:29.069522  3366 net.cpp:409] fire7/concat -> fire7/concat
I1112 16:54:29.069584  3366 net.cpp:144] Setting up fire7/concat
I1112 16:54:29.069594  3366 net.cpp:151] Top shape: 64 384 14 14 (4816896)
I1112 16:54:29.069602  3366 net.cpp:159] Memory required for data: 1761762816
I1112 16:54:29.069608  3366 layer_factory.hpp:77] Creating layer fire8/squeeze1x1
I1112 16:54:29.069622  3366 net.cpp:94] Creating Layer fire8/squeeze1x1
I1112 16:54:29.069629  3366 net.cpp:435] fire8/squeeze1x1 <- fire7/concat
I1112 16:54:29.069639  3366 net.cpp:409] fire8/squeeze1x1 -> fire8/squeeze1x1
I1112 16:54:29.072079  3366 net.cpp:144] Setting up fire8/squeeze1x1
I1112 16:54:29.072098  3366 net.cpp:151] Top shape: 64 64 14 14 (802816)
I1112 16:54:29.072104  3366 net.cpp:159] Memory required for data: 1764974080
I1112 16:54:29.072118  3366 layer_factory.hpp:77] Creating layer fire8/relu_squeeze1x1
I1112 16:54:29.072129  3366 net.cpp:94] Creating Layer fire8/relu_squeeze1x1
I1112 16:54:29.072136  3366 net.cpp:435] fire8/relu_squeeze1x1 <- fire8/squeeze1x1
I1112 16:54:29.072146  3366 net.cpp:396] fire8/relu_squeeze1x1 -> fire8/squeeze1x1 (in-place)
I1112 16:54:29.072160  3366 net.cpp:144] Setting up fire8/relu_squeeze1x1
I1112 16:54:29.072168  3366 net.cpp:151] Top shape: 64 64 14 14 (802816)
I1112 16:54:29.072175  3366 net.cpp:159] Memory required for data: 1768185344
I1112 16:54:29.072182  3366 layer_factory.hpp:77] Creating layer fire8/squeeze1x1_fire8/relu_squeeze1x1_0_split
I1112 16:54:29.072191  3366 net.cpp:94] Creating Layer fire8/squeeze1x1_fire8/relu_squeeze1x1_0_split
I1112 16:54:29.072199  3366 net.cpp:435] fire8/squeeze1x1_fire8/relu_squeeze1x1_0_split <- fire8/squeeze1x1
I1112 16:54:29.072208  3366 net.cpp:409] fire8/squeeze1x1_fire8/relu_squeeze1x1_0_split -> fire8/squeeze1x1_fire8/relu_squeeze1x1_0_split_0
I1112 16:54:29.072219  3366 net.cpp:409] fire8/squeeze1x1_fire8/relu_squeeze1x1_0_split -> fire8/squeeze1x1_fire8/relu_squeeze1x1_0_split_1
I1112 16:54:29.072283  3366 net.cpp:144] Setting up fire8/squeeze1x1_fire8/relu_squeeze1x1_0_split
I1112 16:54:29.072293  3366 net.cpp:151] Top shape: 64 64 14 14 (802816)
I1112 16:54:29.072301  3366 net.cpp:151] Top shape: 64 64 14 14 (802816)
I1112 16:54:29.072309  3366 net.cpp:159] Memory required for data: 1774607872
I1112 16:54:29.072316  3366 layer_factory.hpp:77] Creating layer fire8/expand1x1
I1112 16:54:29.072329  3366 net.cpp:94] Creating Layer fire8/expand1x1
I1112 16:54:29.072337  3366 net.cpp:435] fire8/expand1x1 <- fire8/squeeze1x1_fire8/relu_squeeze1x1_0_split_0
I1112 16:54:29.072347  3366 net.cpp:409] fire8/expand1x1 -> fire8/expand1x1
I1112 16:54:29.075848  3366 net.cpp:144] Setting up fire8/expand1x1
I1112 16:54:29.075873  3366 net.cpp:151] Top shape: 64 256 14 14 (3211264)
I1112 16:54:29.075881  3366 net.cpp:159] Memory required for data: 1787452928
I1112 16:54:29.075894  3366 layer_factory.hpp:77] Creating layer fire8/relu_expand1x1
I1112 16:54:29.075906  3366 net.cpp:94] Creating Layer fire8/relu_expand1x1
I1112 16:54:29.075916  3366 net.cpp:435] fire8/relu_expand1x1 <- fire8/expand1x1
I1112 16:54:29.075925  3366 net.cpp:396] fire8/relu_expand1x1 -> fire8/expand1x1 (in-place)
I1112 16:54:29.075939  3366 net.cpp:144] Setting up fire8/relu_expand1x1
I1112 16:54:29.075948  3366 net.cpp:151] Top shape: 64 256 14 14 (3211264)
I1112 16:54:29.075981  3366 net.cpp:159] Memory required for data: 1800297984
I1112 16:54:29.075989  3366 layer_factory.hpp:77] Creating layer fire8/expand3x3
I1112 16:54:29.076004  3366 net.cpp:94] Creating Layer fire8/expand3x3
I1112 16:54:29.076011  3366 net.cpp:435] fire8/expand3x3 <- fire8/squeeze1x1_fire8/relu_squeeze1x1_0_split_1
I1112 16:54:29.076021  3366 net.cpp:409] fire8/expand3x3 -> fire8/expand3x3
I1112 16:54:29.090353  3366 net.cpp:144] Setting up fire8/expand3x3
I1112 16:54:29.090389  3366 net.cpp:151] Top shape: 64 256 14 14 (3211264)
I1112 16:54:29.090395  3366 net.cpp:159] Memory required for data: 1813143040
I1112 16:54:29.090411  3366 layer_factory.hpp:77] Creating layer fire8/relu_expand3x3
I1112 16:54:29.090426  3366 net.cpp:94] Creating Layer fire8/relu_expand3x3
I1112 16:54:29.090436  3366 net.cpp:435] fire8/relu_expand3x3 <- fire8/expand3x3
I1112 16:54:29.090447  3366 net.cpp:396] fire8/relu_expand3x3 -> fire8/expand3x3 (in-place)
I1112 16:54:29.090462  3366 net.cpp:144] Setting up fire8/relu_expand3x3
I1112 16:54:29.090471  3366 net.cpp:151] Top shape: 64 256 14 14 (3211264)
I1112 16:54:29.090478  3366 net.cpp:159] Memory required for data: 1825988096
I1112 16:54:29.090486  3366 layer_factory.hpp:77] Creating layer fire8/concat
I1112 16:54:29.090497  3366 net.cpp:94] Creating Layer fire8/concat
I1112 16:54:29.090503  3366 net.cpp:435] fire8/concat <- fire8/expand1x1
I1112 16:54:29.090512  3366 net.cpp:435] fire8/concat <- fire8/expand3x3
I1112 16:54:29.090522  3366 net.cpp:409] fire8/concat -> fire8/concat
I1112 16:54:29.090616  3366 net.cpp:144] Setting up fire8/concat
I1112 16:54:29.090626  3366 net.cpp:151] Top shape: 64 512 14 14 (6422528)
I1112 16:54:29.090634  3366 net.cpp:159] Memory required for data: 1851678208
I1112 16:54:29.090641  3366 layer_factory.hpp:77] Creating layer fire9/squeeze1x1
I1112 16:54:29.090656  3366 net.cpp:94] Creating Layer fire9/squeeze1x1
I1112 16:54:29.090663  3366 net.cpp:435] fire9/squeeze1x1 <- fire8/concat
I1112 16:54:29.090673  3366 net.cpp:409] fire9/squeeze1x1 -> fire9/squeeze1x1
I1112 16:54:29.093482  3366 net.cpp:144] Setting up fire9/squeeze1x1
I1112 16:54:29.093500  3366 net.cpp:151] Top shape: 64 64 14 14 (802816)
I1112 16:54:29.093508  3366 net.cpp:159] Memory required for data: 1854889472
I1112 16:54:29.093520  3366 layer_factory.hpp:77] Creating layer fire9/relu_squeeze1x1
I1112 16:54:29.093549  3366 net.cpp:94] Creating Layer fire9/relu_squeeze1x1
I1112 16:54:29.093556  3366 net.cpp:435] fire9/relu_squeeze1x1 <- fire9/squeeze1x1
I1112 16:54:29.093567  3366 net.cpp:396] fire9/relu_squeeze1x1 -> fire9/squeeze1x1 (in-place)
I1112 16:54:29.093581  3366 net.cpp:144] Setting up fire9/relu_squeeze1x1
I1112 16:54:29.093590  3366 net.cpp:151] Top shape: 64 64 14 14 (802816)
I1112 16:54:29.093597  3366 net.cpp:159] Memory required for data: 1858100736
I1112 16:54:29.093605  3366 layer_factory.hpp:77] Creating layer fire9/squeeze1x1_fire9/relu_squeeze1x1_0_split
I1112 16:54:29.093616  3366 net.cpp:94] Creating Layer fire9/squeeze1x1_fire9/relu_squeeze1x1_0_split
I1112 16:54:29.093622  3366 net.cpp:435] fire9/squeeze1x1_fire9/relu_squeeze1x1_0_split <- fire9/squeeze1x1
I1112 16:54:29.093632  3366 net.cpp:409] fire9/squeeze1x1_fire9/relu_squeeze1x1_0_split -> fire9/squeeze1x1_fire9/relu_squeeze1x1_0_split_0
I1112 16:54:29.093643  3366 net.cpp:409] fire9/squeeze1x1_fire9/relu_squeeze1x1_0_split -> fire9/squeeze1x1_fire9/relu_squeeze1x1_0_split_1
I1112 16:54:29.093719  3366 net.cpp:144] Setting up fire9/squeeze1x1_fire9/relu_squeeze1x1_0_split
I1112 16:54:29.093729  3366 net.cpp:151] Top shape: 64 64 14 14 (802816)
I1112 16:54:29.093739  3366 net.cpp:151] Top shape: 64 64 14 14 (802816)
I1112 16:54:29.093745  3366 net.cpp:159] Memory required for data: 1864523264
I1112 16:54:29.093752  3366 layer_factory.hpp:77] Creating layer fire9/expand1x1
I1112 16:54:29.093766  3366 net.cpp:94] Creating Layer fire9/expand1x1
I1112 16:54:29.093775  3366 net.cpp:435] fire9/expand1x1 <- fire9/squeeze1x1_fire9/relu_squeeze1x1_0_split_0
I1112 16:54:29.093801  3366 net.cpp:409] fire9/expand1x1 -> fire9/expand1x1
I1112 16:54:29.096376  3366 net.cpp:144] Setting up fire9/expand1x1
I1112 16:54:29.096390  3366 net.cpp:151] Top shape: 64 256 14 14 (3211264)
I1112 16:54:29.096397  3366 net.cpp:159] Memory required for data: 1877368320
I1112 16:54:29.096410  3366 layer_factory.hpp:77] Creating layer fire9/relu_expand1x1
I1112 16:54:29.096420  3366 net.cpp:94] Creating Layer fire9/relu_expand1x1
I1112 16:54:29.096427  3366 net.cpp:435] fire9/relu_expand1x1 <- fire9/expand1x1
I1112 16:54:29.096436  3366 net.cpp:396] fire9/relu_expand1x1 -> fire9/expand1x1 (in-place)
I1112 16:54:29.096449  3366 net.cpp:144] Setting up fire9/relu_expand1x1
I1112 16:54:29.096458  3366 net.cpp:151] Top shape: 64 256 14 14 (3211264)
I1112 16:54:29.096465  3366 net.cpp:159] Memory required for data: 1890213376
I1112 16:54:29.096472  3366 layer_factory.hpp:77] Creating layer fire9/expand3x3
I1112 16:54:29.096484  3366 net.cpp:94] Creating Layer fire9/expand3x3
I1112 16:54:29.096493  3366 net.cpp:435] fire9/expand3x3 <- fire9/squeeze1x1_fire9/relu_squeeze1x1_0_split_1
I1112 16:54:29.096503  3366 net.cpp:409] fire9/expand3x3 -> fire9/expand3x3
I1112 16:54:29.103349  3366 net.cpp:144] Setting up fire9/expand3x3
I1112 16:54:29.103374  3366 net.cpp:151] Top shape: 64 256 14 14 (3211264)
I1112 16:54:29.103381  3366 net.cpp:159] Memory required for data: 1903058432
I1112 16:54:29.103396  3366 layer_factory.hpp:77] Creating layer fire9/relu_expand3x3
I1112 16:54:29.103410  3366 net.cpp:94] Creating Layer fire9/relu_expand3x3
I1112 16:54:29.103418  3366 net.cpp:435] fire9/relu_expand3x3 <- fire9/expand3x3
I1112 16:54:29.103430  3366 net.cpp:396] fire9/relu_expand3x3 -> fire9/expand3x3 (in-place)
I1112 16:54:29.103444  3366 net.cpp:144] Setting up fire9/relu_expand3x3
I1112 16:54:29.103453  3366 net.cpp:151] Top shape: 64 256 14 14 (3211264)
I1112 16:54:29.103461  3366 net.cpp:159] Memory required for data: 1915903488
I1112 16:54:29.103468  3366 layer_factory.hpp:77] Creating layer fire9/concat
I1112 16:54:29.103478  3366 net.cpp:94] Creating Layer fire9/concat
I1112 16:54:29.103487  3366 net.cpp:435] fire9/concat <- fire9/expand1x1
I1112 16:54:29.103494  3366 net.cpp:435] fire9/concat <- fire9/expand3x3
I1112 16:54:29.103504  3366 net.cpp:409] fire9/concat -> fire9/concat
I1112 16:54:29.103587  3366 net.cpp:144] Setting up fire9/concat
I1112 16:54:29.103598  3366 net.cpp:151] Top shape: 64 512 14 14 (6422528)
I1112 16:54:29.103605  3366 net.cpp:159] Memory required for data: 1941593600
I1112 16:54:29.103612  3366 layer_factory.hpp:77] Creating layer drop9
I1112 16:54:29.103623  3366 net.cpp:94] Creating Layer drop9
I1112 16:54:29.103631  3366 net.cpp:435] drop9 <- fire9/concat
I1112 16:54:29.103641  3366 net.cpp:396] drop9 -> fire9/concat (in-place)
I1112 16:54:29.103677  3366 net.cpp:144] Setting up drop9
I1112 16:54:29.103688  3366 net.cpp:151] Top shape: 64 512 14 14 (6422528)
I1112 16:54:29.103694  3366 net.cpp:159] Memory required for data: 1967283712
I1112 16:54:29.103701  3366 layer_factory.hpp:77] Creating layer conv10
I1112 16:54:29.103715  3366 net.cpp:94] Creating Layer conv10
I1112 16:54:29.103724  3366 net.cpp:435] conv10 <- fire9/concat
I1112 16:54:29.103734  3366 net.cpp:409] conv10 -> conv10
I1112 16:54:29.105569  3366 net.cpp:144] Setting up conv10
I1112 16:54:29.105582  3366 net.cpp:151] Top shape: 64 2 14 14 (25088)
I1112 16:54:29.105590  3366 net.cpp:159] Memory required for data: 1967384064
I1112 16:54:29.105602  3366 layer_factory.hpp:77] Creating layer relu_conv10
I1112 16:54:29.105612  3366 net.cpp:94] Creating Layer relu_conv10
I1112 16:54:29.105619  3366 net.cpp:435] relu_conv10 <- conv10
I1112 16:54:29.105628  3366 net.cpp:396] relu_conv10 -> conv10 (in-place)
I1112 16:54:29.105640  3366 net.cpp:144] Setting up relu_conv10
I1112 16:54:29.105649  3366 net.cpp:151] Top shape: 64 2 14 14 (25088)
I1112 16:54:29.105656  3366 net.cpp:159] Memory required for data: 1967484416
I1112 16:54:29.105664  3366 layer_factory.hpp:77] Creating layer pool10
I1112 16:54:29.105674  3366 net.cpp:94] Creating Layer pool10
I1112 16:54:29.105697  3366 net.cpp:435] pool10 <- conv10
I1112 16:54:29.105708  3366 net.cpp:409] pool10 -> pool10
I1112 16:54:29.105751  3366 net.cpp:144] Setting up pool10
I1112 16:54:29.105761  3366 net.cpp:151] Top shape: 64 2 1 1 (128)
I1112 16:54:29.105767  3366 net.cpp:159] Memory required for data: 1967484928
I1112 16:54:29.105774  3366 layer_factory.hpp:77] Creating layer pool10_pool10_0_split
I1112 16:54:29.105784  3366 net.cpp:94] Creating Layer pool10_pool10_0_split
I1112 16:54:29.105792  3366 net.cpp:435] pool10_pool10_0_split <- pool10
I1112 16:54:29.105800  3366 net.cpp:409] pool10_pool10_0_split -> pool10_pool10_0_split_0
I1112 16:54:29.105811  3366 net.cpp:409] pool10_pool10_0_split -> pool10_pool10_0_split_1
I1112 16:54:29.105865  3366 net.cpp:144] Setting up pool10_pool10_0_split
I1112 16:54:29.105875  3366 net.cpp:151] Top shape: 64 2 1 1 (128)
I1112 16:54:29.105883  3366 net.cpp:151] Top shape: 64 2 1 1 (128)
I1112 16:54:29.105890  3366 net.cpp:159] Memory required for data: 1967485952
I1112 16:54:29.105896  3366 layer_factory.hpp:77] Creating layer accuracy
I1112 16:54:29.105927  3366 net.cpp:94] Creating Layer accuracy
I1112 16:54:29.105936  3366 net.cpp:435] accuracy <- pool10_pool10_0_split_0
I1112 16:54:29.105944  3366 net.cpp:435] accuracy <- label_val-data_1_split_0
I1112 16:54:29.105954  3366 net.cpp:409] accuracy -> accuracy
…
