…
I1127 16:20:47.232453  4228 net.cpp:323] The NetState phase (0) differed from the phase (1) specified by a rule in layer accuracy
I1127 16:20:47.232810  4228 net.cpp:52] Initializing net from parameters:
state {
phase: TRAIN
}
layer {
name: "train-data"
type: "Data"
top: "data"
top: "label"
include {
phase: TRAIN
}
transform_param {
mirror: true
crop_size: 224
mean_file: "/media/myuser/120Gb/DIGITS/digits/jobs/20160904-002550-f9dd/mean.binaryproto"
}
data_param {
source: "/media/myuser/120Gb/DIGITS/digits/jobs/20160904-002550-f9dd/train_db"
batch_size: 24
backend: LMDB
}
}
layer {
name: "conv1_1"
type: "Convolution"
bottom: "data"
top: "conv1_1"
convolution_param {
num_output: 64
pad: 1
kernel_size: 3
weight_filler {
type: "xavier"
}
bias_filler {
type: "constant"
value: 0
}
}
}
layer {
name: "relu1_1"
type: "ReLU"
bottom: "conv1_1"
top: "conv1_1"
}
layer {
name: "conv1_2"
type: "Convolution"
bottom: "conv1_1"
top: "conv1_2"
convolution_param {
num_output: 64
pad: 1
kernel_size: 3
weight_filler {
type: "xavier"
}
bias_filler {
type: "constant"
value: 0
}
}
}
layer {
name: "relu1_2"
type: "ReLU"
bottom: "conv1_2"
top: "conv1_2"
}
layer {
name: "pool1"
type: "Pooling"
bottom: "conv1_2"
top: "pool1"
pooling_param {
pool: MAX
kernel_size: 2
stride: 2
}
}
layer {
name: "conv2_1"
type: "Convolution"
bottom: "pool1"
top: "conv2_1"
convolution_param {
num_output: 128
pad: 1
kernel_size: 3
weight_filler {
type: "xavier"
}
bias_filler {
type: "constant"
value: 0
}
}
}
layer {
name: "relu2_1"
type: "ReLU"
bottom: "conv2_1"
top: "conv2_1"
}
layer {
name: "conv2_2"
type: "Convolution"
bottom: "conv2_1"
top: "conv2_2"
convolution_param {
num_output: 128
pad: 1
kernel_size: 3
weight_filler {
type: "xavier"
}
bias_filler {
type: "constant"
value: 0
}
}
}
layer {
name: "relu2_2"
type: "ReLU"
bottom: "conv2_2"
top: "conv2_2"
}
layer {
name: "pool2"
type: "Pooling"
bottom: "conv2_2"
top: "pool2"
pooling_param {
pool: MAX
kernel_size: 2
stride: 2
}
}
layer {
name: "conv3_1"
type: "Convolution"
bottom: "pool2"
top: "conv3_1"
convolution_param {
num_output: 256
pad: 1
kernel_size: 3
weight_filler {
type: "xavier"
}
bias_filler {
type: "constant"
value: 0
}
}
}
layer {
name: "relu3_1"
type: "ReLU"
bottom: "conv3_1"
top: "conv3_1"
}
layer {
name: "conv3_2"
type: "Convolution"
bottom: "conv3_1"
top: "conv3_2"
convolution_param {
num_output: 256
pad: 1
kernel_size: 3
weight_filler {
type: "xavier"
}
bias_filler {
type: "constant"
value: 0
}
}
}
layer {
name: "relu3_2"
type: "ReLU"
bottom: "conv3_2"
top: "conv3_2"
}
layer {
name: "conv3_3"
type: "Convolution"
bottom: "conv3_2"
top: "conv3_3"
convolution_param {
num_output: 256
pad: 1
kernel_size: 3
weight_filler {
type: "xavier"
}
bias_filler {
type: "constant"
value: 0
}
}
}
layer {
name: "relu3_3"
type: "ReLU"
bottom: "conv3_3"
top: "conv3_3"
}
layer {
name: "pool3"
type: "Pooling"
bottom: "conv3_3"
top: "pool3"
pooling_param {
pool: MAX
kernel_size: 2
stride: 2
}
}
layer {
name: "conv4_1"
type: "Convolution"
bottom: "pool3"
top: "conv4_1"
convolution_param {
num_output: 512
pad: 1
kernel_size: 3
weight_filler {
type: "xavier"
}
bias_filler {
type: "constant"
value: 0
}
}
}
layer {
name: "relu4_1"
type: "ReLU"
bottom: "conv4_1"
top: "conv4_1"
}
layer {
name: "conv4_2"
type: "Convolution"
bottom: "conv4_1"
top: "conv4_2"
convolution_param {
num_output: 512
pad: 1
kernel_size: 3
weight_filler {
type: "xavier"
}
bias_filler {
type: "constant"
value: 0
}
}
}
layer {
name: "relu4_2"
type: "ReLU"
bottom: "conv4_2"
top: "conv4_2"
}
layer {
name: "conv4_3"
type: "Convolution"
bottom: "conv4_2"
top: "conv4_3"
convolution_param {
num_output: 512
pad: 1
kernel_size: 3
weight_filler {
type: "xavier"
}
bias_filler {
type: "constant"
value: 0
}
}
}
layer {
name: "relu4_3"
type: "ReLU"
bottom: "conv4_3"
top: "conv4_3"
}
layer {
name: "pool4"
type: "Pooling"
bottom: "conv4_3"
top: "pool4"
pooling_param {
pool: MAX
kernel_size: 2
stride: 2
}
}
layer {
name: "conv5_1"
type: "Convolution"
bottom: "pool4"
top: "conv5_1"
convolution_param {
num_output: 512
pad: 1
kernel_size: 3
weight_filler {
type: "xavier"
}
bias_filler {
type: "constant"
value: 0
}
}
}
layer {
name: "relu5_1"
type: "ReLU"
bottom: "conv5_1"
top: "conv5_1"
}
layer {
name: "conv5_2"
type: "Convolution"
bottom: "conv5_1"
top: "conv5_2"
convolution_param {
num_output: 512
pad: 1
kernel_size: 3
weight_filler {
type: "xavier"
}
bias_filler {
type: "constant"
value: 0
}
}
}
layer {
name: "relu5_2"
type: "ReLU"
bottom: "conv5_2"
top: "conv5_2"
}
layer {
name: "conv5_3"
type: "Convolution"
bottom: "conv5_2"
top: "conv5_3"
convolution_param {
num_output: 512
pad: 1
kernel_size: 3
weight_filler {
type: "xavier"
}
bias_filler {
type: "constant"
value: 0
}
}
}
layer {
name: "relu5_3"
type: "ReLU"
bottom: "conv5_3"
top: "conv5_3"
}
layer {
name: "pool5"
type: "Pooling"
bottom: "conv5_3"
top: "pool5"
pooling_param {
pool: MAX
kernel_size: 2
stride: 2
}
}
layer {
name: "fc6"
type: "InnerProduct"
bottom: "pool5"
top: "fc6"
inner_product_param {
num_output: 4096
weight_filler {
type: "xavier"
}
bias_filler {
type: "constant"
value: 0.1
}
}
}
layer {
name: "relu6"
type: "ReLU"
bottom: "fc6"
top: "fc6"
}
layer {
name: "drop6"
type: "Dropout"
bottom: "fc6"
top: "fc6"
dropout_param {
dropout_ratio: 0.5
}
}
layer {
name: "fc7"
type: "InnerProduct"
bottom: "fc6"
top: "fc7"
inner_product_param {
num_output: 4096
weight_filler {
type: "xavier"
}
bias_filler {
type: "constant"
value: 0.1
}
}
}
layer {
name: "relu7"
type: "ReLU"
bottom: "fc7"
top: "fc7"
}
layer {
name: "drop7"
type: "Dropout"
bottom: "fc7"
top: "fc7"
dropout_param {
dropout_ratio: 0.5
}
}
layer {
name: "fc8_output"
type: "InnerProduct"
bottom: "fc7"
top: "fc8_output"
inner_product_param {
num_output: 2
weight_filler {
type: "xavier"
}
bias_filler {
type: "constant"
value: 0.1
}
}
}
layer {
name: "loss"
type: "SoftmaxWithLoss"
bottom: "fc8_output"
bottom: "label"
top: "loss"
}
I1127 16:20:47.233064  4228 layer_factory.hpp:77] Creating layer train-data
I1127 16:20:47.234753  4228 net.cpp:94] Creating Layer train-data
I1127 16:20:47.234776  4228 net.cpp:409] train-data -> data
I1127 16:20:47.234817  4228 net.cpp:409] train-data -> label
I1127 16:20:47.234846  4228 data_transformer.cpp:25] Loading mean file from: /media/myuser/120Gb/DIGITS/digits/jobs/20160904-002550-f9dd/mean.binaryproto
I1127 16:20:47.292752  4235 db_lmdb.cpp:35] Opened lmdb /media/myuser/120Gb/DIGITS/digits/jobs/20160904-002550-f9dd/train_db
I1127 16:20:47.336796  4228 data_layer.cpp:76] output data size: 24,3,224,224
I1127 16:20:47.390198  4228 net.cpp:144] Setting up train-data
I1127 16:20:47.390244  4228 net.cpp:151] Top shape: 24 3 224 224 (3612672)
I1127 16:20:47.390261  4228 net.cpp:151] Top shape: 24 (24)
I1127 16:20:47.390272  4228 net.cpp:159] Memory required for data: 14450784
I1127 16:20:47.390291  4228 layer_factory.hpp:77] Creating layer conv1_1
I1127 16:20:47.390326  4228 net.cpp:94] Creating Layer conv1_1
I1127 16:20:47.390341  4228 net.cpp:435] conv1_1 <- data
I1127 16:20:47.390365  4228 net.cpp:409] conv1_1 -> conv1_1
I1127 16:20:47.499389  4228 net.cpp:144] Setting up conv1_1
I1127 16:20:47.499428  4228 net.cpp:151] Top shape: 24 64 224 224 (77070336)
I1127 16:20:47.499441  4228 net.cpp:159] Memory required for data: 322732128
I1127 16:20:47.499471  4228 layer_factory.hpp:77] Creating layer relu1_1
I1127 16:20:47.500771  4228 net.cpp:94] Creating Layer relu1_1
I1127 16:20:47.500784  4228 net.cpp:435] relu1_1 <- conv1_1
I1127 16:20:47.500799  4228 net.cpp:396] relu1_1 -> conv1_1 (in-place)
I1127 16:20:47.500843  4228 net.cpp:144] Setting up relu1_1
I1127 16:20:47.500857  4228 net.cpp:151] Top shape: 24 64 224 224 (77070336)
I1127 16:20:47.500869  4228 net.cpp:159] Memory required for data: 631013472
I1127 16:20:47.500880  4228 layer_factory.hpp:77] Creating layer conv1_2
I1127 16:20:47.500901  4228 net.cpp:94] Creating Layer conv1_2
I1127 16:20:47.500912  4228 net.cpp:435] conv1_2 <- conv1_1
I1127 16:20:47.500928  4228 net.cpp:409] conv1_2 -> conv1_2
I1127 16:20:47.851256  4228 net.cpp:144] Setting up conv1_2
I1127 16:20:47.851303  4228 net.cpp:151] Top shape: 24 64 224 224 (77070336)
I1127 16:20:47.851312  4228 net.cpp:159] Memory required for data: 939294816
I1127 16:20:47.851333  4228 layer_factory.hpp:77] Creating layer relu1_2
I1127 16:20:47.851351  4228 net.cpp:94] Creating Layer relu1_2
I1127 16:20:47.851359  4228 net.cpp:435] relu1_2 <- conv1_2
I1127 16:20:47.851371  4228 net.cpp:396] relu1_2 -> conv1_2 (in-place)
I1127 16:20:47.851387  4228 net.cpp:144] Setting up relu1_2
I1127 16:20:47.851395  4228 net.cpp:151] Top shape: 24 64 224 224 (77070336)
I1127 16:20:47.851402  4228 net.cpp:159] Memory required for data: 1247576160
I1127 16:20:47.851409  4228 layer_factory.hpp:77] Creating layer pool1
I1127 16:20:47.851424  4228 net.cpp:94] Creating Layer pool1
I1127 16:20:47.851433  4228 net.cpp:435] pool1 <- conv1_2
I1127 16:20:47.851441  4228 net.cpp:409] pool1 -> pool1
I1127 16:20:47.851546  4228 net.cpp:144] Setting up pool1
I1127 16:20:47.851557  4228 net.cpp:151] Top shape: 24 64 112 112 (19267584)
I1127 16:20:47.851564  4228 net.cpp:159] Memory required for data: 1324646496
I1127 16:20:47.851572  4228 layer_factory.hpp:77] Creating layer conv2_1
I1127 16:20:47.851588  4228 net.cpp:94] Creating Layer conv2_1
I1127 16:20:47.851595  4228 net.cpp:435] conv2_1 <- pool1
I1127 16:20:47.851605  4228 net.cpp:409] conv2_1 -> conv2_1
I1127 16:20:47.984704  4228 net.cpp:144] Setting up conv2_1
I1127 16:20:47.984747  4228 net.cpp:151] Top shape: 24 128 112 112 (38535168)
I1127 16:20:47.984760  4228 net.cpp:159] Memory required for data: 1478787168
I1127 16:20:47.984788  4228 layer_factory.hpp:77] Creating layer relu2_1
I1127 16:20:47.984808  4228 net.cpp:94] Creating Layer relu2_1
I1127 16:20:47.984822  4228 net.cpp:435] relu2_1 <- conv2_1
I1127 16:20:47.984835  4228 net.cpp:396] relu2_1 -> conv2_1 (in-place)
I1127 16:20:47.984858  4228 net.cpp:144] Setting up relu2_1
I1127 16:20:47.984874  4228 net.cpp:151] Top shape: 24 128 112 112 (38535168)
I1127 16:20:47.984884  4228 net.cpp:159] Memory required for data: 1632927840
I1127 16:20:47.984930  4228 layer_factory.hpp:77] Creating layer conv2_2
I1127 16:20:47.984956  4228 net.cpp:94] Creating Layer conv2_2
I1127 16:20:47.984967  4228 net.cpp:435] conv2_2 <- conv2_1
I1127 16:20:47.984983  4228 net.cpp:409] conv2_2 -> conv2_2
I1127 16:20:48.223817  4228 net.cpp:144] Setting up conv2_2
I1127 16:20:48.223850  4228 net.cpp:151] Top shape: 24 128 112 112 (38535168)
I1127 16:20:48.223862  4228 net.cpp:159] Memory required for data: 1787068512
I1127 16:20:48.223883  4228 layer_factory.hpp:77] Creating layer relu2_2
I1127 16:20:48.223901  4228 net.cpp:94] Creating Layer relu2_2
I1127 16:20:48.223913  4228 net.cpp:435] relu2_2 <- conv2_2
I1127 16:20:48.223928  4228 net.cpp:396] relu2_2 -> conv2_2 (in-place)
I1127 16:20:48.223950  4228 net.cpp:144] Setting up relu2_2
I1127 16:20:48.223963  4228 net.cpp:151] Top shape: 24 128 112 112 (38535168)
I1127 16:20:48.223974  4228 net.cpp:159] Memory required for data: 1941209184
I1127 16:20:48.223985  4228 layer_factory.hpp:77] Creating layer pool2
I1127 16:20:48.224001  4228 net.cpp:94] Creating Layer pool2
I1127 16:20:48.224012  4228 net.cpp:435] pool2 <- conv2_2
I1127 16:20:48.224027  4228 net.cpp:409] pool2 -> pool2
I1127 16:20:48.224115  4228 net.cpp:144] Setting up pool2
I1127 16:20:48.224130  4228 net.cpp:151] Top shape: 24 128 56 56 (9633792)
I1127 16:20:48.224141  4228 net.cpp:159] Memory required for data: 1979744352
I1127 16:20:48.224153  4228 layer_factory.hpp:77] Creating layer conv3_1
I1127 16:20:48.224174  4228 net.cpp:94] Creating Layer conv3_1
I1127 16:20:48.224185  4228 net.cpp:435] conv3_1 <- pool2
I1127 16:20:48.224200  4228 net.cpp:409] conv3_1 -> conv3_1
I1127 16:20:48.340548  4228 net.cpp:144] Setting up conv3_1
I1127 16:20:48.340582  4228 net.cpp:151] Top shape: 24 256 56 56 (19267584)
I1127 16:20:48.340595  4228 net.cpp:159] Memory required for data: 2056814688
I1127 16:20:48.340622  4228 layer_factory.hpp:77] Creating layer relu3_1
I1127 16:20:48.340641  4228 net.cpp:94] Creating Layer relu3_1
I1127 16:20:48.340654  4228 net.cpp:435] relu3_1 <- conv3_1
I1127 16:20:48.340669  4228 net.cpp:396] relu3_1 -> conv3_1 (in-place)
I1127 16:20:48.340689  4228 net.cpp:144] Setting up relu3_1
I1127 16:20:48.340703  4228 net.cpp:151] Top shape: 24 256 56 56 (19267584)
I1127 16:20:48.340714  4228 net.cpp:159] Memory required for data: 2133885024
I1127 16:20:48.340724  4228 layer_factory.hpp:77] Creating layer conv3_2
I1127 16:20:48.340745  4228 net.cpp:94] Creating Layer conv3_2
I1127 16:20:48.340756  4228 net.cpp:435] conv3_2 <- conv3_1
I1127 16:20:48.340772  4228 net.cpp:409] conv3_2 -> conv3_2
I1127 16:20:48.572576  4228 net.cpp:144] Setting up conv3_2
I1127 16:20:48.572618  4228 net.cpp:151] Top shape: 24 256 56 56 (19267584)
I1127 16:20:48.572629  4228 net.cpp:159] Memory required for data: 2210955360
I1127 16:20:48.572652  4228 layer_factory.hpp:77] Creating layer relu3_2
I1127 16:20:48.572672  4228 net.cpp:94] Creating Layer relu3_2
I1127 16:20:48.572685  4228 net.cpp:435] relu3_2 <- conv3_2
I1127 16:20:48.572700  4228 net.cpp:396] relu3_2 -> conv3_2 (in-place)
I1127 16:20:48.572723  4228 net.cpp:144] Setting up relu3_2
I1127 16:20:48.572737  4228 net.cpp:151] Top shape: 24 256 56 56 (19267584)
I1127 16:20:48.572747  4228 net.cpp:159] Memory required for data: 2288025696
I1127 16:20:48.572758  4228 layer_factory.hpp:77] Creating layer conv3_3
I1127 16:20:48.572780  4228 net.cpp:94] Creating Layer conv3_3
I1127 16:20:48.572793  4228 net.cpp:435] conv3_3 <- conv3_2
I1127 16:20:48.572808  4228 net.cpp:409] conv3_3 -> conv3_3
I1127 16:20:48.800442  4228 net.cpp:144] Setting up conv3_3
I1127 16:20:48.800483  4228 net.cpp:151] Top shape: 24 256 56 56 (19267584)
I1127 16:20:48.800496  4228 net.cpp:159] Memory required for data: 2365096032
I1127 16:20:48.800518  4228 layer_factory.hpp:77] Creating layer relu3_3
I1127 16:20:48.800544  4228 net.cpp:94] Creating Layer relu3_3
I1127 16:20:48.800557  4228 net.cpp:435] relu3_3 <- conv3_3
I1127 16:20:48.800573  4228 net.cpp:396] relu3_3 -> conv3_3 (in-place)
I1127 16:20:48.800628  4228 net.cpp:144] Setting up relu3_3
I1127 16:20:48.800643  4228 net.cpp:151] Top shape: 24 256 56 56 (19267584)
I1127 16:20:48.800654  4228 net.cpp:159] Memory required for data: 2442166368
I1127 16:20:48.800665  4228 layer_factory.hpp:77] Creating layer pool3
I1127 16:20:48.800681  4228 net.cpp:94] Creating Layer pool3
I1127 16:20:48.800693  4228 net.cpp:435] pool3 <- conv3_3
I1127 16:20:48.800707  4228 net.cpp:409] pool3 -> pool3
I1127 16:20:48.800817  4228 net.cpp:144] Setting up pool3
I1127 16:20:48.800832  4228 net.cpp:151] Top shape: 24 256 28 28 (4816896)
I1127 16:20:48.800843  4228 net.cpp:159] Memory required for data: 2461433952
I1127 16:20:48.800853  4228 layer_factory.hpp:77] Creating layer conv4_1
I1127 16:20:48.800875  4228 net.cpp:94] Creating Layer conv4_1
I1127 16:20:48.800887  4228 net.cpp:435] conv4_1 <- pool3
I1127 16:20:48.800902  4228 net.cpp:409] conv4_1 -> conv4_1
I1127 16:20:48.927685  4228 net.cpp:144] Setting up conv4_1
I1127 16:20:48.927719  4228 net.cpp:151] Top shape: 24 512 28 28 (9633792)
I1127 16:20:48.927731  4228 net.cpp:159] Memory required for data: 2499969120
I1127 16:20:48.927752  4228 layer_factory.hpp:77] Creating layer relu4_1
I1127 16:20:48.927772  4228 net.cpp:94] Creating Layer relu4_1
I1127 16:20:48.927784  4228 net.cpp:435] relu4_1 <- conv4_1
I1127 16:20:48.927799  4228 net.cpp:396] relu4_1 -> conv4_1 (in-place)
I1127 16:20:48.927821  4228 net.cpp:144] Setting up relu4_1
I1127 16:20:48.927835  4228 net.cpp:151] Top shape: 24 512 28 28 (9633792)
I1127 16:20:48.927846  4228 net.cpp:159] Memory required for data: 2538504288
I1127 16:20:48.927857  4228 layer_factory.hpp:77] Creating layer conv4_2
I1127 16:20:48.927878  4228 net.cpp:94] Creating Layer conv4_2
I1127 16:20:48.927891  4228 net.cpp:435] conv4_2 <- conv4_1
I1127 16:20:48.927906  4228 net.cpp:409] conv4_2 -> conv4_2
I1127 16:20:49.169692  4228 net.cpp:144] Setting up conv4_2
I1127 16:20:49.169729  4228 net.cpp:151] Top shape: 24 512 28 28 (9633792)
I1127 16:20:49.169741  4228 net.cpp:159] Memory required for data: 2577039456
I1127 16:20:49.169773  4228 layer_factory.hpp:77] Creating layer relu4_2
I1127 16:20:49.169792  4228 net.cpp:94] Creating Layer relu4_2
I1127 16:20:49.169806  4228 net.cpp:435] relu4_2 <- conv4_2
I1127 16:20:49.169831  4228 net.cpp:396] relu4_2 -> conv4_2 (in-place)
I1127 16:20:49.169854  4228 net.cpp:144] Setting up relu4_2
I1127 16:20:49.169868  4228 net.cpp:151] Top shape: 24 512 28 28 (9633792)
I1127 16:20:49.169878  4228 net.cpp:159] Memory required for data: 2615574624
I1127 16:20:49.169889  4228 layer_factory.hpp:77] Creating layer conv4_3
I1127 16:20:49.169911  4228 net.cpp:94] Creating Layer conv4_3
I1127 16:20:49.169924  4228 net.cpp:435] conv4_3 <- conv4_2
I1127 16:20:49.169939  4228 net.cpp:409] conv4_3 -> conv4_3
I1127 16:20:49.410003  4228 net.cpp:144] Setting up conv4_3
I1127 16:20:49.410044  4228 net.cpp:151] Top shape: 24 512 28 28 (9633792)
I1127 16:20:49.410056  4228 net.cpp:159] Memory required for data: 2654109792
I1127 16:20:49.410079  4228 layer_factory.hpp:77] Creating layer relu4_3
I1127 16:20:49.410099  4228 net.cpp:94] Creating Layer relu4_3
I1127 16:20:49.410111  4228 net.cpp:435] relu4_3 <- conv4_3
I1127 16:20:49.410126  4228 net.cpp:396] relu4_3 -> conv4_3 (in-place)
I1127 16:20:49.410150  4228 net.cpp:144] Setting up relu4_3
I1127 16:20:49.410163  4228 net.cpp:151] Top shape: 24 512 28 28 (9633792)
I1127 16:20:49.410174  4228 net.cpp:159] Memory required for data: 2692644960
I1127 16:20:49.410185  4228 layer_factory.hpp:77] Creating layer pool4
I1127 16:20:49.410202  4228 net.cpp:94] Creating Layer pool4
I1127 16:20:49.410212  4228 net.cpp:435] pool4 <- conv4_3
I1127 16:20:49.410228  4228 net.cpp:409] pool4 -> pool4
I1127 16:20:49.410331  4228 net.cpp:144] Setting up pool4
I1127 16:20:49.410347  4228 net.cpp:151] Top shape: 24 512 14 14 (2408448)
I1127 16:20:49.410358  4228 net.cpp:159] Memory required for data: 2702278752
I1127 16:20:49.410368  4228 layer_factory.hpp:77] Creating layer conv5_1
I1127 16:20:49.410390  4228 net.cpp:94] Creating Layer conv5_1
I1127 16:20:49.410434  4228 net.cpp:435] conv5_1 <- pool4
I1127 16:20:49.410449  4228 net.cpp:409] conv5_1 -> conv5_1
I1127 16:20:49.507421  4228 net.cpp:144] Setting up conv5_1
I1127 16:20:49.507464  4228 net.cpp:151] Top shape: 24 512 14 14 (2408448)
I1127 16:20:49.507477  4228 net.cpp:159] Memory required for data: 2711912544
I1127 16:20:49.507498  4228 layer_factory.hpp:77] Creating layer relu5_1
I1127 16:20:49.507517  4228 net.cpp:94] Creating Layer relu5_1
I1127 16:20:49.507531  4228 net.cpp:435] relu5_1 <- conv5_1
I1127 16:20:49.507546  4228 net.cpp:396] relu5_1 -> conv5_1 (in-place)
I1127 16:20:49.507570  4228 net.cpp:144] Setting up relu5_1
I1127 16:20:49.507583  4228 net.cpp:151] Top shape: 24 512 14 14 (2408448)
I1127 16:20:49.507594  4228 net.cpp:159] Memory required for data: 2721546336
I1127 16:20:49.507604  4228 layer_factory.hpp:77] Creating layer conv5_2
I1127 16:20:49.507627  4228 net.cpp:94] Creating Layer conv5_2
I1127 16:20:49.507637  4228 net.cpp:435] conv5_2 <- conv5_1
I1127 16:20:49.507652  4228 net.cpp:409] conv5_2 -> conv5_2
I1127 16:20:49.609670  4228 net.cpp:144] Setting up conv5_2
I1127 16:20:49.609706  4228 net.cpp:151] Top shape: 24 512 14 14 (2408448)
I1127 16:20:49.609719  4228 net.cpp:159] Memory required for data: 2731180128
I1127 16:20:49.609740  4228 layer_factory.hpp:77] Creating layer relu5_2
I1127 16:20:49.609758  4228 net.cpp:94] Creating Layer relu5_2
I1127 16:20:49.609771  4228 net.cpp:435] relu5_2 <- conv5_2
I1127 16:20:49.609786  4228 net.cpp:396] relu5_2 -> conv5_2 (in-place)
I1127 16:20:49.609807  4228 net.cpp:144] Setting up relu5_2
I1127 16:20:49.609832  4228 net.cpp:151] Top shape: 24 512 14 14 (2408448)
I1127 16:20:49.609843  4228 net.cpp:159] Memory required for data: 2740813920
I1127 16:20:49.609853  4228 layer_factory.hpp:77] Creating layer conv5_3
I1127 16:20:49.609874  4228 net.cpp:94] Creating Layer conv5_3
I1127 16:20:49.609885  4228 net.cpp:435] conv5_3 <- conv5_2
I1127 16:20:49.609901  4228 net.cpp:409] conv5_3 -> conv5_3
I1127 16:20:49.706930  4228 net.cpp:144] Setting up conv5_3
I1127 16:20:49.706967  4228 net.cpp:151] Top shape: 24 512 14 14 (2408448)
I1127 16:20:49.706979  4228 net.cpp:159] Memory required for data: 2750447712
I1127 16:20:49.707001  4228 layer_factory.hpp:77] Creating layer relu5_3
I1127 16:20:49.707020  4228 net.cpp:94] Creating Layer relu5_3
I1127 16:20:49.707034  4228 net.cpp:435] relu5_3 <- conv5_3
I1127 16:20:49.707049  4228 net.cpp:396] relu5_3 -> conv5_3 (in-place)
I1127 16:20:49.707072  4228 net.cpp:144] Setting up relu5_3
I1127 16:20:49.707085  4228 net.cpp:151] Top shape: 24 512 14 14 (2408448)
I1127 16:20:49.707096  4228 net.cpp:159] Memory required for data: 2760081504
I1127 16:20:49.707106  4228 layer_factory.hpp:77] Creating layer pool5
I1127 16:20:49.707123  4228 net.cpp:94] Creating Layer pool5
I1127 16:20:49.707134  4228 net.cpp:435] pool5 <- conv5_3
I1127 16:20:49.707149  4228 net.cpp:409] pool5 -> pool5
I1127 16:20:49.707252  4228 net.cpp:144] Setting up pool5
I1127 16:20:49.707267  4228 net.cpp:151] Top shape: 24 512 7 7 (602112)
I1127 16:20:49.707278  4228 net.cpp:159] Memory required for data: 2762489952
I1127 16:20:49.707288  4228 layer_factory.hpp:77] Creating layer fc6
I1127 16:20:49.727144  4228 net.cpp:94] Creating Layer fc6
I1127 16:20:49.727161  4228 net.cpp:435] fc6 <- pool5
I1127 16:20:49.727177  4228 net.cpp:409] fc6 -> fc6
I1127 16:20:50.835080  4228 net.cpp:144] Setting up fc6
I1127 16:20:50.835120  4228 net.cpp:151] Top shape: 24 4096 (98304)
I1127 16:20:50.835129  4228 net.cpp:159] Memory required for data: 2762883168
I1127 16:20:50.835144  4228 layer_factory.hpp:77] Creating layer relu6
I1127 16:20:50.835158  4228 net.cpp:94] Creating Layer relu6
I1127 16:20:50.835168  4228 net.cpp:435] relu6 <- fc6
I1127 16:20:50.835178  4228 net.cpp:396] relu6 -> fc6 (in-place)
I1127 16:20:50.835196  4228 net.cpp:144] Setting up relu6
I1127 16:20:50.835204  4228 net.cpp:151] Top shape: 24 4096 (98304)
I1127 16:20:50.835211  4228 net.cpp:159] Memory required for data: 2763276384
I1127 16:20:50.835218  4228 layer_factory.hpp:77] Creating layer drop6
I1127 16:20:50.835268  4228 net.cpp:94] Creating Layer drop6
I1127 16:20:50.835275  4228 net.cpp:435] drop6 <- fc6
I1127 16:20:50.835284  4228 net.cpp:396] drop6 -> fc6 (in-place)
I1127 16:20:50.835321  4228 net.cpp:144] Setting up drop6
I1127 16:20:50.835331  4228 net.cpp:151] Top shape: 24 4096 (98304)
I1127 16:20:50.835338  4228 net.cpp:159] Memory required for data: 2763669600
I1127 16:20:50.835345  4228 layer_factory.hpp:77] Creating layer fc7
I1127 16:20:50.835357  4228 net.cpp:94] Creating Layer fc7
I1127 16:20:50.835364  4228 net.cpp:435] fc7 <- fc6
I1127 16:20:50.835373  4228 net.cpp:409] fc7 -> fc7
I1127 16:20:51.015512  4228 net.cpp:144] Setting up fc7
I1127 16:20:51.015559  4228 net.cpp:151] Top shape: 24 4096 (98304)
I1127 16:20:51.015566  4228 net.cpp:159] Memory required for data: 2764062816
I1127 16:20:51.015584  4228 layer_factory.hpp:77] Creating layer relu7
I1127 16:20:51.015600  4228 net.cpp:94] Creating Layer relu7
I1127 16:20:51.015609  4228 net.cpp:435] relu7 <- fc7
I1127 16:20:51.015621  4228 net.cpp:396] relu7 -> fc7 (in-place)
I1127 16:20:51.015638  4228 net.cpp:144] Setting up relu7
I1127 16:20:51.015647  4228 net.cpp:151] Top shape: 24 4096 (98304)
I1127 16:20:51.015655  4228 net.cpp:159] Memory required for data: 2764456032
I1127 16:20:51.015661  4228 layer_factory.hpp:77] Creating layer drop7
I1127 16:20:51.015673  4228 net.cpp:94] Creating Layer drop7
I1127 16:20:51.015681  4228 net.cpp:435] drop7 <- fc7
I1127 16:20:51.015691  4228 net.cpp:396] drop7 -> fc7 (in-place)
I1127 16:20:51.015723  4228 net.cpp:144] Setting up drop7
I1127 16:20:51.015733  4228 net.cpp:151] Top shape: 24 4096 (98304)
I1127 16:20:51.015740  4228 net.cpp:159] Memory required for data: 2764849248
I1127 16:20:51.015748  4228 layer_factory.hpp:77] Creating layer fc8_output
I1127 16:20:51.015759  4228 net.cpp:94] Creating Layer fc8_output
I1127 16:20:51.015768  4228 net.cpp:435] fc8_output <- fc7
I1127 16:20:51.015776  4228 net.cpp:409] fc8_output -> fc8_output
I1127 16:20:51.015976  4228 net.cpp:144] Setting up fc8_output
I1127 16:20:51.015986  4228 net.cpp:151] Top shape: 24 2 (48)
I1127 16:20:51.015993  4228 net.cpp:159] Memory required for data: 2764849440
I1127 16:20:51.016003  4228 layer_factory.hpp:77] Creating layer loss
I1127 16:20:51.016028  4228 net.cpp:94] Creating Layer loss
I1127 16:20:51.016036  4228 net.cpp:435] loss <- fc8_output
I1127 16:20:51.016043  4228 net.cpp:435] loss <- label
I1127 16:20:51.016057  4228 net.cpp:409] loss -> loss
I1127 16:20:51.016077  4228 layer_factory.hpp:77] Creating layer loss
…
I1127 16:20:51.017741  4228 net.cpp:323] The NetState phase (1) differed from the phase (0) specified by a rule in layer train-data
I1127 16:20:51.018004  4228 net.cpp:52] Initializing net from parameters:
state {
phase: TEST
}
layer {
name: "val-data"
type: "Data"
top: "data"
top: "label"
include {
phase: TEST
}
transform_param {
crop_size: 224
mean_file: "/media/myuser/120Gb/DIGITS/digits/jobs/20160904-002550-f9dd/mean.binaryproto"
}
data_param {
source: "/media/myuser/120Gb/DIGITS/digits/jobs/20160904-002550-f9dd/val_db"
batch_size: 24
backend: LMDB
}
}
layer {
name: "conv1_1"
type: "Convolution"
bottom: "data"
top: "conv1_1"
convolution_param {
num_output: 64
pad: 1
kernel_size: 3
weight_filler {
type: "xavier"
}
bias_filler {
type: "constant"
value: 0
}
}
}
layer {
name: "relu1_1"
type: "ReLU"
bottom: "conv1_1"
top: "conv1_1"
}
layer {
name: "conv1_2"
type: "Convolution"
bottom: "conv1_1"
top: "conv1_2"
convolution_param {
num_output: 64
pad: 1
kernel_size: 3
weight_filler {
type: "xavier"
}
bias_filler {
type: "constant"
value: 0
}
}
}
layer {
name: "relu1_2"
type: "ReLU"
bottom: "conv1_2"
top: "conv1_2"
}
layer {
name: "pool1"
type: "Pooling"
bottom: "conv1_2"
top: "pool1"
pooling_param {
pool: MAX
kernel_size: 2
stride: 2
}
}
layer {
name: "conv2_1"
type: "Convolution"
bottom: "pool1"
top: "conv2_1"
convolution_param {
num_output: 128
pad: 1
kernel_size: 3
weight_filler {
type: "xavier"
}
bias_filler {
type: "constant"
value: 0
}
}
}
layer {
name: "relu2_1"
type: "ReLU"
bottom: "conv2_1"
top: "conv2_1"
}
layer {
name: "conv2_2"
type: "Convolution"
bottom: "conv2_1"
top: "conv2_2"
convolution_param {
num_output: 128
pad: 1
kernel_size: 3
weight_filler {
type: "xavier"
}
bias_filler {
type: "constant"
value: 0
}
}
}
layer {
name: "relu2_2"
type: "ReLU"
bottom: "conv2_2"
top: "conv2_2"
}
layer {
name: "pool2"
type: "Pooling"
bottom: "conv2_2"
top: "pool2"
pooling_param {
pool: MAX
kernel_size: 2
stride: 2
}
}
layer {
name: "conv3_1"
type: "Convolution"
bottom: "pool2"
top: "conv3_1"
convolution_param {
num_output: 256
pad: 1
kernel_size: 3
weight_filler {
type: "xavier"
}
bias_filler {
type: "constant"
value: 0
}
}
}
layer {
name: "relu3_1"
type: "ReLU"
bottom: "conv3_1"
top: "conv3_1"
}
layer {
name: "conv3_2"
type: "Convolution"
bottom: "conv3_1"
top: "conv3_2"
convolution_param {
num_output: 256
pad: 1
kernel_size: 3
weight_filler {
type: "xavier"
}
bias_filler {
type: "constant"
value: 0
}
}
}
layer {
name: "relu3_2"
type: "ReLU"
bottom: "conv3_2"
top: "conv3_2"
}
layer {
name: "conv3_3"
type: "Convolution"
bottom: "conv3_2"
top: "conv3_3"
convolution_param {
num_output: 256
pad: 1
kernel_size: 3
weight_filler {
type: "xavier"
}
bias_filler {
type: "constant"
value: 0
}
}
}
layer {
name: "relu3_3"
type: "ReLU"
bottom: "conv3_3"
top: "conv3_3"
}
layer {
name: "pool3"
type: "Pooling"
bottom: "conv3_3"
top: "pool3"
pooling_param {
pool: MAX
kernel_size: 2
stride: 2
}
}
layer {
name: "conv4_1"
type: "Convolution"
bottom: "pool3"
top: "conv4_1"
convolution_param {
num_output: 512
pad: 1
kernel_size: 3
weight_filler {
type: "xavier"
}
bias_filler {
type: "constant"
value: 0
}
}
}
layer {
name: "relu4_1"
type: "ReLU"
bottom: "conv4_1"
top: "conv4_1"
}
layer {
name: "conv4_2"
type: "Convolution"
bottom: "conv4_1"
top: "conv4_2"
convolution_param {
num_output: 512
pad: 1
kernel_size: 3
weight_filler {
type: "xavier"
}
bias_filler {
type: "constant"
value: 0
}
}
}
layer {
name: "relu4_2"
type: "ReLU"
bottom: "conv4_2"
top: "conv4_2"
}
layer {
name: "conv4_3"
type: "Convolution"
bottom: "conv4_2"
top: "conv4_3"
convolution_param {
num_output: 512
pad: 1
kernel_size: 3
weight_filler {
type: "xavier"
}
bias_filler {
type: "constant"
value: 0
}
}
}
layer {
name: "relu4_3"
type: "ReLU"
bottom: "conv4_3"
top: "conv4_3"
}
layer {
name: "pool4"
type: "Pooling"
bottom: "conv4_3"
top: "pool4"
pooling_param {
pool: MAX
kernel_size: 2
stride: 2
}
}
layer {
name: "conv5_1"
type: "Convolution"
bottom: "pool4"
top: "conv5_1"
convolution_param {
num_output: 512
pad: 1
kernel_size: 3
weight_filler {
type: "xavier"
}
bias_filler {
type: "constant"
value: 0
}
}
}
layer {
name: "relu5_1"
type: "ReLU"
bottom: "conv5_1"
top: "conv5_1"
}
layer {
name: "conv5_2"
type: "Convolution"
bottom: "conv5_1"
top: "conv5_2"
convolution_param {
num_output: 512
pad: 1
kernel_size: 3
weight_filler {
type: "xavier"
}
bias_filler {
type: "constant"
value: 0
}
}
}
layer {
name: "relu5_2"
type: "ReLU"
bottom: "conv5_2"
top: "conv5_2"
}
layer {
name: "conv5_3"
type: "Convolution"
bottom: "conv5_2"
top: "conv5_3"
convolution_param {
num_output: 512
pad: 1
kernel_size: 3
weight_filler {
type: "xavier"
}
bias_filler {
type: "constant"
value: 0
}
}
}
layer {
name: "relu5_3"
type: "ReLU"
bottom: "conv5_3"
top: "conv5_3"
}
layer {
name: "pool5"
type: "Pooling"
bottom: "conv5_3"
top: "pool5"
pooling_param {
pool: MAX
kernel_size: 2
stride: 2
}
}
layer {
name: "fc6"
type: "InnerProduct"
bottom: "pool5"
top: "fc6"
inner_product_param {
num_output: 4096
weight_filler {
type: "xavier"
}
bias_filler {
type: "constant"
value: 0.1
}
}
}
layer {
name: "relu6"
type: "ReLU"
bottom: "fc6"
top: "fc6"
}
layer {
name: "drop6"
type: "Dropout"
bottom: "fc6"
top: "fc6"
dropout_param {
dropout_ratio: 0.5
}
}
layer {
name: "fc7"
type: "InnerProduct"
bottom: "fc6"
top: "fc7"
inner_product_param {
num_output: 4096
weight_filler {
type: "xavier"
}
bias_filler {
type: "constant"
value: 0.1
}
}
}
layer {
name: "relu7"
type: "ReLU"
bottom: "fc7"
top: "fc7"
}
layer {
name: "drop7"
type: "Dropout"
bottom: "fc7"
top: "fc7"
dropout_param {
dropout_ratio: 0.5
}
}
layer {
name: "fc8_output"
type: "InnerProduct"
bottom: "fc7"
top: "fc8_output"
inner_product_param {
num_output: 2
weight_filler {
type: "xavier"
}
bias_filler {
type: "constant"
value: 0.1
}
}
}
layer {
name: "accuracy"
type: "Accuracy"
bottom: "fc8_output"
bottom: "label"
top: "accuracy"
include {
phase: TEST
}
}
layer {
name: "loss"
type: "SoftmaxWithLoss"
bottom: "fc8_output"
bottom: "label"
top: "loss"
}
I1127 16:20:51.018189  4228 layer_factory.hpp:77] Creating layer val-data
I1127 16:20:51.018376  4228 net.cpp:94] Creating Layer val-data
I1127 16:20:51.018389  4228 net.cpp:409] val-data -> data
I1127 16:20:51.018402  4228 net.cpp:409] val-data -> label
I1127 16:20:51.018417  4228 data_transformer.cpp:25] Loading mean file from: /media/myuser/120Gb/DIGITS/digits/jobs/20160904-002550-f9dd/mean.binaryproto
I1127 16:20:51.060947  4239 db_lmdb.cpp:35] Opened lmdb /media/myuser/120Gb/DIGITS/digits/jobs/20160904-002550-f9dd/val_db
I1127 16:20:51.086836  4228 data_layer.cpp:76] output data size: 24,3,224,224
I1127 16:20:51.135299  4228 net.cpp:144] Setting up val-data
I1127 16:20:51.135329  4228 net.cpp:151] Top shape: 24 3 224 224 (3612672)
I1127 16:20:51.135341  4228 net.cpp:151] Top shape: 24 (24)
I1127 16:20:51.135349  4228 net.cpp:159] Memory required for data: 14450784
I1127 16:20:51.135360  4228 layer_factory.hpp:77] Creating layer label_val-data_1_split
I1127 16:20:51.135385  4228 net.cpp:94] Creating Layer label_val-data_1_split
I1127 16:20:51.135392  4228 net.cpp:435] label_val-data_1_split <- label
I1127 16:20:51.135404  4228 net.cpp:409] label_val-data_1_split -> label_val-data_1_split_0
I1127 16:20:51.135419  4228 net.cpp:409] label_val-data_1_split -> label_val-data_1_split_1
I1127 16:20:51.135483  4228 net.cpp:144] Setting up label_val-data_1_split
I1127 16:20:51.135494  4228 net.cpp:151] Top shape: 24 (24)
I1127 16:20:51.135504  4228 net.cpp:151] Top shape: 24 (24)
I1127 16:20:51.135510  4228 net.cpp:159] Memory required for data: 14450976
I1127 16:20:51.135519  4228 layer_factory.hpp:77] Creating layer conv1_1
I1127 16:20:51.135537  4228 net.cpp:94] Creating Layer conv1_1
I1127 16:20:51.135545  4228 net.cpp:435] conv1_1 <- data
I1127 16:20:51.135556  4228 net.cpp:409] conv1_1 -> conv1_1
I1127 16:20:51.152938  4228 net.cpp:144] Setting up conv1_1
I1127 16:20:51.152973  4228 net.cpp:151] Top shape: 24 64 224 224 (77070336)
I1127 16:20:51.152982  4228 net.cpp:159] Memory required for data: 322732320
I1127 16:20:51.153005  4228 layer_factory.hpp:77] Creating layer relu1_1
I1127 16:20:51.153022  4228 net.cpp:94] Creating Layer relu1_1
I1127 16:20:51.153031  4228 net.cpp:435] relu1_1 <- conv1_1
I1127 16:20:51.153043  4228 net.cpp:396] relu1_1 -> conv1_1 (in-place)
I1127 16:20:51.153060  4228 net.cpp:144] Setting up relu1_1
I1127 16:20:51.153069  4228 net.cpp:151] Top shape: 24 64 224 224 (77070336)
I1127 16:20:51.153077  4228 net.cpp:159] Memory required for data: 631013664
I1127 16:20:51.153084  4228 layer_factory.hpp:77] Creating layer conv1_2
I1127 16:20:51.153105  4228 net.cpp:94] Creating Layer conv1_2
I1127 16:20:51.153112  4228 net.cpp:435] conv1_2 <- conv1_1
I1127 16:20:51.153123  4228 net.cpp:409] conv1_2 -> conv1_2
I1127 16:20:51.161906  4242 blocking_queue.cpp:50] Waiting for data
I1127 16:20:51.265043  4228 net.cpp:144] Setting up conv1_2
I1127 16:20:51.265077  4228 net.cpp:151] Top shape: 24 64 224 224 (77070336)
I1127 16:20:51.265113  4228 net.cpp:159] Memory required for data: 939295008
I1127 16:20:51.265133  4228 layer_factory.hpp:77] Creating layer relu1_2
I1127 16:20:51.265149  4228 net.cpp:94] Creating Layer relu1_2
I1127 16:20:51.265158  4228 net.cpp:435] relu1_2 <- conv1_2
I1127 16:20:51.265168  4228 net.cpp:396] relu1_2 -> conv1_2 (in-place)
I1127 16:20:51.265184  4228 net.cpp:144] Setting up relu1_2
I1127 16:20:51.265193  4228 net.cpp:151] Top shape: 24 64 224 224 (77070336)
I1127 16:20:51.265199  4228 net.cpp:159] Memory required for data: 1247576352
I1127 16:20:51.265206  4228 layer_factory.hpp:77] Creating layer pool1
I1127 16:20:51.265218  4228 net.cpp:94] Creating Layer pool1
I1127 16:20:51.265225  4228 net.cpp:435] pool1 <- conv1_2
I1127 16:20:51.265234  4228 net.cpp:409] pool1 -> pool1
I1127 16:20:51.265355  4228 net.cpp:144] Setting up pool1
I1127 16:20:51.265365  4228 net.cpp:151] Top shape: 24 64 112 112 (19267584)
I1127 16:20:51.265372  4228 net.cpp:159] Memory required for data: 1324646688
I1127 16:20:51.265379  4228 layer_factory.hpp:77] Creating layer conv2_1
I1127 16:20:51.265398  4228 net.cpp:94] Creating Layer conv2_1
I1127 16:20:51.265404  4228 net.cpp:435] conv2_1 <- pool1
I1127 16:20:51.265415  4228 net.cpp:409] conv2_1 -> conv2_1
I1127 16:20:51.315317  4228 net.cpp:144] Setting up conv2_1
I1127 16:20:51.315347  4228 net.cpp:151] Top shape: 24 128 112 112 (38535168)
I1127 16:20:51.315354  4228 net.cpp:159] Memory required for data: 1478787360
I1127 16:20:51.315376  4228 layer_factory.hpp:77] Creating layer relu2_1
I1127 16:20:51.315392  4228 net.cpp:94] Creating Layer relu2_1
I1127 16:20:51.315402  4228 net.cpp:435] relu2_1 <- conv2_1
I1127 16:20:51.315412  4228 net.cpp:396] relu2_1 -> conv2_1 (in-place)
I1127 16:20:51.315428  4228 net.cpp:144] Setting up relu2_1
I1127 16:20:51.315438  4228 net.cpp:151] Top shape: 24 128 112 112 (38535168)
I1127 16:20:51.315444  4228 net.cpp:159] Memory required for data: 1632928032
I1127 16:20:51.315452  4228 layer_factory.hpp:77] Creating layer conv2_2
I1127 16:20:51.315469  4228 net.cpp:94] Creating Layer conv2_2
I1127 16:20:51.315476  4228 net.cpp:435] conv2_2 <- conv2_1
I1127 16:20:51.315486  4228 net.cpp:409] conv2_2 -> conv2_2
I1127 16:20:51.406604  4228 net.cpp:144] Setting up conv2_2
I1127 16:20:51.406642  4228 net.cpp:151] Top shape: 24 128 112 112 (38535168)
I1127 16:20:51.406654  4228 net.cpp:159] Memory required for data: 1787068704
I1127 16:20:51.406677  4228 layer_factory.hpp:77] Creating layer relu2_2
I1127 16:20:51.406697  4228 net.cpp:94] Creating Layer relu2_2
I1127 16:20:51.406707  4228 net.cpp:435] relu2_2 <- conv2_2
I1127 16:20:51.406716  4228 net.cpp:396] relu2_2 -> conv2_2 (in-place)
I1127 16:20:51.406733  4228 net.cpp:144] Setting up relu2_2
I1127 16:20:51.406743  4228 net.cpp:151] Top shape: 24 128 112 112 (38535168)
I1127 16:20:51.406749  4228 net.cpp:159] Memory required for data: 1941209376
I1127 16:20:51.406756  4228 layer_factory.hpp:77] Creating layer pool2
I1127 16:20:51.406769  4228 net.cpp:94] Creating Layer pool2
I1127 16:20:51.406775  4228 net.cpp:435] pool2 <- conv2_2
I1127 16:20:51.406785  4228 net.cpp:409] pool2 -> pool2
I1127 16:20:51.406885  4228 net.cpp:144] Setting up pool2
I1127 16:20:51.406895  4228 net.cpp:151] Top shape: 24 128 56 56 (9633792)
I1127 16:20:51.406903  4228 net.cpp:159] Memory required for data: 1979744544
I1127 16:20:51.406909  4228 layer_factory.hpp:77] Creating layer conv3_1
I1127 16:20:51.406926  4228 net.cpp:94] Creating Layer conv3_1
I1127 16:20:51.406934  4228 net.cpp:435] conv3_1 <- pool2
I1127 16:20:51.406944  4228 net.cpp:409] conv3_1 -> conv3_1
I1127 16:20:51.445605  4228 net.cpp:144] Setting up conv3_1
I1127 16:20:51.445638  4228 net.cpp:151] Top shape: 24 256 56 56 (19267584)
I1127 16:20:51.445650  4228 net.cpp:159] Memory required for data: 2056814880
I1127 16:20:51.445679  4228 layer_factory.hpp:77] Creating layer relu3_1
I1127 16:20:51.445699  4228 net.cpp:94] Creating Layer relu3_1
I1127 16:20:51.445708  4228 net.cpp:435] relu3_1 <- conv3_1
I1127 16:20:51.445737  4228 net.cpp:396] relu3_1 -> conv3_1 (in-place)
I1127 16:20:51.445754  4228 net.cpp:144] Setting up relu3_1
I1127 16:20:51.445762  4228 net.cpp:151] Top shape: 24 256 56 56 (19267584)
I1127 16:20:51.445770  4228 net.cpp:159] Memory required for data: 2133885216
I1127 16:20:51.445776  4228 layer_factory.hpp:77] Creating layer conv3_2
I1127 16:20:51.445792  4228 net.cpp:94] Creating Layer conv3_2
I1127 16:20:51.445799  4228 net.cpp:435] conv3_2 <- conv3_1
I1127 16:20:51.445818  4228 net.cpp:409] conv3_2 -> conv3_2
I1127 16:20:51.519877  4228 net.cpp:144] Setting up conv3_2
I1127 16:20:51.519911  4228 net.cpp:151] Top shape: 24 256 56 56 (19267584)
I1127 16:20:51.519922  4228 net.cpp:159] Memory required for data: 2210955552
I1127 16:20:51.519943  4228 layer_factory.hpp:77] Creating layer relu3_2
I1127 16:20:51.519966  4228 net.cpp:94] Creating Layer relu3_2
I1127 16:20:51.519975  4228 net.cpp:435] relu3_2 <- conv3_2
I1127 16:20:51.519985  4228 net.cpp:396] relu3_2 -> conv3_2 (in-place)
I1127 16:20:51.520000  4228 net.cpp:144] Setting up relu3_2
I1127 16:20:51.520009  4228 net.cpp:151] Top shape: 24 256 56 56 (19267584)
I1127 16:20:51.520016  4228 net.cpp:159] Memory required for data: 2288025888
I1127 16:20:51.520023  4228 layer_factory.hpp:77] Creating layer conv3_3
I1127 16:20:51.520043  4228 net.cpp:94] Creating Layer conv3_3
I1127 16:20:51.520051  4228 net.cpp:435] conv3_3 <- conv3_2
I1127 16:20:51.520061  4228 net.cpp:409] conv3_3 -> conv3_3
I1127 16:20:51.596421  4228 net.cpp:144] Setting up conv3_3
I1127 16:20:51.596454  4228 net.cpp:151] Top shape: 24 256 56 56 (19267584)
I1127 16:20:51.596467  4228 net.cpp:159] Memory required for data: 2365096224
I1127 16:20:51.596487  4228 layer_factory.hpp:77] Creating layer relu3_3
I1127 16:20:51.596506  4228 net.cpp:94] Creating Layer relu3_3
I1127 16:20:51.596521  4228 net.cpp:435] relu3_3 <- conv3_3
I1127 16:20:51.596532  4228 net.cpp:396] relu3_3 -> conv3_3 (in-place)
I1127 16:20:51.596547  4228 net.cpp:144] Setting up relu3_3
I1127 16:20:51.596556  4228 net.cpp:151] Top shape: 24 256 56 56 (19267584)
I1127 16:20:51.596563  4228 net.cpp:159] Memory required for data: 2442166560
I1127 16:20:51.596570  4228 layer_factory.hpp:77] Creating layer pool3
I1127 16:20:51.596582  4228 net.cpp:94] Creating Layer pool3
I1127 16:20:51.596590  4228 net.cpp:435] pool3 <- conv3_3
I1127 16:20:51.596599  4228 net.cpp:409] pool3 -> pool3
I1127 16:20:51.596662  4228 net.cpp:144] Setting up pool3
I1127 16:20:51.596673  4228 net.cpp:151] Top shape: 24 256 28 28 (4816896)
I1127 16:20:51.596679  4228 net.cpp:159] Memory required for data: 2461434144
I1127 16:20:51.596686  4228 layer_factory.hpp:77] Creating layer conv4_1
I1127 16:20:51.596701  4228 net.cpp:94] Creating Layer conv4_1
I1127 16:20:51.596709  4228 net.cpp:435] conv4_1 <- pool3
I1127 16:20:51.596719  4228 net.cpp:409] conv4_1 -> conv4_1
I1127 16:20:51.640542  4228 net.cpp:144] Setting up conv4_1
I1127 16:20:51.640571  4228 net.cpp:151] Top shape: 24 512 28 28 (9633792)
I1127 16:20:51.640579  4228 net.cpp:159] Memory required for data: 2499969312
I1127 16:20:51.640594  4228 layer_factory.hpp:77] Creating layer relu4_1
I1127 16:20:51.640609  4228 net.cpp:94] Creating Layer relu4_1
I1127 16:20:51.640617  4228 net.cpp:435] relu4_1 <- conv4_1
I1127 16:20:51.640627  4228 net.cpp:396] relu4_1 -> conv4_1 (in-place)
I1127 16:20:51.640642  4228 net.cpp:144] Setting up relu4_1
I1127 16:20:51.640651  4228 net.cpp:151] Top shape: 24 512 28 28 (9633792)
I1127 16:20:51.640658  4228 net.cpp:159] Memory required for data: 2538504480
I1127 16:20:51.640666  4228 layer_factory.hpp:77] Creating layer conv4_2
I1127 16:20:51.640679  4228 net.cpp:94] Creating Layer conv4_2
I1127 16:20:51.640687  4228 net.cpp:435] conv4_2 <- conv4_1
I1127 16:20:51.640697  4228 net.cpp:409] conv4_2 -> conv4_2
I1127 16:20:51.729018  4228 net.cpp:144] Setting up conv4_2
I1127 16:20:51.729048  4228 net.cpp:151] Top shape: 24 512 28 28 (9633792)
I1127 16:20:51.729056  4228 net.cpp:159] Memory required for data: 2577039648
I1127 16:20:51.729079  4228 layer_factory.hpp:77] Creating layer relu4_2
I1127 16:20:51.729120  4228 net.cpp:94] Creating Layer relu4_2
I1127 16:20:51.729130  4228 net.cpp:435] relu4_2 <- conv4_2
I1127 16:20:51.729140  4228 net.cpp:396] relu4_2 -> conv4_2 (in-place)
I1127 16:20:51.729154  4228 net.cpp:144] Setting up relu4_2
I1127 16:20:51.729163  4228 net.cpp:151] Top shape: 24 512 28 28 (9633792)
I1127 16:20:51.729171  4228 net.cpp:159] Memory required for data: 2615574816
I1127 16:20:51.729177  4228 layer_factory.hpp:77] Creating layer conv4_3
I1127 16:20:51.729192  4228 net.cpp:94] Creating Layer conv4_3
I1127 16:20:51.729199  4228 net.cpp:435] conv4_3 <- conv4_2
I1127 16:20:51.729209  4228 net.cpp:409] conv4_3 -> conv4_3
I1127 16:20:51.812991  4228 net.cpp:144] Setting up conv4_3
I1127 16:20:51.813021  4228 net.cpp:151] Top shape: 24 512 28 28 (9633792)
I1127 16:20:51.813030  4228 net.cpp:159] Memory required for data: 2654109984
I1127 16:20:51.813043  4228 layer_factory.hpp:77] Creating layer relu4_3
I1127 16:20:51.813057  4228 net.cpp:94] Creating Layer relu4_3
I1127 16:20:51.813067  4228 net.cpp:435] relu4_3 <- conv4_3
I1127 16:20:51.813077  4228 net.cpp:396] relu4_3 -> conv4_3 (in-place)
I1127 16:20:51.813092  4228 net.cpp:144] Setting up relu4_3
I1127 16:20:51.813100  4228 net.cpp:151] Top shape: 24 512 28 28 (9633792)
I1127 16:20:51.813108  4228 net.cpp:159] Memory required for data: 2692645152
I1127 16:20:51.813115  4228 layer_factory.hpp:77] Creating layer pool4
I1127 16:20:51.813127  4228 net.cpp:94] Creating Layer pool4
I1127 16:20:51.813133  4228 net.cpp:435] pool4 <- conv4_3
I1127 16:20:51.813143  4228 net.cpp:409] pool4 -> pool4
I1127 16:20:51.813205  4228 net.cpp:144] Setting up pool4
I1127 16:20:51.813215  4228 net.cpp:151] Top shape: 24 512 14 14 (2408448)
I1127 16:20:51.813221  4228 net.cpp:159] Memory required for data: 2702278944
I1127 16:20:51.813228  4228 layer_factory.hpp:77] Creating layer conv5_1
I1127 16:20:51.813242  4228 net.cpp:94] Creating Layer conv5_1
I1127 16:20:51.813251  4228 net.cpp:435] conv5_1 <- pool4
I1127 16:20:51.813261  4228 net.cpp:409] conv5_1 -> conv5_1
I1127 16:20:51.857009  4228 net.cpp:144] Setting up conv5_1
I1127 16:20:51.857043  4228 net.cpp:151] Top shape: 24 512 14 14 (2408448)
I1127 16:20:51.857050  4228 net.cpp:159] Memory required for data: 2711912736
I1127 16:20:51.857067  4228 layer_factory.hpp:77] Creating layer relu5_1
I1127 16:20:51.857082  4228 net.cpp:94] Creating Layer relu5_1
I1127 16:20:51.857092  4228 net.cpp:435] relu5_1 <- conv5_1
I1127 16:20:51.857102  4228 net.cpp:396] relu5_1 -> conv5_1 (in-place)
I1127 16:20:51.857120  4228 net.cpp:144] Setting up relu5_1
I1127 16:20:51.857128  4228 net.cpp:151] Top shape: 24 512 14 14 (2408448)
I1127 16:20:51.857136  4228 net.cpp:159] Memory required for data: 2721546528
I1127 16:20:51.857142  4228 layer_factory.hpp:77] Creating layer conv5_2
I1127 16:20:51.857158  4228 net.cpp:94] Creating Layer conv5_2
I1127 16:20:51.857166  4228 net.cpp:435] conv5_2 <- conv5_1
I1127 16:20:51.857177  4228 net.cpp:409] conv5_2 -> conv5_2
I1127 16:20:51.904695  4228 net.cpp:144] Setting up conv5_2
I1127 16:20:51.904721  4228 net.cpp:151] Top shape: 24 512 14 14 (2408448)
I1127 16:20:51.904728  4228 net.cpp:159] Memory required for data: 2731180320
I1127 16:20:51.904743  4228 layer_factory.hpp:77] Creating layer relu5_2
I1127 16:20:51.904757  4228 net.cpp:94] Creating Layer relu5_2
I1127 16:20:51.904767  4228 net.cpp:435] relu5_2 <- conv5_2
I1127 16:20:51.904778  4228 net.cpp:396] relu5_2 -> conv5_2 (in-place)
I1127 16:20:51.904791  4228 net.cpp:144] Setting up relu5_2
I1127 16:20:51.904800  4228 net.cpp:151] Top shape: 24 512 14 14 (2408448)
I1127 16:20:51.904808  4228 net.cpp:159] Memory required for data: 2740814112
I1127 16:20:51.904814  4228 layer_factory.hpp:77] Creating layer conv5_3
I1127 16:20:51.904829  4228 net.cpp:94] Creating Layer conv5_3
I1127 16:20:51.904836  4228 net.cpp:435] conv5_3 <- conv5_2
I1127 16:20:51.904846  4228 net.cpp:409] conv5_3 -> conv5_3
I1127 16:20:51.947281  4228 net.cpp:144] Setting up conv5_3
I1127 16:20:51.947312  4228 net.cpp:151] Top shape: 24 512 14 14 (2408448)
I1127 16:20:51.947346  4228 net.cpp:159] Memory required for data: 2750447904
I1127 16:20:51.947361  4228 layer_factory.hpp:77] Creating layer relu5_3
I1127 16:20:51.947376  4228 net.cpp:94] Creating Layer relu5_3
I1127 16:20:51.947386  4228 net.cpp:435] relu5_3 <- conv5_3
I1127 16:20:51.947396  4228 net.cpp:396] relu5_3 -> conv5_3 (in-place)
I1127 16:20:51.947410  4228 net.cpp:144] Setting up relu5_3
I1127 16:20:51.947419  4228 net.cpp:151] Top shape: 24 512 14 14 (2408448)
I1127 16:20:51.947427  4228 net.cpp:159] Memory required for data: 2760081696
I1127 16:20:51.947434  4228 layer_factory.hpp:77] Creating layer pool5
I1127 16:20:51.947454  4228 net.cpp:94] Creating Layer pool5
I1127 16:20:51.947463  4228 net.cpp:435] pool5 <- conv5_3
I1127 16:20:51.947473  4228 net.cpp:409] pool5 -> pool5
I1127 16:20:51.947535  4228 net.cpp:144] Setting up pool5
I1127 16:20:51.947546  4228 net.cpp:151] Top shape: 24 512 7 7 (602112)
I1127 16:20:51.947552  4228 net.cpp:159] Memory required for data: 2762490144
I1127 16:20:51.947559  4228 layer_factory.hpp:77] Creating layer fc6
I1127 16:20:51.947571  4228 net.cpp:94] Creating Layer fc6
I1127 16:20:51.947578  4228 net.cpp:435] fc6 <- pool5
I1127 16:20:51.947588  4228 net.cpp:409] fc6 -> fc6
I1127 16:20:53.055327  4228 net.cpp:144] Setting up fc6
I1127 16:20:53.055378  4228 net.cpp:151] Top shape: 24 4096 (98304)
I1127 16:20:53.055387  4228 net.cpp:159] Memory required for data: 2762883360
I1127 16:20:53.055403  4228 layer_factory.hpp:77] Creating layer relu6
I1127 16:20:53.055420  4228 net.cpp:94] Creating Layer relu6
I1127 16:20:53.055430  4228 net.cpp:435] relu6 <- fc6
I1127 16:20:53.055441  4228 net.cpp:396] relu6 -> fc6 (in-place)
I1127 16:20:53.055459  4228 net.cpp:144] Setting up relu6
I1127 16:20:53.055467  4228 net.cpp:151] Top shape: 24 4096 (98304)
I1127 16:20:53.055474  4228 net.cpp:159] Memory required for data: 2763276576
I1127 16:20:53.055481  4228 layer_factory.hpp:77] Creating layer drop6
I1127 16:20:53.055495  4228 net.cpp:94] Creating Layer drop6
I1127 16:20:53.055501  4228 net.cpp:435] drop6 <- fc6
I1127 16:20:53.055510  4228 net.cpp:396] drop6 -> fc6 (in-place)
I1127 16:20:53.055546  4228 net.cpp:144] Setting up drop6
I1127 16:20:53.055555  4228 net.cpp:151] Top shape: 24 4096 (98304)
I1127 16:20:53.055562  4228 net.cpp:159] Memory required for data: 2763669792
I1127 16:20:53.055569  4228 layer_factory.hpp:77] Creating layer fc7
I1127 16:20:53.055582  4228 net.cpp:94] Creating Layer fc7
I1127 16:20:53.055588  4228 net.cpp:435] fc7 <- fc6
I1127 16:20:53.055598  4228 net.cpp:409] fc7 -> fc7
I1127 16:20:53.235702  4228 net.cpp:144] Setting up fc7
I1127 16:20:53.235751  4228 net.cpp:151] Top shape: 24 4096 (98304)
I1127 16:20:53.235759  4228 net.cpp:159] Memory required for data: 2764063008
I1127 16:20:53.235775  4228 layer_factory.hpp:77] Creating layer relu7
I1127 16:20:53.235792  4228 net.cpp:94] Creating Layer relu7
I1127 16:20:53.235801  4228 net.cpp:435] relu7 <- fc7
I1127 16:20:53.235813  4228 net.cpp:396] relu7 -> fc7 (in-place)
I1127 16:20:53.235831  4228 net.cpp:144] Setting up relu7
I1127 16:20:53.235839  4228 net.cpp:151] Top shape: 24 4096 (98304)
I1127 16:20:53.235846  4228 net.cpp:159] Memory required for data: 2764456224
I1127 16:20:53.235853  4228 layer_factory.hpp:77] Creating layer drop7
I1127 16:20:53.235865  4228 net.cpp:94] Creating Layer drop7
I1127 16:20:53.235872  4228 net.cpp:435] drop7 <- fc7
I1127 16:20:53.235882  4228 net.cpp:396] drop7 -> fc7 (in-place)
I1127 16:20:53.235919  4228 net.cpp:144] Setting up drop7
I1127 16:20:53.235929  4228 net.cpp:151] Top shape: 24 4096 (98304)
I1127 16:20:53.235935  4228 net.cpp:159] Memory required for data: 2764849440
I1127 16:20:53.235942  4228 layer_factory.hpp:77] Creating layer fc8_output
I1127 16:20:53.235954  4228 net.cpp:94] Creating Layer fc8_output
I1127 16:20:53.235962  4228 net.cpp:435] fc8_output <- fc7
I1127 16:20:53.235972  4228 net.cpp:409] fc8_output -> fc8_output
I1127 16:20:53.236186  4228 net.cpp:144] Setting up fc8_output
I1127 16:20:53.236196  4228 net.cpp:151] Top shape: 24 2 (48)
I1127 16:20:53.236243  4228 net.cpp:159] Memory required for data: 2764849632
I1127 16:20:53.236254  4228 layer_factory.hpp:77] Creating layer fc8_output_fc8_output_0_split
I1127 16:20:53.236265  4228 net.cpp:94] Creating Layer fc8_output_fc8_output_0_split
I1127 16:20:53.236273  4228 net.cpp:435] fc8_output_fc8_output_0_split <- fc8_output
I1127 16:20:53.236281  4228 net.cpp:409] fc8_output_fc8_output_0_split -> fc8_output_fc8_output_0_split_0
I1127 16:20:53.236294  4228 net.cpp:409] fc8_output_fc8_output_0_split -> fc8_output_fc8_output_0_split_1
I1127 16:20:53.236342  4228 net.cpp:144] Setting up fc8_output_fc8_output_0_split
I1127 16:20:53.236352  4228 net.cpp:151] Top shape: 24 2 (48)
I1127 16:20:53.236361  4228 net.cpp:151] Top shape: 24 2 (48)
I1127 16:20:53.236367  4228 net.cpp:159] Memory required for data: 2764850016
I1127 16:20:53.236374  4228 layer_factory.hpp:77] Creating layer accuracy
I1127 16:20:53.236385  4228 net.cpp:94] Creating Layer accuracy
I1127 16:20:53.236393  4228 net.cpp:435] accuracy <- fc8_output_fc8_output_0_split_0
I1127 16:20:53.236400  4228 net.cpp:435] accuracy <- label_val-data_1_split_0
I1127 16:20:53.236412  4228 net.cpp:409] accuracy -> accuracy
…
