…
I0904 10:46:34.164563  2814 net.cpp:323] The NetState phase (0) differed from the phase (1) specified by a rule in layer loss3/top-1
I0904 10:46:34.165870  2814 net.cpp:52] Initializing net from parameters:
state {
phase: TRAIN
}
layer {
name: "train-data"
type: "Data"
top: "data"
top: "label"
include {
phase: TRAIN
}
transform_param {
mirror: true
crop_size: 224
mean_file: "/media/myuser/120Gb/DIGITS/digits/jobs/20160904-002550-f9dd/mean.binaryproto"
}
data_param {
source: "/media/myuser/120Gb/DIGITS/digits/jobs/20160904-002550-f9dd/train_db"
batch_size: 32
backend: LMDB
}
}
layer {
name: "conv1/7x7_s2"
type: "Convolution"
bottom: "data"
top: "conv1/7x7_s2"
param {
lr_mult: 1
decay_mult: 1
}
param {
lr_mult: 2
decay_mult: 0
}
convolution_param {
num_output: 64
pad: 3
kernel_size: 7
stride: 2
weight_filler {
type: "xavier"
std: 0.1
}
bias_filler {
type: "constant"
value: 0.2
}
}
}
layer {
name: "conv1/relu_7x7"
type: "ReLU"
bottom: "conv1/7x7_s2"
top: "conv1/7x7_s2"
}
layer {
name: "pool1/3x3_s2"
type: "Pooling"
bottom: "conv1/7x7_s2"
top: "pool1/3x3_s2"
pooling_param {
pool: MAX
kernel_size: 3
stride: 2
}
}
layer {
name: "pool1/norm1"
type: "LRN"
bottom: "pool1/3x3_s2"
top: "pool1/norm1"
lrn_param {
local_size: 5
alpha: 0.0001
beta: 0.75
}
}
layer {
name: "conv2/3x3_reduce"
type: "Convolution"
bottom: "pool1/norm1"
top: "conv2/3x3_reduce"
param {
lr_mult: 1
decay_mult: 1
}
param {
lr_mult: 2
decay_mult: 0
}
convolution_param {
num_output: 64
kernel_size: 1
weight_filler {
type: "xavier"
std: 0.1
}
bias_filler {
type: "constant"
value: 0.2
}
}
}
layer {
name: "conv2/relu_3x3_reduce"
type: "ReLU"
bottom: "conv2/3x3_reduce"
top: "conv2/3x3_reduce"
}
layer {
name: "conv2/3x3"
type: "Convolution"
bottom: "conv2/3x3_reduce"
top: "conv2/3x3"
param {
lr_mult: 1
decay_mult: 1
}
param {
lr_mult: 2
decay_mult: 0
}
convolution_param {
num_output: 192
pad: 1
kernel_size: 3
weight_filler {
type: "xavier"
std: 0.03
}
bias_filler {
type: "constant"
value: 0.2
}
}
}
layer {
name: "conv2/relu_3x3"
type: "ReLU"
bottom: "conv2/3x3"
top: "conv2/3x3"
}
layer {
name: "conv2/norm2"
type: "LRN"
bottom: "conv2/3x3"
top: "conv2/norm2"
lrn_param {
local_size: 5
alpha: 0.0001
beta: 0.75
}
}
layer {
name: "pool2/3x3_s2"
type: "Pooling"
bottom: "conv2/norm2"
top: "pool2/3x3_s2"
pooling_param {
pool: MAX
kernel_size: 3
stride: 2
}
}
layer {
name: "inception_3a/1x1"
type: "Convolution"
bottom: "pool2/3x3_s2"
top: "inception_3a/1x1"
param {
lr_mult: 1
decay_mult: 1
}
param {
lr_mult: 2
decay_mult: 0
}
convolution_param {
num_output: 64
kernel_size: 1
weight_filler {
type: "xavier"
std: 0.03
}
bias_filler {
type: "constant"
value: 0.2
}
}
}
layer {
name: "inception_3a/relu_1x1"
type: "ReLU"
bottom: "inception_3a/1x1"
top: "inception_3a/1x1"
}
layer {
name: "inception_3a/3x3_reduce"
type: "Convolution"
bottom: "pool2/3x3_s2"
top: "inception_3a/3x3_reduce"
param {
lr_mult: 1
decay_mult: 1
}
param {
lr_mult: 2
decay_mult: 0
}
convolution_param {
num_output: 96
kernel_size: 1
weight_filler {
type: "xavier"
std: 0.09
}
bias_filler {
type: "constant"
value: 0.2
}
}
}
layer {
name: "inception_3a/relu_3x3_reduce"
type: "ReLU"
bottom: "inception_3a/3x3_reduce"
top: "inception_3a/3x3_reduce"
}
layer {
name: "inception_3a/3x3"
type: "Convolution"
bottom: "inception_3a/3x3_reduce"
top: "inception_3a/3x3"
param {
lr_mult: 1
decay_mult: 1
}
param {
lr_mult: 2
decay_mult: 0
}
convolution_param {
num_output: 128
pad: 1
kernel_size: 3
weight_filler {
type: "xavier"
std: 0.03
}
bias_filler {
type: "constant"
value: 0.2
}
}
}
layer {
name: "inception_3a/relu_3x3"
type: "ReLU"
bottom: "inception_3a/3x3"
top: "inception_3a/3x3"
}
layer {
name: "inception_3a/5x5_reduce"
type: "Convolution"
bottom: "pool2/3x3_s2"
top: "inception_3a/5x5_reduce"
param {
lr_mult: 1
decay_mult: 1
}
param {
lr_mult: 2
decay_mult: 0
}
convolution_param {
num_output: 16
kernel_size: 1
weight_filler {
type: "xavier"
std: 0.2
}
bias_filler {
type: "constant"
value: 0.2
}
}
}
layer {
name: "inception_3a/relu_5x5_reduce"
type: "ReLU"
bottom: "inception_3a/5x5_reduce"
top: "inception_3a/5x5_reduce"
}
layer {
name: "inception_3a/5x5"
type: "Convolution"
bottom: "inception_3a/5x5_reduce"
top: "inception_3a/5x5"
param {
lr_mult: 1
decay_mult: 1
}
param {
lr_mult: 2
decay_mult: 0
}
convolution_param {
num_output: 32
pad: 2
kernel_size: 5
weight_filler {
type: "xavier"
std: 0.03
}
bias_filler {
type: "constant"
value: 0.2
}
}
}
layer {
name: "inception_3a/relu_5x5"
type: "ReLU"
bottom: "inception_3a/5x5"
top: "inception_3a/5x5"
}
layer {
name: "inception_3a/pool"
type: "Pooling"
bottom: "pool2/3x3_s2"
top: "inception_3a/pool"
pooling_param {
pool: MAX
kernel_size: 3
stride: 1
pad: 1
}
}
layer {
name: "inception_3a/pool_proj"
type: "Convolution"
bottom: "inception_3a/pool"
top: "inception_3a/pool_proj"
param {
lr_mult: 1
decay_mult: 1
}
param {
lr_mult: 2
decay_mult: 0
}
convolution_param {
num_output: 32
kernel_size: 1
weight_filler {
type: "xavier"
std: 0.1
}
bias_filler {
type: "constant"
value: 0.2
}
}
}
layer {
name: "inception_3a/relu_pool_proj"
type: "ReLU"
bottom: "inception_3a/pool_proj"
top: "inception_3a/pool_proj"
}
layer {
name: "inception_3a/output"
type: "Concat"
bottom: "inception_3a/1x1"
bottom: "inception_3a/3x3"
bottom: "inception_3a/5x5"
bottom: "inception_3a/pool_proj"
top: "inception_3a/output"
}
layer {
name: "inception_3b/1x1"
type: "Convolution"
bottom: "inception_3a/output"
top: "inception_3b/1x1"
param {
lr_mult: 1
decay_mult: 1
}
param {
lr_mult: 2
decay_mult: 0
}
convolution_param {
num_output: 128
kernel_size: 1
weight_filler {
type: "xavier"
std: 0.03
}
bias_filler {
type: "constant"
value: 0.2
}
}
}
layer {
name: "inception_3b/relu_1x1"
type: "ReLU"
bottom: "inception_3b/1x1"
top: "inception_3b/1x1"
}
layer {
name: "inception_3b/3x3_reduce"
type: "Convolution"
bottom: "inception_3a/output"
top: "inception_3b/3x3_reduce"
param {
lr_mult: 1
decay_mult: 1
}
param {
lr_mult: 2
decay_mult: 0
}
convolution_param {
num_output: 128
kernel_size: 1
weight_filler {
type: "xavier"
std: 0.09
}
bias_filler {
type: "constant"
value: 0.2
}
}
}
layer {
name: "inception_3b/relu_3x3_reduce"
type: "ReLU"
bottom: "inception_3b/3x3_reduce"
top: "inception_3b/3x3_reduce"
}
layer {
name: "inception_3b/3x3"
type: "Convolution"
bottom: "inception_3b/3x3_reduce"
top: "inception_3b/3x3"
param {
lr_mult: 1
decay_mult: 1
}
param {
lr_mult: 2
decay_mult: 0
}
convolution_param {
num_output: 192
pad: 1
kernel_size: 3
weight_filler {
type: "xavier"
std: 0.03
}
bias_filler {
type: "constant"
value: 0.2
}
}
}
layer {
name: "inception_3b/relu_3x3"
type: "ReLU"
bottom: "inception_3b/3x3"
top: "inception_3b/3x3"
}
layer {
name: "inception_3b/5x5_reduce"
type: "Convolution"
bottom: "inception_3a/output"
top: "inception_3b/5x5_reduce"
param {
lr_mult: 1
decay_mult: 1
}
param {
lr_mult: 2
decay_mult: 0
}
convolution_param {
num_output: 32
kernel_size: 1
weight_filler {
type: "xavier"
std: 0.2
}
bias_filler {
type: "constant"
value: 0.2
}
}
}
layer {
name: "inception_3b/relu_5x5_reduce"
type: "ReLU"
bottom: "inception_3b/5x5_reduce"
top: "inception_3b/5x5_reduce"
}
layer {
name: "inception_3b/5x5"
type: "Convolution"
bottom: "inception_3b/5x5_reduce"
top: "inception_3b/5x5"
param {
lr_mult: 1
decay_mult: 1
}
param {
lr_mult: 2
decay_mult: 0
}
convolution_param {
num_output: 96
pad: 2
kernel_size: 5
weight_filler {
type: "xavier"
std: 0.03
}
bias_filler {
type: "constant"
value: 0.2
}
}
}
layer {
name: "inception_3b/relu_5x5"
type: "ReLU"
bottom: "inception_3b/5x5"
top: "inception_3b/5x5"
}
layer {
name: "inception_3b/pool"
type: "Pooling"
bottom: "inception_3a/output"
top: "inception_3b/pool"
pooling_param {
pool: MAX
kernel_size: 3
stride: 1
pad: 1
}
}
layer {
name: "inception_3b/pool_proj"
type: "Convolution"
bottom: "inception_3b/pool"
top: "inception_3b/pool_proj"
param {
lr_mult: 1
decay_mult: 1
}
param {
lr_mult: 2
decay_mult: 0
}
convolution_param {
num_output: 64
kernel_size: 1
weight_filler {
type: "xavier"
std: 0.1
}
bias_filler {
type: "constant"
value: 0.2
}
}
}
layer {
name: "inception_3b/relu_pool_proj"
type: "ReLU"
bottom: "inception_3b/pool_proj"
top: "inception_3b/pool_proj"
}
layer {
name: "inception_3b/output"
type: "Concat"
bottom: "inception_3b/1x1"
bottom: "inception_3b/3x3"
bottom: "inception_3b/5x5"
bottom: "inception_3b/pool_proj"
top: "inception_3b/output"
}
layer {
name: "pool3/3x3_s2"
type: "Pooling"
bottom: "inception_3b/output"
top: "pool3/3x3_s2"
pooling_param {
pool: MAX
kernel_size: 3
stride: 2
}
}
layer {
name: "inception_4a/1x1"
type: "Convolution"
bottom: "pool3/3x3_s2"
top: "inception_4a/1x1"
param {
lr_mult: 1
decay_mult: 1
}
param {
lr_mult: 2
decay_mult: 0
}
convolution_param {
num_output: 192
kernel_size: 1
weight_filler {
type: "xavier"
std: 0.03
}
bias_filler {
type: "constant"
value: 0.2
}
}
}
layer {
name: "inception_4a/relu_1x1"
type: "ReLU"
bottom: "inception_4a/1x1"
top: "inception_4a/1x1"
}
layer {
name: "inception_4a/3x3_reduce"
type: "Convolution"
bottom: "pool3/3x3_s2"
top: "inception_4a/3x3_reduce"
param {
lr_mult: 1
decay_mult: 1
}
param {
lr_mult: 2
decay_mult: 0
}
convolution_param {
num_output: 96
kernel_size: 1
weight_filler {
type: "xavier"
std: 0.09
}
bias_filler {
type: "constant"
value: 0.2
}
}
}
layer {
name: "inception_4a/relu_3x3_reduce"
type: "ReLU"
bottom: "inception_4a/3x3_reduce"
top: "inception_4a/3x3_reduce"
}
layer {
name: "inception_4a/3x3"
type: "Convolution"
bottom: "inception_4a/3x3_reduce"
top: "inception_4a/3x3"
param {
lr_mult: 1
decay_mult: 1
}
param {
lr_mult: 2
decay_mult: 0
}
convolution_param {
num_output: 208
pad: 1
kernel_size: 3
weight_filler {
type: "xavier"
std: 0.03
}
bias_filler {
type: "constant"
value: 0.2
}
}
}
layer {
name: "inception_4a/relu_3x3"
type: "ReLU"
bottom: "inception_4a/3x3"
top: "inception_4a/3x3"
}
layer {
name: "inception_4a/5x5_reduce"
type: "Convolution"
bottom: "pool3/3x3_s2"
top: "inception_4a/5x5_reduce"
param {
lr_mult: 1
decay_mult: 1
}
param {
lr_mult: 2
decay_mult: 0
}
convolution_param {
num_output: 16
kernel_size: 1
weight_filler {
type: "xavier"
std: 0.2
}
bias_filler {
type: "constant"
value: 0.2
}
}
}
layer {
name: "inception_4a/relu_5x5_reduce"
type: "ReLU"
bottom: "inception_4a/5x5_reduce"
top: "inception_4a/5x5_reduce"
}
layer {
name: "inception_4a/5x5"
type: "Convolution"
bottom: "inception_4a/5x5_reduce"
top: "inception_4a/5x5"
param {
lr_mult: 1
decay_mult: 1
}
param {
lr_mult: 2
decay_mult: 0
}
convolution_param {
num_output: 48
pad: 2
kernel_size: 5
weight_filler {
type: "xavier"
std: 0.03
}
bias_filler {
type: "constant"
value: 0.2
}
}
}
layer {
name: "inception_4a/relu_5x5"
type: "ReLU"
bottom: "inception_4a/5x5"
top: "inception_4a/5x5"
}
layer {
name: "inception_4a/pool"
type: "Pooling"
bottom: "pool3/3x3_s2"
top: "inception_4a/pool"
pooling_param {
pool: MAX
kernel_size: 3
stride: 1
pad: 1
}
}
layer {
name: "inception_4a/pool_proj"
type: "Convolution"
bottom: "inception_4a/pool"
top: "inception_4a/pool_proj"
param {
lr_mult: 1
decay_mult: 1
}
param {
lr_mult: 2
decay_mult: 0
}
convolution_param {
num_output: 64
kernel_size: 1
weight_filler {
type: "xavier"
std: 0.1
}
bias_filler {
type: "constant"
value: 0.2
}
}
}
layer {
name: "inception_4a/relu_pool_proj"
type: "ReLU"
bottom: "inception_4a/pool_proj"
top: "inception_4a/pool_proj"
}
layer {
name: "inception_4a/output"
type: "Concat"
bottom: "inception_4a/1x1"
bottom: "inception_4a/3x3"
bottom: "inception_4a/5x5"
bottom: "inception_4a/pool_proj"
top: "inception_4a/output"
}
layer {
name: "loss1/ave_pool"
type: "Pooling"
bottom: "inception_4a/output"
top: "loss1/ave_pool"
pooling_param {
pool: AVE
kernel_size: 5
stride: 3
}
}
layer {
name: "loss1/conv"
type: "Convolution"
bottom: "loss1/ave_pool"
top: "loss1/conv"
param {
lr_mult: 1
decay_mult: 1
}
param {
lr_mult: 2
decay_mult: 0
}
convolution_param {
num_output: 128
kernel_size: 1
weight_filler {
type: "xavier"
std: 0.08
}
bias_filler {
type: "constant"
value: 0.2
}
}
}
layer {
name: "loss1/relu_conv"
type: "ReLU"
bottom: "loss1/conv"
top: "loss1/conv"
}
layer {
name: "loss1/fc"
type: "InnerProduct"
bottom: "loss1/conv"
top: "loss1/fc"
param {
lr_mult: 1
decay_mult: 1
}
param {
lr_mult: 2
decay_mult: 0
}
inner_product_param {
num_output: 1024
weight_filler {
type: "xavier"
std: 0.02
}
bias_filler {
type: "constant"
value: 0.2
}
}
}
layer {
name: "loss1/relu_fc"
type: "ReLU"
bottom: "loss1/fc"
top: "loss1/fc"
}
layer {
name: "loss1/drop_fc"
type: "Dropout"
bottom: "loss1/fc"
top: "loss1/fc"
dropout_param {
dropout_ratio: 0.7
}
}
layer {
name: "loss1/classifier"
type: "InnerProduct"
bottom: "loss1/fc"
top: "loss1/classifier"
param {
lr_mult: 1
decay_mult: 1
}
param {
lr_mult: 2
decay_mult: 0
}
inner_product_param {
num_output: 2
weight_filler {
type: "xavier"
std: 0.0009765625
}
bias_filler {
type: "constant"
value: 0
}
}
}
layer {
name: "loss1/loss"
type: "SoftmaxWithLoss"
bottom: "loss1/classifier"
bottom: "label"
top: "loss1/loss"
loss_weight: 0.3
}
layer {
name: "inception_4b/1x1"
type: "Convolution"
bottom: "inception_4a/output"
top: "inception_4b/1x1"
param {
lr_mult: 1
decay_mult: 1
}
param {
lr_mult: 2
decay_mult: 0
}
convolution_param {
num_output: 160
kernel_size: 1
weight_filler {
type: "xavier"
std: 0.03
}
bias_filler {
type: "constant"
value: 0.2
}
}
}
layer {
name: "inception_4b/relu_1x1"
type: "ReLU"
bottom: "inception_4b/1x1"
top: "inception_4b/1x1"
}
layer {
name: "inception_4b/3x3_reduce"
type: "Convolution"
bottom: "inception_4a/output"
top: "inception_4b/3x3_reduce"
param {
lr_mult: 1
decay_mult: 1
}
param {
lr_mult: 2
decay_mult: 0
}
convolution_param {
num_output: 112
kernel_size: 1
weight_filler {
type: "xavier"
std: 0.09
}
bias_filler {
type: "constant"
value: 0.2
}
}
}
layer {
name: "inception_4b/relu_3x3_reduce"
type: "ReLU"
bottom: "inception_4b/3x3_reduce"
top: "inception_4b/3x3_reduce"
}
layer {
name: "inception_4b/3x3"
type: "Convolution"
bottom: "inception_4b/3x3_reduce"
top: "inception_4b/3x3"
param {
lr_mult: 1
decay_mult: 1
}
param {
lr_mult: 2
decay_mult: 0
}
convolution_param {
num_output: 224
pad: 1
kernel_size: 3
weight_filler {
type: "xavier"
std: 0.03
}
bias_filler {
type: "constant"
value: 0.2
}
}
}
layer {
name: "inception_4b/relu_3x3"
type: "ReLU"
bottom: "inception_4b/3x3"
top: "inception_4b/3x3"
}
layer {
name: "inception_4b/5x5_reduce"
type: "Convolution"
bottom: "inception_4a/output"
top: "inception_4b/5x5_reduce"
param {
lr_mult: 1
decay_mult: 1
}
param {
lr_mult: 2
decay_mult: 0
}
convolution_param {
num_output: 24
kernel_size: 1
weight_filler {
type: "xavier"
std: 0.2
}
bias_filler {
type: "constant"
value: 0.2
}
}
}
layer {
name: "inception_4b/relu_5x5_reduce"
type: "ReLU"
bottom: "inception_4b/5x5_reduce"
top: "inception_4b/5x5_reduce"
}
layer {
name: "inception_4b/5x5"
type: "Convolution"
bottom: "inception_4b/5x5_reduce"
top: "inception_4b/5x5"
param {
lr_mult: 1
decay_mult: 1
}
param {
lr_mult: 2
decay_mult: 0
}
convolution_param {
num_output: 64
pad: 2
kernel_size: 5
weight_filler {
type: "xavier"
std: 0.03
}
bias_filler {
type: "constant"
value: 0.2
}
}
}
layer {
name: "inception_4b/relu_5x5"
type: "ReLU"
bottom: "inception_4b/5x5"
top: "inception_4b/5x5"
}
layer {
name: "inception_4b/pool"
type: "Pooling"
bottom: "inception_4a/output"
top: "inception_4b/pool"
pooling_param {
pool: MAX
kernel_size: 3
stride: 1
pad: 1
}
}
layer {
name: "inception_4b/pool_proj"
type: "Convolution"
bottom: "inception_4b/pool"
top: "inception_4b/pool_proj"
param {
lr_mult: 1
decay_mult: 1
}
param {
lr_mult: 2
decay_mult: 0
}
convolution_param {
num_output: 64
kernel_size: 1
weight_filler {
type: "xavier"
std: 0.1
}
bias_filler {
type: "constant"
value: 0.2
}
}
}
layer {
name: "inception_4b/relu_pool_proj"
type: "ReLU"
bottom: "inception_4b/pool_proj"
top: "inception_4b/pool_proj"
}
layer {
name: "inception_4b/output"
type: "Concat"
bottom: "inception_4b/1x1"
bottom: "inception_4b/3x3"
bottom: "inception_4b/5x5"
bottom: "inception_4b/pool_proj"
top: "inception_4b/output"
}
layer {
name: "inception_4c/1x1"
type: "Convolution"
bottom: "inception_4b/output"
top: "inception_4c/1x1"
param {
lr_mult: 1
decay_mult: 1
}
param {
lr_mult: 2
decay_mult: 0
}
convolution_param {
num_output: 128
kernel_size: 1
weight_filler {
type: "xavier"
std: 0.03
}
bias_filler {
type: "constant"
value: 0.2
}
}
}
layer {
name: "inception_4c/relu_1x1"
type: "ReLU"
bottom: "inception_4c/1x1"
top: "inception_4c/1x1"
}
layer {
name: "inception_4c/3x3_reduce"
type: "Convolution"
bottom: "inception_4b/output"
top: "inception_4c/3x3_reduce"
param {
lr_mult: 1
decay_mult: 1
}
param {
lr_mult: 2
decay_mult: 0
}
convolution_param {
num_output: 128
kernel_size: 1
weight_filler {
type: "xavier"
std: 0.09
}
bias_filler {
type: "constant"
value: 0.2
}
}
}
layer {
name: "inception_4c/relu_3x3_reduce"
type: "ReLU"
bottom: "inception_4c/3x3_reduce"
top: "inception_4c/3x3_reduce"
}
layer {
name: "inception_4c/3x3"
type: "Convolution"
bottom: "inception_4c/3x3_reduce"
top: "inception_4c/3x3"
param {
lr_mult: 1
decay_mult: 1
}
param {
lr_mult: 2
decay_mult: 0
}
convolution_param {
num_output: 256
pad: 1
kernel_size: 3
weight_filler {
type: "xavier"
std: 0.03
}
bias_filler {
type: "constant"
value: 0.2
}
}
}
layer {
name: "inception_4c/relu_3x3"
type: "ReLU"
bottom: "inception_4c/3x3"
top: "inception_4c/3x3"
}
layer {
name: "inception_4c/5x5_reduce"
type: "Convolution"
bottom: "inception_4b/output"
top: "inception_4c/5x5_reduce"
param {
lr_mult: 1
decay_mult: 1
}
param {
lr_mult: 2
decay_mult: 0
}
convolution_param {
num_output: 24
kernel_size: 1
weight_filler {
type: "xavier"
std: 0.2
}
bias_filler {
type: "constant"
value: 0.2
}
}
}
layer {
name: "inception_4c/relu_5x5_reduce"
type: "ReLU"
bottom: "inception_4c/5x5_reduce"
top: "inception_4c/5x5_reduce"
}
layer {
name: "inception_4c/5x5"
type: "Convolution"
bottom: "inception_4c/5x5_reduce"
top: "inception_4c/5x5"
param {
lr_mult: 1
decay_mult: 1
}
param {
lr_mult: 2
decay_mult: 0
}
convolution_param {
num_output: 64
pad: 2
kernel_size: 5
weight_filler {
type: "xavier"
std: 0.03
}
bias_filler {
type: "constant"
value: 0.2
}
}
}
layer {
name: "inception_4c/relu_5x5"
type: "ReLU"
bottom: "inception_4c/5x5"
top: "inception_4c/5x5"
}
layer {
name: "inception_4c/pool"
type: "Pooling"
bottom: "inception_4b/output"
top: "inception_4c/pool"
pooling_param {
pool: MAX
kernel_size: 3
stride: 1
pad: 1
}
}
layer {
name: "inception_4c/pool_proj"
type: "Convolution"
bottom: "inception_4c/pool"
top: "inception_4c/pool_proj"
param {
lr_mult: 1
decay_mult: 1
}
param {
lr_mult: 2
decay_mult: 0
}
convolution_param {
num_output: 64
kernel_size: 1
weight_filler {
type: "xavier"
std: 0.1
}
bias_filler {
type: "constant"
value: 0.2
}
}
}
layer {
name: "inception_4c/relu_pool_proj"
type: "ReLU"
bottom: "inception_4c/pool_proj"
top: "inception_4c/pool_proj"
}
layer {
name: "inception_4c/output"
type: "Concat"
bottom: "inception_4c/1x1"
bottom: "inception_4c/3x3"
bottom: "inception_4c/5x5"
bottom: "inception_4c/pool_proj"
top: "inception_4c/output"
}
layer {
name: "inception_4d/1x1"
type: "Convolution"
bottom: "inception_4c/output"
top: "inception_4d/1x1"
param {
lr_mult: 1
decay_mult: 1
}
param {
lr_mult: 2
decay_mult: 0
}
convolution_param {
num_output: 112
kernel_size: 1
weight_filler {
type: "xavier"
std: 0.03
}
bias_filler {
type: "constant"
value: 0.2
}
}
}
layer {
name: "inception_4d/relu_1x1"
type: "ReLU"
bottom: "inception_4d/1x1"
top: "inception_4d/1x1"
}
layer {
name: "inception_4d/3x3_reduce"
type: "Convolution"
bottom: "inception_4c/output"
top: "inception_4d/3x3_reduce"
param {
lr_mult: 1
decay_mult: 1
}
param {
lr_mult: 2
decay_mult: 0
}
convolution_param {
num_output: 144
kernel_size: 1
weight_filler {
type: "xavier"
std: 0.09
}
bias_filler {
type: "constant"
value: 0.2
}
}
}
layer {
name: "inception_4d/relu_3x3_reduce"
type: "ReLU"
bottom: "inception_4d/3x3_reduce"
top: "inception_4d/3x3_reduce"
}
layer {
name: "inception_4d/3x3"
type: "Convolution"
bottom: "inception_4d/3x3_reduce"
top: "inception_4d/3x3"
param {
lr_mult: 1
decay_mult: 1
}
param {
lr_mult: 2
decay_mult: 0
}
convolution_param {
num_output: 288
pad: 1
kernel_size: 3
weight_filler {
type: "xavier"
std: 0.03
}
bias_filler {
type: "constant"
value: 0.2
}
}
}
layer {
name: "inception_4d/relu_3x3"
type: "ReLU"
bottom: "inception_4d/3x3"
top: "inception_4d/3x3"
}
layer {
name: "inception_4d/5x5_reduce"
type: "Convolution"
bottom: "inception_4c/output"
top: "inception_4d/5x5_reduce"
param {
lr_mult: 1
decay_mult: 1
}
param {
lr_mult: 2
decay_mult: 0
}
convolution_param {
num_output: 32
kernel_size: 1
weight_filler {
type: "xavier"
std: 0.2
}
bias_filler {
type: "constant"
value: 0.2
}
}
}
layer {
name: "inception_4d/relu_5x5_reduce"
type: "ReLU"
bottom: "inception_4d/5x5_reduce"
top: "inception_4d/5x5_reduce"
}
layer {
name: "inception_4d/5x5"
type: "Convolution"
bottom: "inception_4d/5x5_reduce"
top: "inception_4d/5x5"
param {
lr_mult: 1
decay_mult: 1
}
param {
lr_mult: 2
decay_mult: 0
}
convolution_param {
num_output: 64
pad: 2
kernel_size: 5
weight_filler {
type: "xavier"
std: 0.03
}
bias_filler {
type: "constant"
value: 0.2
}
}
}
layer {
name: "inception_4d/relu_5x5"
type: "ReLU"
bottom: "inception_4d/5x5"
top: "inception_4d/5x5"
}
layer {
name: "inception_4d/pool"
type: "Pooling"
bottom: "inception_4c/output"
top: "inception_4d/pool"
pooling_param {
pool: MAX
kernel_size: 3
stride: 1
pad: 1
}
}
layer {
name: "inception_4d/pool_proj"
type: "Convolution"
bottom: "inception_4d/pool"
top: "inception_4d/pool_proj"
param {
lr_mult: 1
decay_mult: 1
}
param {
lr_mult: 2
decay_mult: 0
}
convolution_param {
num_output: 64
kernel_size: 1
weight_filler {
type: "xavier"
std: 0.1
}
bias_filler {
type: "constant"
value: 0.2
}
}
}
layer {
name: "inception_4d/relu_pool_proj"
type: "ReLU"
bottom: "inception_4d/pool_proj"
top: "inception_4d/pool_proj"
}
layer {
name: "inception_4d/output"
type: "Concat"
bottom: "inception_4d/1x1"
bottom: "inception_4d/3x3"
bottom: "inception_4d/5x5"
bottom: "inception_4d/pool_proj"
top: "inception_4d/output"
}
layer {
name: "loss2/ave_pool"
type: "Pooling"
bottom: "inception_4d/output"
top: "loss2/ave_pool"
pooling_param {
pool: AVE
kernel_size: 5
stride: 3
}
}
layer {
name: "loss2/conv"
type: "Convolution"
bottom: "loss2/ave_pool"
top: "loss2/conv"
param {
lr_mult: 1
decay_mult: 1
}
param {
lr_mult: 2
decay_mult: 0
}
convolution_param {
num_output: 128
kernel_size: 1
weight_filler {
type: "xavier"
std: 0.08
}
bias_filler {
type: "constant"
value: 0.2
}
}
}
layer {
name: "loss2/relu_conv"
type: "ReLU"
bottom: "loss2/conv"
top: "loss2/conv"
}
layer {
name: "loss2/fc"
type: "InnerProduct"
bottom: "loss2/conv"
top: "loss2/fc"
param {
lr_mult: 1
decay_mult: 1
}
param {
lr_mult: 2
decay_mult: 0
}
inner_product_param {
num_output: 1024
weight_filler {
type: "xavier"
std: 0.02
}
bias_filler {
type: "constant"
value: 0.2
}
}
}
layer {
name: "loss2/relu_fc"
type: "ReLU"
bottom: "loss2/fc"
top: "loss2/fc"
}
layer {
name: "loss2/drop_fc"
type: "Dropout"
bottom: "loss2/fc"
top: "loss2/fc"
dropout_param {
dropout_ratio: 0.7
}
}
layer {
name: "loss2/classifier"
type: "InnerProduct"
bottom: "loss2/fc"
top: "loss2/classifier"
param {
lr_mult: 1
decay_mult: 1
}
param {
lr_mult: 2
decay_mult: 0
}
inner_product_param {
num_output: 2
weight_filler {
type: "xavier"
std: 0.0009765625
}
bias_filler {
type: "constant"
value: 0
}
}
}
layer {
name: "loss2/loss"
type: "SoftmaxWithLoss"
bottom: "loss2/classifier"
bottom: "label"
top: "loss2/loss"
loss_weight: 0.3
}
layer {
name: "inception_4e/1x1"
type: "Convolution"
bottom: "inception_4d/output"
top: "inception_4e/1x1"
param {
lr_mult: 1
decay_mult: 1
}
param {
lr_mult: 2
decay_mult: 0
}
convolution_param {
num_output: 256
kernel_size: 1
weight_filler {
type: "xavier"
std: 0.03
}
bias_filler {
type: "constant"
value: 0.2
}
}
}
layer {
name: "inception_4e/relu_1x1"
type: "ReLU"
bottom: "inception_4e/1x1"
top: "inception_4e/1x1"
}
layer {
name: "inception_4e/3x3_reduce"
type: "Convolution"
bottom: "inception_4d/output"
top: "inception_4e/3x3_reduce"
param {
lr_mult: 1
decay_mult: 1
}
param {
lr_mult: 2
decay_mult: 0
}
convolution_param {
num_output: 160
kernel_size: 1
weight_filler {
type: "xavier"
std: 0.09
}
bias_filler {
type: "constant"
value: 0.2
}
}
}
layer {
name: "inception_4e/relu_3x3_reduce"
type: "ReLU"
bottom: "inception_4e/3x3_reduce"
top: "inception_4e/3x3_reduce"
}
layer {
name: "inception_4e/3x3"
type: "Convolution"
bottom: "inception_4e/3x3_reduce"
top: "inception_4e/3x3"
param {
lr_mult: 1
decay_mult: 1
}
param {
lr_mult: 2
decay_mult: 0
}
convolution_param {
num_output: 320
pad: 1
kernel_size: 3
weight_filler {
type: "xavier"
std: 0.03
}
bias_filler {
type: "constant"
value: 0.2
}
}
}
layer {
name: "inception_4e/relu_3x3"
type: "ReLU"
bottom: "inception_4e/3x3"
top: "inception_4e/3x3"
}
layer {
name: "inception_4e/5x5_reduce"
type: "Convolution"
bottom: "inception_4d/output"
top: "inception_4e/5x5_reduce"
param {
lr_mult: 1
decay_mult: 1
}
param {
lr_mult: 2
decay_mult: 0
}
convolution_param {
num_output: 32
kernel_size: 1
weight_filler {
type: "xavier"
std: 0.2
}
bias_filler {
type: "constant"
value: 0.2
}
I0904 10:46:34.166708  2814 layer_factory.hpp:77] Creating layer train-data
I0904 10:46:34.172317  2814 net.cpp:94] Creating Layer train-data
I0904 10:46:34.172345  2814 net.cpp:409] train-data -> data
I0904 10:46:34.172377  2814 net.cpp:409] train-data -> label
I0904 10:46:34.180516  2814 data_transformer.cpp:25] Loading mean file from: /media/myuser/120Gb/DIGITS/digits/jobs/20160904-002550-f9dd/mean.binaryproto
I0904 10:46:34.258656  2822 db_lmdb.cpp:35] Opened lmdb /media/myuser/120Gb/DIGITS/digits/jobs/20160904-002550-f9dd/train_db
I0904 10:46:34.350020  2814 data_layer.cpp:76] output data size: 32,3,224,224
I0904 10:46:34.410253  2814 net.cpp:144] Setting up train-data
I0904 10:46:34.410290  2814 net.cpp:151] Top shape: 32 3 224 224 (4816896)
I0904 10:46:34.410300  2814 net.cpp:151] Top shape: 32 (32)
I0904 10:46:34.410307  2814 net.cpp:159] Memory required for data: 19267712
I0904 10:46:34.410325  2814 layer_factory.hpp:77] Creating layer label_train-data_1_split
I0904 10:46:34.418246  2825 blocking_queue.cpp:50] Waiting for data
I0904 10:46:34.433876  2814 net.cpp:94] Creating Layer label_train-data_1_split
I0904 10:46:34.433917  2814 net.cpp:435] label_train-data_1_split <- label
I0904 10:46:34.433938  2814 net.cpp:409] label_train-data_1_split -> label_train-data_1_split_0
I0904 10:46:34.433954  2814 net.cpp:409] label_train-data_1_split -> label_train-data_1_split_1
I0904 10:46:34.433995  2814 net.cpp:409] label_train-data_1_split -> label_train-data_1_split_2
I0904 10:46:34.434092  2814 net.cpp:144] Setting up label_train-data_1_split
I0904 10:46:34.434108  2814 net.cpp:151] Top shape: 32 (32)
I0904 10:46:34.434116  2814 net.cpp:151] Top shape: 32 (32)
I0904 10:46:34.434124  2814 net.cpp:151] Top shape: 32 (32)
I0904 10:46:34.434131  2814 net.cpp:159] Memory required for data: 19268096
I0904 10:46:34.434140  2814 layer_factory.hpp:77] Creating layer conv1/7x7_s2
I0904 10:46:34.434164  2814 net.cpp:94] Creating Layer conv1/7x7_s2
I0904 10:46:34.434171  2814 net.cpp:435] conv1/7x7_s2 <- data
I0904 10:46:34.434182  2814 net.cpp:409] conv1/7x7_s2 -> conv1/7x7_s2
I0904 10:46:34.932787  2814 net.cpp:144] Setting up conv1/7x7_s2
I0904 10:46:34.932826  2814 net.cpp:151] Top shape: 32 64 112 112 (25690112)
I0904 10:46:34.932835  2814 net.cpp:159] Memory required for data: 122028544
I0904 10:46:34.932862  2814 layer_factory.hpp:77] Creating layer conv1/relu_7x7
I0904 10:46:34.932881  2814 net.cpp:94] Creating Layer conv1/relu_7x7
I0904 10:46:34.932890  2814 net.cpp:435] conv1/relu_7x7 <- conv1/7x7_s2
I0904 10:46:34.932903  2814 net.cpp:396] conv1/relu_7x7 -> conv1/7x7_s2 (in-place)
I0904 10:46:34.932936  2814 net.cpp:144] Setting up conv1/relu_7x7
I0904 10:46:34.932946  2814 net.cpp:151] Top shape: 32 64 112 112 (25690112)
I0904 10:46:34.932953  2814 net.cpp:159] Memory required for data: 224788992
I0904 10:46:34.932960  2814 layer_factory.hpp:77] Creating layer pool1/3x3_s2
I0904 10:46:34.932976  2814 net.cpp:94] Creating Layer pool1/3x3_s2
I0904 10:46:34.932983  2814 net.cpp:435] pool1/3x3_s2 <- conv1/7x7_s2
I0904 10:46:34.932992  2814 net.cpp:409] pool1/3x3_s2 -> pool1/3x3_s2
I0904 10:46:34.934339  2814 net.cpp:144] Setting up pool1/3x3_s2
I0904 10:46:34.934350  2814 net.cpp:151] Top shape: 32 64 56 56 (6422528)
I0904 10:46:34.934357  2814 net.cpp:159] Memory required for data: 250479104
I0904 10:46:34.934365  2814 layer_factory.hpp:77] Creating layer pool1/norm1
I0904 10:46:34.934379  2814 net.cpp:94] Creating Layer pool1/norm1
I0904 10:46:34.934387  2814 net.cpp:435] pool1/norm1 <- pool1/3x3_s2
I0904 10:46:34.934397  2814 net.cpp:409] pool1/norm1 -> pool1/norm1
I0904 10:46:34.934442  2814 net.cpp:144] Setting up pool1/norm1
I0904 10:46:34.934453  2814 net.cpp:151] Top shape: 32 64 56 56 (6422528)
I0904 10:46:34.934459  2814 net.cpp:159] Memory required for data: 276169216
I0904 10:46:34.934466  2814 layer_factory.hpp:77] Creating layer conv2/3x3_reduce
I0904 10:46:34.934483  2814 net.cpp:94] Creating Layer conv2/3x3_reduce
I0904 10:46:34.934490  2814 net.cpp:435] conv2/3x3_reduce <- pool1/norm1
I0904 10:46:34.934500  2814 net.cpp:409] conv2/3x3_reduce -> conv2/3x3_reduce
I0904 10:46:34.957898  2814 net.cpp:144] Setting up conv2/3x3_reduce
I0904 10:46:34.957926  2814 net.cpp:151] Top shape: 32 64 56 56 (6422528)
I0904 10:46:34.957933  2814 net.cpp:159] Memory required for data: 301859328
I0904 10:46:34.957952  2814 layer_factory.hpp:77] Creating layer conv2/relu_3x3_reduce
I0904 10:46:34.957967  2814 net.cpp:94] Creating Layer conv2/relu_3x3_reduce
I0904 10:46:34.957975  2814 net.cpp:435] conv2/relu_3x3_reduce <- conv2/3x3_reduce
I0904 10:46:34.957985  2814 net.cpp:396] conv2/relu_3x3_reduce -> conv2/3x3_reduce (in-place)
I0904 10:46:34.958000  2814 net.cpp:144] Setting up conv2/relu_3x3_reduce
I0904 10:46:34.958009  2814 net.cpp:151] Top shape: 32 64 56 56 (6422528)
I0904 10:46:34.958017  2814 net.cpp:159] Memory required for data: 327549440
I0904 10:46:34.958024  2814 layer_factory.hpp:77] Creating layer conv2/3x3
I0904 10:46:34.958044  2814 net.cpp:94] Creating Layer conv2/3x3
I0904 10:46:34.958051  2814 net.cpp:435] conv2/3x3 <- conv2/3x3_reduce
I0904 10:46:34.958061  2814 net.cpp:409] conv2/3x3 -> conv2/3x3
I0904 10:46:35.031689  2814 net.cpp:144] Setting up conv2/3x3
I0904 10:46:35.031723  2814 net.cpp:151] Top shape: 32 192 56 56 (19267584)
I0904 10:46:35.031734  2814 net.cpp:159] Memory required for data: 404619776
I0904 10:46:35.031760  2814 layer_factory.hpp:77] Creating layer conv2/relu_3x3
I0904 10:46:35.031805  2814 net.cpp:94] Creating Layer conv2/relu_3x3
I0904 10:46:35.031816  2814 net.cpp:435] conv2/relu_3x3 <- conv2/3x3
I0904 10:46:35.031826  2814 net.cpp:396] conv2/relu_3x3 -> conv2/3x3 (in-place)
I0904 10:46:35.031842  2814 net.cpp:144] Setting up conv2/relu_3x3
I0904 10:46:35.031852  2814 net.cpp:151] Top shape: 32 192 56 56 (19267584)
I0904 10:46:35.031858  2814 net.cpp:159] Memory required for data: 481690112
I0904 10:46:35.031865  2814 layer_factory.hpp:77] Creating layer conv2/norm2
I0904 10:46:35.031877  2814 net.cpp:94] Creating Layer conv2/norm2
I0904 10:46:35.031885  2814 net.cpp:435] conv2/norm2 <- conv2/3x3
I0904 10:46:35.031895  2814 net.cpp:409] conv2/norm2 -> conv2/norm2
I0904 10:46:35.031971  2814 net.cpp:144] Setting up conv2/norm2
I0904 10:46:35.031982  2814 net.cpp:151] Top shape: 32 192 56 56 (19267584)
I0904 10:46:35.031990  2814 net.cpp:159] Memory required for data: 558760448
I0904 10:46:35.031996  2814 layer_factory.hpp:77] Creating layer pool2/3x3_s2
I0904 10:46:35.032007  2814 net.cpp:94] Creating Layer pool2/3x3_s2
I0904 10:46:35.032014  2814 net.cpp:435] pool2/3x3_s2 <- conv2/norm2
I0904 10:46:35.032026  2814 net.cpp:409] pool2/3x3_s2 -> pool2/3x3_s2
I0904 10:46:35.032066  2814 net.cpp:144] Setting up pool2/3x3_s2
I0904 10:46:35.032076  2814 net.cpp:151] Top shape: 32 192 28 28 (4816896)
I0904 10:46:35.032083  2814 net.cpp:159] Memory required for data: 578028032
I0904 10:46:35.032090  2814 layer_factory.hpp:77] Creating layer pool2/3x3_s2_pool2/3x3_s2_0_split
I0904 10:46:35.032100  2814 net.cpp:94] Creating Layer pool2/3x3_s2_pool2/3x3_s2_0_split
I0904 10:46:35.032109  2814 net.cpp:435] pool2/3x3_s2_pool2/3x3_s2_0_split <- pool2/3x3_s2
I0904 10:46:35.032117  2814 net.cpp:409] pool2/3x3_s2_pool2/3x3_s2_0_split -> pool2/3x3_s2_pool2/3x3_s2_0_split_0
I0904 10:46:35.032129  2814 net.cpp:409] pool2/3x3_s2_pool2/3x3_s2_0_split -> pool2/3x3_s2_pool2/3x3_s2_0_split_1
I0904 10:46:35.032140  2814 net.cpp:409] pool2/3x3_s2_pool2/3x3_s2_0_split -> pool2/3x3_s2_pool2/3x3_s2_0_split_2
I0904 10:46:35.032150  2814 net.cpp:409] pool2/3x3_s2_pool2/3x3_s2_0_split -> pool2/3x3_s2_pool2/3x3_s2_0_split_3
I0904 10:46:35.032213  2814 net.cpp:144] Setting up pool2/3x3_s2_pool2/3x3_s2_0_split
I0904 10:46:35.032224  2814 net.cpp:151] Top shape: 32 192 28 28 (4816896)
I0904 10:46:35.032232  2814 net.cpp:151] Top shape: 32 192 28 28 (4816896)
I0904 10:46:35.032241  2814 net.cpp:151] Top shape: 32 192 28 28 (4816896)
I0904 10:46:35.032249  2814 net.cpp:151] Top shape: 32 192 28 28 (4816896)
I0904 10:46:35.032256  2814 net.cpp:159] Memory required for data: 655098368
I0904 10:46:35.032263  2814 layer_factory.hpp:77] Creating layer inception_3a/1x1
I0904 10:46:35.032279  2814 net.cpp:94] Creating Layer inception_3a/1x1
I0904 10:46:35.032286  2814 net.cpp:435] inception_3a/1x1 <- pool2/3x3_s2_pool2/3x3_s2_0_split_0
I0904 10:46:35.032297  2814 net.cpp:409] inception_3a/1x1 -> inception_3a/1x1
I0904 10:46:35.040020  2814 net.cpp:144] Setting up inception_3a/1x1
I0904 10:46:35.040045  2814 net.cpp:151] Top shape: 32 64 28 28 (1605632)
I0904 10:46:35.040056  2814 net.cpp:159] Memory required for data: 661520896
I0904 10:46:35.040076  2814 layer_factory.hpp:77] Creating layer inception_3a/relu_1x1
I0904 10:46:35.040091  2814 net.cpp:94] Creating Layer inception_3a/relu_1x1
I0904 10:46:35.040102  2814 net.cpp:435] inception_3a/relu_1x1 <- inception_3a/1x1
I0904 10:46:35.040117  2814 net.cpp:396] inception_3a/relu_1x1 -> inception_3a/1x1 (in-place)
I0904 10:46:35.040138  2814 net.cpp:144] Setting up inception_3a/relu_1x1
I0904 10:46:35.040148  2814 net.cpp:151] Top shape: 32 64 28 28 (1605632)
I0904 10:46:35.040154  2814 net.cpp:159] Memory required for data: 667943424
I0904 10:46:35.040161  2814 layer_factory.hpp:77] Creating layer inception_3a/3x3_reduce
I0904 10:46:35.040175  2814 net.cpp:94] Creating Layer inception_3a/3x3_reduce
I0904 10:46:35.040184  2814 net.cpp:435] inception_3a/3x3_reduce <- pool2/3x3_s2_pool2/3x3_s2_0_split_1
I0904 10:46:35.040195  2814 net.cpp:409] inception_3a/3x3_reduce -> inception_3a/3x3_reduce
I0904 10:46:35.049115  2814 net.cpp:144] Setting up inception_3a/3x3_reduce
I0904 10:46:35.049139  2814 net.cpp:151] Top shape: 32 96 28 28 (2408448)
I0904 10:46:35.049151  2814 net.cpp:159] Memory required for data: 677577216
I0904 10:46:35.049175  2814 layer_factory.hpp:77] Creating layer inception_3a/relu_3x3_reduce
I0904 10:46:35.049196  2814 net.cpp:94] Creating Layer inception_3a/relu_3x3_reduce
I0904 10:46:35.049207  2814 net.cpp:435] inception_3a/relu_3x3_reduce <- inception_3a/3x3_reduce
I0904 10:46:35.049226  2814 net.cpp:396] inception_3a/relu_3x3_reduce -> inception_3a/3x3_reduce (in-place)
I0904 10:46:35.049237  2814 net.cpp:144] Setting up inception_3a/relu_3x3_reduce
I0904 10:46:35.049247  2814 net.cpp:151] Top shape: 32 96 28 28 (2408448)
I0904 10:46:35.049253  2814 net.cpp:159] Memory required for data: 687211008
I0904 10:46:35.049262  2814 layer_factory.hpp:77] Creating layer inception_3a/3x3
I0904 10:46:35.049274  2814 net.cpp:94] Creating Layer inception_3a/3x3
I0904 10:46:35.049283  2814 net.cpp:435] inception_3a/3x3 <- inception_3a/3x3_reduce
I0904 10:46:35.049293  2814 net.cpp:409] inception_3a/3x3 -> inception_3a/3x3
I0904 10:46:35.069041  2814 net.cpp:144] Setting up inception_3a/3x3
I0904 10:46:35.069062  2814 net.cpp:151] Top shape: 32 128 28 28 (3211264)
I0904 10:46:35.069074  2814 net.cpp:159] Memory required for data: 700056064
I0904 10:46:35.069092  2814 layer_factory.hpp:77] Creating layer inception_3a/relu_3x3
I0904 10:46:35.069108  2814 net.cpp:94] Creating Layer inception_3a/relu_3x3
I0904 10:46:35.069119  2814 net.cpp:435] inception_3a/relu_3x3 <- inception_3a/3x3
I0904 10:46:35.069134  2814 net.cpp:396] inception_3a/relu_3x3 -> inception_3a/3x3 (in-place)
I0904 10:46:35.069157  2814 net.cpp:144] Setting up inception_3a/relu_3x3
I0904 10:46:35.069166  2814 net.cpp:151] Top shape: 32 128 28 28 (3211264)
I0904 10:46:35.069174  2814 net.cpp:159] Memory required for data: 712901120
I0904 10:46:35.069180  2814 layer_factory.hpp:77] Creating layer inception_3a/5x5_reduce
I0904 10:46:35.069195  2814 net.cpp:94] Creating Layer inception_3a/5x5_reduce
I0904 10:46:35.069203  2814 net.cpp:435] inception_3a/5x5_reduce <- pool2/3x3_s2_pool2/3x3_s2_0_split_2
I0904 10:46:35.069214  2814 net.cpp:409] inception_3a/5x5_reduce -> inception_3a/5x5_reduce
I0904 10:46:35.074770  2814 net.cpp:144] Setting up inception_3a/5x5_reduce
I0904 10:46:35.074790  2814 net.cpp:151] Top shape: 32 16 28 28 (401408)
I0904 10:46:35.074802  2814 net.cpp:159] Memory required for data: 714506752
I0904 10:46:35.074818  2814 layer_factory.hpp:77] Creating layer inception_3a/relu_5x5_reduce
I0904 10:46:35.074833  2814 net.cpp:94] Creating Layer inception_3a/relu_5x5_reduce
I0904 10:46:35.074846  2814 net.cpp:435] inception_3a/relu_5x5_reduce <- inception_3a/5x5_reduce
I0904 10:46:35.074859  2814 net.cpp:396] inception_3a/relu_5x5_reduce -> inception_3a/5x5_reduce (in-place)
I0904 10:46:35.074877  2814 net.cpp:144] Setting up inception_3a/relu_5x5_reduce
I0904 10:46:35.074892  2814 net.cpp:151] Top shape: 32 16 28 28 (401408)
I0904 10:46:35.074901  2814 net.cpp:159] Memory required for data: 716112384
I0904 10:46:35.074913  2814 layer_factory.hpp:77] Creating layer inception_3a/5x5
I0904 10:46:35.074931  2814 net.cpp:94] Creating Layer inception_3a/5x5
I0904 10:46:35.074954  2814 net.cpp:435] inception_3a/5x5 <- inception_3a/5x5_reduce
I0904 10:46:35.074971  2814 net.cpp:409] inception_3a/5x5 -> inception_3a/5x5
I0904 10:46:35.080664  2814 net.cpp:144] Setting up inception_3a/5x5
I0904 10:46:35.080684  2814 net.cpp:151] Top shape: 32 32 28 28 (802816)
I0904 10:46:35.080695  2814 net.cpp:159] Memory required for data: 719323648
I0904 10:46:35.080711  2814 layer_factory.hpp:77] Creating layer inception_3a/relu_5x5
I0904 10:46:35.080726  2814 net.cpp:94] Creating Layer inception_3a/relu_5x5
I0904 10:46:35.080739  2814 net.cpp:435] inception_3a/relu_5x5 <- inception_3a/5x5
I0904 10:46:35.080754  2814 net.cpp:396] inception_3a/relu_5x5 -> inception_3a/5x5 (in-place)
I0904 10:46:35.080775  2814 net.cpp:144] Setting up inception_3a/relu_5x5
I0904 10:46:35.080799  2814 net.cpp:151] Top shape: 32 32 28 28 (802816)
I0904 10:46:35.080806  2814 net.cpp:159] Memory required for data: 722534912
I0904 10:46:35.080814  2814 layer_factory.hpp:77] Creating layer inception_3a/pool
I0904 10:46:35.080826  2814 net.cpp:94] Creating Layer inception_3a/pool
I0904 10:46:35.080833  2814 net.cpp:435] inception_3a/pool <- pool2/3x3_s2_pool2/3x3_s2_0_split_3
I0904 10:46:35.080843  2814 net.cpp:409] inception_3a/pool -> inception_3a/pool
I0904 10:46:35.080889  2814 net.cpp:144] Setting up inception_3a/pool
I0904 10:46:35.080899  2814 net.cpp:151] Top shape: 32 192 28 28 (4816896)
I0904 10:46:35.080906  2814 net.cpp:159] Memory required for data: 741802496
I0904 10:46:35.080914  2814 layer_factory.hpp:77] Creating layer inception_3a/pool_proj
I0904 10:46:35.080925  2814 net.cpp:94] Creating Layer inception_3a/pool_proj
I0904 10:46:35.080934  2814 net.cpp:435] inception_3a/pool_proj <- inception_3a/pool
I0904 10:46:35.080945  2814 net.cpp:409] inception_3a/pool_proj -> inception_3a/pool_proj
I0904 10:46:35.086808  2814 net.cpp:144] Setting up inception_3a/pool_proj
I0904 10:46:35.086827  2814 net.cpp:151] Top shape: 32 32 28 28 (802816)
I0904 10:46:35.086839  2814 net.cpp:159] Memory required for data: 745013760
I0904 10:46:35.086863  2814 layer_factory.hpp:77] Creating layer inception_3a/relu_pool_proj
I0904 10:46:35.086877  2814 net.cpp:94] Creating Layer inception_3a/relu_pool_proj
I0904 10:46:35.086889  2814 net.cpp:435] inception_3a/relu_pool_proj <- inception_3a/pool_proj
I0904 10:46:35.086904  2814 net.cpp:396] inception_3a/relu_pool_proj -> inception_3a/pool_proj (in-place)
I0904 10:46:35.086922  2814 net.cpp:144] Setting up inception_3a/relu_pool_proj
I0904 10:46:35.086936  2814 net.cpp:151] Top shape: 32 32 28 28 (802816)
I0904 10:46:35.086964  2814 net.cpp:159] Memory required for data: 748225024
I0904 10:46:35.086978  2814 layer_factory.hpp:77] Creating layer inception_3a/output
I0904 10:46:35.106448  2814 net.cpp:94] Creating Layer inception_3a/output
I0904 10:46:35.106462  2814 net.cpp:435] inception_3a/output <- inception_3a/1x1
I0904 10:46:35.106477  2814 net.cpp:435] inception_3a/output <- inception_3a/3x3
I0904 10:46:35.106488  2814 net.cpp:435] inception_3a/output <- inception_3a/5x5
I0904 10:46:35.106500  2814 net.cpp:435] inception_3a/output <- inception_3a/pool_proj
I0904 10:46:35.106514  2814 net.cpp:409] inception_3a/output -> inception_3a/output
I0904 10:46:35.106562  2814 net.cpp:144] Setting up inception_3a/output
I0904 10:46:35.106577  2814 net.cpp:151] Top shape: 32 256 28 28 (6422528)
I0904 10:46:35.106590  2814 net.cpp:159] Memory required for data: 773915136
I0904 10:46:35.106597  2814 layer_factory.hpp:77] Creating layer inception_3a/output_inception_3a/output_0_split
I0904 10:46:35.106607  2814 net.cpp:94] Creating Layer inception_3a/output_inception_3a/output_0_split
I0904 10:46:35.106616  2814 net.cpp:435] inception_3a/output_inception_3a/output_0_split <- inception_3a/output
I0904 10:46:35.106624  2814 net.cpp:409] inception_3a/output_inception_3a/output_0_split -> inception_3a/output_inception_3a/output_0_split_0
I0904 10:46:35.106636  2814 net.cpp:409] inception_3a/output_inception_3a/output_0_split -> inception_3a/output_inception_3a/output_0_split_1
I0904 10:46:35.106647  2814 net.cpp:409] inception_3a/output_inception_3a/output_0_split -> inception_3a/output_inception_3a/output_0_split_2
I0904 10:46:35.106658  2814 net.cpp:409] inception_3a/output_inception_3a/output_0_split -> inception_3a/output_inception_3a/output_0_split_3
I0904 10:46:35.106727  2814 net.cpp:144] Setting up inception_3a/output_inception_3a/output_0_split
I0904 10:46:35.106737  2814 net.cpp:151] Top shape: 32 256 28 28 (6422528)
I0904 10:46:35.106746  2814 net.cpp:151] Top shape: 32 256 28 28 (6422528)
I0904 10:46:35.106755  2814 net.cpp:151] Top shape: 32 256 28 28 (6422528)
I0904 10:46:35.106763  2814 net.cpp:151] Top shape: 32 256 28 28 (6422528)
I0904 10:46:35.106770  2814 net.cpp:159] Memory required for data: 876675584
I0904 10:46:35.106788  2814 layer_factory.hpp:77] Creating layer inception_3b/1x1
I0904 10:46:35.106801  2814 net.cpp:94] Creating Layer inception_3b/1x1
I0904 10:46:35.106809  2814 net.cpp:435] inception_3b/1x1 <- inception_3a/output_inception_3a/output_0_split_0
I0904 10:46:35.106820  2814 net.cpp:409] inception_3b/1x1 -> inception_3b/1x1
I0904 10:46:35.115669  2814 net.cpp:144] Setting up inception_3b/1x1
I0904 10:46:35.115681  2814 net.cpp:151] Top shape: 32 128 28 28 (3211264)
I0904 10:46:35.115689  2814 net.cpp:159] Memory required for data: 889520640
I0904 10:46:35.115700  2814 layer_factory.hpp:77] Creating layer inception_3b/relu_1x1
I0904 10:46:35.115710  2814 net.cpp:94] Creating Layer inception_3b/relu_1x1
I0904 10:46:35.115718  2814 net.cpp:435] inception_3b/relu_1x1 <- inception_3b/1x1
I0904 10:46:35.115728  2814 net.cpp:396] inception_3b/relu_1x1 -> inception_3b/1x1 (in-place)
I0904 10:46:35.115741  2814 net.cpp:144] Setting up inception_3b/relu_1x1
I0904 10:46:35.115749  2814 net.cpp:151] Top shape: 32 128 28 28 (3211264)
I0904 10:46:35.115756  2814 net.cpp:159] Memory required for data: 902365696
I0904 10:46:35.115763  2814 layer_factory.hpp:77] Creating layer inception_3b/3x3_reduce
I0904 10:46:35.115777  2814 net.cpp:94] Creating Layer inception_3b/3x3_reduce
I0904 10:46:35.115784  2814 net.cpp:435] inception_3b/3x3_reduce <- inception_3a/output_inception_3a/output_0_split_1
I0904 10:46:35.115795  2814 net.cpp:409] inception_3b/3x3_reduce -> inception_3b/3x3_reduce
I0904 10:46:35.124553  2814 net.cpp:144] Setting up inception_3b/3x3_reduce
I0904 10:46:35.124573  2814 net.cpp:151] Top shape: 32 128 28 28 (3211264)
I0904 10:46:35.124585  2814 net.cpp:159] Memory required for data: 915210752
I0904 10:46:35.124603  2814 layer_factory.hpp:77] Creating layer inception_3b/relu_3x3_reduce
I0904 10:46:35.124616  2814 net.cpp:94] Creating Layer inception_3b/relu_3x3_reduce
I0904 10:46:35.124629  2814 net.cpp:435] inception_3b/relu_3x3_reduce <- inception_3b/3x3_reduce
I0904 10:46:35.124644  2814 net.cpp:396] inception_3b/relu_3x3_reduce -> inception_3b/3x3_reduce (in-place)
I0904 10:46:35.124665  2814 net.cpp:144] Setting up inception_3b/relu_3x3_reduce
I0904 10:46:35.124673  2814 net.cpp:151] Top shape: 32 128 28 28 (3211264)
I0904 10:46:35.124680  2814 net.cpp:159] Memory required for data: 928055808
I0904 10:46:35.124687  2814 layer_factory.hpp:77] Creating layer inception_3b/3x3
I0904 10:46:35.124706  2814 net.cpp:94] Creating Layer inception_3b/3x3
I0904 10:46:35.124714  2814 net.cpp:435] inception_3b/3x3 <- inception_3b/3x3_reduce
I0904 10:46:35.124725  2814 net.cpp:409] inception_3b/3x3 -> inception_3b/3x3
I0904 10:46:35.164886  2814 net.cpp:144] Setting up inception_3b/3x3
I0904 10:46:35.164913  2814 net.cpp:151] Top shape: 32 192 28 28 (4816896)
I0904 10:46:35.164926  2814 net.cpp:159] Memory required for data: 947323392
I0904 10:46:35.164943  2814 layer_factory.hpp:77] Creating layer inception_3b/relu_3x3
I0904 10:46:35.164960  2814 net.cpp:94] Creating Layer inception_3b/relu_3x3
I0904 10:46:35.164973  2814 net.cpp:435] inception_3b/relu_3x3 <- inception_3b/3x3
I0904 10:46:35.164993  2814 net.cpp:396] inception_3b/relu_3x3 -> inception_3b/3x3 (in-place)
I0904 10:46:35.165005  2814 net.cpp:144] Setting up inception_3b/relu_3x3
I0904 10:46:35.165014  2814 net.cpp:151] Top shape: 32 192 28 28 (4816896)
I0904 10:46:35.165021  2814 net.cpp:159] Memory required for data: 966590976
I0904 10:46:35.165029  2814 layer_factory.hpp:77] Creating layer inception_3b/5x5_reduce
I0904 10:46:35.165042  2814 net.cpp:94] Creating Layer inception_3b/5x5_reduce
I0904 10:46:35.165050  2814 net.cpp:435] inception_3b/5x5_reduce <- inception_3a/output_inception_3a/output_0_split_2
I0904 10:46:35.165061  2814 net.cpp:409] inception_3b/5x5_reduce -> inception_3b/5x5_reduce
I0904 10:46:35.171705  2814 net.cpp:144] Setting up inception_3b/5x5_reduce
I0904 10:46:35.171727  2814 net.cpp:151] Top shape: 32 32 28 28 (802816)
I0904 10:46:35.171738  2814 net.cpp:159] Memory required for data: 969802240
I0904 10:46:35.171756  2814 layer_factory.hpp:77] Creating layer inception_3b/relu_5x5_reduce
I0904 10:46:35.171793  2814 net.cpp:94] Creating Layer inception_3b/relu_5x5_reduce
I0904 10:46:35.171807  2814 net.cpp:435] inception_3b/relu_5x5_reduce <- inception_3b/5x5_reduce
I0904 10:46:35.171821  2814 net.cpp:396] inception_3b/relu_5x5_reduce -> inception_3b/5x5_reduce (in-place)
I0904 10:46:35.171839  2814 net.cpp:144] Setting up inception_3b/relu_5x5_reduce
I0904 10:46:35.171854  2814 net.cpp:151] Top shape: 32 32 28 28 (802816)
I0904 10:46:35.171864  2814 net.cpp:159] Memory required for data: 973013504
I0904 10:46:35.171875  2814 layer_factory.hpp:77] Creating layer inception_3b/5x5
I0904 10:46:35.171895  2814 net.cpp:94] Creating Layer inception_3b/5x5
I0904 10:46:35.171906  2814 net.cpp:435] inception_3b/5x5 <- inception_3b/5x5_reduce
I0904 10:46:35.171926  2814 net.cpp:409] inception_3b/5x5 -> inception_3b/5x5
I0904 10:46:35.187494  2814 net.cpp:144] Setting up inception_3b/5x5
I0904 10:46:35.187515  2814 net.cpp:151] Top shape: 32 96 28 28 (2408448)
I0904 10:46:35.187525  2814 net.cpp:159] Memory required for data: 982647296
I0904 10:46:35.187542  2814 layer_factory.hpp:77] Creating layer inception_3b/relu_5x5
I0904 10:46:35.187556  2814 net.cpp:94] Creating Layer inception_3b/relu_5x5
I0904 10:46:35.187568  2814 net.cpp:435] inception_3b/relu_5x5 <- inception_3b/5x5
I0904 10:46:35.187582  2814 net.cpp:396] inception_3b/relu_5x5 -> inception_3b/5x5 (in-place)
I0904 10:46:35.187603  2814 net.cpp:144] Setting up inception_3b/relu_5x5
I0904 10:46:35.187613  2814 net.cpp:151] Top shape: 32 96 28 28 (2408448)
I0904 10:46:35.187619  2814 net.cpp:159] Memory required for data: 992281088
I0904 10:46:35.187626  2814 layer_factory.hpp:77] Creating layer inception_3b/pool
I0904 10:46:35.187638  2814 net.cpp:94] Creating Layer inception_3b/pool
I0904 10:46:35.187645  2814 net.cpp:435] inception_3b/pool <- inception_3a/output_inception_3a/output_0_split_3
I0904 10:46:35.187655  2814 net.cpp:409] inception_3b/pool -> inception_3b/pool
I0904 10:46:35.187703  2814 net.cpp:144] Setting up inception_3b/pool
I0904 10:46:35.187712  2814 net.cpp:151] Top shape: 32 256 28 28 (6422528)
I0904 10:46:35.187719  2814 net.cpp:159] Memory required for data: 1017971200
I0904 10:46:35.187726  2814 layer_factory.hpp:77] Creating layer inception_3b/pool_proj
I0904 10:46:35.187739  2814 net.cpp:94] Creating Layer inception_3b/pool_proj
I0904 10:46:35.187747  2814 net.cpp:435] inception_3b/pool_proj <- inception_3b/pool
I0904 10:46:35.187757  2814 net.cpp:409] inception_3b/pool_proj -> inception_3b/pool_proj
I0904 10:46:35.195477  2814 net.cpp:144] Setting up inception_3b/pool_proj
I0904 10:46:35.195497  2814 net.cpp:151] Top shape: 32 64 28 28 (1605632)
I0904 10:46:35.195508  2814 net.cpp:159] Memory required for data: 1024393728
I0904 10:46:35.195526  2814 layer_factory.hpp:77] Creating layer inception_3b/relu_pool_proj
I0904 10:46:35.195540  2814 net.cpp:94] Creating Layer inception_3b/relu_pool_proj
I0904 10:46:35.195552  2814 net.cpp:435] inception_3b/relu_pool_proj <- inception_3b/pool_proj
I0904 10:46:35.195567  2814 net.cpp:396] inception_3b/relu_pool_proj -> inception_3b/pool_proj (in-place)
I0904 10:46:35.195590  2814 net.cpp:144] Setting up inception_3b/relu_pool_proj
I0904 10:46:35.195600  2814 net.cpp:151] Top shape: 32 64 28 28 (1605632)
I0904 10:46:35.195606  2814 net.cpp:159] Memory required for data: 1030816256
I0904 10:46:35.195613  2814 layer_factory.hpp:77] Creating layer inception_3b/output
I0904 10:46:35.195623  2814 net.cpp:94] Creating Layer inception_3b/output
I0904 10:46:35.195631  2814 net.cpp:435] inception_3b/output <- inception_3b/1x1
I0904 10:46:35.195639  2814 net.cpp:435] inception_3b/output <- inception_3b/3x3
I0904 10:46:35.195647  2814 net.cpp:435] inception_3b/output <- inception_3b/5x5
I0904 10:46:35.195655  2814 net.cpp:435] inception_3b/output <- inception_3b/pool_proj
I0904 10:46:35.195665  2814 net.cpp:409] inception_3b/output -> inception_3b/output
I0904 10:46:35.195696  2814 net.cpp:144] Setting up inception_3b/output
I0904 10:46:35.195719  2814 net.cpp:151] Top shape: 32 480 28 28 (12042240)
I0904 10:46:35.195725  2814 net.cpp:159] Memory required for data: 1078985216
I0904 10:46:35.195734  2814 layer_factory.hpp:77] Creating layer pool3/3x3_s2
I0904 10:46:35.195744  2814 net.cpp:94] Creating Layer pool3/3x3_s2
I0904 10:46:35.195750  2814 net.cpp:435] pool3/3x3_s2 <- inception_3b/output
I0904 10:46:35.195760  2814 net.cpp:409] pool3/3x3_s2 -> pool3/3x3_s2
I0904 10:46:35.195806  2814 net.cpp:144] Setting up pool3/3x3_s2
I0904 10:46:35.195816  2814 net.cpp:151] Top shape: 32 480 14 14 (3010560)
I0904 10:46:35.195822  2814 net.cpp:159] Memory required for data: 1091027456
I0904 10:46:35.195829  2814 layer_factory.hpp:77] Creating layer pool3/3x3_s2_pool3/3x3_s2_0_split
I0904 10:46:35.195839  2814 net.cpp:94] Creating Layer pool3/3x3_s2_pool3/3x3_s2_0_split
I0904 10:46:35.195847  2814 net.cpp:435] pool3/3x3_s2_pool3/3x3_s2_0_split <- pool3/3x3_s2
I0904 10:46:35.195857  2814 net.cpp:409] pool3/3x3_s2_pool3/3x3_s2_0_split -> pool3/3x3_s2_pool3/3x3_s2_0_split_0
I0904 10:46:35.195868  2814 net.cpp:409] pool3/3x3_s2_pool3/3x3_s2_0_split -> pool3/3x3_s2_pool3/3x3_s2_0_split_1
I0904 10:46:35.195878  2814 net.cpp:409] pool3/3x3_s2_pool3/3x3_s2_0_split -> pool3/3x3_s2_pool3/3x3_s2_0_split_2
I0904 10:46:35.195889  2814 net.cpp:409] pool3/3x3_s2_pool3/3x3_s2_0_split -> pool3/3x3_s2_pool3/3x3_s2_0_split_3
I0904 10:46:35.195962  2814 net.cpp:144] Setting up pool3/3x3_s2_pool3/3x3_s2_0_split
I0904 10:46:35.195972  2814 net.cpp:151] Top shape: 32 480 14 14 (3010560)
I0904 10:46:35.195981  2814 net.cpp:151] Top shape: 32 480 14 14 (3010560)
I0904 10:46:35.195989  2814 net.cpp:151] Top shape: 32 480 14 14 (3010560)
I0904 10:46:35.195998  2814 net.cpp:151] Top shape: 32 480 14 14 (3010560)
I0904 10:46:35.196004  2814 net.cpp:159] Memory required for data: 1139196416
I0904 10:46:35.196012  2814 layer_factory.hpp:77] Creating layer inception_4a/1x1
I0904 10:46:35.196024  2814 net.cpp:94] Creating Layer inception_4a/1x1
I0904 10:46:35.196033  2814 net.cpp:435] inception_4a/1x1 <- pool3/3x3_s2_pool3/3x3_s2_0_split_0
I0904 10:46:35.196043  2814 net.cpp:409] inception_4a/1x1 -> inception_4a/1x1
I0904 10:46:35.204210  2814 net.cpp:144] Setting up inception_4a/1x1
I0904 10:46:35.204231  2814 net.cpp:151] Top shape: 32 192 14 14 (1204224)
I0904 10:46:35.204242  2814 net.cpp:159] Memory required for data: 1144013312
I0904 10:46:35.204259  2814 layer_factory.hpp:77] Creating layer inception_4a/relu_1x1
I0904 10:46:35.204273  2814 net.cpp:94] Creating Layer inception_4a/relu_1x1
I0904 10:46:35.204285  2814 net.cpp:435] inception_4a/relu_1x1 <- inception_4a/1x1
I0904 10:46:35.204299  2814 net.cpp:396] inception_4a/relu_1x1 -> inception_4a/1x1 (in-place)
I0904 10:46:35.204318  2814 net.cpp:144] Setting up inception_4a/relu_1x1
I0904 10:46:35.204331  2814 net.cpp:151] Top shape: 32 192 14 14 (1204224)
I0904 10:46:35.204339  2814 net.cpp:159] Memory required for data: 1148830208
I0904 10:46:35.204346  2814 layer_factory.hpp:77] Creating layer inception_4a/3x3_reduce
I0904 10:46:35.204358  2814 net.cpp:94] Creating Layer inception_4a/3x3_reduce
I0904 10:46:35.204366  2814 net.cpp:435] inception_4a/3x3_reduce <- pool3/3x3_s2_pool3/3x3_s2_0_split_1
I0904 10:46:35.204377  2814 net.cpp:409] inception_4a/3x3_reduce -> inception_4a/3x3_reduce
I0904 10:46:35.210577  2814 net.cpp:144] Setting up inception_4a/3x3_reduce
I0904 10:46:35.210597  2814 net.cpp:151] Top shape: 32 96 14 14 (602112)
I0904 10:46:35.210608  2814 net.cpp:159] Memory required for data: 1151238656
I0904 10:46:35.210634  2814 layer_factory.hpp:77] Creating layer inception_4a/relu_3x3_reduce
I0904 10:46:35.210650  2814 net.cpp:94] Creating Layer inception_4a/relu_3x3_reduce
I0904 10:46:35.210662  2814 net.cpp:435] inception_4a/relu_3x3_reduce <- inception_4a/3x3_reduce
I0904 10:46:35.210676  2814 net.cpp:396] inception_4a/relu_3x3_reduce -> inception_4a/3x3_reduce (in-place)
I0904 10:46:35.210695  2814 net.cpp:144] Setting up inception_4a/relu_3x3_reduce
I0904 10:46:35.210710  2814 net.cpp:151] Top shape: 32 96 14 14 (602112)
I0904 10:46:35.210736  2814 net.cpp:159] Memory required for data: 1153647104
I0904 10:46:35.210753  2814 layer_factory.hpp:77] Creating layer inception_4a/3x3
I0904 10:46:35.210767  2814 net.cpp:94] Creating Layer inception_4a/3x3
I0904 10:46:35.210773  2814 net.cpp:435] inception_4a/3x3 <- inception_4a/3x3_reduce
I0904 10:46:35.210784  2814 net.cpp:409] inception_4a/3x3 -> inception_4a/3x3
I0904 10:46:35.227098  2814 net.cpp:144] Setting up inception_4a/3x3
I0904 10:46:35.227134  2814 net.cpp:151] Top shape: 32 208 14 14 (1304576)
I0904 10:46:35.227146  2814 net.cpp:159] Memory required for data: 1158865408
I0904 10:46:35.227169  2814 layer_factory.hpp:77] Creating layer inception_4a/relu_3x3
I0904 10:46:35.227190  2814 net.cpp:94] Creating Layer inception_4a/relu_3x3
I0904 10:46:35.227205  2814 net.cpp:435] inception_4a/relu_3x3 <- inception_4a/3x3
I0904 10:46:35.227221  2814 net.cpp:396] inception_4a/relu_3x3 -> inception_4a/3x3 (in-place)
I0904 10:46:35.227244  2814 net.cpp:144] Setting up inception_4a/relu_3x3
I0904 10:46:35.227258  2814 net.cpp:151] Top shape: 32 208 14 14 (1304576)
I0904 10:46:35.227268  2814 net.cpp:159] Memory required for data: 1164083712
I0904 10:46:35.227279  2814 layer_factory.hpp:77] Creating layer inception_4a/5x5_reduce
I0904 10:46:35.227303  2814 net.cpp:94] Creating Layer inception_4a/5x5_reduce
I0904 10:46:35.227315  2814 net.cpp:435] inception_4a/5x5_reduce <- pool3/3x3_s2_pool3/3x3_s2_0_split_2
I0904 10:46:35.227334  2814 net.cpp:409] inception_4a/5x5_reduce -> inception_4a/5x5_reduce
I0904 10:46:35.232254  2814 net.cpp:144] Setting up inception_4a/5x5_reduce
I0904 10:46:35.232276  2814 net.cpp:151] Top shape: 32 16 14 14 (100352)
I0904 10:46:35.232287  2814 net.cpp:159] Memory required for data: 1164485120
I0904 10:46:35.232306  2814 layer_factory.hpp:77] Creating layer inception_4a/relu_5x5_reduce
I0904 10:46:35.232321  2814 net.cpp:94] Creating Layer inception_4a/relu_5x5_reduce
I0904 10:46:35.232333  2814 net.cpp:435] inception_4a/relu_5x5_reduce <- inception_4a/5x5_reduce
I0904 10:46:35.232348  2814 net.cpp:396] inception_4a/relu_5x5_reduce -> inception_4a/5x5_reduce (in-place)
I0904 10:46:35.232367  2814 net.cpp:144] Setting up inception_4a/relu_5x5_reduce
I0904 10:46:35.232381  2814 net.cpp:151] Top shape: 32 16 14 14 (100352)
I0904 10:46:35.232393  2814 net.cpp:159] Memory required for data: 1164886528
I0904 10:46:35.232403  2814 layer_factory.hpp:77] Creating layer inception_4a/5x5
I0904 10:46:35.232424  2814 net.cpp:94] Creating Layer inception_4a/5x5
I0904 10:46:35.232435  2814 net.cpp:435] inception_4a/5x5 <- inception_4a/5x5_reduce
I0904 10:46:35.232452  2814 net.cpp:409] inception_4a/5x5 -> inception_4a/5x5
I0904 10:46:35.236986  2814 net.cpp:144] Setting up inception_4a/5x5
I0904 10:46:35.237007  2814 net.cpp:151] Top shape: 32 48 14 14 (301056)
I0904 10:46:35.237018  2814 net.cpp:159] Memory required for data: 1166090752
I0904 10:46:35.237035  2814 layer_factory.hpp:77] Creating layer inception_4a/relu_5x5
I0904 10:46:35.237051  2814 net.cpp:94] Creating Layer inception_4a/relu_5x5
I0904 10:46:35.237063  2814 net.cpp:435] inception_4a/relu_5x5 <- inception_4a/5x5
I0904 10:46:35.237077  2814 net.cpp:396] inception_4a/relu_5x5 -> inception_4a/5x5 (in-place)
I0904 10:46:35.237097  2814 net.cpp:144] Setting up inception_4a/relu_5x5
I0904 10:46:35.237109  2814 net.cpp:151] Top shape: 32 48 14 14 (301056)
I0904 10:46:35.237120  2814 net.cpp:159] Memory required for data: 1167294976
I0904 10:46:35.237131  2814 layer_factory.hpp:77] Creating layer inception_4a/pool
I0904 10:46:35.237148  2814 net.cpp:94] Creating Layer inception_4a/pool
I0904 10:46:35.237159  2814 net.cpp:435] inception_4a/pool <- pool3/3x3_s2_pool3/3x3_s2_0_split_3
I0904 10:46:35.237174  2814 net.cpp:409] inception_4a/pool -> inception_4a/pool
I0904 10:46:35.237253  2814 net.cpp:144] Setting up inception_4a/pool
I0904 10:46:35.237269  2814 net.cpp:151] Top shape: 32 480 14 14 (3010560)
I0904 10:46:35.237279  2814 net.cpp:159] Memory required for data: 1179337216
I0904 10:46:35.237290  2814 layer_factory.hpp:77] Creating layer inception_4a/pool_proj
I0904 10:46:35.237331  2814 net.cpp:94] Creating Layer inception_4a/pool_proj
I0904 10:46:35.237344  2814 net.cpp:435] inception_4a/pool_proj <- inception_4a/pool
I0904 10:46:35.237360  2814 net.cpp:409] inception_4a/pool_proj -> inception_4a/pool_proj
I0904 10:46:35.243485  2814 net.cpp:144] Setting up inception_4a/pool_proj
I0904 10:46:35.243506  2814 net.cpp:151] Top shape: 32 64 14 14 (401408)
I0904 10:46:35.243517  2814 net.cpp:159] Memory required for data: 1180942848
I0904 10:46:35.243535  2814 layer_factory.hpp:77] Creating layer inception_4a/relu_pool_proj
I0904 10:46:35.243551  2814 net.cpp:94] Creating Layer inception_4a/relu_pool_proj
I0904 10:46:35.243562  2814 net.cpp:435] inception_4a/relu_pool_proj <- inception_4a/pool_proj
I0904 10:46:35.243577  2814 net.cpp:396] inception_4a/relu_pool_proj -> inception_4a/pool_proj (in-place)
I0904 10:46:35.243595  2814 net.cpp:144] Setting up inception_4a/relu_pool_proj
I0904 10:46:35.243608  2814 net.cpp:151] Top shape: 32 64 14 14 (401408)
I0904 10:46:35.243619  2814 net.cpp:159] Memory required for data: 1182548480
I0904 10:46:35.243630  2814 layer_factory.hpp:77] Creating layer inception_4a/output
I0904 10:46:35.243644  2814 net.cpp:94] Creating Layer inception_4a/output
I0904 10:46:35.243656  2814 net.cpp:435] inception_4a/output <- inception_4a/1x1
I0904 10:46:35.243669  2814 net.cpp:435] inception_4a/output <- inception_4a/3x3
I0904 10:46:35.243681  2814 net.cpp:435] inception_4a/output <- inception_4a/5x5
I0904 10:46:35.243693  2814 net.cpp:435] inception_4a/output <- inception_4a/pool_proj
I0904 10:46:35.243707  2814 net.cpp:409] inception_4a/output -> inception_4a/output
I0904 10:46:35.243759  2814 net.cpp:144] Setting up inception_4a/output
I0904 10:46:35.243774  2814 net.cpp:151] Top shape: 32 512 14 14 (3211264)
I0904 10:46:35.243785  2814 net.cpp:159] Memory required for data: 1195393536
I0904 10:46:35.243795  2814 layer_factory.hpp:77] Creating layer inception_4a/output_inception_4a/output_0_split
I0904 10:46:35.243810  2814 net.cpp:94] Creating Layer inception_4a/output_inception_4a/output_0_split
I0904 10:46:35.243823  2814 net.cpp:435] inception_4a/output_inception_4a/output_0_split <- inception_4a/output
I0904 10:46:35.243836  2814 net.cpp:409] inception_4a/output_inception_4a/output_0_split -> inception_4a/output_inception_4a/output_0_split_0
I0904 10:46:35.243854  2814 net.cpp:409] inception_4a/output_inception_4a/output_0_split -> inception_4a/output_inception_4a/output_0_split_1
I0904 10:46:35.243871  2814 net.cpp:409] inception_4a/output_inception_4a/output_0_split -> inception_4a/output_inception_4a/output_0_split_2
I0904 10:46:35.243890  2814 net.cpp:409] inception_4a/output_inception_4a/output_0_split -> inception_4a/output_inception_4a/output_0_split_3
I0904 10:46:35.243906  2814 net.cpp:409] inception_4a/output_inception_4a/output_0_split -> inception_4a/output_inception_4a/output_0_split_4
I0904 10:46:35.244050  2814 net.cpp:144] Setting up inception_4a/output_inception_4a/output_0_split
I0904 10:46:35.244065  2814 net.cpp:151] Top shape: 32 512 14 14 (3211264)
I0904 10:46:35.244079  2814 net.cpp:151] Top shape: 32 512 14 14 (3211264)
I0904 10:46:35.244091  2814 net.cpp:151] Top shape: 32 512 14 14 (3211264)
I0904 10:46:35.244104  2814 net.cpp:151] Top shape: 32 512 14 14 (3211264)
I0904 10:46:35.244117  2814 net.cpp:151] Top shape: 32 512 14 14 (3211264)
I0904 10:46:35.244127  2814 net.cpp:159] Memory required for data: 1259618816
I0904 10:46:35.244138  2814 layer_factory.hpp:77] Creating layer loss1/ave_pool
I0904 10:46:35.244153  2814 net.cpp:94] Creating Layer loss1/ave_pool
I0904 10:46:35.244163  2814 net.cpp:435] loss1/ave_pool <- inception_4a/output_inception_4a/output_0_split_0
I0904 10:46:35.244179  2814 net.cpp:409] loss1/ave_pool -> loss1/ave_pool
I0904 10:46:35.244240  2814 net.cpp:144] Setting up loss1/ave_pool
I0904 10:46:35.244254  2814 net.cpp:151] Top shape: 32 512 4 4 (262144)
I0904 10:46:35.244264  2814 net.cpp:159] Memory required for data: 1260667392
I0904 10:46:35.244276  2814 layer_factory.hpp:77] Creating layer loss1/conv
I0904 10:46:35.244310  2814 net.cpp:94] Creating Layer loss1/conv
I0904 10:46:35.244323  2814 net.cpp:435] loss1/conv <- loss1/ave_pool
I0904 10:46:35.244339  2814 net.cpp:409] loss1/conv -> loss1/conv
I0904 10:46:35.247856  2814 net.cpp:144] Setting up loss1/conv
I0904 10:46:35.247876  2814 net.cpp:151] Top shape: 32 128 4 4 (65536)
I0904 10:46:35.247889  2814 net.cpp:159] Memory required for data: 1260929536
I0904 10:46:35.247905  2814 layer_factory.hpp:77] Creating layer loss1/relu_conv
I0904 10:46:35.247920  2814 net.cpp:94] Creating Layer loss1/relu_conv
I0904 10:46:35.247931  2814 net.cpp:435] loss1/relu_conv <- loss1/conv
I0904 10:46:35.247946  2814 net.cpp:396] loss1/relu_conv -> loss1/conv (in-place)
I0904 10:46:35.247963  2814 net.cpp:144] Setting up loss1/relu_conv
I0904 10:46:35.247977  2814 net.cpp:151] Top shape: 32 128 4 4 (65536)
I0904 10:46:35.247987  2814 net.cpp:159] Memory required for data: 1261191680
I0904 10:46:35.247998  2814 layer_factory.hpp:77] Creating layer loss1/fc
I0904 10:46:35.248023  2814 net.cpp:94] Creating Layer loss1/fc
I0904 10:46:35.248034  2814 net.cpp:435] loss1/fc <- loss1/conv
I0904 10:46:35.248049  2814 net.cpp:409] loss1/fc -> loss1/fc
I0904 10:46:35.280150  2814 net.cpp:144] Setting up loss1/fc
I0904 10:46:35.280206  2814 net.cpp:151] Top shape: 32 1024 (32768)
I0904 10:46:35.280217  2814 net.cpp:159] Memory required for data: 1261322752
I0904 10:46:35.280239  2814 layer_factory.hpp:77] Creating layer loss1/relu_fc
I0904 10:46:35.280261  2814 net.cpp:94] Creating Layer loss1/relu_fc
I0904 10:46:35.280273  2814 net.cpp:435] loss1/relu_fc <- loss1/fc
I0904 10:46:35.280289  2814 net.cpp:396] loss1/relu_fc -> loss1/fc (in-place)
I0904 10:46:35.280313  2814 net.cpp:144] Setting up loss1/relu_fc
I0904 10:46:35.280326  2814 net.cpp:151] Top shape: 32 1024 (32768)
I0904 10:46:35.280338  2814 net.cpp:159] Memory required for data: 1261453824
I0904 10:46:35.280349  2814 layer_factory.hpp:77] Creating layer loss1/drop_fc
I0904 10:46:35.280385  2814 net.cpp:94] Creating Layer loss1/drop_fc
I0904 10:46:35.280397  2814 net.cpp:435] loss1/drop_fc <- loss1/fc
I0904 10:46:35.280411  2814 net.cpp:396] loss1/drop_fc -> loss1/fc (in-place)
I0904 10:46:35.280468  2814 net.cpp:144] Setting up loss1/drop_fc
I0904 10:46:35.280483  2814 net.cpp:151] Top shape: 32 1024 (32768)
I0904 10:46:35.280494  2814 net.cpp:159] Memory required for data: 1261584896
I0904 10:46:35.280506  2814 layer_factory.hpp:77] Creating layer loss1/classifier
I0904 10:46:35.280524  2814 net.cpp:94] Creating Layer loss1/classifier
I0904 10:46:35.280536  2814 net.cpp:435] loss1/classifier <- loss1/fc
I0904 10:46:35.280552  2814 net.cpp:409] loss1/classifier -> loss1/classifier
I0904 10:46:35.280781  2814 net.cpp:144] Setting up loss1/classifier
I0904 10:46:35.280797  2814 net.cpp:151] Top shape: 32 2 (64)
I0904 10:46:35.280807  2814 net.cpp:159] Memory required for data: 1261585152
I0904 10:46:35.280822  2814 layer_factory.hpp:77] Creating layer loss1/loss
I0904 10:46:35.281788  2814 net.cpp:94] Creating Layer loss1/loss
I0904 10:46:35.281806  2814 net.cpp:435] loss1/loss <- loss1/classifier
I0904 10:46:35.281821  2814 net.cpp:435] loss1/loss <- label_train-data_1_split_0
I0904 10:46:35.281836  2814 net.cpp:409] loss1/loss -> loss1/loss
I0904 10:46:35.281862  2814 layer_factory.hpp:77] Creating layer loss1/loss
I0904 10:46:35.282057  2814 net.cpp:144] Setting up loss1/loss
I0904 10:46:35.282073  2814 net.cpp:151] Top shape: (1)
I0904 10:46:35.282083  2814 net.cpp:154]     with loss weight 0.3
I0904 10:46:35.282119  2814 net.cpp:159] Memory required for data: 1261585156
I0904 10:46:35.282130  2814 layer_factory.hpp:77] Creating layer inception_4b/1x1
I0904 10:46:35.282151  2814 net.cpp:94] Creating Layer inception_4b/1x1
I0904 10:46:35.282165  2814 net.cpp:435] inception_4b/1x1 <- inception_4a/output_inception_4a/output_0_split_1
I0904 10:46:35.282181  2814 net.cpp:409] inception_4b/1x1 -> inception_4b/1x1
I0904 10:46:35.295382  2814 net.cpp:144] Setting up inception_4b/1x1
I0904 10:46:35.295426  2814 net.cpp:151] Top shape: 32 160 14 14 (1003520)
I0904 10:46:35.295439  2814 net.cpp:159] Memory required for data: 1265599236
I0904 10:46:35.295457  2814 layer_factory.hpp:77] Creating layer inception_4b/relu_1x1
I0904 10:46:35.295474  2814 net.cpp:94] Creating Layer inception_4b/relu_1x1
I0904 10:46:35.295485  2814 net.cpp:435] inception_4b/relu_1x1 <- inception_4b/1x1
I0904 10:46:35.295500  2814 net.cpp:396] inception_4b/relu_1x1 -> inception_4b/1x1 (in-place)
I0904 10:46:35.295519  2814 net.cpp:144] Setting up inception_4b/relu_1x1
I0904 10:46:35.295533  2814 net.cpp:151] Top shape: 32 160 14 14 (1003520)
I0904 10:46:35.295543  2814 net.cpp:159] Memory required for data: 1269613316
I0904 10:46:35.295554  2814 layer_factory.hpp:77] Creating layer inception_4b/3x3_reduce
I0904 10:46:35.295574  2814 net.cpp:94] Creating Layer inception_4b/3x3_reduce
I0904 10:46:35.295586  2814 net.cpp:435] inception_4b/3x3_reduce <- inception_4a/output_inception_4a/output_0_split_2
I0904 10:46:35.295603  2814 net.cpp:409] inception_4b/3x3_reduce -> inception_4b/3x3_reduce
I0904 10:46:35.303557  2814 net.cpp:144] Setting up inception_4b/3x3_reduce
I0904 10:46:35.303578  2814 net.cpp:151] Top shape: 32 112 14 14 (702464)
I0904 10:46:35.303589  2814 net.cpp:159] Memory required for data: 1272423172
I0904 10:46:35.303607  2814 layer_factory.hpp:77] Creating layer inception_4b/relu_3x3_reduce
I0904 10:46:35.303622  2814 net.cpp:94] Creating Layer inception_4b/relu_3x3_reduce
I0904 10:46:35.303634  2814 net.cpp:435] inception_4b/relu_3x3_reduce <- inception_4b/3x3_reduce
I0904 10:46:35.303649  2814 net.cpp:396] inception_4b/relu_3x3_reduce -> inception_4b/3x3_reduce (in-place)
I0904 10:46:35.303668  2814 net.cpp:144] Setting up inception_4b/relu_3x3_reduce
I0904 10:46:35.303681  2814 net.cpp:151] Top shape: 32 112 14 14 (702464)
I0904 10:46:35.303692  2814 net.cpp:159] Memory required for data: 1275233028
I0904 10:46:35.303704  2814 layer_factory.hpp:77] Creating layer inception_4b/3x3
I0904 10:46:35.303722  2814 net.cpp:94] Creating Layer inception_4b/3x3
I0904 10:46:35.303735  2814 net.cpp:435] inception_4b/3x3 <- inception_4b/3x3_reduce
I0904 10:46:35.303750  2814 net.cpp:409] inception_4b/3x3 -> inception_4b/3x3
I0904 10:46:35.318738  2814 net.cpp:144] Setting up inception_4b/3x3
I0904 10:46:35.318760  2814 net.cpp:151] Top shape: 32 224 14 14 (1404928)
I0904 10:46:35.318771  2814 net.cpp:159] Memory required for data: 1280852740
I0904 10:46:35.318789  2814 layer_factory.hpp:77] Creating layer inception_4b/relu_3x3
I0904 10:46:35.318804  2814 net.cpp:94] Creating Layer inception_4b/relu_3x3
I0904 10:46:35.318816  2814 net.cpp:435] inception_4b/relu_3x3 <- inception_4b/3x3
I0904 10:46:35.318831  2814 net.cpp:396] inception_4b/relu_3x3 -> inception_4b/3x3 (in-place)
I0904 10:46:35.318850  2814 net.cpp:144] Setting up inception_4b/relu_3x3
I0904 10:46:35.318863  2814 net.cpp:151] Top shape: 32 224 14 14 (1404928)
I0904 10:46:35.318873  2814 net.cpp:159] Memory required for data: 1286472452
I0904 10:46:35.318884  2814 layer_factory.hpp:77] Creating layer inception_4b/5x5_reduce
I0904 10:46:35.318904  2814 net.cpp:94] Creating Layer inception_4b/5x5_reduce
I0904 10:46:35.318917  2814 net.cpp:435] inception_4b/5x5_reduce <- inception_4a/output_inception_4a/output_0_split_3
I0904 10:46:35.318933  2814 net.cpp:409] inception_4b/5x5_reduce -> inception_4b/5x5_reduce
I0904 10:46:35.323998  2814 net.cpp:144] Setting up inception_4b/5x5_reduce
I0904 10:46:35.324018  2814 net.cpp:151] Top shape: 32 24 14 14 (150528)
I0904 10:46:35.324029  2814 net.cpp:159] Memory required for data: 1287074564
I0904 10:46:35.324046  2814 layer_factory.hpp:77] Creating layer inception_4b/relu_5x5_reduce
I0904 10:46:35.324061  2814 net.cpp:94] Creating Layer inception_4b/relu_5x5_reduce
I0904 10:46:35.324074  2814 net.cpp:435] inception_4b/relu_5x5_reduce <- inception_4b/5x5_reduce
I0904 10:46:35.324089  2814 net.cpp:396] inception_4b/relu_5x5_reduce -> inception_4b/5x5_reduce (in-place)
I0904 10:46:35.324106  2814 net.cpp:144] Setting up inception_4b/relu_5x5_reduce
I0904 10:46:35.324141  2814 net.cpp:151] Top shape: 32 24 14 14 (150528)
I0904 10:46:35.324152  2814 net.cpp:159] Memory required for data: 1287676676
I0904 10:46:35.324163  2814 layer_factory.hpp:77] Creating layer inception_4b/5x5
I0904 10:46:35.324182  2814 net.cpp:94] Creating Layer inception_4b/5x5
I0904 10:46:35.324194  2814 net.cpp:435] inception_4b/5x5 <- inception_4b/5x5_reduce
I0904 10:46:35.324210  2814 net.cpp:409] inception_4b/5x5 -> inception_4b/5x5
I0904 10:46:35.329591  2814 net.cpp:144] Setting up inception_4b/5x5
I0904 10:46:35.329610  2814 net.cpp:151] Top shape: 32 64 14 14 (401408)
I0904 10:46:35.329622  2814 net.cpp:159] Memory required for data: 1289282308
I0904 10:46:35.329638  2814 layer_factory.hpp:77] Creating layer inception_4b/relu_5x5
I0904 10:46:35.329653  2814 net.cpp:94] Creating Layer inception_4b/relu_5x5
I0904 10:46:35.329665  2814 net.cpp:435] inception_4b/relu_5x5 <- inception_4b/5x5
I0904 10:46:35.329679  2814 net.cpp:396] inception_4b/relu_5x5 -> inception_4b/5x5 (in-place)
I0904 10:46:35.329697  2814 net.cpp:144] Setting up inception_4b/relu_5x5
I0904 10:46:35.329710  2814 net.cpp:151] Top shape: 32 64 14 14 (401408)
I0904 10:46:35.329721  2814 net.cpp:159] Memory required for data: 1290887940
I0904 10:46:35.329731  2814 layer_factory.hpp:77] Creating layer inception_4b/pool
I0904 10:46:35.329747  2814 net.cpp:94] Creating Layer inception_4b/pool
I0904 10:46:35.329759  2814 net.cpp:435] inception_4b/pool <- inception_4a/output_inception_4a/output_0_split_4
I0904 10:46:35.329774  2814 net.cpp:409] inception_4b/pool -> inception_4b/pool
I0904 10:46:35.329870  2814 net.cpp:144] Setting up inception_4b/pool
I0904 10:46:35.329887  2814 net.cpp:151] Top shape: 32 512 14 14 (3211264)
I0904 10:46:35.329898  2814 net.cpp:159] Memory required for data: 1303732996
I0904 10:46:35.329910  2814 layer_factory.hpp:77] Creating layer inception_4b/pool_proj
I0904 10:46:35.329928  2814 net.cpp:94] Creating Layer inception_4b/pool_proj
I0904 10:46:35.329941  2814 net.cpp:435] inception_4b/pool_proj <- inception_4b/pool
I0904 10:46:35.329957  2814 net.cpp:409] inception_4b/pool_proj -> inception_4b/pool_proj
I0904 10:46:35.336379  2814 net.cpp:144] Setting up inception_4b/pool_proj
I0904 10:46:35.336400  2814 net.cpp:151] Top shape: 32 64 14 14 (401408)
I0904 10:46:35.336410  2814 net.cpp:159] Memory required for data: 1305338628
I0904 10:46:35.336427  2814 layer_factory.hpp:77] Creating layer inception_4b/relu_pool_proj
I0904 10:46:35.336442  2814 net.cpp:94] Creating Layer inception_4b/relu_pool_proj
I0904 10:46:35.336454  2814 net.cpp:435] inception_4b/relu_pool_proj <- inception_4b/pool_proj
I0904 10:46:35.336468  2814 net.cpp:396] inception_4b/relu_pool_proj -> inception_4b/pool_proj (in-place)
I0904 10:46:35.336486  2814 net.cpp:144] Setting up inception_4b/relu_pool_proj
I0904 10:46:35.336499  2814 net.cpp:151] Top shape: 32 64 14 14 (401408)
I0904 10:46:35.336510  2814 net.cpp:159] Memory required for data: 1306944260
I0904 10:46:35.336521  2814 layer_factory.hpp:77] Creating layer inception_4b/output
I0904 10:46:35.336535  2814 net.cpp:94] Creating Layer inception_4b/output
I0904 10:46:35.336547  2814 net.cpp:435] inception_4b/output <- inception_4b/1x1
I0904 10:46:35.336560  2814 net.cpp:435] inception_4b/output <- inception_4b/3x3
I0904 10:46:35.336571  2814 net.cpp:435] inception_4b/output <- inception_4b/5x5
I0904 10:46:35.336583  2814 net.cpp:435] inception_4b/output <- inception_4b/pool_proj
I0904 10:46:35.336598  2814 net.cpp:409] inception_4b/output -> inception_4b/output
I0904 10:46:35.336649  2814 net.cpp:144] Setting up inception_4b/output
I0904 10:46:35.336664  2814 net.cpp:151] Top shape: 32 512 14 14 (3211264)
I0904 10:46:35.336675  2814 net.cpp:159] Memory required for data: 1319789316
I0904 10:46:35.336685  2814 layer_factory.hpp:77] Creating layer inception_4b/output_inception_4b/output_0_split
I0904 10:46:35.336700  2814 net.cpp:94] Creating Layer inception_4b/output_inception_4b/output_0_split
I0904 10:46:35.336711  2814 net.cpp:435] inception_4b/output_inception_4b/output_0_split <- inception_4b/output
I0904 10:46:35.336742  2814 net.cpp:409] inception_4b/output_inception_4b/output_0_split -> inception_4b/output_inception_4b/output_0_split_0
I0904 10:46:35.336760  2814 net.cpp:409] inception_4b/output_inception_4b/output_0_split -> inception_4b/output_inception_4b/output_0_split_1
I0904 10:46:35.336778  2814 net.cpp:409] inception_4b/output_inception_4b/output_0_split -> inception_4b/output_inception_4b/output_0_split_2
I0904 10:46:35.336796  2814 net.cpp:409] inception_4b/output_inception_4b/output_0_split -> inception_4b/output_inception_4b/output_0_split_3
I0904 10:46:35.336921  2814 net.cpp:144] Setting up inception_4b/output_inception_4b/output_0_split
I0904 10:46:35.336936  2814 net.cpp:151] Top shape: 32 512 14 14 (3211264)
I0904 10:46:35.336951  2814 net.cpp:151] Top shape: 32 512 14 14 (3211264)
I0904 10:46:35.336962  2814 net.cpp:151] Top shape: 32 512 14 14 (3211264)
I0904 10:46:35.336976  2814 net.cpp:151] Top shape: 32 512 14 14 (3211264)
I0904 10:46:35.336985  2814 net.cpp:159] Memory required for data: 1371169540
I0904 10:46:35.336997  2814 layer_factory.hpp:77] Creating layer inception_4c/1x1
I0904 10:46:35.337014  2814 net.cpp:94] Creating Layer inception_4c/1x1
I0904 10:46:35.337026  2814 net.cpp:435] inception_4c/1x1 <- inception_4b/output_inception_4b/output_0_split_0
I0904 10:46:35.337044  2814 net.cpp:409] inception_4c/1x1 -> inception_4c/1x1
I0904 10:46:35.344521  2814 net.cpp:144] Setting up inception_4c/1x1
I0904 10:46:35.344542  2814 net.cpp:151] Top shape: 32 128 14 14 (802816)
I0904 10:46:35.344552  2814 net.cpp:159] Memory required for data: 1374380804
I0904 10:46:35.344569  2814 layer_factory.hpp:77] Creating layer inception_4c/relu_1x1
I0904 10:46:35.344584  2814 net.cpp:94] Creating Layer inception_4c/relu_1x1
I0904 10:46:35.344596  2814 net.cpp:435] inception_4c/relu_1x1 <- inception_4c/1x1
I0904 10:46:35.344610  2814 net.cpp:396] inception_4c/relu_1x1 -> inception_4c/1x1 (in-place)
I0904 10:46:35.344629  2814 net.cpp:144] Setting up inception_4c/relu_1x1
I0904 10:46:35.344641  2814 net.cpp:151] Top shape: 32 128 14 14 (802816)
I0904 10:46:35.344652  2814 net.cpp:159] Memory required for data: 1377592068
I0904 10:46:35.344665  2814 layer_factory.hpp:77] Creating layer inception_4c/3x3_reduce
I0904 10:46:35.344683  2814 net.cpp:94] Creating Layer inception_4c/3x3_reduce
I0904 10:46:35.344696  2814 net.cpp:435] inception_4c/3x3_reduce <- inception_4b/output_inception_4b/output_0_split_1
I0904 10:46:35.344712  2814 net.cpp:409] inception_4c/3x3_reduce -> inception_4c/3x3_reduce
I0904 10:46:35.352211  2814 net.cpp:144] Setting up inception_4c/3x3_reduce
I0904 10:46:35.352231  2814 net.cpp:151] Top shape: 32 128 14 14 (802816)
I0904 10:46:35.352242  2814 net.cpp:159] Memory required for data: 1380803332
I0904 10:46:35.352259  2814 layer_factory.hpp:77] Creating layer inception_4c/relu_3x3_reduce
I0904 10:46:35.352274  2814 net.cpp:94] Creating Layer inception_4c/relu_3x3_reduce
I0904 10:46:35.352286  2814 net.cpp:435] inception_4c/relu_3x3_reduce <- inception_4c/3x3_reduce
I0904 10:46:35.352300  2814 net.cpp:396] inception_4c/relu_3x3_reduce -> inception_4c/3x3_reduce (in-place)
I0904 10:46:35.352319  2814 net.cpp:144] Setting up inception_4c/relu_3x3_reduce
I0904 10:46:35.352332  2814 net.cpp:151] Top shape: 32 128 14 14 (802816)
I0904 10:46:35.352344  2814 net.cpp:159] Memory required for data: 1384014596
I0904 10:46:35.352355  2814 layer_factory.hpp:77] Creating layer inception_4c/3x3
I0904 10:46:35.352373  2814 net.cpp:94] Creating Layer inception_4c/3x3
I0904 10:46:35.352385  2814 net.cpp:435] inception_4c/3x3 <- inception_4c/3x3_reduce
I0904 10:46:35.352401  2814 net.cpp:409] inception_4c/3x3 -> inception_4c/3x3
I0904 10:46:35.372364  2814 net.cpp:144] Setting up inception_4c/3x3
I0904 10:46:35.372390  2814 net.cpp:151] Top shape: 32 256 14 14 (1605632)
I0904 10:46:35.372401  2814 net.cpp:159] Memory required for data: 1390437124
I0904 10:46:35.372447  2814 layer_factory.hpp:77] Creating layer inception_4c/relu_3x3
I0904 10:46:35.372467  2814 net.cpp:94] Creating Layer inception_4c/relu_3x3
I0904 10:46:35.372501  2814 net.cpp:435] inception_4c/relu_3x3 <- inception_4c/3x3
I0904 10:46:35.372516  2814 net.cpp:396] inception_4c/relu_3x3 -> inception_4c/3x3 (in-place)
I0904 10:46:35.372537  2814 net.cpp:144] Setting up inception_4c/relu_3x3
I0904 10:46:35.372551  2814 net.cpp:151] Top shape: 32 256 14 14 (1605632)
I0904 10:46:35.372561  2814 net.cpp:159] Memory required for data: 1396859652
I0904 10:46:35.372572  2814 layer_factory.hpp:77] Creating layer inception_4c/5x5_reduce
I0904 10:46:35.372592  2814 net.cpp:94] Creating Layer inception_4c/5x5_reduce
I0904 10:46:35.372606  2814 net.cpp:435] inception_4c/5x5_reduce <- inception_4b/output_inception_4b/output_0_split_2
I0904 10:46:35.372625  2814 net.cpp:409] inception_4c/5x5_reduce -> inception_4c/5x5_reduce
I0904 10:46:35.377645  2814 net.cpp:144] Setting up inception_4c/5x5_reduce
I0904 10:46:35.377665  2814 net.cpp:151] Top shape: 32 24 14 14 (150528)
I0904 10:46:35.377677  2814 net.cpp:159] Memory required for data: 1397461764
I0904 10:46:35.377693  2814 layer_factory.hpp:77] Creating layer inception_4c/relu_5x5_reduce
I0904 10:46:35.377708  2814 net.cpp:94] Creating Layer inception_4c/relu_5x5_reduce
I0904 10:46:35.377720  2814 net.cpp:435] inception_4c/relu_5x5_reduce <- inception_4c/5x5_reduce
I0904 10:46:35.377735  2814 net.cpp:396] inception_4c/relu_5x5_reduce -> inception_4c/5x5_reduce (in-place)
I0904 10:46:35.377753  2814 net.cpp:144] Setting up inception_4c/relu_5x5_reduce
I0904 10:46:35.377768  2814 net.cpp:151] Top shape: 32 24 14 14 (150528)
I0904 10:46:35.377777  2814 net.cpp:159] Memory required for data: 1398063876
I0904 10:46:35.377789  2814 layer_factory.hpp:77] Creating layer inception_4c/5x5
I0904 10:46:35.377811  2814 net.cpp:94] Creating Layer inception_4c/5x5
I0904 10:46:35.377825  2814 net.cpp:435] inception_4c/5x5 <- inception_4c/5x5_reduce
I0904 10:46:35.377840  2814 net.cpp:409] inception_4c/5x5 -> inception_4c/5x5
I0904 10:46:35.386185  2814 net.cpp:144] Setting up inception_4c/5x5
I0904 10:46:35.386222  2814 net.cpp:151] Top shape: 32 64 14 14 (401408)
I0904 10:46:35.386234  2814 net.cpp:159] Memory required for data: 1399669508
I0904 10:46:35.386255  2814 layer_factory.hpp:77] Creating layer inception_4c/relu_5x5
I0904 10:46:35.386272  2814 net.cpp:94] Creating Layer inception_4c/relu_5x5
I0904 10:46:35.386287  2814 net.cpp:435] inception_4c/relu_5x5 <- inception_4c/5x5
I0904 10:46:35.386302  2814 net.cpp:396] inception_4c/relu_5x5 -> inception_4c/5x5 (in-place)
I0904 10:46:35.386322  2814 net.cpp:144] Setting up inception_4c/relu_5x5
I0904 10:46:35.386332  2814 net.cpp:151] Top shape: 32 64 14 14 (401408)
I0904 10:46:35.386338  2814 net.cpp:159] Memory required for data: 1401275140
I0904 10:46:35.386345  2814 layer_factory.hpp:77] Creating layer inception_4c/pool
I0904 10:46:35.386358  2814 net.cpp:94] Creating Layer inception_4c/pool
I0904 10:46:35.386365  2814 net.cpp:435] inception_4c/pool <- inception_4b/output_inception_4b/output_0_split_3
I0904 10:46:35.386379  2814 net.cpp:409] inception_4c/pool -> inception_4c/pool
I0904 10:46:35.386441  2814 net.cpp:144] Setting up inception_4c/pool
I0904 10:46:35.386451  2814 net.cpp:151] Top shape: 32 512 14 14 (3211264)
I0904 10:46:35.386458  2814 net.cpp:159] Memory required for data: 1414120196
I0904 10:46:35.386466  2814 layer_factory.hpp:77] Creating layer inception_4c/pool_proj
I0904 10:46:35.386482  2814 net.cpp:94] Creating Layer inception_4c/pool_proj
I0904 10:46:35.386490  2814 net.cpp:435] inception_4c/pool_proj <- inception_4c/pool
I0904 10:46:35.386502  2814 net.cpp:409] inception_4c/pool_proj -> inception_4c/pool_proj
I0904 10:46:35.392194  2814 net.cpp:144] Setting up inception_4c/pool_proj
I0904 10:46:35.392215  2814 net.cpp:151] Top shape: 32 64 14 14 (401408)
I0904 10:46:35.392225  2814 net.cpp:159] Memory required for data: 1415725828
I0904 10:46:35.392242  2814 layer_factory.hpp:77] Creating layer inception_4c/relu_pool_proj
I0904 10:46:35.392257  2814 net.cpp:94] Creating Layer inception_4c/relu_pool_proj
I0904 10:46:35.392298  2814 net.cpp:435] inception_4c/relu_pool_proj <- inception_4c/pool_proj
I0904 10:46:35.392313  2814 net.cpp:396] inception_4c/relu_pool_proj -> inception_4c/pool_proj (in-place)
I0904 10:46:35.392331  2814 net.cpp:144] Setting up inception_4c/relu_pool_proj
I0904 10:46:35.392345  2814 net.cpp:151] Top shape: 32 64 14 14 (401408)
I0904 10:46:35.392356  2814 net.cpp:159] Memory required for data: 1417331460
I0904 10:46:35.392366  2814 layer_factory.hpp:77] Creating layer inception_4c/output
I0904 10:46:35.392385  2814 net.cpp:94] Creating Layer inception_4c/output
I0904 10:46:35.392392  2814 net.cpp:435] inception_4c/output <- inception_4c/1x1
I0904 10:46:35.392400  2814 net.cpp:435] inception_4c/output <- inception_4c/3x3
I0904 10:46:35.392408  2814 net.cpp:435] inception_4c/output <- inception_4c/5x5
I0904 10:46:35.392416  2814 net.cpp:435] inception_4c/output <- inception_4c/pool_proj
I0904 10:46:35.392426  2814 net.cpp:409] inception_4c/output -> inception_4c/output
I0904 10:46:35.392462  2814 net.cpp:144] Setting up inception_4c/output
I0904 10:46:35.392472  2814 net.cpp:151] Top shape: 32 512 14 14 (3211264)
I0904 10:46:35.392479  2814 net.cpp:159] Memory required for data: 1430176516
I0904 10:46:35.392487  2814 layer_factory.hpp:77] Creating layer inception_4c/output_inception_4c/output_0_split
I0904 10:46:35.392498  2814 net.cpp:94] Creating Layer inception_4c/output_inception_4c/output_0_split
I0904 10:46:35.392506  2814 net.cpp:435] inception_4c/output_inception_4c/output_0_split <- inception_4c/output
I0904 10:46:35.392515  2814 net.cpp:409] inception_4c/output_inception_4c/output_0_split -> inception_4c/output_inception_4c/output_0_split_0
I0904 10:46:35.392526  2814 net.cpp:409] inception_4c/output_inception_4c/output_0_split -> inception_4c/output_inception_4c/output_0_split_1
I0904 10:46:35.392539  2814 net.cpp:409] inception_4c/output_inception_4c/output_0_split -> inception_4c/output_inception_4c/output_0_split_2
I0904 10:46:35.392549  2814 net.cpp:409] inception_4c/output_inception_4c/output_0_split -> inception_4c/output_inception_4c/output_0_split_3
I0904 10:46:35.392637  2814 net.cpp:144] Setting up inception_4c/output_inception_4c/output_0_split
I0904 10:46:35.392647  2814 net.cpp:151] Top shape: 32 512 14 14 (3211264)
I0904 10:46:35.392657  2814 net.cpp:151] Top shape: 32 512 14 14 (3211264)
I0904 10:46:35.392664  2814 net.cpp:151] Top shape: 32 512 14 14 (3211264)
I0904 10:46:35.392673  2814 net.cpp:151] Top shape: 32 512 14 14 (3211264)
I0904 10:46:35.392679  2814 net.cpp:159] Memory required for data: 1481556740
I0904 10:46:35.392686  2814 layer_factory.hpp:77] Creating layer inception_4d/1x1
I0904 10:46:35.392700  2814 net.cpp:94] Creating Layer inception_4d/1x1
I0904 10:46:35.392709  2814 net.cpp:435] inception_4d/1x1 <- inception_4c/output_inception_4c/output_0_split_0
I0904 10:46:35.392722  2814 net.cpp:409] inception_4d/1x1 -> inception_4d/1x1
I0904 10:46:35.399245  2814 net.cpp:144] Setting up inception_4d/1x1
I0904 10:46:35.399266  2814 net.cpp:151] Top shape: 32 112 14 14 (702464)
I0904 10:46:35.399277  2814 net.cpp:159] Memory required for data: 1484366596
I0904 10:46:35.399293  2814 layer_factory.hpp:77] Creating layer inception_4d/relu_1x1
I0904 10:46:35.399312  2814 net.cpp:94] Creating Layer inception_4d/relu_1x1
I0904 10:46:35.399323  2814 net.cpp:435] inception_4d/relu_1x1 <- inception_4d/1x1
I0904 10:46:35.399338  2814 net.cpp:396] inception_4d/relu_1x1 -> inception_4d/1x1 (in-place)
I0904 10:46:35.399355  2814 net.cpp:144] Setting up inception_4d/relu_1x1
I0904 10:46:35.399369  2814 net.cpp:151] Top shape: 32 112 14 14 (702464)
I0904 10:46:35.399384  2814 net.cpp:159] Memory required for data: 1487176452
I0904 10:46:35.399392  2814 layer_factory.hpp:77] Creating layer inception_4d/3x3_reduce
I0904 10:46:35.399405  2814 net.cpp:94] Creating Layer inception_4d/3x3_reduce
I0904 10:46:35.399412  2814 net.cpp:435] inception_4d/3x3_reduce <- inception_4c/output_inception_4c/output_0_split_1
I0904 10:46:35.399425  2814 net.cpp:409] inception_4d/3x3_reduce -> inception_4d/3x3_reduce
I0904 10:46:35.407148  2814 net.cpp:144] Setting up inception_4d/3x3_reduce
I0904 10:46:35.407167  2814 net.cpp:151] Top shape: 32 144 14 14 (903168)
I0904 10:46:35.407179  2814 net.cpp:159] Memory required for data: 1490789124
I0904 10:46:35.407196  2814 layer_factory.hpp:77] Creating layer inception_4d/relu_3x3_reduce
I0904 10:46:35.407210  2814 net.cpp:94] Creating Layer inception_4d/relu_3x3_reduce
I0904 10:46:35.407223  2814 net.cpp:435] inception_4d/relu_3x3_reduce <- inception_4d/3x3_reduce
I0904 10:46:35.407238  2814 net.cpp:396] inception_4d/relu_3x3_reduce -> inception_4d/3x3_reduce (in-place)
I0904 10:46:35.407255  2814 net.cpp:144] Setting up inception_4d/relu_3x3_reduce
I0904 10:46:35.407271  2814 net.cpp:151] Top shape: 32 144 14 14 (903168)
I0904 10:46:35.407279  2814 net.cpp:159] Memory required for data: 1494401796
I0904 10:46:35.407285  2814 layer_factory.hpp:77] Creating layer inception_4d/3x3
I0904 10:46:35.407301  2814 net.cpp:94] Creating Layer inception_4d/3x3
I0904 10:46:35.407310  2814 net.cpp:435] inception_4d/3x3 <- inception_4d/3x3_reduce
I0904 10:46:35.407320  2814 net.cpp:409] inception_4d/3x3 -> inception_4d/3x3
I0904 10:46:35.430627  2814 net.cpp:144] Setting up inception_4d/3x3
I0904 10:46:35.430655  2814 net.cpp:151] Top shape: 32 288 14 14 (1806336)
I0904 10:46:35.430666  2814 net.cpp:159] Memory required for data: 1501627140
I0904 10:46:35.430685  2814 layer_factory.hpp:77] Creating layer inception_4d/relu_3x3
I0904 10:46:35.430703  2814 net.cpp:94] Creating Layer inception_4d/relu_3x3
I0904 10:46:35.430716  2814 net.cpp:435] inception_4d/relu_3x3 <- inception_4d/3x3
I0904 10:46:35.430735  2814 net.cpp:396] inception_4d/relu_3x3 -> inception_4d/3x3 (in-place)
I0904 10:46:35.430749  2814 net.cpp:144] Setting up inception_4d/relu_3x3
I0904 10:46:35.430758  2814 net.cpp:151] Top shape: 32 288 14 14 (1806336)
I0904 10:46:35.430765  2814 net.cpp:159] Memory required for data: 1508852484
I0904 10:46:35.430773  2814 layer_factory.hpp:77] Creating layer inception_4d/5x5_reduce
I0904 10:46:35.430788  2814 net.cpp:94] Creating Layer inception_4d/5x5_reduce
I0904 10:46:35.430796  2814 net.cpp:435] inception_4d/5x5_reduce <- inception_4c/output_inception_4c/output_0_split_2
I0904 10:46:35.430809  2814 net.cpp:409] inception_4d/5x5_reduce -> inception_4d/5x5_reduce
I0904 10:46:35.435292  2814 net.cpp:144] Setting up inception_4d/5x5_reduce
I0904 10:46:35.435312  2814 net.cpp:151] Top shape: 32 32 14 14 (200704)
I0904 10:46:35.435322  2814 net.cpp:159] Memory required for data: 1509655300
I0904 10:46:35.435338  2814 layer_factory.hpp:77] Creating layer inception_4d/relu_5x5_reduce
I0904 10:46:35.435353  2814 net.cpp:94] Creating Layer inception_4d/relu_5x5_reduce
I0904 10:46:35.435365  2814 net.cpp:435] inception_4d/relu_5x5_reduce <- inception_4d/5x5_reduce
I0904 10:46:35.435379  2814 net.cpp:396] inception_4d/relu_5x5_reduce -> inception_4d/5x5_reduce (in-place)
I0904 10:46:35.435396  2814 net.cpp:144] Setting up inception_4d/relu_5x5_reduce
I0904 10:46:35.435410  2814 net.cpp:151] Top shape: 32 32 14 14 (200704)
I0904 10:46:35.435421  2814 net.cpp:159] Memory required for data: 1510458116
I0904 10:46:35.435432  2814 layer_factory.hpp:77] Creating layer inception_4d/5x5
I0904 10:46:35.435456  2814 net.cpp:94] Creating Layer inception_4d/5x5
I0904 10:46:35.435467  2814 net.cpp:435] inception_4d/5x5 <- inception_4d/5x5_reduce
I0904 10:46:35.435487  2814 net.cpp:409] inception_4d/5x5 -> inception_4d/5x5
I0904 10:46:35.440500  2814 net.cpp:144] Setting up inception_4d/5x5
I0904 10:46:35.440520  2814 net.cpp:151] Top shape: 32 64 14 14 (401408)
I0904 10:46:35.440531  2814 net.cpp:159] Memory required for data: 1512063748
I0904 10:46:35.440546  2814 layer_factory.hpp:77] Creating layer inception_4d/relu_5x5
I0904 10:46:35.440560  2814 net.cpp:94] Creating Layer inception_4d/relu_5x5
I0904 10:46:35.440572  2814 net.cpp:435] inception_4d/relu_5x5 <- inception_4d/5x5
I0904 10:46:35.440587  2814 net.cpp:396] inception_4d/relu_5x5 -> inception_4d/5x5 (in-place)
I0904 10:46:35.440603  2814 net.cpp:144] Setting up inception_4d/relu_5x5
I0904 10:46:35.440639  2814 net.cpp:151] Top shape: 32 64 14 14 (401408)
I0904 10:46:35.440646  2814 net.cpp:159] Memory required for data: 1513669380
I0904 10:46:35.440654  2814 layer_factory.hpp:77] Creating layer inception_4d/pool
I0904 10:46:35.440665  2814 net.cpp:94] Creating Layer inception_4d/pool
I0904 10:46:35.440672  2814 net.cpp:435] inception_4d/pool <- inception_4c/output_inception_4c/output_0_split_3
I0904 10:46:35.440682  2814 net.cpp:409] inception_4d/pool -> inception_4d/pool
I0904 10:46:35.440740  2814 net.cpp:144] Setting up inception_4d/pool
I0904 10:46:35.440750  2814 net.cpp:151] Top shape: 32 512 14 14 (3211264)
I0904 10:46:35.440757  2814 net.cpp:159] Memory required for data: 1526514436
I0904 10:46:35.440765  2814 layer_factory.hpp:77] Creating layer inception_4d/pool_proj
I0904 10:46:35.440780  2814 net.cpp:94] Creating Layer inception_4d/pool_proj
I0904 10:46:35.440788  2814 net.cpp:435] inception_4d/pool_proj <- inception_4d/pool
I0904 10:46:35.440798  2814 net.cpp:409] inception_4d/pool_proj -> inception_4d/pool_proj
I0904 10:46:35.446758  2814 net.cpp:144] Setting up inception_4d/pool_proj
I0904 10:46:35.446779  2814 net.cpp:151] Top shape: 32 64 14 14 (401408)
I0904 10:46:35.446789  2814 net.cpp:159] Memory required for data: 1528120068
I0904 10:46:35.446806  2814 layer_factory.hpp:77] Creating layer inception_4d/relu_pool_proj
I0904 10:46:35.446821  2814 net.cpp:94] Creating Layer inception_4d/relu_pool_proj
I0904 10:46:35.446833  2814 net.cpp:435] inception_4d/relu_pool_proj <- inception_4d/pool_proj
I0904 10:46:35.446847  2814 net.cpp:396] inception_4d/relu_pool_proj -> inception_4d/pool_proj (in-place)
I0904 10:46:35.446866  2814 net.cpp:144] Setting up inception_4d/relu_pool_proj
I0904 10:46:35.446879  2814 net.cpp:151] Top shape: 32 64 14 14 (401408)
I0904 10:46:35.446890  2814 net.cpp:159] Memory required for data: 1529725700
I0904 10:46:35.446902  2814 layer_factory.hpp:77] Creating layer inception_4d/output
I0904 10:46:35.446920  2814 net.cpp:94] Creating Layer inception_4d/output
I0904 10:46:35.446933  2814 net.cpp:435] inception_4d/output <- inception_4d/1x1
I0904 10:46:35.446956  2814 net.cpp:435] inception_4d/output <- inception_4d/3x3
I0904 10:46:35.446964  2814 net.cpp:435] inception_4d/output <- inception_4d/5x5
I0904 10:46:35.446972  2814 net.cpp:435] inception_4d/output <- inception_4d/pool_proj
I0904 10:46:35.446982  2814 net.cpp:409] inception_4d/output -> inception_4d/output
I0904 10:46:35.447019  2814 net.cpp:144] Setting up inception_4d/output
I0904 10:46:35.447029  2814 net.cpp:151] Top shape: 32 528 14 14 (3311616)
I0904 10:46:35.447036  2814 net.cpp:159] Memory required for data: 1542972164
I0904 10:46:35.447043  2814 layer_factory.hpp:77] Creating layer inception_4d/output_inception_4d/output_0_split
I0904 10:46:35.447053  2814 net.cpp:94] Creating Layer inception_4d/output_inception_4d/output_0_split
I0904 10:46:35.447060  2814 net.cpp:435] inception_4d/output_inception_4d/output_0_split <- inception_4d/output
I0904 10:46:35.447072  2814 net.cpp:409] inception_4d/output_inception_4d/output_0_split -> inception_4d/output_inception_4d/output_0_split_0
I0904 10:46:35.447083  2814 net.cpp:409] inception_4d/output_inception_4d/output_0_split -> inception_4d/output_inception_4d/output_0_split_1
I0904 10:46:35.447095  2814 net.cpp:409] inception_4d/output_inception_4d/output_0_split -> inception_4d/output_inception_4d/output_0_split_2
I0904 10:46:35.447106  2814 net.cpp:409] inception_4d/output_inception_4d/output_0_split -> inception_4d/output_inception_4d/output_0_split_3
I0904 10:46:35.447119  2814 net.cpp:409] inception_4d/output_inception_4d/output_0_split -> inception_4d/output_inception_4d/output_0_split_4
I0904 10:46:35.447230  2814 net.cpp:144] Setting up inception_4d/output_inception_4d/output_0_split
I0904 10:46:35.447240  2814 net.cpp:151] Top shape: 32 528 14 14 (3311616)
I0904 10:46:35.447249  2814 net.cpp:151] Top shape: 32 528 14 14 (3311616)
I0904 10:46:35.447257  2814 net.cpp:151] Top shape: 32 528 14 14 (3311616)
I0904 10:46:35.447278  2814 net.cpp:151] Top shape: 32 528 14 14 (3311616)
I0904 10:46:35.447286  2814 net.cpp:151] Top shape: 32 528 14 14 (3311616)
I0904 10:46:35.447293  2814 net.cpp:159] Memory required for data: 1609204484
I0904 10:46:35.447299  2814 layer_factory.hpp:77] Creating layer loss2/ave_pool
I0904 10:46:35.447309  2814 net.cpp:94] Creating Layer loss2/ave_pool
I0904 10:46:35.447316  2814 net.cpp:435] loss2/ave_pool <- inception_4d/output_inception_4d/output_0_split_0
I0904 10:46:35.447330  2814 net.cpp:409] loss2/ave_pool -> loss2/ave_pool
I0904 10:46:35.447367  2814 net.cpp:144] Setting up loss2/ave_pool
I0904 10:46:35.447376  2814 net.cpp:151] Top shape: 32 528 4 4 (270336)
I0904 10:46:35.447383  2814 net.cpp:159] Memory required for data: 1610285828
I0904 10:46:35.447391  2814 layer_factory.hpp:77] Creating layer loss2/conv
I0904 10:46:35.447404  2814 net.cpp:94] Creating Layer loss2/conv
I0904 10:46:35.447412  2814 net.cpp:435] loss2/conv <- loss2/ave_pool
I0904 10:46:35.447425  2814 net.cpp:409] loss2/conv -> loss2/conv
I0904 10:46:35.451292  2814 net.cpp:144] Setting up loss2/conv
I0904 10:46:35.451313  2814 net.cpp:151] Top shape: 32 128 4 4 (65536)
I0904 10:46:35.451324  2814 net.cpp:159] Memory required for data: 1610547972
I0904 10:46:35.451340  2814 layer_factory.hpp:77] Creating layer loss2/relu_conv
I0904 10:46:35.451355  2814 net.cpp:94] Creating Layer loss2/relu_conv
I0904 10:46:35.451366  2814 net.cpp:435] loss2/relu_conv <- loss2/conv
I0904 10:46:35.451380  2814 net.cpp:396] loss2/relu_conv -> loss2/conv (in-place)
I0904 10:46:35.451397  2814 net.cpp:144] Setting up loss2/relu_conv
I0904 10:46:35.451411  2814 net.cpp:151] Top shape: 32 128 4 4 (65536)
I0904 10:46:35.451422  2814 net.cpp:159] Memory required for data: 1610810116
I0904 10:46:35.451432  2814 layer_factory.hpp:77] Creating layer loss2/fc
I0904 10:46:35.451452  2814 net.cpp:94] Creating Layer loss2/fc
I0904 10:46:35.451463  2814 net.cpp:435] loss2/fc <- loss2/conv
I0904 10:46:35.451478  2814 net.cpp:409] loss2/fc -> loss2/fc
I0904 10:46:35.473868  2814 net.cpp:144] Setting up loss2/fc
I0904 10:46:35.473909  2814 net.cpp:151] Top shape: 32 1024 (32768)
I0904 10:46:35.473917  2814 net.cpp:159] Memory required for data: 1610941188
I0904 10:46:35.473933  2814 layer_factory.hpp:77] Creating layer loss2/relu_fc
I0904 10:46:35.473948  2814 net.cpp:94] Creating Layer loss2/relu_fc
I0904 10:46:35.473959  2814 net.cpp:435] loss2/relu_fc <- loss2/fc
I0904 10:46:35.473973  2814 net.cpp:396] loss2/relu_fc -> loss2/fc (in-place)
I0904 10:46:35.473991  2814 net.cpp:144] Setting up loss2/relu_fc
I0904 10:46:35.473999  2814 net.cpp:151] Top shape: 32 1024 (32768)
I0904 10:46:35.474006  2814 net.cpp:159] Memory required for data: 1611072260
I0904 10:46:35.474014  2814 layer_factory.hpp:77] Creating layer loss2/drop_fc
I0904 10:46:35.474025  2814 net.cpp:94] Creating Layer loss2/drop_fc
I0904 10:46:35.474033  2814 net.cpp:435] loss2/drop_fc <- loss2/fc
I0904 10:46:35.474045  2814 net.cpp:396] loss2/drop_fc -> loss2/fc (in-place)
I0904 10:46:35.474077  2814 net.cpp:144] Setting up loss2/drop_fc
I0904 10:46:35.474086  2814 net.cpp:151] Top shape: 32 1024 (32768)
I0904 10:46:35.474093  2814 net.cpp:159] Memory required for data: 1611203332
I0904 10:46:35.474100  2814 layer_factory.hpp:77] Creating layer loss2/classifier
I0904 10:46:35.474114  2814 net.cpp:94] Creating Layer loss2/classifier
I0904 10:46:35.474123  2814 net.cpp:435] loss2/classifier <- loss2/fc
I0904 10:46:35.474134  2814 net.cpp:409] loss2/classifier -> loss2/classifier
I0904 10:46:35.474308  2814 net.cpp:144] Setting up loss2/classifier
I0904 10:46:35.474318  2814 net.cpp:151] Top shape: 32 2 (64)
I0904 10:46:35.474324  2814 net.cpp:159] Memory required for data: 1611203588
I0904 10:46:35.474334  2814 layer_factory.hpp:77] Creating layer loss2/loss
I0904 10:46:35.474346  2814 net.cpp:94] Creating Layer loss2/loss
I0904 10:46:35.474354  2814 net.cpp:435] loss2/loss <- loss2/classifier
I0904 10:46:35.474364  2814 net.cpp:435] loss2/loss <- label_train-data_1_split_1
I0904 10:46:35.474407  2814 net.cpp:409] loss2/loss -> loss2/loss
I0904 10:46:35.474421  2814 layer_factory.hpp:77] Creating layer loss2/loss
I0904 10:46:35.474558  2814 net.cpp:144] Setting up loss2/loss
I0904 10:46:35.474570  2814 net.cpp:151] Top shape: (1)
I0904 10:46:35.474575  2814 net.cpp:154]     with loss weight 0.3
I0904 10:46:35.474593  2814 net.cpp:159] Memory required for data: 1611203592
I0904 10:46:35.474601  2814 layer_factory.hpp:77] Creating layer inception_4e/1x1
I0904 10:46:35.474617  2814 net.cpp:94] Creating Layer inception_4e/1x1
I0904 10:46:35.474627  2814 net.cpp:435] inception_4e/1x1 <- inception_4d/output_inception_4d/output_0_split_1
I0904 10:46:35.474637  2814 net.cpp:409] inception_4e/1x1 -> inception_4e/1x1
I0904 10:46:35.489578  2814 net.cpp:144] Setting up inception_4e/1x1
I0904 10:46:35.489606  2814 net.cpp:151] Top shape: 32 256 14 14 (1605632)
I0904 10:46:35.489619  2814 net.cpp:159] Memory required for data: 1617626120
I0904 10:46:35.489639  2814 layer_factory.hpp:77] Creating layer inception_4e/relu_1x1
I0904 10:46:35.489656  2814 net.cpp:94] Creating Layer inception_4e/relu_1x1
I0904 10:46:35.489673  2814 net.cpp:435] inception_4e/relu_1x1 <- inception_4e/1x1
I0904 10:46:35.489683  2814 net.cpp:396] inception_4e/relu_1x1 -> inception_4e/1x1 (in-place)
I0904 10:46:35.489698  2814 net.cpp:144] Setting up inception_4e/relu_1x1
I0904 10:46:35.489708  2814 net.cpp:151] Top shape: 32 256 14 14 (1605632)
I0904 10:46:35.489715  2814 net.cpp:159] Memory required for data: 1624048648
I0904 10:46:35.489722  2814 layer_factory.hpp:77] Creating layer inception_4e/3x3_reduce
I0904 10:46:35.489739  2814 net.cpp:94] Creating Layer inception_4e/3x3_reduce
I0904 10:46:35.489748  2814 net.cpp:435] inception_4e/3x3_reduce <- inception_4d/output_inception_4d/output_0_split_2
I0904 10:46:35.489760  2814 net.cpp:409] inception_4e/3x3_reduce -> inception_4e/3x3_reduce
I0904 10:46:35.498101  2814 net.cpp:144] Setting up inception_4e/3x3_reduce
I0904 10:46:35.498126  2814 net.cpp:151] Top shape: 32 160 14 14 (1003520)
I0904 10:46:35.498136  2814 net.cpp:159] Memory required for data: 1628062728
I0904 10:46:35.498153  2814 layer_factory.hpp:77] Creating layer inception_4e/relu_3x3_reduce
I0904 10:46:35.498172  2814 net.cpp:94] Creating Layer inception_4e/relu_3x3_reduce
I0904 10:46:35.498185  2814 net.cpp:435] inception_4e/relu_3x3_reduce <- inception_4e/3x3_reduce
I0904 10:46:35.498203  2814 net.cpp:396] inception_4e/relu_3x3_reduce -> inception_4e/3x3_reduce (in-place)
I0904 10:46:35.498215  2814 net.cpp:144] Setting up inception_4e/relu_3x3_reduce
I0904 10:46:35.498224  2814 net.cpp:151] Top shape: 32 160 14 14 (1003520)
I0904 10:46:35.498231  2814 net.cpp:159] Memory required for data: 1632076808
I0904 10:46:35.498239  2814 layer_factory.hpp:77] Creating layer inception_4e/3x3
I0904 10:46:35.498251  2814 net.cpp:94] Creating Layer inception_4e/3x3
I0904 10:46:35.498260  2814 net.cpp:435] inception_4e/3x3 <- inception_4e/3x3_reduce
I0904 10:46:35.498271  2814 net.cpp:409] inception_4e/3x3 -> inception_4e/3x3
I0904 10:46:35.524968  2814 net.cpp:144] Setting up inception_4e/3x3
I0904 10:46:35.525001  2814 net.cpp:151] Top shape: 32 320 14 14 (2007040)
I0904 10:46:35.525012  2814 net.cpp:159] Memory required for data: 1640104968
I0904 10:46:35.525032  2814 layer_factory.hpp:77] Creating layer inception_4e/relu_3x3
I0904 10:46:35.525050  2814 net.cpp:94] Creating Layer inception_4e/relu_3x3
I0904 10:46:35.525069  2814 net.cpp:435] inception_4e/relu_3x3 <- inception_4e/3x3
I0904 10:46:35.525081  2814 net.cpp:396] inception_4e/relu_3x3 -> inception_4e/3x3 (in-place)
I0904 10:46:35.525096  2814 net.cpp:144] Setting up inception_4e/relu_3x3
I0904 10:46:35.525105  2814 net.cpp:151] Top shape: 32 320 14 14 (2007040)
I0904 10:46:35.525112  2814 net.cpp:159] Memory required for data: 1648133128
I0904 10:46:35.525120  2814 layer_factory.hpp:77] Creating layer inception_4e/5x5_reduce
I0904 10:46:35.525135  2814 net.cpp:94] Creating Layer inception_4e/5x5_reduce
I0904 10:46:35.525142  2814 net.cpp:435] inception_4e/5x5_reduce <- inception_4d/output_inception_4d/output_0_split_3
I0904 10:46:35.525177  2814 net.cpp:409] inception_4e/5x5_reduce -> inception_4e/5x5_reduce
I0904 10:46:35.529847  2814 net.cpp:144] Setting up inception_4e/5x5_reduce
I0904 10:46:35.529870  2814 net.cpp:151] Top shape: 32 32 14 14 (200704)
I0904 10:46:35.529881  2814 net.cpp:159] Memory required for data: 1648935944
I0904 10:46:35.529898  2814 layer_factory.hpp:77] Creating layer inception_4e/relu_5x5_reduce
I0904 10:46:35.529913  2814 net.cpp:94] Creating Layer inception_4e/relu_5x5_reduce
I0904 10:46:35.529927  2814 net.cpp:435] inception_4e/relu_5x5_reduce <- inception_4e/5x5_reduce
I0904 10:46:35.529940  2814 net.cpp:396] inception_4e/relu_5x5_reduce -> inception_4e/5x5_reduce (in-place)
I0904 10:46:35.529959  2814 net.cpp:144] Setting up inception_4e/relu_5x5_reduce
I0904 10:46:35.529973  2814 net.cpp:151] Top shape: 32 32 14 14 (200704)
I0904 10:46:35.529983  2814 net.cpp:159] Memory required for data: 1649738760
I0904 10:46:35.529994  2814 layer_factory.hpp:77] Creating layer inception_4e/5x5
I0904 10:46:35.530055  2814 net.cpp:94] Creating Layer inception_4e/5x5
I0904 10:46:35.530068  2814 net.cpp:435] inception_4e/5x5 <- inception_4e/5x5_reduce
I0904 10:46:35.530081  2814 net.cpp:409] inception_4e/5x5 -> inception_4e/5x5
I0904 10:46:35.537257  2814 net.cpp:144] Setting up inception_4e/5x5
I0904 10:46:35.537276  2814 net.cpp:151] Top shape: 32 128 14 14 (802816)
I0904 10:46:35.537283  2814 net.cpp:159] Memory required for data: 1652950024
I0904 10:46:35.537297  2814 layer_factory.hpp:77] Creating layer inception_4e/relu_5x5
I0904 10:46:35.537308  2814 net.cpp:94] Creating Layer inception_4e/relu_5x5
I0904 10:46:35.537317  2814 net.cpp:435] inception_4e/relu_5x5 <- inception_4e/5x5
I0904 10:46:35.537328  2814 net.cpp:396] inception_4e/relu_5x5 -> inception_4e/5x5 (in-place)
I0904 10:46:35.537343  2814 net.cpp:144] Setting up inception_4e/relu_5x5
I0904 10:46:35.537351  2814 net.cpp:151] Top shape: 32 128 14 14 (802816)
I0904 10:46:35.537358  2814 net.cpp:159] Memory required for data: 1656161288
I0904 10:46:35.537365  2814 layer_factory.hpp:77] Creating layer inception_4e/pool
I0904 10:46:35.537377  2814 net.cpp:94] Creating Layer inception_4e/pool
I0904 10:46:35.537385  2814 net.cpp:435] inception_4e/pool <- inception_4d/output_inception_4d/output_0_split_4
I0904 10:46:35.537397  2814 net.cpp:409] inception_4e/pool -> inception_4e/pool
I0904 10:46:35.537472  2814 net.cpp:144] Setting up inception_4e/pool
I0904 10:46:35.537484  2814 net.cpp:151] Top shape: 32 528 14 14 (3311616)
I0904 10:46:35.537492  2814 net.cpp:159] Memory required for data: 1669407752
I0904 10:46:35.537499  2814 layer_factory.hpp:77] Creating layer inception_4e/pool_proj
I0904 10:46:35.537513  2814 net.cpp:94] Creating Layer inception_4e/pool_proj
I0904 10:46:35.537520  2814 net.cpp:435] inception_4e/pool_proj <- inception_4e/pool
I0904 10:46:35.537533  2814 net.cpp:409] inception_4e/pool_proj -> inception_4e/pool_proj
I0904 10:46:35.547564  2814 net.cpp:144] Setting up inception_4e/pool_proj
I0904 10:46:35.547597  2814 net.cpp:151] Top shape: 32 128 14 14 (802816)
I0904 10:46:35.547608  2814 net.cpp:159] Memory required for data: 1672619016
I0904 10:46:35.547631  2814 layer_factory.hpp:77] Creating layer inception_4e/relu_pool_proj
I0904 10:46:35.547651  2814 net.cpp:94] Creating Layer inception_4e/relu_pool_proj
I0904 10:46:35.547665  2814 net.cpp:435] inception_4e/relu_pool_proj <- inception_4e/pool_proj
I0904 10:46:35.547680  2814 net.cpp:396] inception_4e/relu_pool_proj -> inception_4e/pool_proj (in-place)
I0904 10:46:35.547703  2814 net.cpp:144] Setting up inception_4e/relu_pool_proj
I0904 10:46:35.547718  2814 net.cpp:151] Top shape: 32 128 14 14 (802816)
I0904 10:46:35.547727  2814 net.cpp:159] Memory required for data: 1675830280
I0904 10:46:35.547739  2814 layer_factory.hpp:77] Creating layer inception_4e/output
I0904 10:46:35.547754  2814 net.cpp:94] Creating Layer inception_4e/output
I0904 10:46:35.547765  2814 net.cpp:435] inception_4e/output <- inception_4e/1x1
I0904 10:46:35.547778  2814 net.cpp:435] inception_4e/output <- inception_4e/3x3
I0904 10:46:35.547813  2814 net.cpp:435] inception_4e/output <- inception_4e/5x5
I0904 10:46:35.547827  2814 net.cpp:435] inception_4e/output <- inception_4e/pool_proj
I0904 10:46:35.547844  2814 net.cpp:409] inception_4e/output -> inception_4e/output
I0904 10:46:35.547930  2814 net.cpp:144] Setting up inception_4e/output
I0904 10:46:35.547945  2814 net.cpp:151] Top shape: 32 832 14 14 (5218304)
I0904 10:46:35.547956  2814 net.cpp:159] Memory required for data: 1696703496
I0904 10:46:35.547966  2814 layer_factory.hpp:77] Creating layer pool4/3x3_s2
I0904 10:46:35.547982  2814 net.cpp:94] Creating Layer pool4/3x3_s2
I0904 10:46:35.547994  2814 net.cpp:435] pool4/3x3_s2 <- inception_4e/output
I0904 10:46:35.548012  2814 net.cpp:409] pool4/3x3_s2 -> pool4/3x3_s2
I0904 10:46:35.548105  2814 net.cpp:144] Setting up pool4/3x3_s2
I0904 10:46:35.548120  2814 net.cpp:151] Top shape: 32 832 7 7 (1304576)
I0904 10:46:35.548130  2814 net.cpp:159] Memory required for data: 1701921800
I0904 10:46:35.548141  2814 layer_factory.hpp:77] Creating layer pool4/3x3_s2_pool4/3x3_s2_0_split
I0904 10:46:35.548158  2814 net.cpp:94] Creating Layer pool4/3x3_s2_pool4/3x3_s2_0_split
I0904 10:46:35.548171  2814 net.cpp:435] pool4/3x3_s2_pool4/3x3_s2_0_split <- pool4/3x3_s2
I0904 10:46:35.548184  2814 net.cpp:409] pool4/3x3_s2_pool4/3x3_s2_0_split -> pool4/3x3_s2_pool4/3x3_s2_0_split_0
I0904 10:46:35.548202  2814 net.cpp:409] pool4/3x3_s2_pool4/3x3_s2_0_split -> pool4/3x3_s2_pool4/3x3_s2_0_split_1
I0904 10:46:35.548221  2814 net.cpp:409] pool4/3x3_s2_pool4/3x3_s2_0_split -> pool4/3x3_s2_pool4/3x3_s2_0_split_2
I0904 10:46:35.548238  2814 net.cpp:409] pool4/3x3_s2_pool4/3x3_s2_0_split -> pool4/3x3_s2_pool4/3x3_s2_0_split_3
I0904 10:46:35.548385  2814 net.cpp:144] Setting up pool4/3x3_s2_pool4/3x3_s2_0_split
I0904 10:46:35.548400  2814 net.cpp:151] Top shape: 32 832 7 7 (1304576)
I0904 10:46:35.548413  2814 net.cpp:151] Top shape: 32 832 7 7 (1304576)
I0904 10:46:35.548427  2814 net.cpp:151] Top shape: 32 832 7 7 (1304576)
I0904 10:46:35.548439  2814 net.cpp:151] Top shape: 32 832 7 7 (1304576)
I0904 10:46:35.548450  2814 net.cpp:159] Memory required for data: 1722795016
I0904 10:46:35.548460  2814 layer_factory.hpp:77] Creating layer inception_5a/1x1
I0904 10:46:35.548483  2814 net.cpp:94] Creating Layer inception_5a/1x1
I0904 10:46:35.548496  2814 net.cpp:435] inception_5a/1x1 <- pool4/3x3_s2_pool4/3x3_s2_0_split_0
I0904 10:46:35.548514  2814 net.cpp:409] inception_5a/1x1 -> inception_5a/1x1
I0904 10:46:35.559214  2814 net.cpp:144] Setting up inception_5a/1x1
I0904 10:46:35.559247  2814 net.cpp:151] Top shape: 32 256 7 7 (401408)
I0904 10:46:35.559259  2814 net.cpp:159] Memory required for data: 1724400648
I0904 10:46:35.559279  2814 layer_factory.hpp:77] Creating layer inception_5a/relu_1x1
I0904 10:46:35.559298  2814 net.cpp:94] Creating Layer inception_5a/relu_1x1
I0904 10:46:35.559311  2814 net.cpp:435] inception_5a/relu_1x1 <- inception_5a/1x1
I0904 10:46:35.559326  2814 net.cpp:396] inception_5a/relu_1x1 -> inception_5a/1x1 (in-place)
I0904 10:46:35.559347  2814 net.cpp:144] Setting up inception_5a/relu_1x1
I0904 10:46:35.559361  2814 net.cpp:151] Top shape: 32 256 7 7 (401408)
I0904 10:46:35.559371  2814 net.cpp:159] Memory required for data: 1726006280
I0904 10:46:35.559382  2814 layer_factory.hpp:77] Creating layer inception_5a/3x3_reduce
I0904 10:46:35.559407  2814 net.cpp:94] Creating Layer inception_5a/3x3_reduce
I0904 10:46:35.559420  2814 net.cpp:435] inception_5a/3x3_reduce <- pool4/3x3_s2_pool4/3x3_s2_0_split_1
I0904 10:46:35.559437  2814 net.cpp:409] inception_5a/3x3_reduce -> inception_5a/3x3_reduce
I0904 10:46:35.566714  2814 net.cpp:144] Setting up inception_5a/3x3_reduce
I0904 10:46:35.566738  2814 net.cpp:151] Top shape: 32 160 7 7 (250880)
I0904 10:46:35.566751  2814 net.cpp:159] Memory required for data: 1727009800
I0904 10:46:35.566767  2814 layer_factory.hpp:77] Creating layer inception_5a/relu_3x3_reduce
I0904 10:46:35.566783  2814 net.cpp:94] Creating Layer inception_5a/relu_3x3_reduce
I0904 10:46:35.566825  2814 net.cpp:435] inception_5a/relu_3x3_reduce <- inception_5a/3x3_reduce
I0904 10:46:35.566840  2814 net.cpp:396] inception_5a/relu_3x3_reduce -> inception_5a/3x3_reduce (in-place)
I0904 10:46:35.566860  2814 net.cpp:144] Setting up inception_5a/relu_3x3_reduce
I0904 10:46:35.566874  2814 net.cpp:151] Top shape: 32 160 7 7 (250880)
I0904 10:46:35.566885  2814 net.cpp:159] Memory required for data: 1728013320
I0904 10:46:35.566896  2814 layer_factory.hpp:77] Creating layer inception_5a/3x3
I0904 10:46:35.566920  2814 net.cpp:94] Creating Layer inception_5a/3x3
I0904 10:46:35.566931  2814 net.cpp:435] inception_5a/3x3 <- inception_5a/3x3_reduce
I0904 10:46:35.566964  2814 net.cpp:409] inception_5a/3x3 -> inception_5a/3x3
I0904 10:46:35.585261  2814 net.cpp:144] Setting up inception_5a/3x3
I0904 10:46:35.585296  2814 net.cpp:151] Top shape: 32 320 7 7 (501760)
I0904 10:46:35.585309  2814 net.cpp:159] Memory required for data: 1730020360
I0904 10:46:35.585332  2814 layer_factory.hpp:77] Creating layer inception_5a/relu_3x3
I0904 10:46:35.585351  2814 net.cpp:94] Creating Layer inception_5a/relu_3x3
I0904 10:46:35.585366  2814 net.cpp:435] inception_5a/relu_3x3 <- inception_5a/3x3
I0904 10:46:35.585384  2814 net.cpp:396] inception_5a/relu_3x3 -> inception_5a/3x3 (in-place)
I0904 10:46:35.585405  2814 net.cpp:144] Setting up inception_5a/relu_3x3
I0904 10:46:35.585419  2814 net.cpp:151] Top shape: 32 320 7 7 (501760)
I0904 10:46:35.585430  2814 net.cpp:159] Memory required for data: 1732027400
I0904 10:46:35.585441  2814 layer_factory.hpp:77] Creating layer inception_5a/5x5_reduce
I0904 10:46:35.585466  2814 net.cpp:94] Creating Layer inception_5a/5x5_reduce
I0904 10:46:35.585479  2814 net.cpp:435] inception_5a/5x5_reduce <- pool4/3x3_s2_pool4/3x3_s2_0_split_2
I0904 10:46:35.585496  2814 net.cpp:409] inception_5a/5x5_reduce -> inception_5a/5x5_reduce
I0904 10:46:35.590391  2814 net.cpp:144] Setting up inception_5a/5x5_reduce
I0904 10:46:35.590454  2814 net.cpp:151] Top shape: 32 32 7 7 (50176)
I0904 10:46:35.590466  2814 net.cpp:159] Memory required for data: 1732228104
I0904 10:46:35.590483  2814 layer_factory.hpp:77] Creating layer inception_5a/relu_5x5_reduce
I0904 10:46:35.590499  2814 net.cpp:94] Creating Layer inception_5a/relu_5x5_reduce
I0904 10:46:35.590512  2814 net.cpp:435] inception_5a/relu_5x5_reduce <- inception_5a/5x5_reduce
I0904 10:46:35.590528  2814 net.cpp:396] inception_5a/relu_5x5_reduce -> inception_5a/5x5_reduce (in-place)
I0904 10:46:35.590549  2814 net.cpp:144] Setting up inception_5a/relu_5x5_reduce
I0904 10:46:35.590564  2814 net.cpp:151] Top shape: 32 32 7 7 (50176)
I0904 10:46:35.590574  2814 net.cpp:159] Memory required for data: 1732428808
I0904 10:46:35.590584  2814 layer_factory.hpp:77] Creating layer inception_5a/5x5
I0904 10:46:35.590606  2814 net.cpp:94] Creating Layer inception_5a/5x5
I0904 10:46:35.590620  2814 net.cpp:435] inception_5a/5x5 <- inception_5a/5x5_reduce
I0904 10:46:35.590636  2814 net.cpp:409] inception_5a/5x5 -> inception_5a/5x5
I0904 10:46:35.595587  2814 net.cpp:144] Setting up inception_5a/5x5
I0904 10:46:35.595607  2814 net.cpp:151] Top shape: 32 128 7 7 (200704)
I0904 10:46:35.595618  2814 net.cpp:159] Memory required for data: 1733231624
I0904 10:46:35.595634  2814 layer_factory.hpp:77] Creating layer inception_5a/relu_5x5
I0904 10:46:35.595649  2814 net.cpp:94] Creating Layer inception_5a/relu_5x5
I0904 10:46:35.595660  2814 net.cpp:435] inception_5a/relu_5x5 <- inception_5a/5x5
I0904 10:46:35.595674  2814 net.cpp:396] inception_5a/relu_5x5 -> inception_5a/5x5 (in-place)
I0904 10:46:35.595692  2814 net.cpp:144] Setting up inception_5a/relu_5x5
I0904 10:46:35.595706  2814 net.cpp:151] Top shape: 32 128 7 7 (200704)
I0904 10:46:35.595717  2814 net.cpp:159] Memory required for data: 1734034440
I0904 10:46:35.595728  2814 layer_factory.hpp:77] Creating layer inception_5a/pool
I0904 10:46:35.595744  2814 net.cpp:94] Creating Layer inception_5a/pool
I0904 10:46:35.595757  2814 net.cpp:435] inception_5a/pool <- pool4/3x3_s2_pool4/3x3_s2_0_split_3
I0904 10:46:35.595801  2814 net.cpp:409] inception_5a/pool -> inception_5a/pool
I0904 10:46:35.595897  2814 net.cpp:144] Setting up inception_5a/pool
I0904 10:46:35.595913  2814 net.cpp:151] Top shape: 32 832 7 7 (1304576)
I0904 10:46:35.595923  2814 net.cpp:159] Memory required for data: 1739252744
I0904 10:46:35.595934  2814 layer_factory.hpp:77] Creating layer inception_5a/pool_proj
I0904 10:46:35.595958  2814 net.cpp:94] Creating Layer inception_5a/pool_proj
I0904 10:46:35.595971  2814 net.cpp:435] inception_5a/pool_proj <- inception_5a/pool
I0904 10:46:35.595988  2814 net.cpp:409] inception_5a/pool_proj -> inception_5a/pool_proj
I0904 10:46:35.603647  2814 net.cpp:144] Setting up inception_5a/pool_proj
I0904 10:46:35.603679  2814 net.cpp:151] Top shape: 32 128 7 7 (200704)
I0904 10:46:35.603691  2814 net.cpp:159] Memory required for data: 1740055560
I0904 10:46:35.603711  2814 layer_factory.hpp:77] Creating layer inception_5a/relu_pool_proj
I0904 10:46:35.603729  2814 net.cpp:94] Creating Layer inception_5a/relu_pool_proj
I0904 10:46:35.603745  2814 net.cpp:435] inception_5a/relu_pool_proj <- inception_5a/pool_proj
I0904 10:46:35.603763  2814 net.cpp:396] inception_5a/relu_pool_proj -> inception_5a/pool_proj (in-place)
I0904 10:46:35.603785  2814 net.cpp:144] Setting up inception_5a/relu_pool_proj
I0904 10:46:35.603799  2814 net.cpp:151] Top shape: 32 128 7 7 (200704)
I0904 10:46:35.603811  2814 net.cpp:159] Memory required for data: 1740858376
I0904 10:46:35.603821  2814 layer_factory.hpp:77] Creating layer inception_5a/output
I0904 10:46:35.603835  2814 net.cpp:94] Creating Layer inception_5a/output
I0904 10:46:35.603848  2814 net.cpp:435] inception_5a/output <- inception_5a/1x1
I0904 10:46:35.603862  2814 net.cpp:435] inception_5a/output <- inception_5a/3x3
I0904 10:46:35.603874  2814 net.cpp:435] inception_5a/output <- inception_5a/5x5
I0904 10:46:35.603886  2814 net.cpp:435] inception_5a/output <- inception_5a/pool_proj
I0904 10:46:35.603904  2814 net.cpp:409] inception_5a/output -> inception_5a/output
I0904 10:46:35.603970  2814 net.cpp:144] Setting up inception_5a/output
I0904 10:46:35.603986  2814 net.cpp:151] Top shape: 32 832 7 7 (1304576)
I0904 10:46:35.603996  2814 net.cpp:159] Memory required for data: 1746076680
I0904 10:46:35.604007  2814 layer_factory.hpp:77] Creating layer inception_5a/output_inception_5a/output_0_split
I0904 10:46:35.604023  2814 net.cpp:94] Creating Layer inception_5a/output_inception_5a/output_0_split
I0904 10:46:35.604037  2814 net.cpp:435] inception_5a/output_inception_5a/output_0_split <- inception_5a/output
I0904 10:46:35.604050  2814 net.cpp:409] inception_5a/output_inception_5a/output_0_split -> inception_5a/output_inception_5a/output_0_split_0
I0904 10:46:35.604068  2814 net.cpp:409] inception_5a/output_inception_5a/output_0_split -> inception_5a/output_inception_5a/output_0_split_1
I0904 10:46:35.604089  2814 net.cpp:409] inception_5a/output_inception_5a/output_0_split -> inception_5a/output_inception_5a/output_0_split_2
I0904 10:46:35.604107  2814 net.cpp:409] inception_5a/output_inception_5a/output_0_split -> inception_5a/output_inception_5a/output_0_split_3
I0904 10:46:35.604261  2814 net.cpp:144] Setting up inception_5a/output_inception_5a/output_0_split
I0904 10:46:35.604277  2814 net.cpp:151] Top shape: 32 832 7 7 (1304576)
I0904 10:46:35.604290  2814 net.cpp:151] Top shape: 32 832 7 7 (1304576)
I0904 10:46:35.604303  2814 net.cpp:151] Top shape: 32 832 7 7 (1304576)
I0904 10:46:35.604315  2814 net.cpp:151] Top shape: 32 832 7 7 (1304576)
I0904 10:46:35.604326  2814 net.cpp:159] Memory required for data: 1766949896
I0904 10:46:35.604337  2814 layer_factory.hpp:77] Creating layer inception_5b/1x1
I0904 10:46:35.604359  2814 net.cpp:94] Creating Layer inception_5b/1x1
I0904 10:46:35.604372  2814 net.cpp:435] inception_5b/1x1 <- inception_5a/output_inception_5a/output_0_split_0
I0904 10:46:35.604390  2814 net.cpp:409] inception_5b/1x1 -> inception_5b/1x1
I0904 10:46:35.619067  2814 net.cpp:144] Setting up inception_5b/1x1
I0904 10:46:35.619098  2814 net.cpp:151] Top shape: 32 384 7 7 (602112)
I0904 10:46:35.619132  2814 net.cpp:159] Memory required for data: 1769358344
I0904 10:46:35.619153  2814 layer_factory.hpp:77] Creating layer inception_5b/relu_1x1
I0904 10:46:35.619174  2814 net.cpp:94] Creating Layer inception_5b/relu_1x1
I0904 10:46:35.619189  2814 net.cpp:435] inception_5b/relu_1x1 <- inception_5b/1x1
I0904 10:46:35.619202  2814 net.cpp:396] inception_5b/relu_1x1 -> inception_5b/1x1 (in-place)
I0904 10:46:35.619225  2814 net.cpp:144] Setting up inception_5b/relu_1x1
I0904 10:46:35.619238  2814 net.cpp:151] Top shape: 32 384 7 7 (602112)
I0904 10:46:35.619249  2814 net.cpp:159] Memory required for data: 1771766792
I0904 10:46:35.619261  2814 layer_factory.hpp:77] Creating layer inception_5b/3x3_reduce
I0904 10:46:35.619279  2814 net.cpp:94] Creating Layer inception_5b/3x3_reduce
I0904 10:46:35.619292  2814 net.cpp:435] inception_5b/3x3_reduce <- inception_5a/output_inception_5a/output_0_split_1
I0904 10:46:35.619312  2814 net.cpp:409] inception_5b/3x3_reduce -> inception_5b/3x3_reduce
I0904 10:46:35.629925  2814 net.cpp:144] Setting up inception_5b/3x3_reduce
I0904 10:46:35.629961  2814 net.cpp:151] Top shape: 32 192 7 7 (301056)
I0904 10:46:35.629972  2814 net.cpp:159] Memory required for data: 1772971016
I0904 10:46:35.629993  2814 layer_factory.hpp:77] Creating layer inception_5b/relu_3x3_reduce
I0904 10:46:35.630012  2814 net.cpp:94] Creating Layer inception_5b/relu_3x3_reduce
I0904 10:46:35.630028  2814 net.cpp:435] inception_5b/relu_3x3_reduce <- inception_5b/3x3_reduce
I0904 10:46:35.630045  2814 net.cpp:396] inception_5b/relu_3x3_reduce -> inception_5b/3x3_reduce (in-place)
I0904 10:46:35.630067  2814 net.cpp:144] Setting up inception_5b/relu_3x3_reduce
I0904 10:46:35.630081  2814 net.cpp:151] Top shape: 32 192 7 7 (301056)
I0904 10:46:35.630092  2814 net.cpp:159] Memory required for data: 1774175240
I0904 10:46:35.630103  2814 layer_factory.hpp:77] Creating layer inception_5b/3x3
I0904 10:46:35.630126  2814 net.cpp:94] Creating Layer inception_5b/3x3
I0904 10:46:35.630139  2814 net.cpp:435] inception_5b/3x3 <- inception_5b/3x3_reduce
I0904 10:46:35.630158  2814 net.cpp:409] inception_5b/3x3 -> inception_5b/3x3
I0904 10:46:35.652194  2814 net.cpp:144] Setting up inception_5b/3x3
I0904 10:46:35.652230  2814 net.cpp:151] Top shape: 32 384 7 7 (602112)
I0904 10:46:35.652242  2814 net.cpp:159] Memory required for data: 1776583688
I0904 10:46:35.652262  2814 layer_factory.hpp:77] Creating layer inception_5b/relu_3x3
I0904 10:46:35.652283  2814 net.cpp:94] Creating Layer inception_5b/relu_3x3
I0904 10:46:35.652298  2814 net.cpp:435] inception_5b/relu_3x3 <- inception_5b/3x3
I0904 10:46:35.652313  2814 net.cpp:396] inception_5b/relu_3x3 -> inception_5b/3x3 (in-place)
I0904 10:46:35.652335  2814 net.cpp:144] Setting up inception_5b/relu_3x3
I0904 10:46:35.652349  2814 net.cpp:151] Top shape: 32 384 7 7 (602112)
I0904 10:46:35.652360  2814 net.cpp:159] Memory required for data: 1778992136
I0904 10:46:35.652370  2814 layer_factory.hpp:77] Creating layer inception_5b/5x5_reduce
I0904 10:46:35.652393  2814 net.cpp:94] Creating Layer inception_5b/5x5_reduce
I0904 10:46:35.652406  2814 net.cpp:435] inception_5b/5x5_reduce <- inception_5a/output_inception_5a/output_0_split_2
I0904 10:46:35.652426  2814 net.cpp:409] inception_5b/5x5_reduce -> inception_5b/5x5_reduce
I0904 10:46:35.657356  2814 net.cpp:144] Setting up inception_5b/5x5_reduce
I0904 10:46:35.657379  2814 net.cpp:151] Top shape: 32 48 7 7 (75264)
I0904 10:46:35.657392  2814 net.cpp:159] Memory required for data: 1779293192
I0904 10:46:35.657408  2814 layer_factory.hpp:77] Creating layer inception_5b/relu_5x5_reduce
I0904 10:46:35.657428  2814 net.cpp:94] Creating Layer inception_5b/relu_5x5_reduce
I0904 10:46:35.657440  2814 net.cpp:435] inception_5b/relu_5x5_reduce <- inception_5b/5x5_reduce
I0904 10:46:35.657455  2814 net.cpp:396] inception_5b/relu_5x5_reduce -> inception_5b/5x5_reduce (in-place)
I0904 10:46:35.657474  2814 net.cpp:144] Setting up inception_5b/relu_5x5_reduce
I0904 10:46:35.657488  2814 net.cpp:151] Top shape: 32 48 7 7 (75264)
I0904 10:46:35.657528  2814 net.cpp:159] Memory required for data: 1779594248
I0904 10:46:35.657541  2814 layer_factory.hpp:77] Creating layer inception_5b/5x5
I0904 10:46:35.657560  2814 net.cpp:94] Creating Layer inception_5b/5x5
I0904 10:46:35.657573  2814 net.cpp:435] inception_5b/5x5 <- inception_5b/5x5_reduce
I0904 10:46:35.657591  2814 net.cpp:409] inception_5b/5x5 -> inception_5b/5x5
I0904 10:46:35.664060  2814 net.cpp:144] Setting up inception_5b/5x5
I0904 10:46:35.664083  2814 net.cpp:151] Top shape: 32 128 7 7 (200704)
I0904 10:46:35.664094  2814 net.cpp:159] Memory required for data: 1780397064
I0904 10:46:35.664113  2814 layer_factory.hpp:77] Creating layer inception_5b/relu_5x5
I0904 10:46:35.664127  2814 net.cpp:94] Creating Layer inception_5b/relu_5x5
I0904 10:46:35.664139  2814 net.cpp:435] inception_5b/relu_5x5 <- inception_5b/5x5
I0904 10:46:35.664157  2814 net.cpp:396] inception_5b/relu_5x5 -> inception_5b/5x5 (in-place)
I0904 10:46:35.664176  2814 net.cpp:144] Setting up inception_5b/relu_5x5
I0904 10:46:35.664191  2814 net.cpp:151] Top shape: 32 128 7 7 (200704)
I0904 10:46:35.664201  2814 net.cpp:159] Memory required for data: 1781199880
I0904 10:46:35.664212  2814 layer_factory.hpp:77] Creating layer inception_5b/pool
I0904 10:46:35.664228  2814 net.cpp:94] Creating Layer inception_5b/pool
I0904 10:46:35.664240  2814 net.cpp:435] inception_5b/pool <- inception_5a/output_inception_5a/output_0_split_3
I0904 10:46:35.664258  2814 net.cpp:409] inception_5b/pool -> inception_5b/pool
I0904 10:46:35.664364  2814 net.cpp:144] Setting up inception_5b/pool
I0904 10:46:35.664382  2814 net.cpp:151] Top shape: 32 832 7 7 (1304576)
I0904 10:46:35.664393  2814 net.cpp:159] Memory required for data: 1786418184
I0904 10:46:35.664404  2814 layer_factory.hpp:77] Creating layer inception_5b/pool_proj
I0904 10:46:35.664422  2814 net.cpp:94] Creating Layer inception_5b/pool_proj
I0904 10:46:35.664434  2814 net.cpp:435] inception_5b/pool_proj <- inception_5b/pool
I0904 10:46:35.664453  2814 net.cpp:409] inception_5b/pool_proj -> inception_5b/pool_proj
I0904 10:46:35.670677  2814 net.cpp:144] Setting up inception_5b/pool_proj
I0904 10:46:35.670699  2814 net.cpp:151] Top shape: 32 128 7 7 (200704)
I0904 10:46:35.670711  2814 net.cpp:159] Memory required for data: 1787221000
I0904 10:46:35.670728  2814 layer_factory.hpp:77] Creating layer inception_5b/relu_pool_proj
I0904 10:46:35.670743  2814 net.cpp:94] Creating Layer inception_5b/relu_pool_proj
I0904 10:46:35.670755  2814 net.cpp:435] inception_5b/relu_pool_proj <- inception_5b/pool_proj
I0904 10:46:35.670770  2814 net.cpp:396] inception_5b/relu_pool_proj -> inception_5b/pool_proj (in-place)
I0904 10:46:35.670789  2814 net.cpp:144] Setting up inception_5b/relu_pool_proj
I0904 10:46:35.670802  2814 net.cpp:151] Top shape: 32 128 7 7 (200704)
I0904 10:46:35.670814  2814 net.cpp:159] Memory required for data: 1788023816
I0904 10:46:35.670825  2814 layer_factory.hpp:77] Creating layer inception_5b/output
I0904 10:46:35.670841  2814 net.cpp:94] Creating Layer inception_5b/output
I0904 10:46:35.670855  2814 net.cpp:435] inception_5b/output <- inception_5b/1x1
I0904 10:46:35.670867  2814 net.cpp:435] inception_5b/output <- inception_5b/3x3
I0904 10:46:35.670879  2814 net.cpp:435] inception_5b/output <- inception_5b/5x5
I0904 10:46:35.670892  2814 net.cpp:435] inception_5b/output <- inception_5b/pool_proj
I0904 10:46:35.670905  2814 net.cpp:409] inception_5b/output -> inception_5b/output
I0904 10:46:35.670987  2814 net.cpp:144] Setting up inception_5b/output
I0904 10:46:35.671003  2814 net.cpp:151] Top shape: 32 1024 7 7 (1605632)
I0904 10:46:35.671015  2814 net.cpp:159] Memory required for data: 1794446344
I0904 10:46:35.671026  2814 layer_factory.hpp:77] Creating layer pool5/7x7_s1
I0904 10:46:35.671043  2814 net.cpp:94] Creating Layer pool5/7x7_s1
I0904 10:46:35.671056  2814 net.cpp:435] pool5/7x7_s1 <- inception_5b/output
I0904 10:46:35.671072  2814 net.cpp:409] pool5/7x7_s1 -> pool5/7x7_s1
I0904 10:46:35.671134  2814 net.cpp:144] Setting up pool5/7x7_s1
I0904 10:46:35.671177  2814 net.cpp:151] Top shape: 32 1024 1 1 (32768)
I0904 10:46:35.671190  2814 net.cpp:159] Memory required for data: 1794577416
I0904 10:46:35.671200  2814 layer_factory.hpp:77] Creating layer pool5/drop_7x7_s1
I0904 10:46:35.671214  2814 net.cpp:94] Creating Layer pool5/drop_7x7_s1
I0904 10:46:35.671226  2814 net.cpp:435] pool5/drop_7x7_s1 <- pool5/7x7_s1
I0904 10:46:35.671243  2814 net.cpp:396] pool5/drop_7x7_s1 -> pool5/7x7_s1 (in-place)
I0904 10:46:35.671301  2814 net.cpp:144] Setting up pool5/drop_7x7_s1
I0904 10:46:35.671316  2814 net.cpp:151] Top shape: 32 1024 1 1 (32768)
I0904 10:46:35.671327  2814 net.cpp:159] Memory required for data: 1794708488
I0904 10:46:35.671337  2814 layer_factory.hpp:77] Creating layer loss3/classifier
I0904 10:46:35.671355  2814 net.cpp:94] Creating Layer loss3/classifier
I0904 10:46:35.671366  2814 net.cpp:435] loss3/classifier <- pool5/7x7_s1
I0904 10:46:35.671387  2814 net.cpp:409] loss3/classifier -> loss3/classifier
I0904 10:46:35.671706  2814 net.cpp:144] Setting up loss3/classifier
I0904 10:46:35.671722  2814 net.cpp:151] Top shape: 32 2 (64)
I0904 10:46:35.671732  2814 net.cpp:159] Memory required for data: 1794708744
I0904 10:46:35.671749  2814 layer_factory.hpp:77] Creating layer loss3/loss
I0904 10:46:35.671768  2814 net.cpp:94] Creating Layer loss3/loss
I0904 10:46:35.671782  2814 net.cpp:435] loss3/loss <- loss3/classifier
I0904 10:46:35.671794  2814 net.cpp:435] loss3/loss <- label_train-data_1_split_2
I0904 10:46:35.671808  2814 net.cpp:409] loss3/loss -> loss
…
I0904 10:46:35.682930  2814 net.cpp:323] The NetState phase (1) differed from the phase (0) specified by a rule in layer train-data
I0904 10:46:35.685060  2814 net.cpp:52] Initializing net from parameters:
state {
phase: TEST
}
layer {
name: "val-data"
type: "Data"
top: "data"
top: "label"
include {
phase: TEST
}
transform_param {
mirror: false
crop_size: 224
mean_file: "/media/myuser/120Gb/DIGITS/digits/jobs/20160904-002550-f9dd/mean.binaryproto"
}
data_param {
source: "/media/myuser/120Gb/DIGITS/digits/jobs/20160904-002550-f9dd/val_db"
batch_size: 16
backend: LMDB
}
}
layer {
name: "conv1/7x7_s2"
type: "Convolution"
bottom: "data"
top: "conv1/7x7_s2"
param {
lr_mult: 1
decay_mult: 1
}
param {
lr_mult: 2
decay_mult: 0
}
convolution_param {
num_output: 64
pad: 3
kernel_size: 7
stride: 2
weight_filler {
type: "xavier"
std: 0.1
}
bias_filler {
type: "constant"
value: 0.2
}
}
}
layer {
name: "conv1/relu_7x7"
type: "ReLU"
bottom: "conv1/7x7_s2"
top: "conv1/7x7_s2"
}
layer {
name: "pool1/3x3_s2"
type: "Pooling"
bottom: "conv1/7x7_s2"
top: "pool1/3x3_s2"
pooling_param {
pool: MAX
kernel_size: 3
stride: 2
}
}
layer {
name: "pool1/norm1"
type: "LRN"
bottom: "pool1/3x3_s2"
top: "pool1/norm1"
lrn_param {
local_size: 5
alpha: 0.0001
beta: 0.75
}
}
layer {
name: "conv2/3x3_reduce"
type: "Convolution"
bottom: "pool1/norm1"
top: "conv2/3x3_reduce"
param {
lr_mult: 1
decay_mult: 1
}
param {
lr_mult: 2
decay_mult: 0
}
convolution_param {
num_output: 64
kernel_size: 1
weight_filler {
type: "xavier"
std: 0.1
}
bias_filler {
type: "constant"
value: 0.2
}
}
}
layer {
name: "conv2/relu_3x3_reduce"
type: "ReLU"
bottom: "conv2/3x3_reduce"
top: "conv2/3x3_reduce"
}
layer {
name: "conv2/3x3"
type: "Convolution"
bottom: "conv2/3x3_reduce"
top: "conv2/3x3"
param {
lr_mult: 1
decay_mult: 1
}
param {
lr_mult: 2
decay_mult: 0
}
convolution_param {
num_output: 192
pad: 1
kernel_size: 3
weight_filler {
type: "xavier"
std: 0.03
}
bias_filler {
type: "constant"
value: 0.2
}
}
}
layer {
name: "conv2/relu_3x3"
type: "ReLU"
bottom: "conv2/3x3"
top: "conv2/3x3"
}
layer {
name: "conv2/norm2"
type: "LRN"
bottom: "conv2/3x3"
top: "conv2/norm2"
lrn_param {
local_size: 5
alpha: 0.0001
beta: 0.75
}
}
layer {
name: "pool2/3x3_s2"
type: "Pooling"
bottom: "conv2/norm2"
top: "pool2/3x3_s2"
pooling_param {
pool: MAX
kernel_size: 3
stride: 2
}
}
layer {
name: "inception_3a/1x1"
type: "Convolution"
bottom: "pool2/3x3_s2"
top: "inception_3a/1x1"
param {
lr_mult: 1
decay_mult: 1
}
param {
lr_mult: 2
decay_mult: 0
}
convolution_param {
num_output: 64
kernel_size: 1
weight_filler {
type: "xavier"
std: 0.03
}
bias_filler {
type: "constant"
value: 0.2
}
}
}
layer {
name: "inception_3a/relu_1x1"
type: "ReLU"
bottom: "inception_3a/1x1"
top: "inception_3a/1x1"
}
layer {
name: "inception_3a/3x3_reduce"
type: "Convolution"
bottom: "pool2/3x3_s2"
top: "inception_3a/3x3_reduce"
param {
lr_mult: 1
decay_mult: 1
}
param {
lr_mult: 2
decay_mult: 0
}
convolution_param {
num_output: 96
kernel_size: 1
weight_filler {
type: "xavier"
std: 0.09
}
bias_filler {
type: "constant"
value: 0.2
}
}
}
layer {
name: "inception_3a/relu_3x3_reduce"
type: "ReLU"
bottom: "inception_3a/3x3_reduce"
top: "inception_3a/3x3_reduce"
}
layer {
name: "inception_3a/3x3"
type: "Convolution"
bottom: "inception_3a/3x3_reduce"
top: "inception_3a/3x3"
param {
lr_mult: 1
decay_mult: 1
}
param {
lr_mult: 2
decay_mult: 0
}
convolution_param {
num_output: 128
pad: 1
kernel_size: 3
weight_filler {
type: "xavier"
std: 0.03
}
bias_filler {
type: "constant"
value: 0.2
}
}
}
layer {
name: "inception_3a/relu_3x3"
type: "ReLU"
bottom: "inception_3a/3x3"
top: "inception_3a/3x3"
}
layer {
name: "inception_3a/5x5_reduce"
type: "Convolution"
bottom: "pool2/3x3_s2"
top: "inception_3a/5x5_reduce"
param {
lr_mult: 1
decay_mult: 1
}
param {
lr_mult: 2
decay_mult: 0
}
convolution_param {
num_output: 16
kernel_size: 1
weight_filler {
type: "xavier"
std: 0.2
}
bias_filler {
type: "constant"
value: 0.2
}
}
}
layer {
name: "inception_3a/relu_5x5_reduce"
type: "ReLU"
bottom: "inception_3a/5x5_reduce"
top: "inception_3a/5x5_reduce"
}
layer {
name: "inception_3a/5x5"
type: "Convolution"
bottom: "inception_3a/5x5_reduce"
top: "inception_3a/5x5"
param {
lr_mult: 1
decay_mult: 1
}
param {
lr_mult: 2
decay_mult: 0
}
convolution_param {
num_output: 32
pad: 2
kernel_size: 5
weight_filler {
type: "xavier"
std: 0.03
}
bias_filler {
type: "constant"
value: 0.2
}
}
}
layer {
name: "inception_3a/relu_5x5"
type: "ReLU"
bottom: "inception_3a/5x5"
top: "inception_3a/5x5"
}
layer {
name: "inception_3a/pool"
type: "Pooling"
bottom: "pool2/3x3_s2"
top: "inception_3a/pool"
pooling_param {
pool: MAX
kernel_size: 3
stride: 1
pad: 1
}
}
layer {
name: "inception_3a/pool_proj"
type: "Convolution"
bottom: "inception_3a/pool"
top: "inception_3a/pool_proj"
param {
lr_mult: 1
decay_mult: 1
}
param {
lr_mult: 2
decay_mult: 0
}
convolution_param {
num_output: 32
kernel_size: 1
weight_filler {
type: "xavier"
std: 0.1
}
bias_filler {
type: "constant"
value: 0.2
}
}
}
layer {
name: "inception_3a/relu_pool_proj"
type: "ReLU"
bottom: "inception_3a/pool_proj"
top: "inception_3a/pool_proj"
}
layer {
name: "inception_3a/output"
type: "Concat"
bottom: "inception_3a/1x1"
bottom: "inception_3a/3x3"
bottom: "inception_3a/5x5"
bottom: "inception_3a/pool_proj"
top: "inception_3a/output"
}
layer {
name: "inception_3b/1x1"
type: "Convolution"
bottom: "inception_3a/output"
top: "inception_3b/1x1"
param {
lr_mult: 1
decay_mult: 1
}
param {
lr_mult: 2
decay_mult: 0
}
convolution_param {
num_output: 128
kernel_size: 1
weight_filler {
type: "xavier"
std: 0.03
}
bias_filler {
type: "constant"
value: 0.2
}
}
}
layer {
name: "inception_3b/relu_1x1"
type: "ReLU"
bottom: "inception_3b/1x1"
top: "inception_3b/1x1"
}
layer {
name: "inception_3b/3x3_reduce"
type: "Convolution"
bottom: "inception_3a/output"
top: "inception_3b/3x3_reduce"
param {
lr_mult: 1
decay_mult: 1
}
param {
lr_mult: 2
decay_mult: 0
}
convolution_param {
num_output: 128
kernel_size: 1
weight_filler {
type: "xavier"
std: 0.09
}
bias_filler {
type: "constant"
value: 0.2
}
}
}
layer {
name: "inception_3b/relu_3x3_reduce"
type: "ReLU"
bottom: "inception_3b/3x3_reduce"
top: "inception_3b/3x3_reduce"
}
layer {
name: "inception_3b/3x3"
type: "Convolution"
bottom: "inception_3b/3x3_reduce"
top: "inception_3b/3x3"
param {
lr_mult: 1
decay_mult: 1
}
param {
lr_mult: 2
decay_mult: 0
}
convolution_param {
num_output: 192
pad: 1
kernel_size: 3
weight_filler {
type: "xavier"
std: 0.03
}
bias_filler {
type: "constant"
value: 0.2
}
}
}
layer {
name: "inception_3b/relu_3x3"
type: "ReLU"
bottom: "inception_3b/3x3"
top: "inception_3b/3x3"
}
layer {
name: "inception_3b/5x5_reduce"
type: "Convolution"
bottom: "inception_3a/output"
top: "inception_3b/5x5_reduce"
param {
lr_mult: 1
decay_mult: 1
}
param {
lr_mult: 2
decay_mult: 0
}
convolution_param {
num_output: 32
kernel_size: 1
weight_filler {
type: "xavier"
std: 0.2
}
bias_filler {
type: "constant"
value: 0.2
}
}
}
layer {
name: "inception_3b/relu_5x5_reduce"
type: "ReLU"
bottom: "inception_3b/5x5_reduce"
top: "inception_3b/5x5_reduce"
}
layer {
name: "inception_3b/5x5"
type: "Convolution"
bottom: "inception_3b/5x5_reduce"
top: "inception_3b/5x5"
param {
lr_mult: 1
decay_mult: 1
}
param {
lr_mult: 2
decay_mult: 0
}
convolution_param {
num_output: 96
pad: 2
kernel_size: 5
weight_filler {
type: "xavier"
std: 0.03
}
bias_filler {
type: "constant"
value: 0.2
}
}
}
layer {
name: "inception_3b/relu_5x5"
type: "ReLU"
bottom: "inception_3b/5x5"
top: "inception_3b/5x5"
}
layer {
name: "inception_3b/pool"
type: "Pooling"
bottom: "inception_3a/output"
top: "inception_3b/pool"
pooling_param {
pool: MAX
kernel_size: 3
stride: 1
pad: 1
}
}
layer {
name: "inception_3b/pool_proj"
type: "Convolution"
bottom: "inception_3b/pool"
top: "inception_3b/pool_proj"
param {
lr_mult: 1
decay_mult: 1
}
param {
lr_mult: 2
decay_mult: 0
}
convolution_param {
num_output: 64
kernel_size: 1
weight_filler {
type: "xavier"
std: 0.1
}
bias_filler {
type: "constant"
value: 0.2
}
}
}
layer {
name: "inception_3b/relu_pool_proj"
type: "ReLU"
bottom: "inception_3b/pool_proj"
top: "inception_3b/pool_proj"
}
layer {
name: "inception_3b/output"
type: "Concat"
bottom: "inception_3b/1x1"
bottom: "inception_3b/3x3"
bottom: "inception_3b/5x5"
bottom: "inception_3b/pool_proj"
top: "inception_3b/output"
}
layer {
name: "pool3/3x3_s2"
type: "Pooling"
bottom: "inception_3b/output"
top: "pool3/3x3_s2"
pooling_param {
pool: MAX
kernel_size: 3
stride: 2
}
}
layer {
name: "inception_4a/1x1"
type: "Convolution"
bottom: "pool3/3x3_s2"
top: "inception_4a/1x1"
param {
lr_mult: 1
decay_mult: 1
}
param {
lr_mult: 2
decay_mult: 0
}
convolution_param {
num_output: 192
kernel_size: 1
weight_filler {
type: "xavier"
std: 0.03
}
bias_filler {
type: "constant"
value: 0.2
}
}
}
layer {
name: "inception_4a/relu_1x1"
type: "ReLU"
bottom: "inception_4a/1x1"
top: "inception_4a/1x1"
}
layer {
name: "inception_4a/3x3_reduce"
type: "Convolution"
bottom: "pool3/3x3_s2"
top: "inception_4a/3x3_reduce"
param {
lr_mult: 1
decay_mult: 1
}
param {
lr_mult: 2
decay_mult: 0
}
convolution_param {
num_output: 96
kernel_size: 1
weight_filler {
type: "xavier"
std: 0.09
}
bias_filler {
type: "constant"
value: 0.2
}
}
}
layer {
name: "inception_4a/relu_3x3_reduce"
type: "ReLU"
bottom: "inception_4a/3x3_reduce"
top: "inception_4a/3x3_reduce"
}
layer {
name: "inception_4a/3x3"
type: "Convolution"
bottom: "inception_4a/3x3_reduce"
top: "inception_4a/3x3"
param {
lr_mult: 1
decay_mult: 1
}
param {
lr_mult: 2
decay_mult: 0
}
convolution_param {
num_output: 208
pad: 1
kernel_size: 3
weight_filler {
type: "xavier"
std: 0.03
}
bias_filler {
type: "constant"
value: 0.2
}
}
}
layer {
name: "inception_4a/relu_3x3"
type: "ReLU"
bottom: "inception_4a/3x3"
top: "inception_4a/3x3"
}
layer {
name: "inception_4a/5x5_reduce"
type: "Convolution"
bottom: "pool3/3x3_s2"
top: "inception_4a/5x5_reduce"
param {
lr_mult: 1
decay_mult: 1
}
param {
lr_mult: 2
decay_mult: 0
}
convolution_param {
num_output: 16
kernel_size: 1
weight_filler {
type: "xavier"
std: 0.2
}
bias_filler {
type: "constant"
value: 0.2
}
}
}
layer {
name: "inception_4a/relu_5x5_reduce"
type: "ReLU"
bottom: "inception_4a/5x5_reduce"
top: "inception_4a/5x5_reduce"
}
layer {
name: "inception_4a/5x5"
type: "Convolution"
bottom: "inception_4a/5x5_reduce"
top: "inception_4a/5x5"
param {
lr_mult: 1
decay_mult: 1
}
param {
lr_mult: 2
decay_mult: 0
}
convolution_param {
num_output: 48
pad: 2
kernel_size: 5
weight_filler {
type: "xavier"
std: 0.03
}
bias_filler {
type: "constant"
value: 0.2
}
}
}
layer {
name: "inception_4a/relu_5x5"
type: "ReLU"
bottom: "inception_4a/5x5"
top: "inception_4a/5x5"
}
layer {
name: "inception_4a/pool"
type: "Pooling"
bottom: "pool3/3x3_s2"
top: "inception_4a/pool"
pooling_param {
pool: MAX
kernel_size: 3
stride: 1
pad: 1
}
}
layer {
name: "inception_4a/pool_proj"
type: "Convolution"
bottom: "inception_4a/pool"
top: "inception_4a/pool_proj"
param {
lr_mult: 1
decay_mult: 1
}
param {
lr_mult: 2
decay_mult: 0
}
convolution_param {
num_output: 64
kernel_size: 1
weight_filler {
type: "xavier"
std: 0.1
}
bias_filler {
type: "constant"
value: 0.2
}
}
}
layer {
name: "inception_4a/relu_pool_proj"
type: "ReLU"
bottom: "inception_4a/pool_proj"
top: "inception_4a/pool_proj"
}
layer {
name: "inception_4a/output"
type: "Concat"
bottom: "inception_4a/1x1"
bottom: "inception_4a/3x3"
bottom: "inception_4a/5x5"
bottom: "inception_4a/pool_proj"
top: "inception_4a/output"
}
layer {
name: "loss1/ave_pool"
type: "Pooling"
bottom: "inception_4a/output"
top: "loss1/ave_pool"
pooling_param {
pool: AVE
kernel_size: 5
stride: 3
}
}
layer {
name: "loss1/conv"
type: "Convolution"
bottom: "loss1/ave_pool"
top: "loss1/conv"
param {
lr_mult: 1
decay_mult: 1
}
param {
lr_mult: 2
decay_mult: 0
}
convolution_param {
num_output: 128
kernel_size: 1
weight_filler {
type: "xavier"
std: 0.08
}
bias_filler {
type: "constant"
value: 0.2
}
}
}
layer {
name: "loss1/relu_conv"
type: "ReLU"
bottom: "loss1/conv"
top: "loss1/conv"
}
layer {
name: "loss1/fc"
type: "InnerProduct"
bottom: "loss1/conv"
top: "loss1/fc"
param {
lr_mult: 1
decay_mult: 1
}
param {
lr_mult: 2
decay_mult: 0
}
inner_product_param {
num_output: 1024
weight_filler {
type: "xavier"
std: 0.02
}
bias_filler {
type: "constant"
value: 0.2
}
}
}
layer {
name: "loss1/relu_fc"
type: "ReLU"
bottom: "loss1/fc"
top: "loss1/fc"
}
layer {
name: "loss1/drop_fc"
type: "Dropout"
bottom: "loss1/fc"
top: "loss1/fc"
dropout_param {
dropout_ratio: 0.7
}
}
layer {
name: "loss1/classifier"
type: "InnerProduct"
bottom: "loss1/fc"
top: "loss1/classifier"
param {
lr_mult: 1
decay_mult: 1
}
param {
lr_mult: 2
decay_mult: 0
}
inner_product_param {
num_output: 2
weight_filler {
type: "xavier"
std: 0.0009765625
}
bias_filler {
type: "constant"
value: 0
}
}
}
layer {
name: "loss1/loss"
type: "SoftmaxWithLoss"
bottom: "loss1/classifier"
bottom: "label"
top: "loss1/loss"
loss_weight: 0.3
}
layer {
name: "loss1/top-1"
type: "Accuracy"
bottom: "loss1/classifier"
bottom: "label"
top: "loss1/accuracy"
include {
phase: TEST
}
}
layer {
name: "inception_4b/1x1"
type: "Convolution"
bottom: "inception_4a/output"
top: "inception_4b/1x1"
param {
lr_mult: 1
decay_mult: 1
}
param {
lr_mult: 2
decay_mult: 0
}
convolution_param {
num_output: 160
kernel_size: 1
weight_filler {
type: "xavier"
std: 0.03
}
bias_filler {
type: "constant"
value: 0.2
}
}
}
layer {
name: "inception_4b/relu_1x1"
type: "ReLU"
bottom: "inception_4b/1x1"
top: "inception_4b/1x1"
}
layer {
name: "inception_4b/3x3_reduce"
type: "Convolution"
bottom: "inception_4a/output"
top: "inception_4b/3x3_reduce"
param {
lr_mult: 1
decay_mult: 1
}
param {
lr_mult: 2
decay_mult: 0
}
convolution_param {
num_output: 112
kernel_size: 1
weight_filler {
type: "xavier"
std: 0.09
}
bias_filler {
type: "constant"
value: 0.2
}
}
}
layer {
name: "inception_4b/relu_3x3_reduce"
type: "ReLU"
bottom: "inception_4b/3x3_reduce"
top: "inception_4b/3x3_reduce"
}
layer {
name: "inception_4b/3x3"
type: "Convolution"
bottom: "inception_4b/3x3_reduce"
top: "inception_4b/3x3"
param {
lr_mult: 1
decay_mult: 1
}
param {
lr_mult: 2
decay_mult: 0
}
convolution_param {
num_output: 224
pad: 1
kernel_size: 3
weight_filler {
type: "xavier"
std: 0.03
}
bias_filler {
type: "constant"
value: 0.2
}
}
}
layer {
name: "inception_4b/relu_3x3"
type: "ReLU"
bottom: "inception_4b/3x3"
top: "inception_4b/3x3"
}
layer {
name: "inception_4b/5x5_reduce"
type: "Convolution"
bottom: "inception_4a/output"
top: "inception_4b/5x5_reduce"
param {
lr_mult: 1
decay_mult: 1
}
param {
lr_mult: 2
decay_mult: 0
}
convolution_param {
num_output: 24
kernel_size: 1
weight_filler {
type: "xavier"
std: 0.2
}
bias_filler {
type: "constant"
value: 0.2
}
}
}
layer {
name: "inception_4b/relu_5x5_reduce"
type: "ReLU"
bottom: "inception_4b/5x5_reduce"
top: "inception_4b/5x5_reduce"
}
layer {
name: "inception_4b/5x5"
type: "Convolution"
bottom: "inception_4b/5x5_reduce"
top: "inception_4b/5x5"
param {
lr_mult: 1
decay_mult: 1
}
param {
lr_mult: 2
decay_mult: 0
}
convolution_param {
num_output: 64
pad: 2
kernel_size: 5
weight_filler {
type: "xavier"
std: 0.03
}
bias_filler {
type: "constant"
value: 0.2
}
}
}
layer {
name: "inception_4b/relu_5x5"
type: "ReLU"
bottom: "inception_4b/5x5"
top: "inception_4b/5x5"
}
layer {
name: "inception_4b/pool"
type: "Pooling"
bottom: "inception_4a/output"
top: "inception_4b/pool"
pooling_param {
pool: MAX
kernel_size: 3
stride: 1
pad: 1
}
}
layer {
name: "inception_4b/pool_proj"
type: "Convolution"
bottom: "inception_4b/pool"
top: "inception_4b/pool_proj"
param {
lr_mult: 1
decay_mult: 1
}
param {
lr_mult: 2
decay_mult: 0
}
convolution_param {
num_output: 64
kernel_size: 1
weight_filler {
type: "xavier"
std: 0.1
}
bias_filler {
type: "constant"
value: 0.2
}
}
}
layer {
name: "inception_4b/relu_pool_proj"
type: "ReLU"
bottom: "inception_4b/pool_proj"
top: "inception_4b/pool_proj"
}
layer {
name: "inception_4b/output"
type: "Concat"
bottom: "inception_4b/1x1"
bottom: "inception_4b/3x3"
bottom: "inception_4b/5x5"
bottom: "inception_4b/pool_proj"
top: "inception_4b/output"
}
layer {
name: "inception_4c/1x1"
type: "Convolution"
bottom: "inception_4b/output"
top: "inception_4c/1x1"
param {
lr_mult: 1
decay_mult: 1
}
param {
lr_mult: 2
decay_mult: 0
}
convolution_param {
num_output: 128
kernel_size: 1
weight_filler {
type: "xavier"
std: 0.03
}
bias_filler {
type: "constant"
value: 0.2
}
}
}
layer {
name: "inception_4c/relu_1x1"
type: "ReLU"
bottom: "inception_4c/1x1"
top: "inception_4c/1x1"
}
layer {
name: "inception_4c/3x3_reduce"
type: "Convolution"
bottom: "inception_4b/output"
top: "inception_4c/3x3_reduce"
param {
lr_mult: 1
decay_mult: 1
}
param {
lr_mult: 2
decay_mult: 0
}
convolution_param {
num_output: 128
kernel_size: 1
weight_filler {
type: "xavier"
std: 0.09
}
bias_filler {
type: "constant"
value: 0.2
}
}
}
layer {
name: "inception_4c/relu_3x3_reduce"
type: "ReLU"
bottom: "inception_4c/3x3_reduce"
top: "inception_4c/3x3_reduce"
}
layer {
name: "inception_4c/3x3"
type: "Convolution"
bottom: "inception_4c/3x3_reduce"
top: "inception_4c/3x3"
param {
lr_mult: 1
decay_mult: 1
}
param {
lr_mult: 2
decay_mult: 0
}
convolution_param {
num_output: 256
pad: 1
kernel_size: 3
weight_filler {
type: "xavier"
std: 0.03
}
bias_filler {
type: "constant"
value: 0.2
}
}
}
layer {
name: "inception_4c/relu_3x3"
type: "ReLU"
bottom: "inception_4c/3x3"
top: "inception_4c/3x3"
}
layer {
name: "inception_4c/5x5_reduce"
type: "Convolution"
bottom: "inception_4b/output"
top: "inception_4c/5x5_reduce"
param {
lr_mult: 1
decay_mult: 1
}
param {
lr_mult: 2
decay_mult: 0
}
convolution_param {
num_output: 24
kernel_size: 1
weight_filler {
type: "xavier"
std: 0.2
}
bias_filler {
type: "constant"
value: 0.2
}
}
}
layer {
name: "inception_4c/relu_5x5_reduce"
type: "ReLU"
bottom: "inception_4c/5x5_reduce"
top: "inception_4c/5x5_reduce"
}
layer {
name: "inception_4c/5x5"
type: "Convolution"
bottom: "inception_4c/5x5_reduce"
top: "inception_4c/5x5"
param {
lr_mult: 1
decay_mult: 1
}
param {
lr_mult: 2
decay_mult: 0
}
convolution_param {
num_output: 64
pad: 2
kernel_size: 5
weight_filler {
type: "xavier"
std: 0.03
}
bias_filler {
type: "constant"
value: 0.2
}
}
}
layer {
name: "inception_4c/relu_5x5"
type: "ReLU"
bottom: "inception_4c/5x5"
top: "inception_4c/5x5"
}
layer {
name: "inception_4c/pool"
type: "Pooling"
bottom: "inception_4b/output"
top: "inception_4c/pool"
pooling_param {
pool: MAX
kernel_size: 3
stride: 1
pad: 1
}
}
layer {
name: "inception_4c/pool_proj"
type: "Convolution"
bottom: "inception_4c/pool"
top: "inception_4c/pool_proj"
param {
lr_mult: 1
decay_mult: 1
}
param {
lr_mult: 2
decay_mult: 0
}
convolution_param {
num_output: 64
kernel_size: 1
weight_filler {
type: "xavier"
std: 0.1
}
bias_filler {
type: "constant"
value: 0.2
}
}
}
layer {
name: "inception_4c/relu_pool_proj"
type: "ReLU"
bottom: "inception_4c/pool_proj"
top: "inception_4c/pool_proj"
}
layer {
name: "inception_4c/output"
type: "Concat"
bottom: "inception_4c/1x1"
bottom: "inception_4c/3x3"
bottom: "inception_4c/5x5"
bottom: "inception_4c/pool_proj"
top: "inception_4c/output"
}
layer {
name: "inception_4d/1x1"
type: "Convolution"
bottom: "inception_4c/output"
top: "inception_4d/1x1"
param {
lr_mult: 1
decay_mult: 1
}
param {
lr_mult: 2
decay_mult: 0
}
convolution_param {
num_output: 112
kernel_size: 1
weight_filler {
type: "xavier"
std: 0.03
}
bias_filler {
type: "constant"
value: 0.2
}
}
}
layer {
name: "inception_4d/relu_1x1"
type: "ReLU"
bottom: "inception_4d/1x1"
top: "inception_4d/1x1"
}
layer {
…
I0904 10:46:35.993001  2814 net.cpp:159] Memory required for data: 699835208
I0904 10:46:35.993017  2814 layer_factory.hpp:77] Creating layer inception_4c/relu_5x5
I0904 10:46:35.993060  2814 net.cpp:94] Creating Layer inception_4c/relu_5x5
I0904 10:46:35.993073  2814 net.cpp:435] inception_4c/relu_5x5 <- inception_4c/5x5
I0904 10:46:35.993086  2814 net.cpp:396] inception_4c/relu_5x5 -> inception_4c/5x5 (in-place)
I0904 10:46:35.993104  2814 net.cpp:144] Setting up inception_4c/relu_5x5
I0904 10:46:35.993119  2814 net.cpp:151] Top shape: 16 64 14 14 (200704)
I0904 10:46:35.993129  2814 net.cpp:159] Memory required for data: 700638024
I0904 10:46:35.993139  2814 layer_factory.hpp:77] Creating layer inception_4c/pool
I0904 10:46:35.993155  2814 net.cpp:94] Creating Layer inception_4c/pool
I0904 10:46:35.993167  2814 net.cpp:435] inception_4c/pool <- inception_4b/output_inception_4b/output_0_split_3
I0904 10:46:35.993182  2814 net.cpp:409] inception_4c/pool -> inception_4c/pool
I0904 10:46:35.993257  2814 net.cpp:144] Setting up inception_4c/pool
I0904 10:46:35.993266  2814 net.cpp:151] Top shape: 16 512 14 14 (1605632)
I0904 10:46:35.993273  2814 net.cpp:159] Memory required for data: 707060552
I0904 10:46:35.993280  2814 layer_factory.hpp:77] Creating layer inception_4c/pool_proj
I0904 10:46:35.993294  2814 net.cpp:94] Creating Layer inception_4c/pool_proj
I0904 10:46:35.993301  2814 net.cpp:435] inception_4c/pool_proj <- inception_4c/pool
I0904 10:46:35.993311  2814 net.cpp:409] inception_4c/pool_proj -> inception_4c/pool_proj
I0904 10:46:35.995038  2814 net.cpp:144] Setting up inception_4c/pool_proj
I0904 10:46:35.995056  2814 net.cpp:151] Top shape: 16 64 14 14 (200704)
I0904 10:46:35.995069  2814 net.cpp:159] Memory required for data: 707863368
I0904 10:46:35.995085  2814 layer_factory.hpp:77] Creating layer inception_4c/relu_pool_proj
I0904 10:46:35.995100  2814 net.cpp:94] Creating Layer inception_4c/relu_pool_proj
I0904 10:46:35.995112  2814 net.cpp:435] inception_4c/relu_pool_proj <- inception_4c/pool_proj
I0904 10:46:35.995126  2814 net.cpp:396] inception_4c/relu_pool_proj -> inception_4c/pool_proj (in-place)
I0904 10:46:35.995144  2814 net.cpp:144] Setting up inception_4c/relu_pool_proj
I0904 10:46:35.995158  2814 net.cpp:151] Top shape: 16 64 14 14 (200704)
I0904 10:46:35.995168  2814 net.cpp:159] Memory required for data: 708666184
I0904 10:46:35.995179  2814 layer_factory.hpp:77] Creating layer inception_4c/output
I0904 10:46:35.995193  2814 net.cpp:94] Creating Layer inception_4c/output
I0904 10:46:35.995205  2814 net.cpp:435] inception_4c/output <- inception_4c/1x1
I0904 10:46:35.995218  2814 net.cpp:435] inception_4c/output <- inception_4c/3x3
I0904 10:46:35.995230  2814 net.cpp:435] inception_4c/output <- inception_4c/5x5
I0904 10:46:35.995246  2814 net.cpp:435] inception_4c/output <- inception_4c/pool_proj
I0904 10:46:35.995256  2814 net.cpp:409] inception_4c/output -> inception_4c/output
I0904 10:46:35.995296  2814 net.cpp:144] Setting up inception_4c/output
I0904 10:46:35.995306  2814 net.cpp:151] Top shape: 16 512 14 14 (1605632)
I0904 10:46:35.995313  2814 net.cpp:159] Memory required for data: 715088712
I0904 10:46:35.995321  2814 layer_factory.hpp:77] Creating layer inception_4c/output_inception_4c/output_0_split
I0904 10:46:35.995332  2814 net.cpp:94] Creating Layer inception_4c/output_inception_4c/output_0_split
I0904 10:46:35.995338  2814 net.cpp:435] inception_4c/output_inception_4c/output_0_split <- inception_4c/output
I0904 10:46:35.995348  2814 net.cpp:409] inception_4c/output_inception_4c/output_0_split -> inception_4c/output_inception_4c/output_0_split_0
I0904 10:46:35.995359  2814 net.cpp:409] inception_4c/output_inception_4c/output_0_split -> inception_4c/output_inception_4c/output_0_split_1
I0904 10:46:35.995370  2814 net.cpp:409] inception_4c/output_inception_4c/output_0_split -> inception_4c/output_inception_4c/output_0_split_2
I0904 10:46:35.995383  2814 net.cpp:409] inception_4c/output_inception_4c/output_0_split -> inception_4c/output_inception_4c/output_0_split_3
I0904 10:46:35.995492  2814 net.cpp:144] Setting up inception_4c/output_inception_4c/output_0_split
I0904 10:46:35.995502  2814 net.cpp:151] Top shape: 16 512 14 14 (1605632)
I0904 10:46:35.995522  2814 net.cpp:151] Top shape: 16 512 14 14 (1605632)
I0904 10:46:35.995530  2814 net.cpp:151] Top shape: 16 512 14 14 (1605632)
I0904 10:46:35.995538  2814 net.cpp:151] Top shape: 16 512 14 14 (1605632)
I0904 10:46:35.995545  2814 net.cpp:159] Memory required for data: 740778824
I0904 10:46:35.995551  2814 layer_factory.hpp:77] Creating layer inception_4d/1x1
I0904 10:46:35.995564  2814 net.cpp:94] Creating Layer inception_4d/1x1
I0904 10:46:35.995573  2814 net.cpp:435] inception_4d/1x1 <- inception_4c/output_inception_4c/output_0_split_0
I0904 10:46:35.995584  2814 net.cpp:409] inception_4d/1x1 -> inception_4d/1x1
I0904 10:46:35.997678  2814 net.cpp:144] Setting up inception_4d/1x1
I0904 10:46:35.997696  2814 net.cpp:151] Top shape: 16 112 14 14 (351232)
I0904 10:46:35.997704  2814 net.cpp:159] Memory required for data: 742183752
I0904 10:46:35.997714  2814 layer_factory.hpp:77] Creating layer inception_4d/relu_1x1
I0904 10:46:35.997725  2814 net.cpp:94] Creating Layer inception_4d/relu_1x1
I0904 10:46:35.997731  2814 net.cpp:435] inception_4d/relu_1x1 <- inception_4d/1x1
I0904 10:46:35.997740  2814 net.cpp:396] inception_4d/relu_1x1 -> inception_4d/1x1 (in-place)
I0904 10:46:35.997752  2814 net.cpp:144] Setting up inception_4d/relu_1x1
I0904 10:46:35.997761  2814 net.cpp:151] Top shape: 16 112 14 14 (351232)
I0904 10:46:35.997768  2814 net.cpp:159] Memory required for data: 743588680
I0904 10:46:35.997774  2814 layer_factory.hpp:77] Creating layer inception_4d/3x3_reduce
I0904 10:46:35.997788  2814 net.cpp:94] Creating Layer inception_4d/3x3_reduce
I0904 10:46:35.997797  2814 net.cpp:435] inception_4d/3x3_reduce <- inception_4c/output_inception_4c/output_0_split_1
I0904 10:46:35.997807  2814 net.cpp:409] inception_4d/3x3_reduce -> inception_4d/3x3_reduce
I0904 10:46:36.000598  2814 net.cpp:144] Setting up inception_4d/3x3_reduce
I0904 10:46:36.000617  2814 net.cpp:151] Top shape: 16 144 14 14 (451584)
I0904 10:46:36.000629  2814 net.cpp:159] Memory required for data: 745395016
I0904 10:46:36.000646  2814 layer_factory.hpp:77] Creating layer inception_4d/relu_3x3_reduce
I0904 10:46:36.000660  2814 net.cpp:94] Creating Layer inception_4d/relu_3x3_reduce
I0904 10:46:36.000672  2814 net.cpp:435] inception_4d/relu_3x3_reduce <- inception_4d/3x3_reduce
I0904 10:46:36.000689  2814 net.cpp:396] inception_4d/relu_3x3_reduce -> inception_4d/3x3_reduce (in-place)
I0904 10:46:36.000707  2814 net.cpp:144] Setting up inception_4d/relu_3x3_reduce
I0904 10:46:36.000721  2814 net.cpp:151] Top shape: 16 144 14 14 (451584)
I0904 10:46:36.000732  2814 net.cpp:159] Memory required for data: 747201352
I0904 10:46:36.000742  2814 layer_factory.hpp:77] Creating layer inception_4d/3x3
I0904 10:46:36.000762  2814 net.cpp:94] Creating Layer inception_4d/3x3
I0904 10:46:36.000773  2814 net.cpp:435] inception_4d/3x3 <- inception_4d/3x3_reduce
I0904 10:46:36.000792  2814 net.cpp:409] inception_4d/3x3 -> inception_4d/3x3
I0904 10:46:36.009775  2814 net.cpp:144] Setting up inception_4d/3x3
I0904 10:46:36.009796  2814 net.cpp:151] Top shape: 16 288 14 14 (903168)
I0904 10:46:36.009804  2814 net.cpp:159] Memory required for data: 750814024
I0904 10:46:36.009817  2814 layer_factory.hpp:77] Creating layer inception_4d/relu_3x3
I0904 10:46:36.009829  2814 net.cpp:94] Creating Layer inception_4d/relu_3x3
I0904 10:46:36.009838  2814 net.cpp:435] inception_4d/relu_3x3 <- inception_4d/3x3
I0904 10:46:36.009851  2814 net.cpp:396] inception_4d/relu_3x3 -> inception_4d/3x3 (in-place)
I0904 10:46:36.009865  2814 net.cpp:144] Setting up inception_4d/relu_3x3
I0904 10:46:36.009873  2814 net.cpp:151] Top shape: 16 288 14 14 (903168)
I0904 10:46:36.009881  2814 net.cpp:159] Memory required for data: 754426696
I0904 10:46:36.009888  2814 layer_factory.hpp:77] Creating layer inception_4d/5x5_reduce
I0904 10:46:36.009903  2814 net.cpp:94] Creating Layer inception_4d/5x5_reduce
I0904 10:46:36.009912  2814 net.cpp:435] inception_4d/5x5_reduce <- inception_4c/output_inception_4c/output_0_split_2
I0904 10:46:36.009923  2814 net.cpp:409] inception_4d/5x5_reduce -> inception_4d/5x5_reduce
I0904 10:46:36.011494  2814 net.cpp:144] Setting up inception_4d/5x5_reduce
I0904 10:46:36.011507  2814 net.cpp:151] Top shape: 16 32 14 14 (100352)
I0904 10:46:36.011514  2814 net.cpp:159] Memory required for data: 754828104
I0904 10:46:36.011525  2814 layer_factory.hpp:77] Creating layer inception_4d/relu_5x5_reduce
I0904 10:46:36.011535  2814 net.cpp:94] Creating Layer inception_4d/relu_5x5_reduce
I0904 10:46:36.011543  2814 net.cpp:435] inception_4d/relu_5x5_reduce <- inception_4d/5x5_reduce
I0904 10:46:36.011554  2814 net.cpp:396] inception_4d/relu_5x5_reduce -> inception_4d/5x5_reduce (in-place)
I0904 10:46:36.011567  2814 net.cpp:144] Setting up inception_4d/relu_5x5_reduce
I0904 10:46:36.011576  2814 net.cpp:151] Top shape: 16 32 14 14 (100352)
I0904 10:46:36.011584  2814 net.cpp:159] Memory required for data: 755229512
I0904 10:46:36.011590  2814 layer_factory.hpp:77] Creating layer inception_4d/5x5
I0904 10:46:36.011605  2814 net.cpp:94] Creating Layer inception_4d/5x5
I0904 10:46:36.011613  2814 net.cpp:435] inception_4d/5x5 <- inception_4d/5x5_reduce
I0904 10:46:36.011626  2814 net.cpp:409] inception_4d/5x5 -> inception_4d/5x5
I0904 10:46:36.013274  2814 net.cpp:144] Setting up inception_4d/5x5
I0904 10:46:36.013288  2814 net.cpp:151] Top shape: 16 64 14 14 (200704)
I0904 10:46:36.013294  2814 net.cpp:159] Memory required for data: 756032328
I0904 10:46:36.013305  2814 layer_factory.hpp:77] Creating layer inception_4d/relu_5x5
I0904 10:46:36.013315  2814 net.cpp:94] Creating Layer inception_4d/relu_5x5
I0904 10:46:36.013324  2814 net.cpp:435] inception_4d/relu_5x5 <- inception_4d/5x5
I0904 10:46:36.013332  2814 net.cpp:396] inception_4d/relu_5x5 -> inception_4d/5x5 (in-place)
I0904 10:46:36.013344  2814 net.cpp:144] Setting up inception_4d/relu_5x5
I0904 10:46:36.013352  2814 net.cpp:151] Top shape: 16 64 14 14 (200704)
I0904 10:46:36.013360  2814 net.cpp:159] Memory required for data: 756835144
I0904 10:46:36.013367  2814 layer_factory.hpp:77] Creating layer inception_4d/pool
I0904 10:46:36.013378  2814 net.cpp:94] Creating Layer inception_4d/pool
I0904 10:46:36.013386  2814 net.cpp:435] inception_4d/pool <- inception_4c/output_inception_4c/output_0_split_3
I0904 10:46:36.013398  2814 net.cpp:409] inception_4d/pool -> inception_4d/pool
I0904 10:46:36.013469  2814 net.cpp:144] Setting up inception_4d/pool
I0904 10:46:36.013479  2814 net.cpp:151] Top shape: 16 512 14 14 (1605632)
I0904 10:46:36.013486  2814 net.cpp:159] Memory required for data: 763257672
I0904 10:46:36.013494  2814 layer_factory.hpp:77] Creating layer inception_4d/pool_proj
I0904 10:46:36.013509  2814 net.cpp:94] Creating Layer inception_4d/pool_proj
I0904 10:46:36.013516  2814 net.cpp:435] inception_4d/pool_proj <- inception_4d/pool
I0904 10:46:36.013526  2814 net.cpp:409] inception_4d/pool_proj -> inception_4d/pool_proj
I0904 10:46:36.015249  2814 net.cpp:144] Setting up inception_4d/pool_proj
I0904 10:46:36.015262  2814 net.cpp:151] Top shape: 16 64 14 14 (200704)
I0904 10:46:36.015269  2814 net.cpp:159] Memory required for data: 764060488
I0904 10:46:36.015280  2814 layer_factory.hpp:77] Creating layer inception_4d/relu_pool_proj
I0904 10:46:36.015290  2814 net.cpp:94] Creating Layer inception_4d/relu_pool_proj
I0904 10:46:36.015300  2814 net.cpp:435] inception_4d/relu_pool_proj <- inception_4d/pool_proj
I0904 10:46:36.015308  2814 net.cpp:396] inception_4d/relu_pool_proj -> inception_4d/pool_proj (in-place)
I0904 10:46:36.015319  2814 net.cpp:144] Setting up inception_4d/relu_pool_proj
I0904 10:46:36.015329  2814 net.cpp:151] Top shape: 16 64 14 14 (200704)
I0904 10:46:36.015336  2814 net.cpp:159] Memory required for data: 764863304
I0904 10:46:36.015343  2814 layer_factory.hpp:77] Creating layer inception_4d/output
I0904 10:46:36.015353  2814 net.cpp:94] Creating Layer inception_4d/output
I0904 10:46:36.015362  2814 net.cpp:435] inception_4d/output <- inception_4d/1x1
I0904 10:46:36.015369  2814 net.cpp:435] inception_4d/output <- inception_4d/3x3
I0904 10:46:36.015377  2814 net.cpp:435] inception_4d/output <- inception_4d/5x5
I0904 10:46:36.015398  2814 net.cpp:435] inception_4d/output <- inception_4d/pool_proj
I0904 10:46:36.015408  2814 net.cpp:409] inception_4d/output -> inception_4d/output
I0904 10:46:36.015453  2814 net.cpp:144] Setting up inception_4d/output
I0904 10:46:36.015465  2814 net.cpp:151] Top shape: 16 528 14 14 (1655808)
I0904 10:46:36.015473  2814 net.cpp:159] Memory required for data: 771486536
I0904 10:46:36.015480  2814 layer_factory.hpp:77] Creating layer inception_4d/output_inception_4d/output_0_split
I0904 10:46:36.015491  2814 net.cpp:94] Creating Layer inception_4d/output_inception_4d/output_0_split
I0904 10:46:36.015498  2814 net.cpp:435] inception_4d/output_inception_4d/output_0_split <- inception_4d/output
I0904 10:46:36.015507  2814 net.cpp:409] inception_4d/output_inception_4d/output_0_split -> inception_4d/output_inception_4d/output_0_split_0
I0904 10:46:36.015519  2814 net.cpp:409] inception_4d/output_inception_4d/output_0_split -> inception_4d/output_inception_4d/output_0_split_1
I0904 10:46:36.015532  2814 net.cpp:409] inception_4d/output_inception_4d/output_0_split -> inception_4d/output_inception_4d/output_0_split_2
I0904 10:46:36.015544  2814 net.cpp:409] inception_4d/output_inception_4d/output_0_split -> inception_4d/output_inception_4d/output_0_split_3
I0904 10:46:36.015555  2814 net.cpp:409] inception_4d/output_inception_4d/output_0_split -> inception_4d/output_inception_4d/output_0_split_4
I0904 10:46:36.015697  2814 net.cpp:144] Setting up inception_4d/output_inception_4d/output_0_split
I0904 10:46:36.015707  2814 net.cpp:151] Top shape: 16 528 14 14 (1655808)
I0904 10:46:36.015715  2814 net.cpp:151] Top shape: 16 528 14 14 (1655808)
I0904 10:46:36.015723  2814 net.cpp:151] Top shape: 16 528 14 14 (1655808)
I0904 10:46:36.015732  2814 net.cpp:151] Top shape: 16 528 14 14 (1655808)
I0904 10:46:36.015740  2814 net.cpp:151] Top shape: 16 528 14 14 (1655808)
I0904 10:46:36.015748  2814 net.cpp:159] Memory required for data: 804602696
I0904 10:46:36.015754  2814 layer_factory.hpp:77] Creating layer loss2/ave_pool
I0904 10:46:36.015765  2814 net.cpp:94] Creating Layer loss2/ave_pool
I0904 10:46:36.015774  2814 net.cpp:435] loss2/ave_pool <- inception_4d/output_inception_4d/output_0_split_0
I0904 10:46:36.015784  2814 net.cpp:409] loss2/ave_pool -> loss2/ave_pool
I0904 10:46:36.015826  2814 net.cpp:144] Setting up loss2/ave_pool
I0904 10:46:36.015836  2814 net.cpp:151] Top shape: 16 528 4 4 (135168)
I0904 10:46:36.015843  2814 net.cpp:159] Memory required for data: 805143368
I0904 10:46:36.015851  2814 layer_factory.hpp:77] Creating layer loss2/conv
I0904 10:46:36.015864  2814 net.cpp:94] Creating Layer loss2/conv
I0904 10:46:36.015872  2814 net.cpp:435] loss2/conv <- loss2/ave_pool
I0904 10:46:36.015884  2814 net.cpp:409] loss2/conv -> loss2/conv
I0904 10:46:36.017566  2814 net.cpp:144] Setting up loss2/conv
I0904 10:46:36.017580  2814 net.cpp:151] Top shape: 16 128 4 4 (32768)
I0904 10:46:36.017586  2814 net.cpp:159] Memory required for data: 805274440
I0904 10:46:36.017597  2814 layer_factory.hpp:77] Creating layer loss2/relu_conv
I0904 10:46:36.017607  2814 net.cpp:94] Creating Layer loss2/relu_conv
I0904 10:46:36.017614  2814 net.cpp:435] loss2/relu_conv <- loss2/conv
I0904 10:46:36.017627  2814 net.cpp:396] loss2/relu_conv -> loss2/conv (in-place)
I0904 10:46:36.017638  2814 net.cpp:144] Setting up loss2/relu_conv
I0904 10:46:36.017647  2814 net.cpp:151] Top shape: 16 128 4 4 (32768)
I0904 10:46:36.017654  2814 net.cpp:159] Memory required for data: 805405512
I0904 10:46:36.017662  2814 layer_factory.hpp:77] Creating layer loss2/fc
I0904 10:46:36.017673  2814 net.cpp:94] Creating Layer loss2/fc
I0904 10:46:36.017680  2814 net.cpp:435] loss2/fc <- loss2/conv
I0904 10:46:36.017693  2814 net.cpp:409] loss2/fc -> loss2/fc
I0904 10:46:36.040274  2814 net.cpp:144] Setting up loss2/fc
I0904 10:46:36.040310  2814 net.cpp:151] Top shape: 16 1024 (16384)
I0904 10:46:36.040318  2814 net.cpp:159] Memory required for data: 805471048
I0904 10:46:36.040335  2814 layer_factory.hpp:77] Creating layer loss2/relu_fc
I0904 10:46:36.040374  2814 net.cpp:94] Creating Layer loss2/relu_fc
I0904 10:46:36.040386  2814 net.cpp:435] loss2/relu_fc <- loss2/fc
I0904 10:46:36.040400  2814 net.cpp:396] loss2/relu_fc -> loss2/fc (in-place)
I0904 10:46:36.040416  2814 net.cpp:144] Setting up loss2/relu_fc
I0904 10:46:36.040426  2814 net.cpp:151] Top shape: 16 1024 (16384)
I0904 10:46:36.040432  2814 net.cpp:159] Memory required for data: 805536584
I0904 10:46:36.040439  2814 layer_factory.hpp:77] Creating layer loss2/drop_fc
I0904 10:46:36.040451  2814 net.cpp:94] Creating Layer loss2/drop_fc
I0904 10:46:36.040458  2814 net.cpp:435] loss2/drop_fc <- loss2/fc
I0904 10:46:36.040467  2814 net.cpp:396] loss2/drop_fc -> loss2/fc (in-place)
I0904 10:46:36.040511  2814 net.cpp:144] Setting up loss2/drop_fc
I0904 10:46:36.040521  2814 net.cpp:151] Top shape: 16 1024 (16384)
I0904 10:46:36.040529  2814 net.cpp:159] Memory required for data: 805602120
I0904 10:46:36.040535  2814 layer_factory.hpp:77] Creating layer loss2/classifier
I0904 10:46:36.040550  2814 net.cpp:94] Creating Layer loss2/classifier
I0904 10:46:36.040558  2814 net.cpp:435] loss2/classifier <- loss2/fc
I0904 10:46:36.040568  2814 net.cpp:409] loss2/classifier -> loss2/classifier
I0904 10:46:36.040784  2814 net.cpp:144] Setting up loss2/classifier
I0904 10:46:36.040794  2814 net.cpp:151] Top shape: 16 2 (32)
I0904 10:46:36.040802  2814 net.cpp:159] Memory required for data: 805602248
I0904 10:46:36.040812  2814 layer_factory.hpp:77] Creating layer loss2/classifier_loss2/classifier_0_split
I0904 10:46:36.040822  2814 net.cpp:94] Creating Layer loss2/classifier_loss2/classifier_0_split
I0904 10:46:36.040829  2814 net.cpp:435] loss2/classifier_loss2/classifier_0_split <- loss2/classifier
I0904 10:46:36.040841  2814 net.cpp:409] loss2/classifier_loss2/classifier_0_split -> loss2/classifier_loss2/classifier_0_split_0
I0904 10:46:36.040853  2814 net.cpp:409] loss2/classifier_loss2/classifier_0_split -> loss2/classifier_loss2/classifier_0_split_1
I0904 10:46:36.040916  2814 net.cpp:144] Setting up loss2/classifier_loss2/classifier_0_split
I0904 10:46:36.040926  2814 net.cpp:151] Top shape: 16 2 (32)
I0904 10:46:36.040935  2814 net.cpp:151] Top shape: 16 2 (32)
I0904 10:46:36.040941  2814 net.cpp:159] Memory required for data: 805602504
I0904 10:46:36.040948  2814 layer_factory.hpp:77] Creating layer loss2/loss
I0904 10:46:36.040961  2814 net.cpp:94] Creating Layer loss2/loss
I0904 10:46:36.040968  2814 net.cpp:435] loss2/loss <- loss2/classifier_loss2/classifier_0_split_0
I0904 10:46:36.040977  2814 net.cpp:435] loss2/loss <- label_val-data_1_split_2
…
I0904 10:46:36.041270  2814 net.cpp:144] Setting up loss2/top-1
I0904 10:46:36.041278  2814 net.cpp:151] Top shape: (1)
I0904 10:46:36.041285  2814 net.cpp:159] Memory required for data: 805602512
I0904 10:46:36.041291  2814 layer_factory.hpp:77] Creating layer inception_4e/1x1
I0904 10:46:36.041311  2814 net.cpp:94] Creating Layer inception_4e/1x1
I0904 10:46:36.041319  2814 net.cpp:435] inception_4e/1x1 <- inception_4d/output_inception_4d/output_0_split_1
I0904 10:46:36.041332  2814 net.cpp:409] inception_4e/1x1 -> inception_4e/1x1
I0904 10:46:36.045298  2814 net.cpp:144] Setting up inception_4e/1x1
I0904 10:46:36.045320  2814 net.cpp:151] Top shape: 16 256 14 14 (802816)
I0904 10:46:36.045351  2814 net.cpp:159] Memory required for data: 808813776
I0904 10:46:36.045368  2814 layer_factory.hpp:77] Creating layer inception_4e/relu_1x1
I0904 10:46:36.045383  2814 net.cpp:94] Creating Layer inception_4e/relu_1x1
I0904 10:46:36.045397  2814 net.cpp:435] inception_4e/relu_1x1 <- inception_4e/1x1
I0904 10:46:36.045410  2814 net.cpp:396] inception_4e/relu_1x1 -> inception_4e/1x1 (in-place)
I0904 10:46:36.045429  2814 net.cpp:144] Setting up inception_4e/relu_1x1
I0904 10:46:36.045442  2814 net.cpp:151] Top shape: 16 256 14 14 (802816)
I0904 10:46:36.045459  2814 net.cpp:159] Memory required for data: 812025040
I0904 10:46:36.045465  2814 layer_factory.hpp:77] Creating layer inception_4e/3x3_reduce
I0904 10:46:36.045482  2814 net.cpp:94] Creating Layer inception_4e/3x3_reduce
I0904 10:46:36.045490  2814 net.cpp:435] inception_4e/3x3_reduce <- inception_4d/output_inception_4d/output_0_split_2
I0904 10:46:36.045501  2814 net.cpp:409] inception_4e/3x3_reduce -> inception_4e/3x3_reduce
I0904 10:46:36.048190  2814 net.cpp:144] Setting up inception_4e/3x3_reduce
I0904 10:46:36.048210  2814 net.cpp:151] Top shape: 16 160 14 14 (501760)
I0904 10:46:36.048221  2814 net.cpp:159] Memory required for data: 814032080
I0904 10:46:36.048238  2814 layer_factory.hpp:77] Creating layer inception_4e/relu_3x3_reduce
I0904 10:46:36.048252  2814 net.cpp:94] Creating Layer inception_4e/relu_3x3_reduce
I0904 10:46:36.048264  2814 net.cpp:435] inception_4e/relu_3x3_reduce <- inception_4e/3x3_reduce
I0904 10:46:36.048281  2814 net.cpp:396] inception_4e/relu_3x3_reduce -> inception_4e/3x3_reduce (in-place)
I0904 10:46:36.048300  2814 net.cpp:144] Setting up inception_4e/relu_3x3_reduce
I0904 10:46:36.048313  2814 net.cpp:151] Top shape: 16 160 14 14 (501760)
I0904 10:46:36.048324  2814 net.cpp:159] Memory required for data: 816039120
I0904 10:46:36.048336  2814 layer_factory.hpp:77] Creating layer inception_4e/3x3
I0904 10:46:36.048390  2814 net.cpp:94] Creating Layer inception_4e/3x3
I0904 10:46:36.048398  2814 net.cpp:435] inception_4e/3x3 <- inception_4e/3x3_reduce
I0904 10:46:36.048409  2814 net.cpp:409] inception_4e/3x3 -> inception_4e/3x3
I0904 10:46:36.058902  2814 net.cpp:144] Setting up inception_4e/3x3
I0904 10:46:36.058930  2814 net.cpp:151] Top shape: 16 320 14 14 (1003520)
I0904 10:46:36.058954  2814 net.cpp:159] Memory required for data: 820053200
I0904 10:46:36.058974  2814 layer_factory.hpp:77] Creating layer inception_4e/relu_3x3
I0904 10:46:36.058990  2814 net.cpp:94] Creating Layer inception_4e/relu_3x3
I0904 10:46:36.059007  2814 net.cpp:435] inception_4e/relu_3x3 <- inception_4e/3x3
I0904 10:46:36.059017  2814 net.cpp:396] inception_4e/relu_3x3 -> inception_4e/3x3 (in-place)
I0904 10:46:36.059029  2814 net.cpp:144] Setting up inception_4e/relu_3x3
I0904 10:46:36.059039  2814 net.cpp:151] Top shape: 16 320 14 14 (1003520)
I0904 10:46:36.059046  2814 net.cpp:159] Memory required for data: 824067280
I0904 10:46:36.059053  2814 layer_factory.hpp:77] Creating layer inception_4e/5x5_reduce
I0904 10:46:36.059068  2814 net.cpp:94] Creating Layer inception_4e/5x5_reduce
I0904 10:46:36.059077  2814 net.cpp:435] inception_4e/5x5_reduce <- inception_4d/output_inception_4d/output_0_split_3
I0904 10:46:36.059089  2814 net.cpp:409] inception_4e/5x5_reduce -> inception_4e/5x5_reduce
I0904 10:46:36.060636  2814 net.cpp:144] Setting up inception_4e/5x5_reduce
I0904 10:46:36.060649  2814 net.cpp:151] Top shape: 16 32 14 14 (100352)
I0904 10:46:36.060657  2814 net.cpp:159] Memory required for data: 824468688
I0904 10:46:36.060667  2814 layer_factory.hpp:77] Creating layer inception_4e/relu_5x5_reduce
I0904 10:46:36.060677  2814 net.cpp:94] Creating Layer inception_4e/relu_5x5_reduce
I0904 10:46:36.060685  2814 net.cpp:435] inception_4e/relu_5x5_reduce <- inception_4e/5x5_reduce
I0904 10:46:36.060696  2814 net.cpp:396] inception_4e/relu_5x5_reduce -> inception_4e/5x5_reduce (in-place)
I0904 10:46:36.060708  2814 net.cpp:144] Setting up inception_4e/relu_5x5_reduce
I0904 10:46:36.060737  2814 net.cpp:151] Top shape: 16 32 14 14 (100352)
I0904 10:46:36.060745  2814 net.cpp:159] Memory required for data: 824870096
I0904 10:46:36.060752  2814 layer_factory.hpp:77] Creating layer inception_4e/5x5
I0904 10:46:36.060766  2814 net.cpp:94] Creating Layer inception_4e/5x5
I0904 10:46:36.060775  2814 net.cpp:435] inception_4e/5x5 <- inception_4e/5x5_reduce
I0904 10:46:36.060787  2814 net.cpp:409] inception_4e/5x5 -> inception_4e/5x5
I0904 10:46:36.063247  2814 net.cpp:144] Setting up inception_4e/5x5
I0904 10:46:36.063266  2814 net.cpp:151] Top shape: 16 128 14 14 (401408)
I0904 10:46:36.063277  2814 net.cpp:159] Memory required for data: 826475728
I0904 10:46:36.063293  2814 layer_factory.hpp:77] Creating layer inception_4e/relu_5x5
I0904 10:46:36.063308  2814 net.cpp:94] Creating Layer inception_4e/relu_5x5
I0904 10:46:36.063320  2814 net.cpp:435] inception_4e/relu_5x5 <- inception_4e/5x5
I0904 10:46:36.063333  2814 net.cpp:396] inception_4e/relu_5x5 -> inception_4e/5x5 (in-place)
I0904 10:46:36.063351  2814 net.cpp:144] Setting up inception_4e/relu_5x5
I0904 10:46:36.063365  2814 net.cpp:151] Top shape: 16 128 14 14 (401408)
I0904 10:46:36.063376  2814 net.cpp:159] Memory required for data: 828081360
I0904 10:46:36.063386  2814 layer_factory.hpp:77] Creating layer inception_4e/pool
I0904 10:46:36.063402  2814 net.cpp:94] Creating Layer inception_4e/pool
I0904 10:46:36.063415  2814 net.cpp:435] inception_4e/pool <- inception_4d/output_inception_4d/output_0_split_4
I0904 10:46:36.063432  2814 net.cpp:409] inception_4e/pool -> inception_4e/pool
I0904 10:46:36.063508  2814 net.cpp:144] Setting up inception_4e/pool
I0904 10:46:36.063519  2814 net.cpp:151] Top shape: 16 528 14 14 (1655808)
I0904 10:46:36.063525  2814 net.cpp:159] Memory required for data: 834704592
I0904 10:46:36.063532  2814 layer_factory.hpp:77] Creating layer inception_4e/pool_proj
I0904 10:46:36.063547  2814 net.cpp:94] Creating Layer inception_4e/pool_proj
I0904 10:46:36.063556  2814 net.cpp:435] inception_4e/pool_proj <- inception_4e/pool
I0904 10:46:36.063566  2814 net.cpp:409] inception_4e/pool_proj -> inception_4e/pool_proj
I0904 10:46:36.066172  2814 net.cpp:144] Setting up inception_4e/pool_proj
I0904 10:46:36.066185  2814 net.cpp:151] Top shape: 16 128 14 14 (401408)
I0904 10:46:36.066192  2814 net.cpp:159] Memory required for data: 836310224
I0904 10:46:36.066203  2814 layer_factory.hpp:77] Creating layer inception_4e/relu_pool_proj
I0904 10:46:36.066213  2814 net.cpp:94] Creating Layer inception_4e/relu_pool_proj
I0904 10:46:36.066221  2814 net.cpp:435] inception_4e/relu_pool_proj <- inception_4e/pool_proj
I0904 10:46:36.066231  2814 net.cpp:396] inception_4e/relu_pool_proj -> inception_4e/pool_proj (in-place)
I0904 10:46:36.066242  2814 net.cpp:144] Setting up inception_4e/relu_pool_proj
I0904 10:46:36.066251  2814 net.cpp:151] Top shape: 16 128 14 14 (401408)
I0904 10:46:36.066258  2814 net.cpp:159] Memory required for data: 837915856
I0904 10:46:36.066265  2814 layer_factory.hpp:77] Creating layer inception_4e/output
I0904 10:46:36.066275  2814 net.cpp:94] Creating Layer inception_4e/output
I0904 10:46:36.066283  2814 net.cpp:435] inception_4e/output <- inception_4e/1x1
I0904 10:46:36.066292  2814 net.cpp:435] inception_4e/output <- inception_4e/3x3
I0904 10:46:36.066300  2814 net.cpp:435] inception_4e/output <- inception_4e/5x5
I0904 10:46:36.066308  2814 net.cpp:435] inception_4e/output <- inception_4e/pool_proj
I0904 10:46:36.066319  2814 net.cpp:409] inception_4e/output -> inception_4e/output
I0904 10:46:36.066362  2814 net.cpp:144] Setting up inception_4e/output
I0904 10:46:36.066372  2814 net.cpp:151] Top shape: 16 832 14 14 (2609152)
I0904 10:46:36.066380  2814 net.cpp:159] Memory required for data: 848352464
I0904 10:46:36.066386  2814 layer_factory.hpp:77] Creating layer pool4/3x3_s2
I0904 10:46:36.066396  2814 net.cpp:94] Creating Layer pool4/3x3_s2
I0904 10:46:36.066403  2814 net.cpp:435] pool4/3x3_s2 <- inception_4e/output
I0904 10:46:36.066416  2814 net.cpp:409] pool4/3x3_s2 -> pool4/3x3_s2
I0904 10:46:36.066481  2814 net.cpp:144] Setting up pool4/3x3_s2
I0904 10:46:36.066503  2814 net.cpp:151] Top shape: 16 832 7 7 (652288)
I0904 10:46:36.066509  2814 net.cpp:159] Memory required for data: 850961616
I0904 10:46:36.066516  2814 layer_factory.hpp:77] Creating layer pool4/3x3_s2_pool4/3x3_s2_0_split
I0904 10:46:36.066529  2814 net.cpp:94] Creating Layer pool4/3x3_s2_pool4/3x3_s2_0_split
I0904 10:46:36.066536  2814 net.cpp:435] pool4/3x3_s2_pool4/3x3_s2_0_split <- pool4/3x3_s2
I0904 10:46:36.066545  2814 net.cpp:409] pool4/3x3_s2_pool4/3x3_s2_0_split -> pool4/3x3_s2_pool4/3x3_s2_0_split_0
I0904 10:46:36.066556  2814 net.cpp:409] pool4/3x3_s2_pool4/3x3_s2_0_split -> pool4/3x3_s2_pool4/3x3_s2_0_split_1
I0904 10:46:36.066570  2814 net.cpp:409] pool4/3x3_s2_pool4/3x3_s2_0_split -> pool4/3x3_s2_pool4/3x3_s2_0_split_2
I0904 10:46:36.066581  2814 net.cpp:409] pool4/3x3_s2_pool4/3x3_s2_0_split -> pool4/3x3_s2_pool4/3x3_s2_0_split_3
I0904 10:46:36.066695  2814 net.cpp:144] Setting up pool4/3x3_s2_pool4/3x3_s2_0_split
I0904 10:46:36.066705  2814 net.cpp:151] Top shape: 16 832 7 7 (652288)
I0904 10:46:36.066715  2814 net.cpp:151] Top shape: 16 832 7 7 (652288)
I0904 10:46:36.066722  2814 net.cpp:151] Top shape: 16 832 7 7 (652288)
I0904 10:46:36.066730  2814 net.cpp:151] Top shape: 16 832 7 7 (652288)
I0904 10:46:36.066737  2814 net.cpp:159] Memory required for data: 861398224
I0904 10:46:36.066745  2814 layer_factory.hpp:77] Creating layer inception_5a/1x1
I0904 10:46:36.066758  2814 net.cpp:94] Creating Layer inception_5a/1x1
I0904 10:46:36.066766  2814 net.cpp:435] inception_5a/1x1 <- pool4/3x3_s2_pool4/3x3_s2_0_split_0
I0904 10:46:36.066779  2814 net.cpp:409] inception_5a/1x1 -> inception_5a/1x1
I0904 10:46:36.071698  2814 net.cpp:144] Setting up inception_5a/1x1
I0904 10:46:36.071722  2814 net.cpp:151] Top shape: 16 256 7 7 (200704)
I0904 10:46:36.071734  2814 net.cpp:159] Memory required for data: 862201040
I0904 10:46:36.071753  2814 layer_factory.hpp:77] Creating layer inception_5a/relu_1x1
I0904 10:46:36.071770  2814 net.cpp:94] Creating Layer inception_5a/relu_1x1
I0904 10:46:36.071784  2814 net.cpp:435] inception_5a/relu_1x1 <- inception_5a/1x1
I0904 10:46:36.071799  2814 net.cpp:396] inception_5a/relu_1x1 -> inception_5a/1x1 (in-place)
I0904 10:46:36.071821  2814 net.cpp:144] Setting up inception_5a/relu_1x1
I0904 10:46:36.071830  2814 net.cpp:151] Top shape: 16 256 7 7 (200704)
I0904 10:46:36.071837  2814 net.cpp:159] Memory required for data: 863003856
I0904 10:46:36.071844  2814 layer_factory.hpp:77] Creating layer inception_5a/3x3_reduce
I0904 10:46:36.071858  2814 net.cpp:94] Creating Layer inception_5a/3x3_reduce
I0904 10:46:36.071866  2814 net.cpp:435] inception_5a/3x3_reduce <- pool4/3x3_s2_pool4/3x3_s2_0_split_1
I0904 10:46:36.071879  2814 net.cpp:409] inception_5a/3x3_reduce -> inception_5a/3x3_reduce
I0904 10:46:36.074810  2814 net.cpp:144] Setting up inception_5a/3x3_reduce
I0904 10:46:36.074829  2814 net.cpp:151] Top shape: 16 160 7 7 (125440)
I0904 10:46:36.074841  2814 net.cpp:159] Memory required for data: 863505616
I0904 10:46:36.074856  2814 layer_factory.hpp:77] Creating layer inception_5a/relu_3x3_reduce
I0904 10:46:36.074873  2814 net.cpp:94] Creating Layer inception_5a/relu_3x3_reduce
I0904 10:46:36.074885  2814 net.cpp:435] inception_5a/relu_3x3_reduce <- inception_5a/3x3_reduce
I0904 10:46:36.074899  2814 net.cpp:396] inception_5a/relu_3x3_reduce -> inception_5a/3x3_reduce (in-place)
I0904 10:46:36.074918  2814 net.cpp:144] Setting up inception_5a/relu_3x3_reduce
I0904 10:46:36.074931  2814 net.cpp:151] Top shape: 16 160 7 7 (125440)
I0904 10:46:36.074964  2814 net.cpp:159] Memory required for data: 864007376
I0904 10:46:36.074976  2814 layer_factory.hpp:77] Creating layer inception_5a/3x3
I0904 10:46:36.074995  2814 net.cpp:94] Creating Layer inception_5a/3x3
I0904 10:46:36.075007  2814 net.cpp:435] inception_5a/3x3 <- inception_5a/3x3_reduce
I0904 10:46:36.075027  2814 net.cpp:409] inception_5a/3x3 -> inception_5a/3x3
I0904 10:46:36.082875  2814 net.cpp:144] Setting up inception_5a/3x3
I0904 10:46:36.082926  2814 net.cpp:151] Top shape: 16 320 7 7 (250880)
I0904 10:46:36.082947  2814 net.cpp:159] Memory required for data: 865010896
I0904 10:46:36.082978  2814 layer_factory.hpp:77] Creating layer inception_5a/relu_3x3
I0904 10:46:36.082996  2814 net.cpp:94] Creating Layer inception_5a/relu_3x3
I0904 10:46:36.083009  2814 net.cpp:435] inception_5a/relu_3x3 <- inception_5a/3x3
I0904 10:46:36.083026  2814 net.cpp:396] inception_5a/relu_3x3 -> inception_5a/3x3 (in-place)
I0904 10:46:36.083045  2814 net.cpp:144] Setting up inception_5a/relu_3x3
I0904 10:46:36.083060  2814 net.cpp:151] Top shape: 16 320 7 7 (250880)
I0904 10:46:36.083070  2814 net.cpp:159] Memory required for data: 866014416
I0904 10:46:36.083086  2814 layer_factory.hpp:77] Creating layer inception_5a/5x5_reduce
I0904 10:46:36.083101  2814 net.cpp:94] Creating Layer inception_5a/5x5_reduce
I0904 10:46:36.083109  2814 net.cpp:435] inception_5a/5x5_reduce <- pool4/3x3_s2_pool4/3x3_s2_0_split_2
I0904 10:46:36.083120  2814 net.cpp:409] inception_5a/5x5_reduce -> inception_5a/5x5_reduce
I0904 10:46:36.087541  2814 net.cpp:144] Setting up inception_5a/5x5_reduce
I0904 10:46:36.087569  2814 net.cpp:151] Top shape: 16 32 7 7 (25088)
I0904 10:46:36.087577  2814 net.cpp:159] Memory required for data: 866114768
I0904 10:46:36.087596  2814 layer_factory.hpp:77] Creating layer inception_5a/relu_5x5_reduce
I0904 10:46:36.087610  2814 net.cpp:94] Creating Layer inception_5a/relu_5x5_reduce
I0904 10:46:36.087621  2814 net.cpp:435] inception_5a/relu_5x5_reduce <- inception_5a/5x5_reduce
I0904 10:46:36.087632  2814 net.cpp:396] inception_5a/relu_5x5_reduce -> inception_5a/5x5_reduce (in-place)
I0904 10:46:36.087649  2814 net.cpp:144] Setting up inception_5a/relu_5x5_reduce
I0904 10:46:36.087658  2814 net.cpp:151] Top shape: 16 32 7 7 (25088)
I0904 10:46:36.087666  2814 net.cpp:159] Memory required for data: 866215120
I0904 10:46:36.087673  2814 layer_factory.hpp:77] Creating layer inception_5a/5x5
I0904 10:46:36.087692  2814 net.cpp:94] Creating Layer inception_5a/5x5
I0904 10:46:36.087699  2814 net.cpp:435] inception_5a/5x5 <- inception_5a/5x5_reduce
I0904 10:46:36.087709  2814 net.cpp:409] inception_5a/5x5 -> inception_5a/5x5
I0904 10:46:36.090118  2814 net.cpp:144] Setting up inception_5a/5x5
I0904 10:46:36.090131  2814 net.cpp:151] Top shape: 16 128 7 7 (100352)
I0904 10:46:36.090139  2814 net.cpp:159] Memory required for data: 866616528
I0904 10:46:36.090150  2814 layer_factory.hpp:77] Creating layer inception_5a/relu_5x5
I0904 10:46:36.090160  2814 net.cpp:94] Creating Layer inception_5a/relu_5x5
I0904 10:46:36.090168  2814 net.cpp:435] inception_5a/relu_5x5 <- inception_5a/5x5
I0904 10:46:36.090188  2814 net.cpp:396] inception_5a/relu_5x5 -> inception_5a/5x5 (in-place)
I0904 10:46:36.090200  2814 net.cpp:144] Setting up inception_5a/relu_5x5
I0904 10:46:36.090209  2814 net.cpp:151] Top shape: 16 128 7 7 (100352)
I0904 10:46:36.090216  2814 net.cpp:159] Memory required for data: 867017936
I0904 10:46:36.090224  2814 layer_factory.hpp:77] Creating layer inception_5a/pool
I0904 10:46:36.090237  2814 net.cpp:94] Creating Layer inception_5a/pool
I0904 10:46:36.090247  2814 net.cpp:435] inception_5a/pool <- pool4/3x3_s2_pool4/3x3_s2_0_split_3
I0904 10:46:36.090257  2814 net.cpp:409] inception_5a/pool -> inception_5a/pool
I0904 10:46:36.090360  2814 net.cpp:144] Setting up inception_5a/pool
I0904 10:46:36.090373  2814 net.cpp:151] Top shape: 16 832 7 7 (652288)
I0904 10:46:36.090381  2814 net.cpp:159] Memory required for data: 869627088
I0904 10:46:36.090389  2814 layer_factory.hpp:77] Creating layer inception_5a/pool_proj
I0904 10:46:36.090401  2814 net.cpp:94] Creating Layer inception_5a/pool_proj
I0904 10:46:36.090409  2814 net.cpp:435] inception_5a/pool_proj <- inception_5a/pool
I0904 10:46:36.090422  2814 net.cpp:409] inception_5a/pool_proj -> inception_5a/pool_proj
I0904 10:46:36.094625  2814 net.cpp:144] Setting up inception_5a/pool_proj
I0904 10:46:36.094648  2814 net.cpp:151] Top shape: 16 128 7 7 (100352)
I0904 10:46:36.094655  2814 net.cpp:159] Memory required for data: 870028496
I0904 10:46:36.094686  2814 layer_factory.hpp:77] Creating layer inception_5a/relu_pool_proj
I0904 10:46:36.094702  2814 net.cpp:94] Creating Layer inception_5a/relu_pool_proj
I0904 10:46:36.094712  2814 net.cpp:435] inception_5a/relu_pool_proj <- inception_5a/pool_proj
I0904 10:46:36.094722  2814 net.cpp:396] inception_5a/relu_pool_proj -> inception_5a/pool_proj (in-place)
I0904 10:46:36.094735  2814 net.cpp:144] Setting up inception_5a/relu_pool_proj
I0904 10:46:36.094744  2814 net.cpp:151] Top shape: 16 128 7 7 (100352)
I0904 10:46:36.094751  2814 net.cpp:159] Memory required for data: 870429904
I0904 10:46:36.094758  2814 layer_factory.hpp:77] Creating layer inception_5a/output
I0904 10:46:36.094769  2814 net.cpp:94] Creating Layer inception_5a/output
I0904 10:46:36.094777  2814 net.cpp:435] inception_5a/output <- inception_5a/1x1
I0904 10:46:36.094785  2814 net.cpp:435] inception_5a/output <- inception_5a/3x3
I0904 10:46:36.094794  2814 net.cpp:435] inception_5a/output <- inception_5a/5x5
I0904 10:46:36.094802  2814 net.cpp:435] inception_5a/output <- inception_5a/pool_proj
I0904 10:46:36.094811  2814 net.cpp:409] inception_5a/output -> inception_5a/output
I0904 10:46:36.094866  2814 net.cpp:144] Setting up inception_5a/output
I0904 10:46:36.094876  2814 net.cpp:151] Top shape: 16 832 7 7 (652288)
I0904 10:46:36.094882  2814 net.cpp:159] Memory required for data: 873039056
I0904 10:46:36.094889  2814 layer_factory.hpp:77] Creating layer inception_5a/output_inception_5a/output_0_split
I0904 10:46:36.094899  2814 net.cpp:94] Creating Layer inception_5a/output_inception_5a/output_0_split
I0904 10:46:36.094907  2814 net.cpp:435] inception_5a/output_inception_5a/output_0_split <- inception_5a/output
I0904 10:46:36.094918  2814 net.cpp:409] inception_5a/output_inception_5a/output_0_split -> inception_5a/output_inception_5a/output_0_split_0
I0904 10:46:36.094930  2814 net.cpp:409] inception_5a/output_inception_5a/output_0_split -> inception_5a/output_inception_5a/output_0_split_1
I0904 10:46:36.094952  2814 net.cpp:409] inception_5a/output_inception_5a/output_0_split -> inception_5a/output_inception_5a/output_0_split_2
I0904 10:46:36.094964  2814 net.cpp:409] inception_5a/output_inception_5a/output_0_split -> inception_5a/output_inception_5a/output_0_split_3
I0904 10:46:36.095083  2814 net.cpp:144] Setting up inception_5a/output_inception_5a/output_0_split
I0904 10:46:36.095096  2814 net.cpp:151] Top shape: 16 832 7 7 (652288)
I0904 10:46:36.095104  2814 net.cpp:151] Top shape: 16 832 7 7 (652288)
I0904 10:46:36.095113  2814 net.cpp:151] Top shape: 16 832 7 7 (652288)
I0904 10:46:36.095121  2814 net.cpp:151] Top shape: 16 832 7 7 (652288)
I0904 10:46:36.095129  2814 net.cpp:159] Memory required for data: 883475664
I0904 10:46:36.095135  2814 layer_factory.hpp:77] Creating layer inception_5b/1x1
I0904 10:46:36.095150  2814 net.cpp:94] Creating Layer inception_5b/1x1
I0904 10:46:36.095158  2814 net.cpp:435] inception_5b/1x1 <- inception_5a/output_inception_5a/output_0_split_0
I0904 10:46:36.095170  2814 net.cpp:409] inception_5b/1x1 -> inception_5b/1x1
I0904 10:46:36.100867  2814 net.cpp:144] Setting up inception_5b/1x1
I0904 10:46:36.100883  2814 net.cpp:151] Top shape: 16 384 7 7 (301056)
I0904 10:46:36.100891  2814 net.cpp:159] Memory required for data: 884679888
I0904 10:46:36.100903  2814 layer_factory.hpp:77] Creating layer inception_5b/relu_1x1
I0904 10:46:36.100914  2814 net.cpp:94] Creating Layer inception_5b/relu_1x1
I0904 10:46:36.100924  2814 net.cpp:435] inception_5b/relu_1x1 <- inception_5b/1x1
I0904 10:46:36.100932  2814 net.cpp:396] inception_5b/relu_1x1 -> inception_5b/1x1 (in-place)
I0904 10:46:36.100945  2814 net.cpp:144] Setting up inception_5b/relu_1x1
I0904 10:46:36.100955  2814 net.cpp:151] Top shape: 16 384 7 7 (301056)
I0904 10:46:36.100961  2814 net.cpp:159] Memory required for data: 885884112
I0904 10:46:36.100968  2814 layer_factory.hpp:77] Creating layer inception_5b/3x3_reduce
I0904 10:46:36.100983  2814 net.cpp:94] Creating Layer inception_5b/3x3_reduce
I0904 10:46:36.100991  2814 net.cpp:435] inception_5b/3x3_reduce <- inception_5a/output_inception_5a/output_0_split_1
I0904 10:46:36.101018  2814 net.cpp:409] inception_5b/3x3_reduce -> inception_5b/3x3_reduce
I0904 10:46:36.106225  2814 net.cpp:144] Setting up inception_5b/3x3_reduce
I0904 10:46:36.106251  2814 net.cpp:151] Top shape: 16 192 7 7 (150528)
I0904 10:46:36.106259  2814 net.cpp:159] Memory required for data: 886486224
I0904 10:46:36.106276  2814 layer_factory.hpp:77] Creating layer inception_5b/relu_3x3_reduce
I0904 10:46:36.106289  2814 net.cpp:94] Creating Layer inception_5b/relu_3x3_reduce
I0904 10:46:36.106299  2814 net.cpp:435] inception_5b/relu_3x3_reduce <- inception_5b/3x3_reduce
I0904 10:46:36.106312  2814 net.cpp:396] inception_5b/relu_3x3_reduce -> inception_5b/3x3_reduce (in-place)
I0904 10:46:36.106328  2814 net.cpp:144] Setting up inception_5b/relu_3x3_reduce
I0904 10:46:36.106338  2814 net.cpp:151] Top shape: 16 192 7 7 (150528)
I0904 10:46:36.106344  2814 net.cpp:159] Memory required for data: 887088336
I0904 10:46:36.106351  2814 layer_factory.hpp:77] Creating layer inception_5b/3x3
I0904 10:46:36.106369  2814 net.cpp:94] Creating Layer inception_5b/3x3
I0904 10:46:36.106377  2814 net.cpp:435] inception_5b/3x3 <- inception_5b/3x3_reduce
I0904 10:46:36.106387  2814 net.cpp:409] inception_5b/3x3 -> inception_5b/3x3
I0904 10:46:36.116528  2814 net.cpp:144] Setting up inception_5b/3x3
I0904 10:46:36.116557  2814 net.cpp:151] Top shape: 16 384 7 7 (301056)
I0904 10:46:36.116569  2814 net.cpp:159] Memory required for data: 888292560
I0904 10:46:36.116588  2814 layer_factory.hpp:77] Creating layer inception_5b/relu_3x3
I0904 10:46:36.116606  2814 net.cpp:94] Creating Layer inception_5b/relu_3x3
I0904 10:46:36.116624  2814 net.cpp:435] inception_5b/relu_3x3 <- inception_5b/3x3
I0904 10:46:36.116636  2814 net.cpp:396] inception_5b/relu_3x3 -> inception_5b/3x3 (in-place)
I0904 10:46:36.116650  2814 net.cpp:144] Setting up inception_5b/relu_3x3
I0904 10:46:36.116659  2814 net.cpp:151] Top shape: 16 384 7 7 (301056)
I0904 10:46:36.116667  2814 net.cpp:159] Memory required for data: 889496784
I0904 10:46:36.116673  2814 layer_factory.hpp:77] Creating layer inception_5b/5x5_reduce
I0904 10:46:36.116689  2814 net.cpp:94] Creating Layer inception_5b/5x5_reduce
I0904 10:46:36.116698  2814 net.cpp:435] inception_5b/5x5_reduce <- inception_5a/output_inception_5a/output_0_split_2
I0904 10:46:36.116709  2814 net.cpp:409] inception_5b/5x5_reduce -> inception_5b/5x5_reduce
I0904 10:46:36.119071  2814 net.cpp:144] Setting up inception_5b/5x5_reduce
I0904 10:46:36.119096  2814 net.cpp:151] Top shape: 16 48 7 7 (37632)
I0904 10:46:36.119107  2814 net.cpp:159] Memory required for data: 889647312
I0904 10:46:36.119124  2814 layer_factory.hpp:77] Creating layer inception_5b/relu_5x5_reduce
I0904 10:46:36.119140  2814 net.cpp:94] Creating Layer inception_5b/relu_5x5_reduce
I0904 10:46:36.119153  2814 net.cpp:435] inception_5b/relu_5x5_reduce <- inception_5b/5x5_reduce
I0904 10:46:36.119168  2814 net.cpp:396] inception_5b/relu_5x5_reduce -> inception_5b/5x5_reduce (in-place)
I0904 10:46:36.119187  2814 net.cpp:144] Setting up inception_5b/relu_5x5_reduce
I0904 10:46:36.119201  2814 net.cpp:151] Top shape: 16 48 7 7 (37632)
I0904 10:46:36.119212  2814 net.cpp:159] Memory required for data: 889797840
I0904 10:46:36.119223  2814 layer_factory.hpp:77] Creating layer inception_5b/5x5
I0904 10:46:36.119248  2814 net.cpp:94] Creating Layer inception_5b/5x5
I0904 10:46:36.119261  2814 net.cpp:435] inception_5b/5x5 <- inception_5b/5x5_reduce
I0904 10:46:36.119277  2814 net.cpp:409] inception_5b/5x5 -> inception_5b/5x5
I0904 10:46:36.123795  2814 net.cpp:144] Setting up inception_5b/5x5
I0904 10:46:36.123833  2814 net.cpp:151] Top shape: 16 128 7 7 (100352)
I0904 10:46:36.123842  2814 net.cpp:159] Memory required for data: 890199248
I0904 10:46:36.123859  2814 layer_factory.hpp:77] Creating layer inception_5b/relu_5x5
I0904 10:46:36.123874  2814 net.cpp:94] Creating Layer inception_5b/relu_5x5
I0904 10:46:36.123888  2814 net.cpp:435] inception_5b/relu_5x5 <- inception_5b/5x5
I0904 10:46:36.123936  2814 net.cpp:396] inception_5b/relu_5x5 -> inception_5b/5x5 (in-place)
I0904 10:46:36.123955  2814 net.cpp:144] Setting up inception_5b/relu_5x5
I0904 10:46:36.123965  2814 net.cpp:151] Top shape: 16 128 7 7 (100352)
I0904 10:46:36.123972  2814 net.cpp:159] Memory required for data: 890600656
I0904 10:46:36.123980  2814 layer_factory.hpp:77] Creating layer inception_5b/pool
I0904 10:46:36.123994  2814 net.cpp:94] Creating Layer inception_5b/pool
I0904 10:46:36.124003  2814 net.cpp:435] inception_5b/pool <- inception_5a/output_inception_5a/output_0_split_3
I0904 10:46:36.124017  2814 net.cpp:409] inception_5b/pool -> inception_5b/pool
I0904 10:46:36.124174  2814 net.cpp:144] Setting up inception_5b/pool
I0904 10:46:36.124187  2814 net.cpp:151] Top shape: 16 832 7 7 (652288)
I0904 10:46:36.124196  2814 net.cpp:159] Memory required for data: 893209808
I0904 10:46:36.124203  2814 layer_factory.hpp:77] Creating layer inception_5b/pool_proj
I0904 10:46:36.125617  2814 net.cpp:94] Creating Layer inception_5b/pool_proj
I0904 10:46:36.125643  2814 net.cpp:435] inception_5b/pool_proj <- inception_5b/pool
I0904 10:46:36.125656  2814 net.cpp:409] inception_5b/pool_proj -> inception_5b/pool_proj
I0904 10:46:36.128931  2814 net.cpp:144] Setting up inception_5b/pool_proj
I0904 10:46:36.128955  2814 net.cpp:151] Top shape: 16 128 7 7 (100352)
I0904 10:46:36.128963  2814 net.cpp:159] Memory required for data: 893611216
I0904 10:46:36.128978  2814 layer_factory.hpp:77] Creating layer inception_5b/relu_pool_proj
I0904 10:46:36.128991  2814 net.cpp:94] Creating Layer inception_5b/relu_pool_proj
I0904 10:46:36.129001  2814 net.cpp:435] inception_5b/relu_pool_proj <- inception_5b/pool_proj
I0904 10:46:36.129014  2814 net.cpp:396] inception_5b/relu_pool_proj -> inception_5b/pool_proj (in-place)
I0904 10:46:36.129029  2814 net.cpp:144] Setting up inception_5b/relu_pool_proj
I0904 10:46:36.129037  2814 net.cpp:151] Top shape: 16 128 7 7 (100352)
I0904 10:46:36.129045  2814 net.cpp:159] Memory required for data: 894012624
I0904 10:46:36.129051  2814 layer_factory.hpp:77] Creating layer inception_5b/output
I0904 10:46:36.129062  2814 net.cpp:94] Creating Layer inception_5b/output
I0904 10:46:36.129070  2814 net.cpp:435] inception_5b/output <- inception_5b/1x1
I0904 10:46:36.129078  2814 net.cpp:435] inception_5b/output <- inception_5b/3x3
I0904 10:46:36.129087  2814 net.cpp:435] inception_5b/output <- inception_5b/5x5
I0904 10:46:36.129096  2814 net.cpp:435] inception_5b/output <- inception_5b/pool_proj
I0904 10:46:36.129107  2814 net.cpp:409] inception_5b/output -> inception_5b/output
I0904 10:46:36.129173  2814 net.cpp:144] Setting up inception_5b/output
I0904 10:46:36.129182  2814 net.cpp:151] Top shape: 16 1024 7 7 (802816)
I0904 10:46:36.129189  2814 net.cpp:159] Memory required for data: 897223888
I0904 10:46:36.129196  2814 layer_factory.hpp:77] Creating layer pool5/7x7_s1
I0904 10:46:36.129209  2814 net.cpp:94] Creating Layer pool5/7x7_s1
I0904 10:46:36.129217  2814 net.cpp:435] pool5/7x7_s1 <- inception_5b/output
I0904 10:46:36.129228  2814 net.cpp:409] pool5/7x7_s1 -> pool5/7x7_s1
I0904 10:46:36.129276  2814 net.cpp:144] Setting up pool5/7x7_s1
I0904 10:46:36.129286  2814 net.cpp:151] Top shape: 16 1024 1 1 (16384)
I0904 10:46:36.129292  2814 net.cpp:159] Memory required for data: 897289424
I0904 10:46:36.129299  2814 layer_factory.hpp:77] Creating layer pool5/drop_7x7_s1
I0904 10:46:36.129312  2814 net.cpp:94] Creating Layer pool5/drop_7x7_s1
I0904 10:46:36.129319  2814 net.cpp:435] pool5/drop_7x7_s1 <- pool5/7x7_s1
I0904 10:46:36.129328  2814 net.cpp:396] pool5/drop_7x7_s1 -> pool5/7x7_s1 (in-place)
I0904 10:46:36.129370  2814 net.cpp:144] Setting up pool5/drop_7x7_s1
I0904 10:46:36.129380  2814 net.cpp:151] Top shape: 16 1024 1 1 (16384)
I0904 10:46:36.129387  2814 net.cpp:159] Memory required for data: 897354960
I0904 10:46:36.129395  2814 layer_factory.hpp:77] Creating layer loss3/classifier
I0904 10:46:36.129406  2814 net.cpp:94] Creating Layer loss3/classifier
I0904 10:46:36.129413  2814 net.cpp:435] loss3/classifier <- pool5/7x7_s1
I0904 10:46:36.129451  2814 net.cpp:409] loss3/classifier -> loss3/classifier
I0904 10:46:36.129694  2814 net.cpp:144] Setting up loss3/classifier
I0904 10:46:36.129705  2814 net.cpp:151] Top shape: 16 2 (32)
I0904 10:46:36.129711  2814 net.cpp:159] Memory required for data: 897355088
I0904 10:46:36.129722  2814 layer_factory.hpp:77] Creating layer loss3/classifier_loss3/classifier_0_split
I0904 10:46:36.129732  2814 net.cpp:94] Creating Layer loss3/classifier_loss3/classifier_0_split
I0904 10:46:36.129740  2814 net.cpp:435] loss3/classifier_loss3/classifier_0_split <- loss3/classifier
I0904 10:46:36.129750  2814 net.cpp:409] loss3/classifier_loss3/classifier_0_split -> loss3/classifier_loss3/classifier_0_split_0
I0904 10:46:36.129760  2814 net.cpp:409] loss3/classifier_loss3/classifier_0_split -> loss3/classifier_loss3/classifier_0_split_1
I0904 10:46:36.129832  2814 net.cpp:144] Setting up loss3/classifier_loss3/classifier_0_split
I0904 10:46:36.129842  2814 net.cpp:151] Top shape: 16 2 (32)
I0904 10:46:36.129849  2814 net.cpp:151] Top shape: 16 2 (32)
I0904 10:46:36.129856  2814 net.cpp:159] Memory required for data: 897355344
I0904 10:46:36.129863  2814 layer_factory.hpp:77] Creating layer loss3/loss
I0904 10:46:36.129873  2814 net.cpp:94] Creating Layer loss3/loss
I0904 10:46:36.129880  2814 net.cpp:435] loss3/loss <- loss3/classifier_loss3/classifier_0_split_0
I0904 10:46:36.129889  2814 net.cpp:435] loss3/loss <- label_val-data_1_split_4
…
