…
I0917 11:19:34.603648  3359 net.cpp:323] The NetState phase (0) differed from the phase (1) specified by a rule in layer accuracy
I0917 11:19:34.604104  3359 net.cpp:52] Initializing net from parameters:
state {
phase: TRAIN
}
layer {
name: "train-data"
type: "Data"
top: "data"
top: "label"
include {
phase: TRAIN
}
transform_param {
mirror: true
crop_size: 227
mean_file: "/media/myuser/120Gb/DIGITS/digits/jobs/20160904-002550-f9dd/mean.binaryproto"
}
data_param {
source: "/media/myuser/120Gb/DIGITS/digits/jobs/20160904-002550-f9dd/train_db"
batch_size: 64
backend: LMDB
}
}
layer {
name: "conv1"
type: "Convolution"
bottom: "data"
top: "conv1"
convolution_param {
num_output: 64
kernel_size: 3
stride: 2
weight_filler {
type: "xavier"
}
}
}
layer {
name: "relu_conv1"
type: "ReLU"
bottom: "conv1"
top: "conv1"
}
layer {
name: "pool1"
type: "Pooling"
bottom: "conv1"
top: "pool1"
pooling_param {
pool: MAX
kernel_size: 3
stride: 2
}
}
layer {
name: "fire2/squeeze1x1"
type: "Convolution"
bottom: "pool1"
top: "fire2/squeeze1x1"
convolution_param {
num_output: 16
kernel_size: 1
weight_filler {
type: "xavier"
}
}
}
layer {
name: "fire2/relu_squeeze1x1"
type: "ReLU"
bottom: "fire2/squeeze1x1"
top: "fire2/squeeze1x1"
}
layer {
name: "fire2/expand1x1"
type: "Convolution"
bottom: "fire2/squeeze1x1"
top: "fire2/expand1x1"
convolution_param {
num_output: 64
kernel_size: 1
weight_filler {
type: "xavier"
}
}
}
layer {
name: "fire2/relu_expand1x1"
type: "ReLU"
bottom: "fire2/expand1x1"
top: "fire2/expand1x1"
}
layer {
name: "fire2/expand3x3"
type: "Convolution"
bottom: "fire2/squeeze1x1"
top: "fire2/expand3x3"
convolution_param {
num_output: 64
pad: 1
kernel_size: 3
weight_filler {
type: "xavier"
}
}
}
layer {
name: "fire2/relu_expand3x3"
type: "ReLU"
bottom: "fire2/expand3x3"
top: "fire2/expand3x3"
}
layer {
name: "fire2/concat"
type: "Concat"
bottom: "fire2/expand1x1"
bottom: "fire2/expand3x3"
top: "fire2/concat"
}
layer {
name: "fire3/squeeze1x1"
type: "Convolution"
bottom: "fire2/concat"
top: "fire3/squeeze1x1"
convolution_param {
num_output: 16
kernel_size: 1
weight_filler {
type: "xavier"
}
}
}
layer {
name: "fire3/relu_squeeze1x1"
type: "ReLU"
bottom: "fire3/squeeze1x1"
top: "fire3/squeeze1x1"
}
layer {
name: "fire3/expand1x1"
type: "Convolution"
bottom: "fire3/squeeze1x1"
top: "fire3/expand1x1"
convolution_param {
num_output: 64
kernel_size: 1
weight_filler {
type: "xavier"
}
}
}
layer {
name: "fire3/relu_expand1x1"
type: "ReLU"
bottom: "fire3/expand1x1"
top: "fire3/expand1x1"
}
layer {
name: "fire3/expand3x3"
type: "Convolution"
bottom: "fire3/squeeze1x1"
top: "fire3/expand3x3"
convolution_param {
num_output: 64
pad: 1
kernel_size: 3
weight_filler {
type: "xavier"
}
}
}
layer {
name: "fire3/relu_expand3x3"
type: "ReLU"
bottom: "fire3/expand3x3"
top: "fire3/expand3x3"
}
layer {
name: "fire3/concat"
type: "Concat"
bottom: "fire3/expand1x1"
bottom: "fire3/expand3x3"
top: "fire3/concat"
}
layer {
name: "pool3"
type: "Pooling"
bottom: "fire3/concat"
top: "pool3"
pooling_param {
pool: MAX
kernel_size: 3
stride: 2
}
}
layer {
name: "fire4/squeeze1x1"
type: "Convolution"
bottom: "pool3"
top: "fire4/squeeze1x1"
convolution_param {
num_output: 32
kernel_size: 1
weight_filler {
type: "xavier"
}
}
}
layer {
name: "fire4/relu_squeeze1x1"
type: "ReLU"
bottom: "fire4/squeeze1x1"
top: "fire4/squeeze1x1"
}
layer {
name: "fire4/expand1x1"
type: "Convolution"
bottom: "fire4/squeeze1x1"
top: "fire4/expand1x1"
convolution_param {
num_output: 128
kernel_size: 1
weight_filler {
type: "xavier"
}
}
}
layer {
name: "fire4/relu_expand1x1"
type: "ReLU"
bottom: "fire4/expand1x1"
top: "fire4/expand1x1"
}
layer {
name: "fire4/expand3x3"
type: "Convolution"
bottom: "fire4/squeeze1x1"
top: "fire4/expand3x3"
convolution_param {
num_output: 128
pad: 1
kernel_size: 3
weight_filler {
type: "xavier"
}
}
}
layer {
name: "fire4/relu_expand3x3"
type: "ReLU"
bottom: "fire4/expand3x3"
top: "fire4/expand3x3"
}
layer {
name: "fire4/concat"
type: "Concat"
bottom: "fire4/expand1x1"
bottom: "fire4/expand3x3"
top: "fire4/concat"
}
layer {
name: "fire5/squeeze1x1"
type: "Convolution"
bottom: "fire4/concat"
top: "fire5/squeeze1x1"
convolution_param {
num_output: 32
kernel_size: 1
weight_filler {
type: "xavier"
}
}
}
layer {
name: "fire5/relu_squeeze1x1"
type: "ReLU"
bottom: "fire5/squeeze1x1"
top: "fire5/squeeze1x1"
}
layer {
name: "fire5/expand1x1"
type: "Convolution"
bottom: "fire5/squeeze1x1"
top: "fire5/expand1x1"
convolution_param {
num_output: 128
kernel_size: 1
weight_filler {
type: "xavier"
}
}
}
layer {
name: "fire5/relu_expand1x1"
type: "ReLU"
bottom: "fire5/expand1x1"
top: "fire5/expand1x1"
}
layer {
name: "fire5/expand3x3"
type: "Convolution"
bottom: "fire5/squeeze1x1"
top: "fire5/expand3x3"
convolution_param {
num_output: 128
pad: 1
kernel_size: 3
weight_filler {
type: "xavier"
}
}
}
layer {
name: "fire5/relu_expand3x3"
type: "ReLU"
bottom: "fire5/expand3x3"
top: "fire5/expand3x3"
}
layer {
name: "fire5/concat"
type: "Concat"
bottom: "fire5/expand1x1"
bottom: "fire5/expand3x3"
top: "fire5/concat"
}
layer {
name: "pool5"
type: "Pooling"
bottom: "fire5/concat"
top: "pool5"
pooling_param {
pool: MAX
kernel_size: 3
stride: 2
}
}
layer {
name: "fire6/squeeze1x1"
type: "Convolution"
bottom: "pool5"
top: "fire6/squeeze1x1"
convolution_param {
num_output: 48
kernel_size: 1
weight_filler {
type: "xavier"
}
}
}
layer {
name: "fire6/relu_squeeze1x1"
type: "ReLU"
bottom: "fire6/squeeze1x1"
top: "fire6/squeeze1x1"
}
layer {
name: "fire6/expand1x1"
type: "Convolution"
bottom: "fire6/squeeze1x1"
top: "fire6/expand1x1"
convolution_param {
num_output: 192
kernel_size: 1
weight_filler {
type: "xavier"
}
}
}
layer {
name: "fire6/relu_expand1x1"
type: "ReLU"
bottom: "fire6/expand1x1"
top: "fire6/expand1x1"
}
layer {
name: "fire6/expand3x3"
type: "Convolution"
bottom: "fire6/squeeze1x1"
top: "fire6/expand3x3"
convolution_param {
num_output: 192
pad: 1
kernel_size: 3
weight_filler {
type: "xavier"
}
}
}
layer {
name: "fire6/relu_expand3x3"
type: "ReLU"
bottom: "fire6/expand3x3"
top: "fire6/expand3x3"
}
layer {
name: "fire6/concat"
type: "Concat"
bottom: "fire6/expand1x1"
bottom: "fire6/expand3x3"
top: "fire6/concat"
}
layer {
name: "fire7/squeeze1x1"
type: "Convolution"
bottom: "fire6/concat"
top: "fire7/squeeze1x1"
convolution_param {
num_output: 48
kernel_size: 1
weight_filler {
type: "xavier"
}
}
}
layer {
name: "fire7/relu_squeeze1x1"
type: "ReLU"
bottom: "fire7/squeeze1x1"
top: "fire7/squeeze1x1"
}
layer {
name: "fire7/expand1x1"
type: "Convolution"
bottom: "fire7/squeeze1x1"
top: "fire7/expand1x1"
convolution_param {
num_output: 192
kernel_size: 1
weight_filler {
type: "xavier"
}
}
}
layer {
name: "fire7/relu_expand1x1"
type: "ReLU"
bottom: "fire7/expand1x1"
top: "fire7/expand1x1"
}
layer {
name: "fire7/expand3x3"
type: "Convolution"
bottom: "fire7/squeeze1x1"
top: "fire7/expand3x3"
convolution_param {
num_output: 192
pad: 1
kernel_size: 3
weight_filler {
type: "xavier"
}
}
}
layer {
name: "fire7/relu_expand3x3"
type: "ReLU"
bottom: "fire7/expand3x3"
top: "fire7/expand3x3"
}
layer {
name: "fire7/concat"
type: "Concat"
bottom: "fire7/expand1x1"
bottom: "fire7/expand3x3"
top: "fire7/concat"
}
layer {
name: "fire8/squeeze1x1"
type: "Convolution"
bottom: "fire7/concat"
top: "fire8/squeeze1x1"
convolution_param {
num_output: 64
kernel_size: 1
weight_filler {
type: "xavier"
}
}
}
layer {
name: "fire8/relu_squeeze1x1"
type: "ReLU"
bottom: "fire8/squeeze1x1"
top: "fire8/squeeze1x1"
}
layer {
name: "fire8/expand1x1"
type: "Convolution"
bottom: "fire8/squeeze1x1"
top: "fire8/expand1x1"
convolution_param {
num_output: 256
kernel_size: 1
weight_filler {
type: "xavier"
}
}
}
layer {
name: "fire8/relu_expand1x1"
type: "ReLU"
bottom: "fire8/expand1x1"
top: "fire8/expand1x1"
}
layer {
name: "fire8/expand3x3"
type: "Convolution"
bottom: "fire8/squeeze1x1"
top: "fire8/expand3x3"
convolution_param {
num_output: 256
pad: 1
kernel_size: 3
weight_filler {
type: "xavier"
}
}
}
layer {
name: "fire8/relu_expand3x3"
type: "ReLU"
bottom: "fire8/expand3x3"
top: "fire8/expand3x3"
}
layer {
name: "fire8/concat"
type: "Concat"
bottom: "fire8/expand1x1"
bottom: "fire8/expand3x3"
top: "fire8/concat"
}
layer {
name: "fire9/squeeze1x1"
type: "Convolution"
bottom: "fire8/concat"
top: "fire9/squeeze1x1"
convolution_param {
num_output: 64
kernel_size: 1
weight_filler {
type: "xavier"
}
}
}
layer {
name: "fire9/relu_squeeze1x1"
type: "ReLU"
bottom: "fire9/squeeze1x1"
top: "fire9/squeeze1x1"
}
layer {
name: "fire9/expand1x1"
type: "Convolution"
bottom: "fire9/squeeze1x1"
top: "fire9/expand1x1"
convolution_param {
num_output: 256
kernel_size: 1
weight_filler {
type: "xavier"
}
}
}
layer {
name: "fire9/relu_expand1x1"
type: "ReLU"
bottom: "fire9/expand1x1"
top: "fire9/expand1x1"
}
layer {
name: "fire9/expand3x3"
type: "Convolution"
bottom: "fire9/squeeze1x1"
top: "fire9/expand3x3"
convolution_param {
num_output: 256
pad: 1
kernel_size: 3
weight_filler {
type: "xavier"
}
}
}
layer {
name: "fire9/relu_expand3x3"
type: "ReLU"
bottom: "fire9/expand3x3"
top: "fire9/expand3x3"
}
layer {
name: "fire9/concat"
type: "Concat"
bottom: "fire9/expand1x1"
bottom: "fire9/expand3x3"
top: "fire9/concat"
}
layer {
name: "drop9"
type: "Dropout"
bottom: "fire9/concat"
top: "fire9/concat"
dropout_param {
dropout_ratio: 0.5
}
}
layer {
name: "conv10"
type: "Convolution"
bottom: "fire9/concat"
top: "conv10"
convolution_param {
num_output: 2
kernel_size: 1
weight_filler {
type: "gaussian"
mean: 0
std: 0.01
}
}
}
layer {
name: "relu_conv10"
type: "ReLU"
bottom: "conv10"
top: "conv10"
}
layer {
name: "pool10"
type: "Pooling"
bottom: "conv10"
top: "pool10"
pooling_param {
pool: AVE
global_pooling: true
}
}
layer {
name: "loss"
type: "SoftmaxWithLoss"
bottom: "pool10"
bottom: "label"
top: "loss"
}
I0917 11:19:34.604598  3359 layer_factory.hpp:77] Creating layer train-data
I0917 11:19:34.605841  3359 net.cpp:94] Creating Layer train-data
I0917 11:19:34.605868  3359 net.cpp:409] train-data -> data
I0917 11:19:34.605929  3359 net.cpp:409] train-data -> label
I0917 11:19:34.605957  3359 data_transformer.cpp:25] Loading mean file from: /media/myuser/120Gb/DIGITS/digits/jobs/20160904-002550-f9dd/mean.binaryproto
I0917 11:19:34.607086  3365 db_lmdb.cpp:35] Opened lmdb /media/myuser/120Gb/DIGITS/digits/jobs/20160904-002550-f9dd/train_db
I0917 11:19:34.618947  3359 data_layer.cpp:76] output data size: 64,3,227,227
I0917 11:19:34.757387  3359 net.cpp:144] Setting up train-data
I0917 11:19:34.757428  3359 net.cpp:151] Top shape: 64 3 227 227 (9893568)
I0917 11:19:34.757439  3359 net.cpp:151] Top shape: 64 (64)
I0917 11:19:34.757447  3359 net.cpp:159] Memory required for data: 39574528
I0917 11:19:34.757465  3359 layer_factory.hpp:77] Creating layer conv1
I0917 11:19:34.757494  3359 net.cpp:94] Creating Layer conv1
I0917 11:19:34.757504  3359 net.cpp:435] conv1 <- data
I0917 11:19:34.757524  3359 net.cpp:409] conv1 -> conv1
I0917 11:19:34.960229  3359 net.cpp:144] Setting up conv1
I0917 11:19:34.960274  3359 net.cpp:151] Top shape: 64 64 113 113 (52301824)
I0917 11:19:34.960283  3359 net.cpp:159] Memory required for data: 248781824
I0917 11:19:34.960312  3359 layer_factory.hpp:77] Creating layer relu_conv1
I0917 11:19:34.960335  3359 net.cpp:94] Creating Layer relu_conv1
I0917 11:19:34.960345  3359 net.cpp:435] relu_conv1 <- conv1
I0917 11:19:34.960356  3359 net.cpp:396] relu_conv1 -> conv1 (in-place)
I0917 11:19:34.960397  3359 net.cpp:144] Setting up relu_conv1
I0917 11:19:34.960407  3359 net.cpp:151] Top shape: 64 64 113 113 (52301824)
I0917 11:19:34.960415  3359 net.cpp:159] Memory required for data: 457989120
I0917 11:19:34.960423  3359 layer_factory.hpp:77] Creating layer pool1
I0917 11:19:34.960439  3359 net.cpp:94] Creating Layer pool1
I0917 11:19:34.960448  3359 net.cpp:435] pool1 <- conv1
I0917 11:19:34.960458  3359 net.cpp:409] pool1 -> pool1
I0917 11:19:34.960595  3359 net.cpp:144] Setting up pool1
I0917 11:19:34.960607  3359 net.cpp:151] Top shape: 64 64 56 56 (12845056)
I0917 11:19:34.960615  3359 net.cpp:159] Memory required for data: 509369344
I0917 11:19:34.960623  3359 layer_factory.hpp:77] Creating layer fire2/squeeze1x1
I0917 11:19:34.960644  3359 net.cpp:94] Creating Layer fire2/squeeze1x1
I0917 11:19:34.960654  3359 net.cpp:435] fire2/squeeze1x1 <- pool1
I0917 11:19:34.960664  3359 net.cpp:409] fire2/squeeze1x1 -> fire2/squeeze1x1
I0917 11:19:34.989616  3359 net.cpp:144] Setting up fire2/squeeze1x1
I0917 11:19:34.989662  3359 net.cpp:151] Top shape: 64 16 56 56 (3211264)
I0917 11:19:34.989670  3359 net.cpp:159] Memory required for data: 522214400
I0917 11:19:34.989689  3359 layer_factory.hpp:77] Creating layer fire2/relu_squeeze1x1
I0917 11:19:34.989704  3359 net.cpp:94] Creating Layer fire2/relu_squeeze1x1
I0917 11:19:34.989712  3359 net.cpp:435] fire2/relu_squeeze1x1 <- fire2/squeeze1x1
I0917 11:19:34.989722  3359 net.cpp:396] fire2/relu_squeeze1x1 -> fire2/squeeze1x1 (in-place)
I0917 11:19:34.989738  3359 net.cpp:144] Setting up fire2/relu_squeeze1x1
I0917 11:19:34.989748  3359 net.cpp:151] Top shape: 64 16 56 56 (3211264)
I0917 11:19:34.989754  3359 net.cpp:159] Memory required for data: 535059456
I0917 11:19:34.989760  3359 layer_factory.hpp:77] Creating layer fire2/squeeze1x1_fire2/relu_squeeze1x1_0_split
I0917 11:19:34.989776  3359 net.cpp:94] Creating Layer fire2/squeeze1x1_fire2/relu_squeeze1x1_0_split
I0917 11:19:34.989784  3359 net.cpp:435] fire2/squeeze1x1_fire2/relu_squeeze1x1_0_split <- fire2/squeeze1x1
I0917 11:19:34.989794  3359 net.cpp:409] fire2/squeeze1x1_fire2/relu_squeeze1x1_0_split -> fire2/squeeze1x1_fire2/relu_squeeze1x1_0_split_0
I0917 11:19:34.989805  3359 net.cpp:409] fire2/squeeze1x1_fire2/relu_squeeze1x1_0_split -> fire2/squeeze1x1_fire2/relu_squeeze1x1_0_split_1
I0917 11:19:34.989881  3359 net.cpp:144] Setting up fire2/squeeze1x1_fire2/relu_squeeze1x1_0_split
I0917 11:19:34.989892  3359 net.cpp:151] Top shape: 64 16 56 56 (3211264)
I0917 11:19:34.989902  3359 net.cpp:151] Top shape: 64 16 56 56 (3211264)
I0917 11:19:34.989908  3359 net.cpp:159] Memory required for data: 560749568
I0917 11:19:34.989943  3359 layer_factory.hpp:77] Creating layer fire2/expand1x1
I0917 11:19:34.989959  3359 net.cpp:94] Creating Layer fire2/expand1x1
I0917 11:19:34.989966  3359 net.cpp:435] fire2/expand1x1 <- fire2/squeeze1x1_fire2/relu_squeeze1x1_0_split_0
I0917 11:19:34.989976  3359 net.cpp:409] fire2/expand1x1 -> fire2/expand1x1
I0917 11:19:35.000208  3359 net.cpp:144] Setting up fire2/expand1x1
I0917 11:19:35.000241  3359 net.cpp:151] Top shape: 64 64 56 56 (12845056)
I0917 11:19:35.000248  3359 net.cpp:159] Memory required for data: 612129792
I0917 11:19:35.000268  3359 layer_factory.hpp:77] Creating layer fire2/relu_expand1x1
I0917 11:19:35.000285  3359 net.cpp:94] Creating Layer fire2/relu_expand1x1
I0917 11:19:35.000294  3359 net.cpp:435] fire2/relu_expand1x1 <- fire2/expand1x1
I0917 11:19:35.000305  3359 net.cpp:396] fire2/relu_expand1x1 -> fire2/expand1x1 (in-place)
I0917 11:19:35.000320  3359 net.cpp:144] Setting up fire2/relu_expand1x1
I0917 11:19:35.000329  3359 net.cpp:151] Top shape: 64 64 56 56 (12845056)
I0917 11:19:35.000336  3359 net.cpp:159] Memory required for data: 663510016
I0917 11:19:35.000344  3359 layer_factory.hpp:77] Creating layer fire2/expand3x3
I0917 11:19:35.000358  3359 net.cpp:94] Creating Layer fire2/expand3x3
I0917 11:19:35.000366  3359 net.cpp:435] fire2/expand3x3 <- fire2/squeeze1x1_fire2/relu_squeeze1x1_0_split_1
I0917 11:19:35.000376  3359 net.cpp:409] fire2/expand3x3 -> fire2/expand3x3
I0917 11:19:35.024780  3359 net.cpp:144] Setting up fire2/expand3x3
I0917 11:19:35.024812  3359 net.cpp:151] Top shape: 64 64 56 56 (12845056)
I0917 11:19:35.024821  3359 net.cpp:159] Memory required for data: 714890240
I0917 11:19:35.024835  3359 layer_factory.hpp:77] Creating layer fire2/relu_expand3x3
I0917 11:19:35.024850  3359 net.cpp:94] Creating Layer fire2/relu_expand3x3
I0917 11:19:35.024858  3359 net.cpp:435] fire2/relu_expand3x3 <- fire2/expand3x3
I0917 11:19:35.024869  3359 net.cpp:396] fire2/relu_expand3x3 -> fire2/expand3x3 (in-place)
I0917 11:19:35.024885  3359 net.cpp:144] Setting up fire2/relu_expand3x3
I0917 11:19:35.024894  3359 net.cpp:151] Top shape: 64 64 56 56 (12845056)
I0917 11:19:35.024901  3359 net.cpp:159] Memory required for data: 766270464
I0917 11:19:35.024909  3359 layer_factory.hpp:77] Creating layer fire2/concat
I0917 11:19:35.024919  3359 net.cpp:94] Creating Layer fire2/concat
I0917 11:19:35.024926  3359 net.cpp:435] fire2/concat <- fire2/expand1x1
I0917 11:19:35.024935  3359 net.cpp:435] fire2/concat <- fire2/expand3x3
I0917 11:19:35.024945  3359 net.cpp:409] fire2/concat -> fire2/concat
I0917 11:19:35.025012  3359 net.cpp:144] Setting up fire2/concat
I0917 11:19:35.025022  3359 net.cpp:151] Top shape: 64 128 56 56 (25690112)
I0917 11:19:35.025029  3359 net.cpp:159] Memory required for data: 869030912
I0917 11:19:35.025037  3359 layer_factory.hpp:77] Creating layer fire3/squeeze1x1
I0917 11:19:35.025050  3359 net.cpp:94] Creating Layer fire3/squeeze1x1
I0917 11:19:35.025058  3359 net.cpp:435] fire3/squeeze1x1 <- fire2/concat
I0917 11:19:35.025068  3359 net.cpp:409] fire3/squeeze1x1 -> fire3/squeeze1x1
I0917 11:19:35.047308  3359 net.cpp:144] Setting up fire3/squeeze1x1
I0917 11:19:35.047346  3359 net.cpp:151] Top shape: 64 16 56 56 (3211264)
I0917 11:19:35.047353  3359 net.cpp:159] Memory required for data: 881875968
I0917 11:19:35.047375  3359 layer_factory.hpp:77] Creating layer fire3/relu_squeeze1x1
I0917 11:19:35.047390  3359 net.cpp:94] Creating Layer fire3/relu_squeeze1x1
I0917 11:19:35.047399  3359 net.cpp:435] fire3/relu_squeeze1x1 <- fire3/squeeze1x1
I0917 11:19:35.047408  3359 net.cpp:396] fire3/relu_squeeze1x1 -> fire3/squeeze1x1 (in-place)
I0917 11:19:35.047425  3359 net.cpp:144] Setting up fire3/relu_squeeze1x1
I0917 11:19:35.047433  3359 net.cpp:151] Top shape: 64 16 56 56 (3211264)
I0917 11:19:35.047441  3359 net.cpp:159] Memory required for data: 894721024
I0917 11:19:35.047447  3359 layer_factory.hpp:77] Creating layer fire3/squeeze1x1_fire3/relu_squeeze1x1_0_split
I0917 11:19:35.047457  3359 net.cpp:94] Creating Layer fire3/squeeze1x1_fire3/relu_squeeze1x1_0_split
I0917 11:19:35.047494  3359 net.cpp:435] fire3/squeeze1x1_fire3/relu_squeeze1x1_0_split <- fire3/squeeze1x1
I0917 11:19:35.047504  3359 net.cpp:409] fire3/squeeze1x1_fire3/relu_squeeze1x1_0_split -> fire3/squeeze1x1_fire3/relu_squeeze1x1_0_split_0
I0917 11:19:35.047516  3359 net.cpp:409] fire3/squeeze1x1_fire3/relu_squeeze1x1_0_split -> fire3/squeeze1x1_fire3/relu_squeeze1x1_0_split_1
I0917 11:19:35.047600  3359 net.cpp:144] Setting up fire3/squeeze1x1_fire3/relu_squeeze1x1_0_split
I0917 11:19:35.047610  3359 net.cpp:151] Top shape: 64 16 56 56 (3211264)
I0917 11:19:35.047617  3359 net.cpp:151] Top shape: 64 16 56 56 (3211264)
I0917 11:19:35.047624  3359 net.cpp:159] Memory required for data: 920411136
I0917 11:19:35.047631  3359 layer_factory.hpp:77] Creating layer fire3/expand1x1
I0917 11:19:35.047646  3359 net.cpp:94] Creating Layer fire3/expand1x1
I0917 11:19:35.047653  3359 net.cpp:435] fire3/expand1x1 <- fire3/squeeze1x1_fire3/relu_squeeze1x1_0_split_0
I0917 11:19:35.047663  3359 net.cpp:409] fire3/expand1x1 -> fire3/expand1x1
I0917 11:19:35.058202  3359 net.cpp:144] Setting up fire3/expand1x1
I0917 11:19:35.058236  3359 net.cpp:151] Top shape: 64 64 56 56 (12845056)
I0917 11:19:35.058244  3359 net.cpp:159] Memory required for data: 971791360
I0917 11:19:35.058259  3359 layer_factory.hpp:77] Creating layer fire3/relu_expand1x1
I0917 11:19:35.058279  3359 net.cpp:94] Creating Layer fire3/relu_expand1x1
I0917 11:19:35.058289  3359 net.cpp:435] fire3/relu_expand1x1 <- fire3/expand1x1
I0917 11:19:35.058300  3359 net.cpp:396] fire3/relu_expand1x1 -> fire3/expand1x1 (in-place)
I0917 11:19:35.058315  3359 net.cpp:144] Setting up fire3/relu_expand1x1
I0917 11:19:35.058325  3359 net.cpp:151] Top shape: 64 64 56 56 (12845056)
I0917 11:19:35.058331  3359 net.cpp:159] Memory required for data: 1023171584
I0917 11:19:35.058337  3359 layer_factory.hpp:77] Creating layer fire3/expand3x3
I0917 11:19:35.058353  3359 net.cpp:94] Creating Layer fire3/expand3x3
I0917 11:19:35.058362  3359 net.cpp:435] fire3/expand3x3 <- fire3/squeeze1x1_fire3/relu_squeeze1x1_0_split_1
I0917 11:19:35.058372  3359 net.cpp:409] fire3/expand3x3 -> fire3/expand3x3
I0917 11:19:35.081310  3359 net.cpp:144] Setting up fire3/expand3x3
I0917 11:19:35.081346  3359 net.cpp:151] Top shape: 64 64 56 56 (12845056)
I0917 11:19:35.081352  3359 net.cpp:159] Memory required for data: 1074551808
I0917 11:19:35.081369  3359 layer_factory.hpp:77] Creating layer fire3/relu_expand3x3
I0917 11:19:35.081383  3359 net.cpp:94] Creating Layer fire3/relu_expand3x3
I0917 11:19:35.081393  3359 net.cpp:435] fire3/relu_expand3x3 <- fire3/expand3x3
I0917 11:19:35.081403  3359 net.cpp:396] fire3/relu_expand3x3 -> fire3/expand3x3 (in-place)
I0917 11:19:35.081418  3359 net.cpp:144] Setting up fire3/relu_expand3x3
I0917 11:19:35.081428  3359 net.cpp:151] Top shape: 64 64 56 56 (12845056)
I0917 11:19:35.081434  3359 net.cpp:159] Memory required for data: 1125932032
I0917 11:19:35.081441  3359 layer_factory.hpp:77] Creating layer fire3/concat
I0917 11:19:35.081452  3359 net.cpp:94] Creating Layer fire3/concat
I0917 11:19:35.081459  3359 net.cpp:435] fire3/concat <- fire3/expand1x1
I0917 11:19:35.081467  3359 net.cpp:435] fire3/concat <- fire3/expand3x3
I0917 11:19:35.081476  3359 net.cpp:409] fire3/concat -> fire3/concat
I0917 11:19:35.081544  3359 net.cpp:144] Setting up fire3/concat
I0917 11:19:35.081554  3359 net.cpp:151] Top shape: 64 128 56 56 (25690112)
I0917 11:19:35.081562  3359 net.cpp:159] Memory required for data: 1228692480
I0917 11:19:35.081568  3359 layer_factory.hpp:77] Creating layer pool3
I0917 11:19:35.081580  3359 net.cpp:94] Creating Layer pool3
I0917 11:19:35.081588  3359 net.cpp:435] pool3 <- fire3/concat
I0917 11:19:35.081598  3359 net.cpp:409] pool3 -> pool3
I0917 11:19:35.081662  3359 net.cpp:144] Setting up pool3
I0917 11:19:35.081673  3359 net.cpp:151] Top shape: 64 128 28 28 (6422528)
I0917 11:19:35.081681  3359 net.cpp:159] Memory required for data: 1254382592
I0917 11:19:35.081687  3359 layer_factory.hpp:77] Creating layer fire4/squeeze1x1
I0917 11:19:35.081729  3359 net.cpp:94] Creating Layer fire4/squeeze1x1
I0917 11:19:35.081737  3359 net.cpp:435] fire4/squeeze1x1 <- pool3
I0917 11:19:35.081746  3359 net.cpp:409] fire4/squeeze1x1 -> fire4/squeeze1x1
I0917 11:19:35.088233  3359 net.cpp:144] Setting up fire4/squeeze1x1
I0917 11:19:35.088258  3359 net.cpp:151] Top shape: 64 32 28 28 (1605632)
I0917 11:19:35.088266  3359 net.cpp:159] Memory required for data: 1260805120
I0917 11:19:35.088280  3359 layer_factory.hpp:77] Creating layer fire4/relu_squeeze1x1
I0917 11:19:35.088294  3359 net.cpp:94] Creating Layer fire4/relu_squeeze1x1
I0917 11:19:35.088302  3359 net.cpp:435] fire4/relu_squeeze1x1 <- fire4/squeeze1x1
I0917 11:19:35.088312  3359 net.cpp:396] fire4/relu_squeeze1x1 -> fire4/squeeze1x1 (in-place)
I0917 11:19:35.088326  3359 net.cpp:144] Setting up fire4/relu_squeeze1x1
I0917 11:19:35.088335  3359 net.cpp:151] Top shape: 64 32 28 28 (1605632)
I0917 11:19:35.088342  3359 net.cpp:159] Memory required for data: 1267227648
I0917 11:19:35.088349  3359 layer_factory.hpp:77] Creating layer fire4/squeeze1x1_fire4/relu_squeeze1x1_0_split
I0917 11:19:35.088359  3359 net.cpp:94] Creating Layer fire4/squeeze1x1_fire4/relu_squeeze1x1_0_split
I0917 11:19:35.088366  3359 net.cpp:435] fire4/squeeze1x1_fire4/relu_squeeze1x1_0_split <- fire4/squeeze1x1
I0917 11:19:35.088376  3359 net.cpp:409] fire4/squeeze1x1_fire4/relu_squeeze1x1_0_split -> fire4/squeeze1x1_fire4/relu_squeeze1x1_0_split_0
I0917 11:19:35.088387  3359 net.cpp:409] fire4/squeeze1x1_fire4/relu_squeeze1x1_0_split -> fire4/squeeze1x1_fire4/relu_squeeze1x1_0_split_1
I0917 11:19:35.088449  3359 net.cpp:144] Setting up fire4/squeeze1x1_fire4/relu_squeeze1x1_0_split
I0917 11:19:35.088459  3359 net.cpp:151] Top shape: 64 32 28 28 (1605632)
I0917 11:19:35.088467  3359 net.cpp:151] Top shape: 64 32 28 28 (1605632)
I0917 11:19:35.088474  3359 net.cpp:159] Memory required for data: 1280072704
I0917 11:19:35.088481  3359 layer_factory.hpp:77] Creating layer fire4/expand1x1
I0917 11:19:35.088498  3359 net.cpp:94] Creating Layer fire4/expand1x1
I0917 11:19:35.088506  3359 net.cpp:435] fire4/expand1x1 <- fire4/squeeze1x1_fire4/relu_squeeze1x1_0_split_0
I0917 11:19:35.088517  3359 net.cpp:409] fire4/expand1x1 -> fire4/expand1x1
I0917 11:19:35.095266  3359 net.cpp:144] Setting up fire4/expand1x1
I0917 11:19:35.095293  3359 net.cpp:151] Top shape: 64 128 28 28 (6422528)
I0917 11:19:35.095301  3359 net.cpp:159] Memory required for data: 1305762816
I0917 11:19:35.095322  3359 layer_factory.hpp:77] Creating layer fire4/relu_expand1x1
I0917 11:19:35.095336  3359 net.cpp:94] Creating Layer fire4/relu_expand1x1
I0917 11:19:35.095345  3359 net.cpp:435] fire4/relu_expand1x1 <- fire4/expand1x1
I0917 11:19:35.095355  3359 net.cpp:396] fire4/relu_expand1x1 -> fire4/expand1x1 (in-place)
I0917 11:19:35.095371  3359 net.cpp:144] Setting up fire4/relu_expand1x1
I0917 11:19:35.095379  3359 net.cpp:151] Top shape: 64 128 28 28 (6422528)
I0917 11:19:35.095386  3359 net.cpp:159] Memory required for data: 1331452928
I0917 11:19:35.095392  3359 layer_factory.hpp:77] Creating layer fire4/expand3x3
I0917 11:19:35.095407  3359 net.cpp:94] Creating Layer fire4/expand3x3
I0917 11:19:35.095415  3359 net.cpp:435] fire4/expand3x3 <- fire4/squeeze1x1_fire4/relu_squeeze1x1_0_split_1
I0917 11:19:35.095425  3359 net.cpp:409] fire4/expand3x3 -> fire4/expand3x3
I0917 11:19:35.113103  3359 net.cpp:144] Setting up fire4/expand3x3
I0917 11:19:35.113139  3359 net.cpp:151] Top shape: 64 128 28 28 (6422528)
I0917 11:19:35.113147  3359 net.cpp:159] Memory required for data: 1357143040
I0917 11:19:35.113163  3359 layer_factory.hpp:77] Creating layer fire4/relu_expand3x3
I0917 11:19:35.113178  3359 net.cpp:94] Creating Layer fire4/relu_expand3x3
I0917 11:19:35.113188  3359 net.cpp:435] fire4/relu_expand3x3 <- fire4/expand3x3
I0917 11:19:35.113198  3359 net.cpp:396] fire4/relu_expand3x3 -> fire4/expand3x3 (in-place)
I0917 11:19:35.113214  3359 net.cpp:144] Setting up fire4/relu_expand3x3
I0917 11:19:35.113222  3359 net.cpp:151] Top shape: 64 128 28 28 (6422528)
I0917 11:19:35.113257  3359 net.cpp:159] Memory required for data: 1382833152
I0917 11:19:35.113265  3359 layer_factory.hpp:77] Creating layer fire4/concat
I0917 11:19:35.113276  3359 net.cpp:94] Creating Layer fire4/concat
I0917 11:19:35.113283  3359 net.cpp:435] fire4/concat <- fire4/expand1x1
I0917 11:19:35.113291  3359 net.cpp:435] fire4/concat <- fire4/expand3x3
I0917 11:19:35.113301  3359 net.cpp:409] fire4/concat -> fire4/concat
I0917 11:19:35.113368  3359 net.cpp:144] Setting up fire4/concat
I0917 11:19:35.113379  3359 net.cpp:151] Top shape: 64 256 28 28 (12845056)
I0917 11:19:35.113385  3359 net.cpp:159] Memory required for data: 1434213376
I0917 11:19:35.113392  3359 layer_factory.hpp:77] Creating layer fire5/squeeze1x1
I0917 11:19:35.113407  3359 net.cpp:94] Creating Layer fire5/squeeze1x1
I0917 11:19:35.113415  3359 net.cpp:435] fire5/squeeze1x1 <- fire4/concat
I0917 11:19:35.113425  3359 net.cpp:409] fire5/squeeze1x1 -> fire5/squeeze1x1
I0917 11:19:35.139691  3359 net.cpp:144] Setting up fire5/squeeze1x1
I0917 11:19:35.139719  3359 net.cpp:151] Top shape: 64 32 28 28 (1605632)
I0917 11:19:35.139726  3359 net.cpp:159] Memory required for data: 1440635904
I0917 11:19:35.139741  3359 layer_factory.hpp:77] Creating layer fire5/relu_squeeze1x1
I0917 11:19:35.139755  3359 net.cpp:94] Creating Layer fire5/relu_squeeze1x1
I0917 11:19:35.139765  3359 net.cpp:435] fire5/relu_squeeze1x1 <- fire5/squeeze1x1
I0917 11:19:35.139775  3359 net.cpp:396] fire5/relu_squeeze1x1 -> fire5/squeeze1x1 (in-place)
I0917 11:19:35.139789  3359 net.cpp:144] Setting up fire5/relu_squeeze1x1
I0917 11:19:35.139798  3359 net.cpp:151] Top shape: 64 32 28 28 (1605632)
I0917 11:19:35.139806  3359 net.cpp:159] Memory required for data: 1447058432
I0917 11:19:35.139812  3359 layer_factory.hpp:77] Creating layer fire5/squeeze1x1_fire5/relu_squeeze1x1_0_split
I0917 11:19:35.139822  3359 net.cpp:94] Creating Layer fire5/squeeze1x1_fire5/relu_squeeze1x1_0_split
I0917 11:19:35.139830  3359 net.cpp:435] fire5/squeeze1x1_fire5/relu_squeeze1x1_0_split <- fire5/squeeze1x1
I0917 11:19:35.139839  3359 net.cpp:409] fire5/squeeze1x1_fire5/relu_squeeze1x1_0_split -> fire5/squeeze1x1_fire5/relu_squeeze1x1_0_split_0
I0917 11:19:35.139852  3359 net.cpp:409] fire5/squeeze1x1_fire5/relu_squeeze1x1_0_split -> fire5/squeeze1x1_fire5/relu_squeeze1x1_0_split_1
I0917 11:19:35.139925  3359 net.cpp:144] Setting up fire5/squeeze1x1_fire5/relu_squeeze1x1_0_split
I0917 11:19:35.139935  3359 net.cpp:151] Top shape: 64 32 28 28 (1605632)
I0917 11:19:35.139943  3359 net.cpp:151] Top shape: 64 32 28 28 (1605632)
I0917 11:19:35.139950  3359 net.cpp:159] Memory required for data: 1459903488
I0917 11:19:35.139957  3359 layer_factory.hpp:77] Creating layer fire5/expand1x1
I0917 11:19:35.139981  3359 net.cpp:94] Creating Layer fire5/expand1x1
I0917 11:19:35.139989  3359 net.cpp:435] fire5/expand1x1 <- fire5/squeeze1x1_fire5/relu_squeeze1x1_0_split_0
I0917 11:19:35.139998  3359 net.cpp:409] fire5/expand1x1 -> fire5/expand1x1
I0917 11:19:35.146046  3359 net.cpp:144] Setting up fire5/expand1x1
I0917 11:19:35.146072  3359 net.cpp:151] Top shape: 64 128 28 28 (6422528)
I0917 11:19:35.146080  3359 net.cpp:159] Memory required for data: 1485593600
I0917 11:19:35.146095  3359 layer_factory.hpp:77] Creating layer fire5/relu_expand1x1
I0917 11:19:35.146107  3359 net.cpp:94] Creating Layer fire5/relu_expand1x1
I0917 11:19:35.146116  3359 net.cpp:435] fire5/relu_expand1x1 <- fire5/expand1x1
I0917 11:19:35.146126  3359 net.cpp:396] fire5/relu_expand1x1 -> fire5/expand1x1 (in-place)
I0917 11:19:35.146139  3359 net.cpp:144] Setting up fire5/relu_expand1x1
I0917 11:19:35.146148  3359 net.cpp:151] Top shape: 64 128 28 28 (6422528)
I0917 11:19:35.146155  3359 net.cpp:159] Memory required for data: 1511283712
I0917 11:19:35.146162  3359 layer_factory.hpp:77] Creating layer fire5/expand3x3
I0917 11:19:35.146178  3359 net.cpp:94] Creating Layer fire5/expand3x3
I0917 11:19:35.146184  3359 net.cpp:435] fire5/expand3x3 <- fire5/squeeze1x1_fire5/relu_squeeze1x1_0_split_1
I0917 11:19:35.146224  3359 net.cpp:409] fire5/expand3x3 -> fire5/expand3x3
I0917 11:19:35.161886  3359 net.cpp:144] Setting up fire5/expand3x3
I0917 11:19:35.161922  3359 net.cpp:151] Top shape: 64 128 28 28 (6422528)
I0917 11:19:35.161931  3359 net.cpp:159] Memory required for data: 1536973824
I0917 11:19:35.161945  3359 layer_factory.hpp:77] Creating layer fire5/relu_expand3x3
I0917 11:19:35.161960  3359 net.cpp:94] Creating Layer fire5/relu_expand3x3
I0917 11:19:35.161969  3359 net.cpp:435] fire5/relu_expand3x3 <- fire5/expand3x3
I0917 11:19:35.161980  3359 net.cpp:396] fire5/relu_expand3x3 -> fire5/expand3x3 (in-place)
I0917 11:19:35.161996  3359 net.cpp:144] Setting up fire5/relu_expand3x3
I0917 11:19:35.162005  3359 net.cpp:151] Top shape: 64 128 28 28 (6422528)
I0917 11:19:35.162011  3359 net.cpp:159] Memory required for data: 1562663936
I0917 11:19:35.162019  3359 layer_factory.hpp:77] Creating layer fire5/concat
I0917 11:19:35.162029  3359 net.cpp:94] Creating Layer fire5/concat
I0917 11:19:35.162037  3359 net.cpp:435] fire5/concat <- fire5/expand1x1
I0917 11:19:35.162045  3359 net.cpp:435] fire5/concat <- fire5/expand3x3
I0917 11:19:35.162055  3359 net.cpp:409] fire5/concat -> fire5/concat
I0917 11:19:35.162120  3359 net.cpp:144] Setting up fire5/concat
I0917 11:19:35.162130  3359 net.cpp:151] Top shape: 64 256 28 28 (12845056)
I0917 11:19:35.162137  3359 net.cpp:159] Memory required for data: 1614044160
I0917 11:19:35.162144  3359 layer_factory.hpp:77] Creating layer pool5
I0917 11:19:35.162156  3359 net.cpp:94] Creating Layer pool5
I0917 11:19:35.162163  3359 net.cpp:435] pool5 <- fire5/concat
I0917 11:19:35.162173  3359 net.cpp:409] pool5 -> pool5
I0917 11:19:35.162223  3359 net.cpp:144] Setting up pool5
I0917 11:19:35.162233  3359 net.cpp:151] Top shape: 64 256 14 14 (3211264)
I0917 11:19:35.162240  3359 net.cpp:159] Memory required for data: 1626889216
I0917 11:19:35.162247  3359 layer_factory.hpp:77] Creating layer fire6/squeeze1x1
I0917 11:19:35.162261  3359 net.cpp:94] Creating Layer fire6/squeeze1x1
I0917 11:19:35.162268  3359 net.cpp:435] fire6/squeeze1x1 <- pool5
I0917 11:19:35.162278  3359 net.cpp:409] fire6/squeeze1x1 -> fire6/squeeze1x1
I0917 11:19:35.167392  3359 net.cpp:144] Setting up fire6/squeeze1x1
I0917 11:19:35.167414  3359 net.cpp:151] Top shape: 64 48 14 14 (602112)
I0917 11:19:35.167423  3359 net.cpp:159] Memory required for data: 1629297664
I0917 11:19:35.167435  3359 layer_factory.hpp:77] Creating layer fire6/relu_squeeze1x1
I0917 11:19:35.167448  3359 net.cpp:94] Creating Layer fire6/relu_squeeze1x1
I0917 11:19:35.167455  3359 net.cpp:435] fire6/relu_squeeze1x1 <- fire6/squeeze1x1
I0917 11:19:35.167465  3359 net.cpp:396] fire6/relu_squeeze1x1 -> fire6/squeeze1x1 (in-place)
I0917 11:19:35.167479  3359 net.cpp:144] Setting up fire6/relu_squeeze1x1
I0917 11:19:35.167487  3359 net.cpp:151] Top shape: 64 48 14 14 (602112)
I0917 11:19:35.167495  3359 net.cpp:159] Memory required for data: 1631706112
I0917 11:19:35.167502  3359 layer_factory.hpp:77] Creating layer fire6/squeeze1x1_fire6/relu_squeeze1x1_0_split
I0917 11:19:35.167512  3359 net.cpp:94] Creating Layer fire6/squeeze1x1_fire6/relu_squeeze1x1_0_split
I0917 11:19:35.167520  3359 net.cpp:435] fire6/squeeze1x1_fire6/relu_squeeze1x1_0_split <- fire6/squeeze1x1
I0917 11:19:35.167531  3359 net.cpp:409] fire6/squeeze1x1_fire6/relu_squeeze1x1_0_split -> fire6/squeeze1x1_fire6/relu_squeeze1x1_0_split_0
I0917 11:19:35.167542  3359 net.cpp:409] fire6/squeeze1x1_fire6/relu_squeeze1x1_0_split -> fire6/squeeze1x1_fire6/relu_squeeze1x1_0_split_1
I0917 11:19:35.167618  3359 net.cpp:144] Setting up fire6/squeeze1x1_fire6/relu_squeeze1x1_0_split
I0917 11:19:35.167629  3359 net.cpp:151] Top shape: 64 48 14 14 (602112)
I0917 11:19:35.167639  3359 net.cpp:151] Top shape: 64 48 14 14 (602112)
I0917 11:19:35.167645  3359 net.cpp:159] Memory required for data: 1636523008
I0917 11:19:35.167654  3359 layer_factory.hpp:77] Creating layer fire6/expand1x1
I0917 11:19:35.167667  3359 net.cpp:94] Creating Layer fire6/expand1x1
I0917 11:19:35.167675  3359 net.cpp:435] fire6/expand1x1 <- fire6/squeeze1x1_fire6/relu_squeeze1x1_0_split_0
I0917 11:19:35.167719  3359 net.cpp:409] fire6/expand1x1 -> fire6/expand1x1
I0917 11:19:35.172183  3359 net.cpp:144] Setting up fire6/expand1x1
I0917 11:19:35.172207  3359 net.cpp:151] Top shape: 64 192 14 14 (2408448)
I0917 11:19:35.172215  3359 net.cpp:159] Memory required for data: 1646156800
I0917 11:19:35.172230  3359 layer_factory.hpp:77] Creating layer fire6/relu_expand1x1
I0917 11:19:35.172242  3359 net.cpp:94] Creating Layer fire6/relu_expand1x1
I0917 11:19:35.172250  3359 net.cpp:435] fire6/relu_expand1x1 <- fire6/expand1x1
I0917 11:19:35.172260  3359 net.cpp:396] fire6/relu_expand1x1 -> fire6/expand1x1 (in-place)
I0917 11:19:35.172276  3359 net.cpp:144] Setting up fire6/relu_expand1x1
I0917 11:19:35.172284  3359 net.cpp:151] Top shape: 64 192 14 14 (2408448)
I0917 11:19:35.172291  3359 net.cpp:159] Memory required for data: 1655790592
I0917 11:19:35.172298  3359 layer_factory.hpp:77] Creating layer fire6/expand3x3
I0917 11:19:35.172313  3359 net.cpp:94] Creating Layer fire6/expand3x3
I0917 11:19:35.172322  3359 net.cpp:435] fire6/expand3x3 <- fire6/squeeze1x1_fire6/relu_squeeze1x1_0_split_1
I0917 11:19:35.172333  3359 net.cpp:409] fire6/expand3x3 -> fire6/expand3x3
I0917 11:19:35.185698  3359 net.cpp:144] Setting up fire6/expand3x3
I0917 11:19:35.185725  3359 net.cpp:151] Top shape: 64 192 14 14 (2408448)
I0917 11:19:35.185734  3359 net.cpp:159] Memory required for data: 1665424384
I0917 11:19:35.185750  3359 layer_factory.hpp:77] Creating layer fire6/relu_expand3x3
I0917 11:19:35.185765  3359 net.cpp:94] Creating Layer fire6/relu_expand3x3
I0917 11:19:35.185775  3359 net.cpp:435] fire6/relu_expand3x3 <- fire6/expand3x3
I0917 11:19:35.185786  3359 net.cpp:396] fire6/relu_expand3x3 -> fire6/expand3x3 (in-place)
I0917 11:19:35.185801  3359 net.cpp:144] Setting up fire6/relu_expand3x3
I0917 11:19:35.185809  3359 net.cpp:151] Top shape: 64 192 14 14 (2408448)
I0917 11:19:35.185817  3359 net.cpp:159] Memory required for data: 1675058176
I0917 11:19:35.185823  3359 layer_factory.hpp:77] Creating layer fire6/concat
I0917 11:19:35.185833  3359 net.cpp:94] Creating Layer fire6/concat
I0917 11:19:35.185842  3359 net.cpp:435] fire6/concat <- fire6/expand1x1
I0917 11:19:35.185849  3359 net.cpp:435] fire6/concat <- fire6/expand3x3
I0917 11:19:35.185858  3359 net.cpp:409] fire6/concat -> fire6/concat
I0917 11:19:35.185932  3359 net.cpp:144] Setting up fire6/concat
I0917 11:19:35.185942  3359 net.cpp:151] Top shape: 64 384 14 14 (4816896)
I0917 11:19:35.185950  3359 net.cpp:159] Memory required for data: 1694325760
I0917 11:19:35.185956  3359 layer_factory.hpp:77] Creating layer fire7/squeeze1x1
I0917 11:19:35.185972  3359 net.cpp:94] Creating Layer fire7/squeeze1x1
I0917 11:19:35.185981  3359 net.cpp:435] fire7/squeeze1x1 <- fire6/concat
I0917 11:19:35.185991  3359 net.cpp:409] fire7/squeeze1x1 -> fire7/squeeze1x1
I0917 11:19:35.192139  3359 net.cpp:144] Setting up fire7/squeeze1x1
I0917 11:19:35.192159  3359 net.cpp:151] Top shape: 64 48 14 14 (602112)
I0917 11:19:35.192167  3359 net.cpp:159] Memory required for data: 1696734208
I0917 11:19:35.192193  3359 layer_factory.hpp:77] Creating layer fire7/relu_squeeze1x1
I0917 11:19:35.192206  3359 net.cpp:94] Creating Layer fire7/relu_squeeze1x1
I0917 11:19:35.192214  3359 net.cpp:435] fire7/relu_squeeze1x1 <- fire7/squeeze1x1
I0917 11:19:35.192224  3359 net.cpp:396] fire7/relu_squeeze1x1 -> fire7/squeeze1x1 (in-place)
I0917 11:19:35.192239  3359 net.cpp:144] Setting up fire7/relu_squeeze1x1
I0917 11:19:35.192247  3359 net.cpp:151] Top shape: 64 48 14 14 (602112)
I0917 11:19:35.192255  3359 net.cpp:159] Memory required for data: 1699142656
I0917 11:19:35.192261  3359 layer_factory.hpp:77] Creating layer fire7/squeeze1x1_fire7/relu_squeeze1x1_0_split
I0917 11:19:35.192271  3359 net.cpp:94] Creating Layer fire7/squeeze1x1_fire7/relu_squeeze1x1_0_split
I0917 11:19:35.192278  3359 net.cpp:435] fire7/squeeze1x1_fire7/relu_squeeze1x1_0_split <- fire7/squeeze1x1
I0917 11:19:35.192288  3359 net.cpp:409] fire7/squeeze1x1_fire7/relu_squeeze1x1_0_split -> fire7/squeeze1x1_fire7/relu_squeeze1x1_0_split_0
I0917 11:19:35.192317  3359 net.cpp:409] fire7/squeeze1x1_fire7/relu_squeeze1x1_0_split -> fire7/squeeze1x1_fire7/relu_squeeze1x1_0_split_1
I0917 11:19:35.192384  3359 net.cpp:144] Setting up fire7/squeeze1x1_fire7/relu_squeeze1x1_0_split
I0917 11:19:35.192394  3359 net.cpp:151] Top shape: 64 48 14 14 (602112)
I0917 11:19:35.192402  3359 net.cpp:151] Top shape: 64 48 14 14 (602112)
I0917 11:19:35.192409  3359 net.cpp:159] Memory required for data: 1703959552
I0917 11:19:35.192416  3359 layer_factory.hpp:77] Creating layer fire7/expand1x1
I0917 11:19:35.192430  3359 net.cpp:94] Creating Layer fire7/expand1x1
I0917 11:19:35.192438  3359 net.cpp:435] fire7/expand1x1 <- fire7/squeeze1x1_fire7/relu_squeeze1x1_0_split_0
I0917 11:19:35.192448  3359 net.cpp:409] fire7/expand1x1 -> fire7/expand1x1
I0917 11:19:35.196758  3359 net.cpp:144] Setting up fire7/expand1x1
I0917 11:19:35.196779  3359 net.cpp:151] Top shape: 64 192 14 14 (2408448)
I0917 11:19:35.196787  3359 net.cpp:159] Memory required for data: 1713593344
I0917 11:19:35.196801  3359 layer_factory.hpp:77] Creating layer fire7/relu_expand1x1
I0917 11:19:35.196815  3359 net.cpp:94] Creating Layer fire7/relu_expand1x1
I0917 11:19:35.196822  3359 net.cpp:435] fire7/relu_expand1x1 <- fire7/expand1x1
I0917 11:19:35.196832  3359 net.cpp:396] fire7/relu_expand1x1 -> fire7/expand1x1 (in-place)
I0917 11:19:35.196846  3359 net.cpp:144] Setting up fire7/relu_expand1x1
I0917 11:19:35.196856  3359 net.cpp:151] Top shape: 64 192 14 14 (2408448)
I0917 11:19:35.196862  3359 net.cpp:159] Memory required for data: 1723227136
I0917 11:19:35.196869  3359 layer_factory.hpp:77] Creating layer fire7/expand3x3
I0917 11:19:35.196883  3359 net.cpp:94] Creating Layer fire7/expand3x3
I0917 11:19:35.196890  3359 net.cpp:435] fire7/expand3x3 <- fire7/squeeze1x1_fire7/relu_squeeze1x1_0_split_1
I0917 11:19:35.196902  3359 net.cpp:409] fire7/expand3x3 -> fire7/expand3x3
I0917 11:19:35.207682  3359 net.cpp:144] Setting up fire7/expand3x3
I0917 11:19:35.207715  3359 net.cpp:151] Top shape: 64 192 14 14 (2408448)
I0917 11:19:35.207722  3359 net.cpp:159] Memory required for data: 1732860928
I0917 11:19:35.207737  3359 layer_factory.hpp:77] Creating layer fire7/relu_expand3x3
I0917 11:19:35.207751  3359 net.cpp:94] Creating Layer fire7/relu_expand3x3
I0917 11:19:35.207762  3359 net.cpp:435] fire7/relu_expand3x3 <- fire7/expand3x3
I0917 11:19:35.207772  3359 net.cpp:396] fire7/relu_expand3x3 -> fire7/expand3x3 (in-place)
I0917 11:19:35.207787  3359 net.cpp:144] Setting up fire7/relu_expand3x3
I0917 11:19:35.207795  3359 net.cpp:151] Top shape: 64 192 14 14 (2408448)
I0917 11:19:35.207803  3359 net.cpp:159] Memory required for data: 1742494720
I0917 11:19:35.207809  3359 layer_factory.hpp:77] Creating layer fire7/concat
I0917 11:19:35.207820  3359 net.cpp:94] Creating Layer fire7/concat
I0917 11:19:35.207828  3359 net.cpp:435] fire7/concat <- fire7/expand1x1
I0917 11:19:35.207835  3359 net.cpp:435] fire7/concat <- fire7/expand3x3
I0917 11:19:35.207844  3359 net.cpp:409] fire7/concat -> fire7/concat
I0917 11:19:35.207913  3359 net.cpp:144] Setting up fire7/concat
I0917 11:19:35.207923  3359 net.cpp:151] Top shape: 64 384 14 14 (4816896)
I0917 11:19:35.207931  3359 net.cpp:159] Memory required for data: 1761762304
I0917 11:19:35.207937  3359 layer_factory.hpp:77] Creating layer fire8/squeeze1x1
I0917 11:19:35.207952  3359 net.cpp:94] Creating Layer fire8/squeeze1x1
I0917 11:19:35.207959  3359 net.cpp:435] fire8/squeeze1x1 <- fire7/concat
I0917 11:19:35.207969  3359 net.cpp:409] fire8/squeeze1x1 -> fire8/squeeze1x1
I0917 11:19:35.222021  3359 net.cpp:144] Setting up fire8/squeeze1x1
I0917 11:19:35.222055  3359 net.cpp:151] Top shape: 64 64 14 14 (802816)
I0917 11:19:35.222064  3359 net.cpp:159] Memory required for data: 1764973568
I0917 11:19:35.222079  3359 layer_factory.hpp:77] Creating layer fire8/relu_squeeze1x1
I0917 11:19:35.222095  3359 net.cpp:94] Creating Layer fire8/relu_squeeze1x1
I0917 11:19:35.222105  3359 net.cpp:435] fire8/relu_squeeze1x1 <- fire8/squeeze1x1
I0917 11:19:35.222146  3359 net.cpp:396] fire8/relu_squeeze1x1 -> fire8/squeeze1x1 (in-place)
I0917 11:19:35.222164  3359 net.cpp:144] Setting up fire8/relu_squeeze1x1
I0917 11:19:35.222173  3359 net.cpp:151] Top shape: 64 64 14 14 (802816)
I0917 11:19:35.222180  3359 net.cpp:159] Memory required for data: 1768184832
I0917 11:19:35.222187  3359 layer_factory.hpp:77] Creating layer fire8/squeeze1x1_fire8/relu_squeeze1x1_0_split
I0917 11:19:35.222198  3359 net.cpp:94] Creating Layer fire8/squeeze1x1_fire8/relu_squeeze1x1_0_split
I0917 11:19:35.222205  3359 net.cpp:435] fire8/squeeze1x1_fire8/relu_squeeze1x1_0_split <- fire8/squeeze1x1
I0917 11:19:35.222215  3359 net.cpp:409] fire8/squeeze1x1_fire8/relu_squeeze1x1_0_split -> fire8/squeeze1x1_fire8/relu_squeeze1x1_0_split_0
I0917 11:19:35.222229  3359 net.cpp:409] fire8/squeeze1x1_fire8/relu_squeeze1x1_0_split -> fire8/squeeze1x1_fire8/relu_squeeze1x1_0_split_1
I0917 11:19:35.222313  3359 net.cpp:144] Setting up fire8/squeeze1x1_fire8/relu_squeeze1x1_0_split
I0917 11:19:35.222324  3359 net.cpp:151] Top shape: 64 64 14 14 (802816)
I0917 11:19:35.222332  3359 net.cpp:151] Top shape: 64 64 14 14 (802816)
I0917 11:19:35.222339  3359 net.cpp:159] Memory required for data: 1774607360
I0917 11:19:35.222347  3359 layer_factory.hpp:77] Creating layer fire8/expand1x1
I0917 11:19:35.222363  3359 net.cpp:94] Creating Layer fire8/expand1x1
I0917 11:19:35.222371  3359 net.cpp:435] fire8/expand1x1 <- fire8/squeeze1x1_fire8/relu_squeeze1x1_0_split_0
I0917 11:19:35.222381  3359 net.cpp:409] fire8/expand1x1 -> fire8/expand1x1
I0917 11:19:35.228678  3359 net.cpp:144] Setting up fire8/expand1x1
I0917 11:19:35.228708  3359 net.cpp:151] Top shape: 64 256 14 14 (3211264)
I0917 11:19:35.228715  3359 net.cpp:159] Memory required for data: 1787452416
I0917 11:19:35.228730  3359 layer_factory.hpp:77] Creating layer fire8/relu_expand1x1
I0917 11:19:35.228744  3359 net.cpp:94] Creating Layer fire8/relu_expand1x1
I0917 11:19:35.228754  3359 net.cpp:435] fire8/relu_expand1x1 <- fire8/expand1x1
I0917 11:19:35.228765  3359 net.cpp:396] fire8/relu_expand1x1 -> fire8/expand1x1 (in-place)
I0917 11:19:35.228780  3359 net.cpp:144] Setting up fire8/relu_expand1x1
I0917 11:19:35.228790  3359 net.cpp:151] Top shape: 64 256 14 14 (3211264)
I0917 11:19:35.228796  3359 net.cpp:159] Memory required for data: 1800297472
I0917 11:19:35.228802  3359 layer_factory.hpp:77] Creating layer fire8/expand3x3
I0917 11:19:35.228817  3359 net.cpp:94] Creating Layer fire8/expand3x3
I0917 11:19:35.228826  3359 net.cpp:435] fire8/expand3x3 <- fire8/squeeze1x1_fire8/relu_squeeze1x1_0_split_1
I0917 11:19:35.228835  3359 net.cpp:409] fire8/expand3x3 -> fire8/expand3x3
I0917 11:19:35.244784  3359 net.cpp:144] Setting up fire8/expand3x3
I0917 11:19:35.244818  3359 net.cpp:151] Top shape: 64 256 14 14 (3211264)
I0917 11:19:35.244825  3359 net.cpp:159] Memory required for data: 1813142528
I0917 11:19:35.244840  3359 layer_factory.hpp:77] Creating layer fire8/relu_expand3x3
I0917 11:19:35.244854  3359 net.cpp:94] Creating Layer fire8/relu_expand3x3
I0917 11:19:35.244864  3359 net.cpp:435] fire8/relu_expand3x3 <- fire8/expand3x3
I0917 11:19:35.244875  3359 net.cpp:396] fire8/relu_expand3x3 -> fire8/expand3x3 (in-place)
I0917 11:19:35.244890  3359 net.cpp:144] Setting up fire8/relu_expand3x3
I0917 11:19:35.244899  3359 net.cpp:151] Top shape: 64 256 14 14 (3211264)
I0917 11:19:35.244906  3359 net.cpp:159] Memory required for data: 1825987584
I0917 11:19:35.244913  3359 layer_factory.hpp:77] Creating layer fire8/concat
I0917 11:19:35.244923  3359 net.cpp:94] Creating Layer fire8/concat
I0917 11:19:35.244930  3359 net.cpp:435] fire8/concat <- fire8/expand1x1
I0917 11:19:35.244938  3359 net.cpp:435] fire8/concat <- fire8/expand3x3
I0917 11:19:35.244948  3359 net.cpp:409] fire8/concat -> fire8/concat
I0917 11:19:35.245023  3359 net.cpp:144] Setting up fire8/concat
I0917 11:19:35.245033  3359 net.cpp:151] Top shape: 64 512 14 14 (6422528)
I0917 11:19:35.245040  3359 net.cpp:159] Memory required for data: 1851677696
I0917 11:19:35.245074  3359 layer_factory.hpp:77] Creating layer fire9/squeeze1x1
I0917 11:19:35.245090  3359 net.cpp:94] Creating Layer fire9/squeeze1x1
I0917 11:19:35.245097  3359 net.cpp:435] fire9/squeeze1x1 <- fire8/concat
I0917 11:19:35.245107  3359 net.cpp:409] fire9/squeeze1x1 -> fire9/squeeze1x1
I0917 11:19:35.254979  3359 net.cpp:144] Setting up fire9/squeeze1x1
I0917 11:19:35.255007  3359 net.cpp:151] Top shape: 64 64 14 14 (802816)
I0917 11:19:35.255014  3359 net.cpp:159] Memory required for data: 1854888960
I0917 11:19:35.255029  3359 layer_factory.hpp:77] Creating layer fire9/relu_squeeze1x1
I0917 11:19:35.255044  3359 net.cpp:94] Creating Layer fire9/relu_squeeze1x1
I0917 11:19:35.255054  3359 net.cpp:435] fire9/relu_squeeze1x1 <- fire9/squeeze1x1
I0917 11:19:35.255064  3359 net.cpp:396] fire9/relu_squeeze1x1 -> fire9/squeeze1x1 (in-place)
I0917 11:19:35.255080  3359 net.cpp:144] Setting up fire9/relu_squeeze1x1
I0917 11:19:35.255089  3359 net.cpp:151] Top shape: 64 64 14 14 (802816)
I0917 11:19:35.255096  3359 net.cpp:159] Memory required for data: 1858100224
I0917 11:19:35.255103  3359 layer_factory.hpp:77] Creating layer fire9/squeeze1x1_fire9/relu_squeeze1x1_0_split
I0917 11:19:35.255131  3359 net.cpp:94] Creating Layer fire9/squeeze1x1_fire9/relu_squeeze1x1_0_split
I0917 11:19:35.255137  3359 net.cpp:435] fire9/squeeze1x1_fire9/relu_squeeze1x1_0_split <- fire9/squeeze1x1
I0917 11:19:35.255147  3359 net.cpp:409] fire9/squeeze1x1_fire9/relu_squeeze1x1_0_split -> fire9/squeeze1x1_fire9/relu_squeeze1x1_0_split_0
I0917 11:19:35.255159  3359 net.cpp:409] fire9/squeeze1x1_fire9/relu_squeeze1x1_0_split -> fire9/squeeze1x1_fire9/relu_squeeze1x1_0_split_1
I0917 11:19:35.255250  3359 net.cpp:144] Setting up fire9/squeeze1x1_fire9/relu_squeeze1x1_0_split
I0917 11:19:35.255260  3359 net.cpp:151] Top shape: 64 64 14 14 (802816)
I0917 11:19:35.255270  3359 net.cpp:151] Top shape: 64 64 14 14 (802816)
I0917 11:19:35.255276  3359 net.cpp:159] Memory required for data: 1864522752
I0917 11:19:35.255283  3359 layer_factory.hpp:77] Creating layer fire9/expand1x1
I0917 11:19:35.255298  3359 net.cpp:94] Creating Layer fire9/expand1x1
I0917 11:19:35.255306  3359 net.cpp:435] fire9/expand1x1 <- fire9/squeeze1x1_fire9/relu_squeeze1x1_0_split_0
I0917 11:19:35.255316  3359 net.cpp:409] fire9/expand1x1 -> fire9/expand1x1
I0917 11:19:35.261387  3359 net.cpp:144] Setting up fire9/expand1x1
I0917 11:19:35.261416  3359 net.cpp:151] Top shape: 64 256 14 14 (3211264)
I0917 11:19:35.261423  3359 net.cpp:159] Memory required for data: 1877367808
I0917 11:19:35.261440  3359 layer_factory.hpp:77] Creating layer fire9/relu_expand1x1
I0917 11:19:35.261454  3359 net.cpp:94] Creating Layer fire9/relu_expand1x1
I0917 11:19:35.261464  3359 net.cpp:435] fire9/relu_expand1x1 <- fire9/expand1x1
I0917 11:19:35.261476  3359 net.cpp:396] fire9/relu_expand1x1 -> fire9/expand1x1 (in-place)
I0917 11:19:35.261492  3359 net.cpp:144] Setting up fire9/relu_expand1x1
I0917 11:19:35.261500  3359 net.cpp:151] Top shape: 64 256 14 14 (3211264)
I0917 11:19:35.261507  3359 net.cpp:159] Memory required for data: 1890212864
I0917 11:19:35.261515  3359 layer_factory.hpp:77] Creating layer fire9/expand3x3
I0917 11:19:35.261531  3359 net.cpp:94] Creating Layer fire9/expand3x3
I0917 11:19:35.261539  3359 net.cpp:435] fire9/expand3x3 <- fire9/squeeze1x1_fire9/relu_squeeze1x1_0_split_1
I0917 11:19:35.261550  3359 net.cpp:409] fire9/expand3x3 -> fire9/expand3x3
I0917 11:19:35.280171  3359 net.cpp:144] Setting up fire9/expand3x3
I0917 11:19:35.280205  3359 net.cpp:151] Top shape: 64 256 14 14 (3211264)
I0917 11:19:35.280211  3359 net.cpp:159] Memory required for data: 1903057920
I0917 11:19:35.280226  3359 layer_factory.hpp:77] Creating layer fire9/relu_expand3x3
I0917 11:19:35.280241  3359 net.cpp:94] Creating Layer fire9/relu_expand3x3
I0917 11:19:35.280251  3359 net.cpp:435] fire9/relu_expand3x3 <- fire9/expand3x3
I0917 11:19:35.280261  3359 net.cpp:396] fire9/relu_expand3x3 -> fire9/expand3x3 (in-place)
I0917 11:19:35.280277  3359 net.cpp:144] Setting up fire9/relu_expand3x3
I0917 11:19:35.280311  3359 net.cpp:151] Top shape: 64 256 14 14 (3211264)
I0917 11:19:35.280318  3359 net.cpp:159] Memory required for data: 1915902976
I0917 11:19:35.280325  3359 layer_factory.hpp:77] Creating layer fire9/concat
I0917 11:19:35.280336  3359 net.cpp:94] Creating Layer fire9/concat
I0917 11:19:35.280344  3359 net.cpp:435] fire9/concat <- fire9/expand1x1
I0917 11:19:35.280351  3359 net.cpp:435] fire9/concat <- fire9/expand3x3
I0917 11:19:35.280360  3359 net.cpp:409] fire9/concat -> fire9/concat
I0917 11:19:35.280432  3359 net.cpp:144] Setting up fire9/concat
I0917 11:19:35.280442  3359 net.cpp:151] Top shape: 64 512 14 14 (6422528)
I0917 11:19:35.280448  3359 net.cpp:159] Memory required for data: 1941593088
I0917 11:19:35.280455  3359 layer_factory.hpp:77] Creating layer drop9
I0917 11:19:35.280467  3359 net.cpp:94] Creating Layer drop9
I0917 11:19:35.280474  3359 net.cpp:435] drop9 <- fire9/concat
I0917 11:19:35.280483  3359 net.cpp:396] drop9 -> fire9/concat (in-place)
I0917 11:19:35.280522  3359 net.cpp:144] Setting up drop9
I0917 11:19:35.280531  3359 net.cpp:151] Top shape: 64 512 14 14 (6422528)
I0917 11:19:35.280539  3359 net.cpp:159] Memory required for data: 1967283200
I0917 11:19:35.280545  3359 layer_factory.hpp:77] Creating layer conv10
I0917 11:19:35.280560  3359 net.cpp:94] Creating Layer conv10
I0917 11:19:35.280566  3359 net.cpp:435] conv10 <- fire9/concat
I0917 11:19:35.280576  3359 net.cpp:409] conv10 -> conv10
I0917 11:19:35.287801  3359 net.cpp:144] Setting up conv10
I0917 11:19:35.287829  3359 net.cpp:151] Top shape: 64 2 14 14 (25088)
I0917 11:19:35.287837  3359 net.cpp:159] Memory required for data: 1967383552
I0917 11:19:35.287852  3359 layer_factory.hpp:77] Creating layer relu_conv10
I0917 11:19:35.287865  3359 net.cpp:94] Creating Layer relu_conv10
I0917 11:19:35.287874  3359 net.cpp:435] relu_conv10 <- conv10
I0917 11:19:35.287884  3359 net.cpp:396] relu_conv10 -> conv10 (in-place)
I0917 11:19:35.287899  3359 net.cpp:144] Setting up relu_conv10
I0917 11:19:35.287909  3359 net.cpp:151] Top shape: 64 2 14 14 (25088)
I0917 11:19:35.287914  3359 net.cpp:159] Memory required for data: 1967483904
I0917 11:19:35.287922  3359 layer_factory.hpp:77] Creating layer pool10
I0917 11:19:35.287933  3359 net.cpp:94] Creating Layer pool10
I0917 11:19:35.287940  3359 net.cpp:435] pool10 <- conv10
I0917 11:19:35.287951  3359 net.cpp:409] pool10 -> pool10
I0917 11:19:35.288017  3359 net.cpp:144] Setting up pool10
I0917 11:19:35.288028  3359 net.cpp:151] Top shape: 64 2 1 1 (128)
I0917 11:19:35.288034  3359 net.cpp:159] Memory required for data: 1967484416
I0917 11:19:35.288041  3359 layer_factory.hpp:77] Creating layer loss
I0917 11:19:35.288058  3359 net.cpp:94] Creating Layer loss
I0917 11:19:35.288065  3359 net.cpp:435] loss <- pool10
I0917 11:19:35.288074  3359 net.cpp:435] loss <- label
I0917 11:19:35.288084  3359 net.cpp:409] loss -> loss
I0917 11:19:35.288097  3359 layer_factory.hpp:77] Creating layer loss
…
I0917 11:19:35.291482  3359 net.cpp:323] The NetState phase (1) differed from the phase (0) specified by a rule in layer train-data
I0917 11:19:35.291812  3359 net.cpp:52] Initializing net from parameters:
state {
phase: TEST
}
layer {
name: "val-data"
type: "Data"
top: "data"
top: "label"
include {
phase: TEST
}
transform_param {
crop_size: 227
mean_file: "/media/myuser/120Gb/DIGITS/digits/jobs/20160904-002550-f9dd/mean.binaryproto"
}
data_param {
source: "/media/myuser/120Gb/DIGITS/digits/jobs/20160904-002550-f9dd/val_db"
batch_size: 64
backend: LMDB
}
}
layer {
name: "conv1"
type: "Convolution"
bottom: "data"
top: "conv1"
convolution_param {
num_output: 64
kernel_size: 3
stride: 2
weight_filler {
type: "xavier"
}
}
}
layer {
name: "relu_conv1"
type: "ReLU"
bottom: "conv1"
top: "conv1"
}
layer {
name: "pool1"
type: "Pooling"
bottom: "conv1"
top: "pool1"
pooling_param {
pool: MAX
kernel_size: 3
stride: 2
}
}
layer {
name: "fire2/squeeze1x1"
type: "Convolution"
bottom: "pool1"
top: "fire2/squeeze1x1"
convolution_param {
num_output: 16
kernel_size: 1
weight_filler {
type: "xavier"
}
}
}
layer {
name: "fire2/relu_squeeze1x1"
type: "ReLU"
bottom: "fire2/squeeze1x1"
top: "fire2/squeeze1x1"
}
layer {
name: "fire2/expand1x1"
type: "Convolution"
bottom: "fire2/squeeze1x1"
top: "fire2/expand1x1"
convolution_param {
num_output: 64
kernel_size: 1
weight_filler {
type: "xavier"
}
}
}
layer {
name: "fire2/relu_expand1x1"
type: "ReLU"
bottom: "fire2/expand1x1"
top: "fire2/expand1x1"
}
layer {
name: "fire2/expand3x3"
type: "Convolution"
bottom: "fire2/squeeze1x1"
top: "fire2/expand3x3"
convolution_param {
num_output: 64
pad: 1
kernel_size: 3
weight_filler {
type: "xavier"
}
}
}
layer {
name: "fire2/relu_expand3x3"
type: "ReLU"
bottom: "fire2/expand3x3"
top: "fire2/expand3x3"
}
layer {
name: "fire2/concat"
type: "Concat"
bottom: "fire2/expand1x1"
bottom: "fire2/expand3x3"
top: "fire2/concat"
}
layer {
name: "fire3/squeeze1x1"
type: "Convolution"
bottom: "fire2/concat"
top: "fire3/squeeze1x1"
convolution_param {
num_output: 16
kernel_size: 1
weight_filler {
type: "xavier"
}
}
}
layer {
name: "fire3/relu_squeeze1x1"
type: "ReLU"
bottom: "fire3/squeeze1x1"
top: "fire3/squeeze1x1"
}
layer {
name: "fire3/expand1x1"
type: "Convolution"
bottom: "fire3/squeeze1x1"
top: "fire3/expand1x1"
convolution_param {
num_output: 64
kernel_size: 1
weight_filler {
type: "xavier"
}
}
}
layer {
name: "fire3/relu_expand1x1"
type: "ReLU"
bottom: "fire3/expand1x1"
top: "fire3/expand1x1"
}
layer {
name: "fire3/expand3x3"
type: "Convolution"
bottom: "fire3/squeeze1x1"
top: "fire3/expand3x3"
convolution_param {
num_output: 64
pad: 1
kernel_size: 3
weight_filler {
type: "xavier"
}
}
}
layer {
name: "fire3/relu_expand3x3"
type: "ReLU"
bottom: "fire3/expand3x3"
top: "fire3/expand3x3"
}
layer {
name: "fire3/concat"
type: "Concat"
bottom: "fire3/expand1x1"
bottom: "fire3/expand3x3"
top: "fire3/concat"
}
layer {
name: "pool3"
type: "Pooling"
bottom: "fire3/concat"
top: "pool3"
pooling_param {
pool: MAX
kernel_size: 3
stride: 2
}
}
layer {
name: "fire4/squeeze1x1"
type: "Convolution"
bottom: "pool3"
top: "fire4/squeeze1x1"
convolution_param {
num_output: 32
kernel_size: 1
weight_filler {
type: "xavier"
}
}
}
layer {
name: "fire4/relu_squeeze1x1"
type: "ReLU"
bottom: "fire4/squeeze1x1"
top: "fire4/squeeze1x1"
}
layer {
name: "fire4/expand1x1"
type: "Convolution"
bottom: "fire4/squeeze1x1"
top: "fire4/expand1x1"
convolution_param {
num_output: 128
kernel_size: 1
weight_filler {
type: "xavier"
}
}
}
layer {
name: "fire4/relu_expand1x1"
type: "ReLU"
bottom: "fire4/expand1x1"
top: "fire4/expand1x1"
}
layer {
name: "fire4/expand3x3"
type: "Convolution"
bottom: "fire4/squeeze1x1"
top: "fire4/expand3x3"
convolution_param {
num_output: 128
pad: 1
kernel_size: 3
weight_filler {
type: "xavier"
}
}
}
layer {
name: "fire4/relu_expand3x3"
type: "ReLU"
bottom: "fire4/expand3x3"
top: "fire4/expand3x3"
}
layer {
name: "fire4/concat"
type: "Concat"
bottom: "fire4/expand1x1"
bottom: "fire4/expand3x3"
top: "fire4/concat"
}
layer {
name: "fire5/squeeze1x1"
type: "Convolution"
bottom: "fire4/concat"
top: "fire5/squeeze1x1"
convolution_param {
num_output: 32
kernel_size: 1
weight_filler {
type: "xavier"
}
}
}
layer {
name: "fire5/relu_squeeze1x1"
type: "ReLU"
bottom: "fire5/squeeze1x1"
top: "fire5/squeeze1x1"
}
layer {
name: "fire5/expand1x1"
type: "Convolution"
bottom: "fire5/squeeze1x1"
top: "fire5/expand1x1"
convolution_param {
num_output: 128
kernel_size: 1
weight_filler {
type: "xavier"
}
}
}
layer {
name: "fire5/relu_expand1x1"
type: "ReLU"
bottom: "fire5/expand1x1"
top: "fire5/expand1x1"
}
layer {
name: "fire5/expand3x3"
type: "Convolution"
bottom: "fire5/squeeze1x1"
top: "fire5/expand3x3"
convolution_param {
num_output: 128
pad: 1
kernel_size: 3
weight_filler {
type: "xavier"
}
}
}
layer {
name: "fire5/relu_expand3x3"
type: "ReLU"
bottom: "fire5/expand3x3"
top: "fire5/expand3x3"
}
layer {
name: "fire5/concat"
type: "Concat"
bottom: "fire5/expand1x1"
bottom: "fire5/expand3x3"
top: "fire5/concat"
}
layer {
name: "pool5"
type: "Pooling"
bottom: "fire5/concat"
top: "pool5"
pooling_param {
pool: MAX
kernel_size: 3
stride: 2
}
}
layer {
name: "fire6/squeeze1x1"
type: "Convolution"
bottom: "pool5"
top: "fire6/squeeze1x1"
convolution_param {
num_output: 48
kernel_size: 1
weight_filler {
type: "xavier"
}
}
}
layer {
name: "fire6/relu_squeeze1x1"
type: "ReLU"
bottom: "fire6/squeeze1x1"
top: "fire6/squeeze1x1"
}
layer {
name: "fire6/expand1x1"
type: "Convolution"
bottom: "fire6/squeeze1x1"
top: "fire6/expand1x1"
convolution_param {
num_output: 192
kernel_size: 1
weight_filler {
type: "xavier"
}
}
}
layer {
name: "fire6/relu_expand1x1"
type: "ReLU"
bottom: "fire6/expand1x1"
top: "fire6/expand1x1"
}
layer {
name: "fire6/expand3x3"
type: "Convolution"
bottom: "fire6/squeeze1x1"
top: "fire6/expand3x3"
convolution_param {
num_output: 192
pad: 1
kernel_size: 3
weight_filler {
type: "xavier"
}
}
}
layer {
name: "fire6/relu_expand3x3"
type: "ReLU"
bottom: "fire6/expand3x3"
top: "fire6/expand3x3"
}
layer {
name: "fire6/concat"
type: "Concat"
bottom: "fire6/expand1x1"
bottom: "fire6/expand3x3"
top: "fire6/concat"
}
layer {
name: "fire7/squeeze1x1"
type: "Convolution"
bottom: "fire6/concat"
top: "fire7/squeeze1x1"
convolution_param {
num_output: 48
kernel_size: 1
weight_filler {
type: "xavier"
}
}
}
layer {
name: "fire7/relu_squeeze1x1"
type: "ReLU"
bottom: "fire7/squeeze1x1"
top: "fire7/squeeze1x1"
}
layer {
name: "fire7/expand1x1"
type: "Convolution"
bottom: "fire7/squeeze1x1"
top: "fire7/expand1x1"
convolution_param {
num_output: 192
kernel_size: 1
weight_filler {
type: "xavier"
}
}
}
layer {
name: "fire7/relu_expand1x1"
type: "ReLU"
bottom: "fire7/expand1x1"
top: "fire7/expand1x1"
}
layer {
name: "fire7/expand3x3"
type: "Convolution"
bottom: "fire7/squeeze1x1"
top: "fire7/expand3x3"
convolution_param {
num_output: 192
pad: 1
kernel_size: 3
weight_filler {
type: "xavier"
}
}
}
layer {
name: "fire7/relu_expand3x3"
type: "ReLU"
bottom: "fire7/expand3x3"
top: "fire7/expand3x3"
}
layer {
name: "fire7/concat"
type: "Concat"
bottom: "fire7/expand1x1"
bottom: "fire7/expand3x3"
top: "fire7/concat"
}
layer {
name: "fire8/squeeze1x1"
type: "Convolution"
bottom: "fire7/concat"
top: "fire8/squeeze1x1"
convolution_param {
num_output: 64
kernel_size: 1
weight_filler {
type: "xavier"
}
}
}
layer {
name: "fire8/relu_squeeze1x1"
type: "ReLU"
bottom: "fire8/squeeze1x1"
top: "fire8/squeeze1x1"
}
layer {
name: "fire8/expand1x1"
type: "Convolution"
bottom: "fire8/squeeze1x1"
top: "fire8/expand1x1"
convolution_param {
num_output: 256
kernel_size: 1
weight_filler {
type: "xavier"
}
}
}
layer {
name: "fire8/relu_expand1x1"
type: "ReLU"
bottom: "fire8/expand1x1"
top: "fire8/expand1x1"
}
layer {
name: "fire8/expand3x3"
type: "Convolution"
bottom: "fire8/squeeze1x1"
top: "fire8/expand3x3"
convolution_param {
num_output: 256
pad: 1
kernel_size: 3
weight_filler {
type: "xavier"
}
}
}
layer {
name: "fire8/relu_expand3x3"
type: "ReLU"
bottom: "fire8/expand3x3"
top: "fire8/expand3x3"
}
layer {
name: "fire8/concat"
type: "Concat"
bottom: "fire8/expand1x1"
bottom: "fire8/expand3x3"
top: "fire8/concat"
}
layer {
name: "fire9/squeeze1x1"
type: "Convolution"
bottom: "fire8/concat"
top: "fire9/squeeze1x1"
convolution_param {
num_output: 64
kernel_size: 1
weight_filler {
type: "xavier"
}
}
}
layer {
name: "fire9/relu_squeeze1x1"
type: "ReLU"
bottom: "fire9/squeeze1x1"
top: "fire9/squeeze1x1"
}
layer {
name: "fire9/expand1x1"
type: "Convolution"
bottom: "fire9/squeeze1x1"
top: "fire9/expand1x1"
convolution_param {
num_output: 256
kernel_size: 1
weight_filler {
type: "xavier"
}
}
}
layer {
name: "fire9/relu_expand1x1"
type: "ReLU"
bottom: "fire9/expand1x1"
top: "fire9/expand1x1"
}
layer {
name: "fire9/expand3x3"
type: "Convolution"
bottom: "fire9/squeeze1x1"
top: "fire9/expand3x3"
convolution_param {
num_output: 256
pad: 1
kernel_size: 3
weight_filler {
type: "xavier"
}
}
}
layer {
name: "fire9/relu_expand3x3"
type: "ReLU"
bottom: "fire9/expand3x3"
top: "fire9/expand3x3"
}
layer {
name: "fire9/concat"
type: "Concat"
bottom: "fire9/expand1x1"
bottom: "fire9/expand3x3"
top: "fire9/concat"
}
layer {
name: "drop9"
type: "Dropout"
bottom: "fire9/concat"
top: "fire9/concat"
dropout_param {
dropout_ratio: 0.5
}
}
layer {
name: "conv10"
type: "Convolution"
bottom: "fire9/concat"
top: "conv10"
convolution_param {
num_output: 2
kernel_size: 1
weight_filler {
type: "gaussian"
mean: 0
std: 0.01
}
}
}
layer {
name: "relu_conv10"
type: "ReLU"
bottom: "conv10"
top: "conv10"
}
layer {
name: "pool10"
type: "Pooling"
bottom: "conv10"
top: "pool10"
pooling_param {
pool: AVE
global_pooling: true
}
}
layer {
name: "accuracy"
type: "Accuracy"
bottom: "pool10"
bottom: "label"
top: "accuracy"
include {
phase: TEST
}
}
layer {
name: "loss"
type: "SoftmaxWithLoss"
bottom: "pool10"
bottom: "label"
top: "loss"
}
I0917 11:19:35.292227  3359 layer_factory.hpp:77] Creating layer val-data
I0917 11:19:35.292395  3359 net.cpp:94] Creating Layer val-data
I0917 11:19:35.292407  3359 net.cpp:409] val-data -> data
I0917 11:19:35.292421  3359 net.cpp:409] val-data -> label
I0917 11:19:35.292434  3359 data_transformer.cpp:25] Loading mean file from: /media/myuser/120Gb/DIGITS/digits/jobs/20160904-002550-f9dd/mean.binaryproto
I0917 11:19:35.296469  3369 db_lmdb.cpp:35] Opened lmdb /media/myuser/120Gb/DIGITS/digits/jobs/20160904-002550-f9dd/val_db
I0917 11:19:35.300415  3359 data_layer.cpp:76] output data size: 64,3,227,227
I0917 11:19:35.449198  3359 net.cpp:144] Setting up val-data
I0917 11:19:35.449230  3359 net.cpp:151] Top shape: 64 3 227 227 (9893568)
I0917 11:19:35.449241  3359 net.cpp:151] Top shape: 64 (64)
I0917 11:19:35.449249  3359 net.cpp:159] Memory required for data: 39574528
I0917 11:19:35.449260  3359 layer_factory.hpp:77] Creating layer label_val-data_1_split
I0917 11:19:35.449277  3359 net.cpp:94] Creating Layer label_val-data_1_split
I0917 11:19:35.449286  3359 net.cpp:435] label_val-data_1_split <- label
I0917 11:19:35.449297  3359 net.cpp:409] label_val-data_1_split -> label_val-data_1_split_0
I0917 11:19:35.449312  3359 net.cpp:409] label_val-data_1_split -> label_val-data_1_split_1
I0917 11:19:35.449378  3359 net.cpp:144] Setting up label_val-data_1_split
I0917 11:19:35.449388  3359 net.cpp:151] Top shape: 64 (64)
I0917 11:19:35.449396  3359 net.cpp:151] Top shape: 64 (64)
I0917 11:19:35.449404  3359 net.cpp:159] Memory required for data: 39575040
I0917 11:19:35.449411  3359 layer_factory.hpp:77] Creating layer conv1
I0917 11:19:35.449429  3359 net.cpp:94] Creating Layer conv1
I0917 11:19:35.449436  3359 net.cpp:435] conv1 <- data
I0917 11:19:35.449446  3359 net.cpp:409] conv1 -> conv1
I0917 11:19:35.467030  3359 net.cpp:144] Setting up conv1
I0917 11:19:35.467058  3359 net.cpp:151] Top shape: 64 64 113 113 (52301824)
I0917 11:19:35.467067  3359 net.cpp:159] Memory required for data: 248782336
I0917 11:19:35.467087  3359 layer_factory.hpp:77] Creating layer relu_conv1
I0917 11:19:35.467102  3359 net.cpp:94] Creating Layer relu_conv1
I0917 11:19:35.467110  3359 net.cpp:435] relu_conv1 <- conv1
I0917 11:19:35.467120  3359 net.cpp:396] relu_conv1 -> conv1 (in-place)
I0917 11:19:35.467135  3359 net.cpp:144] Setting up relu_conv1
I0917 11:19:35.467144  3359 net.cpp:151] Top shape: 64 64 113 113 (52301824)
I0917 11:19:35.467151  3359 net.cpp:159] Memory required for data: 457989632
I0917 11:19:35.467159  3359 layer_factory.hpp:77] Creating layer pool1
I0917 11:19:35.467171  3359 net.cpp:94] Creating Layer pool1
I0917 11:19:35.467180  3359 net.cpp:435] pool1 <- conv1
I0917 11:19:35.467190  3359 net.cpp:409] pool1 -> pool1
I0917 11:19:35.467284  3359 net.cpp:144] Setting up pool1
I0917 11:19:35.467294  3359 net.cpp:151] Top shape: 64 64 56 56 (12845056)
I0917 11:19:35.467301  3359 net.cpp:159] Memory required for data: 509369856
I0917 11:19:35.467309  3359 layer_factory.hpp:77] Creating layer fire2/squeeze1x1
I0917 11:19:35.467324  3359 net.cpp:94] Creating Layer fire2/squeeze1x1
I0917 11:19:35.467331  3359 net.cpp:435] fire2/squeeze1x1 <- pool1
I0917 11:19:35.467363  3359 net.cpp:409] fire2/squeeze1x1 -> fire2/squeeze1x1
I0917 11:19:35.470852  3359 net.cpp:144] Setting up fire2/squeeze1x1
I0917 11:19:35.470867  3359 net.cpp:151] Top shape: 64 16 56 56 (3211264)
I0917 11:19:35.470875  3359 net.cpp:159] Memory required for data: 522214912
I0917 11:19:35.470890  3359 layer_factory.hpp:77] Creating layer fire2/relu_squeeze1x1
I0917 11:19:35.470899  3359 net.cpp:94] Creating Layer fire2/relu_squeeze1x1
I0917 11:19:35.470907  3359 net.cpp:435] fire2/relu_squeeze1x1 <- fire2/squeeze1x1
I0917 11:19:35.470916  3359 net.cpp:396] fire2/relu_squeeze1x1 -> fire2/squeeze1x1 (in-place)
I0917 11:19:35.470928  3359 net.cpp:144] Setting up fire2/relu_squeeze1x1
I0917 11:19:35.470937  3359 net.cpp:151] Top shape: 64 16 56 56 (3211264)
I0917 11:19:35.470944  3359 net.cpp:159] Memory required for data: 535059968
I0917 11:19:35.470952  3359 layer_factory.hpp:77] Creating layer fire2/squeeze1x1_fire2/relu_squeeze1x1_0_split
I0917 11:19:35.470960  3359 net.cpp:94] Creating Layer fire2/squeeze1x1_fire2/relu_squeeze1x1_0_split
I0917 11:19:35.470968  3359 net.cpp:435] fire2/squeeze1x1_fire2/relu_squeeze1x1_0_split <- fire2/squeeze1x1
I0917 11:19:35.470978  3359 net.cpp:409] fire2/squeeze1x1_fire2/relu_squeeze1x1_0_split -> fire2/squeeze1x1_fire2/relu_squeeze1x1_0_split_0
I0917 11:19:35.470988  3359 net.cpp:409] fire2/squeeze1x1_fire2/relu_squeeze1x1_0_split -> fire2/squeeze1x1_fire2/relu_squeeze1x1_0_split_1
I0917 11:19:35.471042  3359 net.cpp:144] Setting up fire2/squeeze1x1_fire2/relu_squeeze1x1_0_split
I0917 11:19:35.471051  3359 net.cpp:151] Top shape: 64 16 56 56 (3211264)
I0917 11:19:35.471060  3359 net.cpp:151] Top shape: 64 16 56 56 (3211264)
I0917 11:19:35.471067  3359 net.cpp:159] Memory required for data: 560750080
I0917 11:19:35.471074  3359 layer_factory.hpp:77] Creating layer fire2/expand1x1
I0917 11:19:35.471087  3359 net.cpp:94] Creating Layer fire2/expand1x1
I0917 11:19:35.471096  3359 net.cpp:435] fire2/expand1x1 <- fire2/squeeze1x1_fire2/relu_squeeze1x1_0_split_0
I0917 11:19:35.471106  3359 net.cpp:409] fire2/expand1x1 -> fire2/expand1x1
I0917 11:19:35.477700  3359 net.cpp:144] Setting up fire2/expand1x1
I0917 11:19:35.477738  3359 net.cpp:151] Top shape: 64 64 56 56 (12845056)
I0917 11:19:35.477746  3359 net.cpp:159] Memory required for data: 612130304
I0917 11:19:35.477766  3359 layer_factory.hpp:77] Creating layer fire2/relu_expand1x1
I0917 11:19:35.477782  3359 net.cpp:94] Creating Layer fire2/relu_expand1x1
I0917 11:19:35.477789  3359 net.cpp:435] fire2/relu_expand1x1 <- fire2/expand1x1
I0917 11:19:35.477802  3359 net.cpp:396] fire2/relu_expand1x1 -> fire2/expand1x1 (in-place)
I0917 11:19:35.477818  3359 net.cpp:144] Setting up fire2/relu_expand1x1
I0917 11:19:35.477830  3359 net.cpp:151] Top shape: 64 64 56 56 (12845056)
I0917 11:19:35.477838  3359 net.cpp:159] Memory required for data: 663510528
I0917 11:19:35.477845  3359 layer_factory.hpp:77] Creating layer fire2/expand3x3
I0917 11:19:35.477864  3359 net.cpp:94] Creating Layer fire2/expand3x3
I0917 11:19:35.477871  3359 net.cpp:435] fire2/expand3x3 <- fire2/squeeze1x1_fire2/relu_squeeze1x1_0_split_1
I0917 11:19:35.477883  3359 net.cpp:409] fire2/expand3x3 -> fire2/expand3x3
I0917 11:19:35.484649  3359 net.cpp:144] Setting up fire2/expand3x3
I0917 11:19:35.484681  3359 net.cpp:151] Top shape: 64 64 56 56 (12845056)
I0917 11:19:35.484689  3359 net.cpp:159] Memory required for data: 714890752
I0917 11:19:35.484704  3359 layer_factory.hpp:77] Creating layer fire2/relu_expand3x3
I0917 11:19:35.484719  3359 net.cpp:94] Creating Layer fire2/relu_expand3x3
I0917 11:19:35.484727  3359 net.cpp:435] fire2/relu_expand3x3 <- fire2/expand3x3
I0917 11:19:35.484738  3359 net.cpp:396] fire2/relu_expand3x3 -> fire2/expand3x3 (in-place)
I0917 11:19:35.484753  3359 net.cpp:144] Setting up fire2/relu_expand3x3
I0917 11:19:35.484762  3359 net.cpp:151] Top shape: 64 64 56 56 (12845056)
I0917 11:19:35.484769  3359 net.cpp:159] Memory required for data: 766270976
I0917 11:19:35.484777  3359 layer_factory.hpp:77] Creating layer fire2/concat
I0917 11:19:35.484822  3359 net.cpp:94] Creating Layer fire2/concat
I0917 11:19:35.484830  3359 net.cpp:435] fire2/concat <- fire2/expand1x1
I0917 11:19:35.484839  3359 net.cpp:435] fire2/concat <- fire2/expand3x3
I0917 11:19:35.484850  3359 net.cpp:409] fire2/concat -> fire2/concat
I0917 11:19:35.484937  3359 net.cpp:144] Setting up fire2/concat
I0917 11:19:35.484947  3359 net.cpp:151] Top shape: 64 128 56 56 (25690112)
I0917 11:19:35.484954  3359 net.cpp:159] Memory required for data: 869031424
I0917 11:19:35.484961  3359 layer_factory.hpp:77] Creating layer fire3/squeeze1x1
I0917 11:19:35.484977  3359 net.cpp:94] Creating Layer fire3/squeeze1x1
I0917 11:19:35.484983  3359 net.cpp:435] fire3/squeeze1x1 <- fire2/concat
I0917 11:19:35.484993  3359 net.cpp:409] fire3/squeeze1x1 -> fire3/squeeze1x1
I0917 11:19:35.489097  3359 net.cpp:144] Setting up fire3/squeeze1x1
I0917 11:19:35.489125  3359 net.cpp:151] Top shape: 64 16 56 56 (3211264)
I0917 11:19:35.489132  3359 net.cpp:159] Memory required for data: 881876480
I0917 11:19:35.489152  3359 layer_factory.hpp:77] Creating layer fire3/relu_squeeze1x1
I0917 11:19:35.489166  3359 net.cpp:94] Creating Layer fire3/relu_squeeze1x1
I0917 11:19:35.489173  3359 net.cpp:435] fire3/relu_squeeze1x1 <- fire3/squeeze1x1
I0917 11:19:35.489182  3359 net.cpp:396] fire3/relu_squeeze1x1 -> fire3/squeeze1x1 (in-place)
I0917 11:19:35.489197  3359 net.cpp:144] Setting up fire3/relu_squeeze1x1
I0917 11:19:35.489205  3359 net.cpp:151] Top shape: 64 16 56 56 (3211264)
I0917 11:19:35.489212  3359 net.cpp:159] Memory required for data: 894721536
I0917 11:19:35.489219  3359 layer_factory.hpp:77] Creating layer fire3/squeeze1x1_fire3/relu_squeeze1x1_0_split
I0917 11:19:35.489229  3359 net.cpp:94] Creating Layer fire3/squeeze1x1_fire3/relu_squeeze1x1_0_split
I0917 11:19:35.489236  3359 net.cpp:435] fire3/squeeze1x1_fire3/relu_squeeze1x1_0_split <- fire3/squeeze1x1
I0917 11:19:35.489246  3359 net.cpp:409] fire3/squeeze1x1_fire3/relu_squeeze1x1_0_split -> fire3/squeeze1x1_fire3/relu_squeeze1x1_0_split_0
I0917 11:19:35.489258  3359 net.cpp:409] fire3/squeeze1x1_fire3/relu_squeeze1x1_0_split -> fire3/squeeze1x1_fire3/relu_squeeze1x1_0_split_1
I0917 11:19:35.489343  3359 net.cpp:144] Setting up fire3/squeeze1x1_fire3/relu_squeeze1x1_0_split
I0917 11:19:35.489353  3359 net.cpp:151] Top shape: 64 16 56 56 (3211264)
I0917 11:19:35.489362  3359 net.cpp:151] Top shape: 64 16 56 56 (3211264)
I0917 11:19:35.489369  3359 net.cpp:159] Memory required for data: 920411648
I0917 11:19:35.489377  3359 layer_factory.hpp:77] Creating layer fire3/expand1x1
I0917 11:19:35.489394  3359 net.cpp:94] Creating Layer fire3/expand1x1
I0917 11:19:35.489403  3359 net.cpp:435] fire3/expand1x1 <- fire3/squeeze1x1_fire3/relu_squeeze1x1_0_split_0
I0917 11:19:35.489413  3359 net.cpp:409] fire3/expand1x1 -> fire3/expand1x1
I0917 11:19:35.492341  3359 net.cpp:144] Setting up fire3/expand1x1
I0917 11:19:35.492359  3359 net.cpp:151] Top shape: 64 64 56 56 (12845056)
I0917 11:19:35.492367  3359 net.cpp:159] Memory required for data: 971791872
I0917 11:19:35.492378  3359 layer_factory.hpp:77] Creating layer fire3/relu_expand1x1
I0917 11:19:35.492389  3359 net.cpp:94] Creating Layer fire3/relu_expand1x1
I0917 11:19:35.492398  3359 net.cpp:435] fire3/relu_expand1x1 <- fire3/expand1x1
I0917 11:19:35.492408  3359 net.cpp:396] fire3/relu_expand1x1 -> fire3/expand1x1 (in-place)
I0917 11:19:35.492420  3359 net.cpp:144] Setting up fire3/relu_expand1x1
I0917 11:19:35.492429  3359 net.cpp:151] Top shape: 64 64 56 56 (12845056)
I0917 11:19:35.492435  3359 net.cpp:159] Memory required for data: 1023172096
I0917 11:19:35.492442  3359 layer_factory.hpp:77] Creating layer fire3/expand3x3
I0917 11:19:35.492455  3359 net.cpp:94] Creating Layer fire3/expand3x3
I0917 11:19:35.492463  3359 net.cpp:435] fire3/expand3x3 <- fire3/squeeze1x1_fire3/relu_squeeze1x1_0_split_1
I0917 11:19:35.492473  3359 net.cpp:409] fire3/expand3x3 -> fire3/expand3x3
I0917 11:19:35.499966  3359 net.cpp:144] Setting up fire3/expand3x3
I0917 11:19:35.500027  3359 net.cpp:151] Top shape: 64 64 56 56 (12845056)
I0917 11:19:35.500036  3359 net.cpp:159] Memory required for data: 1074552320
I0917 11:19:35.500051  3359 layer_factory.hpp:77] Creating layer fire3/relu_expand3x3
I0917 11:19:35.500064  3359 net.cpp:94] Creating Layer fire3/relu_expand3x3
I0917 11:19:35.500074  3359 net.cpp:435] fire3/relu_expand3x3 <- fire3/expand3x3
I0917 11:19:35.500084  3359 net.cpp:396] fire3/relu_expand3x3 -> fire3/expand3x3 (in-place)
I0917 11:19:35.500099  3359 net.cpp:144] Setting up fire3/relu_expand3x3
I0917 11:19:35.500108  3359 net.cpp:151] Top shape: 64 64 56 56 (12845056)
I0917 11:19:35.500115  3359 net.cpp:159] Memory required for data: 1125932544
I0917 11:19:35.500123  3359 layer_factory.hpp:77] Creating layer fire3/concat
I0917 11:19:35.500133  3359 net.cpp:94] Creating Layer fire3/concat
I0917 11:19:35.500140  3359 net.cpp:435] fire3/concat <- fire3/expand1x1
I0917 11:19:35.500149  3359 net.cpp:435] fire3/concat <- fire3/expand3x3
I0917 11:19:35.500157  3359 net.cpp:409] fire3/concat -> fire3/concat
I0917 11:19:35.500242  3359 net.cpp:144] Setting up fire3/concat
I0917 11:19:35.500252  3359 net.cpp:151] Top shape: 64 128 56 56 (25690112)
I0917 11:19:35.500259  3359 net.cpp:159] Memory required for data: 1228692992
I0917 11:19:35.500267  3359 layer_factory.hpp:77] Creating layer pool3
I0917 11:19:35.500278  3359 net.cpp:94] Creating Layer pool3
I0917 11:19:35.500285  3359 net.cpp:435] pool3 <- fire3/concat
I0917 11:19:35.500294  3359 net.cpp:409] pool3 -> pool3
I0917 11:19:35.500351  3359 net.cpp:144] Setting up pool3
I0917 11:19:35.500361  3359 net.cpp:151] Top shape: 64 128 28 28 (6422528)
I0917 11:19:35.500368  3359 net.cpp:159] Memory required for data: 1254383104
I0917 11:19:35.500375  3359 layer_factory.hpp:77] Creating layer fire4/squeeze1x1
I0917 11:19:35.500389  3359 net.cpp:94] Creating Layer fire4/squeeze1x1
I0917 11:19:35.500396  3359 net.cpp:435] fire4/squeeze1x1 <- pool3
I0917 11:19:35.500406  3359 net.cpp:409] fire4/squeeze1x1 -> fire4/squeeze1x1
I0917 11:19:35.502523  3359 net.cpp:144] Setting up fire4/squeeze1x1
I0917 11:19:35.502542  3359 net.cpp:151] Top shape: 64 32 28 28 (1605632)
I0917 11:19:35.502548  3359 net.cpp:159] Memory required for data: 1260805632
I0917 11:19:35.502562  3359 layer_factory.hpp:77] Creating layer fire4/relu_squeeze1x1
I0917 11:19:35.502573  3359 net.cpp:94] Creating Layer fire4/relu_squeeze1x1
I0917 11:19:35.502580  3359 net.cpp:435] fire4/relu_squeeze1x1 <- fire4/squeeze1x1
I0917 11:19:35.502591  3359 net.cpp:396] fire4/relu_squeeze1x1 -> fire4/squeeze1x1 (in-place)
I0917 11:19:35.502609  3359 net.cpp:144] Setting up fire4/relu_squeeze1x1
I0917 11:19:35.502617  3359 net.cpp:151] Top shape: 64 32 28 28 (1605632)
I0917 11:19:35.502626  3359 net.cpp:159] Memory required for data: 1267228160
I0917 11:19:35.502635  3359 layer_factory.hpp:77] Creating layer fire4/squeeze1x1_fire4/relu_squeeze1x1_0_split
I0917 11:19:35.502645  3359 net.cpp:94] Creating Layer fire4/squeeze1x1_fire4/relu_squeeze1x1_0_split
I0917 11:19:35.502652  3359 net.cpp:435] fire4/squeeze1x1_fire4/relu_squeeze1x1_0_split <- fire4/squeeze1x1
I0917 11:19:35.502662  3359 net.cpp:409] fire4/squeeze1x1_fire4/relu_squeeze1x1_0_split -> fire4/squeeze1x1_fire4/relu_squeeze1x1_0_split_0
I0917 11:19:35.502676  3359 net.cpp:409] fire4/squeeze1x1_fire4/relu_squeeze1x1_0_split -> fire4/squeeze1x1_fire4/relu_squeeze1x1_0_split_1
I0917 11:19:35.502742  3359 net.cpp:144] Setting up fire4/squeeze1x1_fire4/relu_squeeze1x1_0_split
I0917 11:19:35.502753  3359 net.cpp:151] Top shape: 64 32 28 28 (1605632)
I0917 11:19:35.502760  3359 net.cpp:151] Top shape: 64 32 28 28 (1605632)
I0917 11:19:35.502768  3359 net.cpp:159] Memory required for data: 1280073216
I0917 11:19:35.502774  3359 layer_factory.hpp:77] Creating layer fire4/expand1x1
I0917 11:19:35.502787  3359 net.cpp:94] Creating Layer fire4/expand1x1
I0917 11:19:35.502795  3359 net.cpp:435] fire4/expand1x1 <- fire4/squeeze1x1_fire4/relu_squeeze1x1_0_split_0
I0917 11:19:35.502805  3359 net.cpp:409] fire4/expand1x1 -> fire4/expand1x1
I0917 11:19:35.505162  3359 net.cpp:144] Setting up fire4/expand1x1
I0917 11:19:35.505177  3359 net.cpp:151] Top shape: 64 128 28 28 (6422528)
I0917 11:19:35.505184  3359 net.cpp:159] Memory required for data: 1305763328
I0917 11:19:35.505203  3359 layer_factory.hpp:77] Creating layer fire4/relu_expand1x1
I0917 11:19:35.505213  3359 net.cpp:94] Creating Layer fire4/relu_expand1x1
I0917 11:19:35.505220  3359 net.cpp:435] fire4/relu_expand1x1 <- fire4/expand1x1
I0917 11:19:35.505230  3359 net.cpp:396] fire4/relu_expand1x1 -> fire4/expand1x1 (in-place)
I0917 11:19:35.505242  3359 net.cpp:144] Setting up fire4/relu_expand1x1
I0917 11:19:35.505251  3359 net.cpp:151] Top shape: 64 128 28 28 (6422528)
I0917 11:19:35.505259  3359 net.cpp:159] Memory required for data: 1331453440
I0917 11:19:35.505265  3359 layer_factory.hpp:77] Creating layer fire4/expand3x3
I0917 11:19:35.505277  3359 net.cpp:94] Creating Layer fire4/expand3x3
I0917 11:19:35.505285  3359 net.cpp:435] fire4/expand3x3 <- fire4/squeeze1x1_fire4/relu_squeeze1x1_0_split_1
I0917 11:19:35.505295  3359 net.cpp:409] fire4/expand3x3 -> fire4/expand3x3
I0917 11:19:35.510596  3359 net.cpp:144] Setting up fire4/expand3x3
I0917 11:19:35.510625  3359 net.cpp:151] Top shape: 64 128 28 28 (6422528)
I0917 11:19:35.510632  3359 net.cpp:159] Memory required for data: 1357143552
I0917 11:19:35.510648  3359 layer_factory.hpp:77] Creating layer fire4/relu_expand3x3
I0917 11:19:35.510659  3359 net.cpp:94] Creating Layer fire4/relu_expand3x3
I0917 11:19:35.510668  3359 net.cpp:435] fire4/relu_expand3x3 <- fire4/expand3x3
I0917 11:19:35.510679  3359 net.cpp:396] fire4/relu_expand3x3 -> fire4/expand3x3 (in-place)
I0917 11:19:35.510692  3359 net.cpp:144] Setting up fire4/relu_expand3x3
I0917 11:19:35.510701  3359 net.cpp:151] Top shape: 64 128 28 28 (6422528)
I0917 11:19:35.510709  3359 net.cpp:159] Memory required for data: 1382833664
I0917 11:19:35.510715  3359 layer_factory.hpp:77] Creating layer fire4/concat
I0917 11:19:35.510726  3359 net.cpp:94] Creating Layer fire4/concat
I0917 11:19:35.510733  3359 net.cpp:435] fire4/concat <- fire4/expand1x1
I0917 11:19:35.510741  3359 net.cpp:435] fire4/concat <- fire4/expand3x3
I0917 11:19:35.510751  3359 net.cpp:409] fire4/concat -> fire4/concat
I0917 11:19:35.510813  3359 net.cpp:144] Setting up fire4/concat
I0917 11:19:35.510823  3359 net.cpp:151] Top shape: 64 256 28 28 (12845056)
I0917 11:19:35.510830  3359 net.cpp:159] Memory required for data: 1434213888
I0917 11:19:35.510838  3359 layer_factory.hpp:77] Creating layer fire5/squeeze1x1
I0917 11:19:35.510851  3359 net.cpp:94] Creating Layer fire5/squeeze1x1
I0917 11:19:35.510859  3359 net.cpp:435] fire5/squeeze1x1 <- fire4/concat
I0917 11:19:35.510869  3359 net.cpp:409] fire5/squeeze1x1 -> fire5/squeeze1x1
I0917 11:19:35.518198  3359 net.cpp:144] Setting up fire5/squeeze1x1
I0917 11:19:35.518223  3359 net.cpp:151] Top shape: 64 32 28 28 (1605632)
I0917 11:19:35.518229  3359 net.cpp:159] Memory required for data: 1440636416
I0917 11:19:35.518244  3359 layer_factory.hpp:77] Creating layer fire5/relu_squeeze1x1
I0917 11:19:35.518257  3359 net.cpp:94] Creating Layer fire5/relu_squeeze1x1
I0917 11:19:35.518266  3359 net.cpp:435] fire5/relu_squeeze1x1 <- fire5/squeeze1x1
I0917 11:19:35.518276  3359 net.cpp:396] fire5/relu_squeeze1x1 -> fire5/squeeze1x1 (in-place)
I0917 11:19:35.518290  3359 net.cpp:144] Setting up fire5/relu_squeeze1x1
I0917 11:19:35.518299  3359 net.cpp:151] Top shape: 64 32 28 28 (1605632)
I0917 11:19:35.518306  3359 net.cpp:159] Memory required for data: 1447058944
I0917 11:19:35.518313  3359 layer_factory.hpp:77] Creating layer fire5/squeeze1x1_fire5/relu_squeeze1x1_0_split
I0917 11:19:35.518332  3359 net.cpp:94] Creating Layer fire5/squeeze1x1_fire5/relu_squeeze1x1_0_split
I0917 11:19:35.518340  3359 net.cpp:435] fire5/squeeze1x1_fire5/relu_squeeze1x1_0_split <- fire5/squeeze1x1
I0917 11:19:35.518349  3359 net.cpp:409] fire5/squeeze1x1_fire5/relu_squeeze1x1_0_split -> fire5/squeeze1x1_fire5/relu_squeeze1x1_0_split_0
I0917 11:19:35.518362  3359 net.cpp:409] fire5/squeeze1x1_fire5/relu_squeeze1x1_0_split -> fire5/squeeze1x1_fire5/relu_squeeze1x1_0_split_1
I0917 11:19:35.518467  3359 net.cpp:144] Setting up fire5/squeeze1x1_fire5/relu_squeeze1x1_0_split
I0917 11:19:35.518477  3359 net.cpp:151] Top shape: 64 32 28 28 (1605632)
I0917 11:19:35.518486  3359 net.cpp:151] Top shape: 64 32 28 28 (1605632)
I0917 11:19:35.518493  3359 net.cpp:159] Memory required for data: 1459904000
I0917 11:19:35.518501  3359 layer_factory.hpp:77] Creating layer fire5/expand1x1
I0917 11:19:35.518514  3359 net.cpp:94] Creating Layer fire5/expand1x1
I0917 11:19:35.518522  3359 net.cpp:435] fire5/expand1x1 <- fire5/squeeze1x1_fire5/relu_squeeze1x1_0_split_0
I0917 11:19:35.518532  3359 net.cpp:409] fire5/expand1x1 -> fire5/expand1x1
I0917 11:19:35.521023  3359 net.cpp:144] Setting up fire5/expand1x1
I0917 11:19:35.521040  3359 net.cpp:151] Top shape: 64 128 28 28 (6422528)
I0917 11:19:35.521047  3359 net.cpp:159] Memory required for data: 1485594112
I0917 11:19:35.521060  3359 layer_factory.hpp:77] Creating layer fire5/relu_expand1x1
I0917 11:19:35.521071  3359 net.cpp:94] Creating Layer fire5/relu_expand1x1
I0917 11:19:35.521080  3359 net.cpp:435] fire5/relu_expand1x1 <- fire5/expand1x1
I0917 11:19:35.521090  3359 net.cpp:396] fire5/relu_expand1x1 -> fire5/expand1x1 (in-place)
I0917 11:19:35.521103  3359 net.cpp:144] Setting up fire5/relu_expand1x1
I0917 11:19:35.521112  3359 net.cpp:151] Top shape: 64 128 28 28 (6422528)
I0917 11:19:35.521119  3359 net.cpp:159] Memory required for data: 1511284224
I0917 11:19:35.521126  3359 layer_factory.hpp:77] Creating layer fire5/expand3x3
I0917 11:19:35.521141  3359 net.cpp:94] Creating Layer fire5/expand3x3
I0917 11:19:35.521147  3359 net.cpp:435] fire5/expand3x3 <- fire5/squeeze1x1_fire5/relu_squeeze1x1_0_split_1
I0917 11:19:35.521158  3359 net.cpp:409] fire5/expand3x3 -> fire5/expand3x3
I0917 11:19:35.529567  3359 net.cpp:144] Setting up fire5/expand3x3
I0917 11:19:35.529593  3359 net.cpp:151] Top shape: 64 128 28 28 (6422528)
I0917 11:19:35.529602  3359 net.cpp:159] Memory required for data: 1536974336
I0917 11:19:35.529616  3359 layer_factory.hpp:77] Creating layer fire5/relu_expand3x3
I0917 11:19:35.529629  3359 net.cpp:94] Creating Layer fire5/relu_expand3x3
I0917 11:19:35.529657  3359 net.cpp:435] fire5/relu_expand3x3 <- fire5/expand3x3
I0917 11:19:35.529669  3359 net.cpp:396] fire5/relu_expand3x3 -> fire5/expand3x3 (in-place)
I0917 11:19:35.529683  3359 net.cpp:144] Setting up fire5/relu_expand3x3
I0917 11:19:35.529693  3359 net.cpp:151] Top shape: 64 128 28 28 (6422528)
I0917 11:19:35.529700  3359 net.cpp:159] Memory required for data: 1562664448
I0917 11:19:35.529707  3359 layer_factory.hpp:77] Creating layer fire5/concat
I0917 11:19:35.529717  3359 net.cpp:94] Creating Layer fire5/concat
I0917 11:19:35.529726  3359 net.cpp:435] fire5/concat <- fire5/expand1x1
I0917 11:19:35.529733  3359 net.cpp:435] fire5/concat <- fire5/expand3x3
I0917 11:19:35.529743  3359 net.cpp:409] fire5/concat -> fire5/concat
I0917 11:19:35.529824  3359 net.cpp:144] Setting up fire5/concat
I0917 11:19:35.529834  3359 net.cpp:151] Top shape: 64 256 28 28 (12845056)
I0917 11:19:35.529841  3359 net.cpp:159] Memory required for data: 1614044672
I0917 11:19:35.529849  3359 layer_factory.hpp:77] Creating layer pool5
I0917 11:19:35.529860  3359 net.cpp:94] Creating Layer pool5
I0917 11:19:35.529867  3359 net.cpp:435] pool5 <- fire5/concat
I0917 11:19:35.529876  3359 net.cpp:409] pool5 -> pool5
I0917 11:19:35.529935  3359 net.cpp:144] Setting up pool5
I0917 11:19:35.529945  3359 net.cpp:151] Top shape: 64 256 14 14 (3211264)
I0917 11:19:35.529953  3359 net.cpp:159] Memory required for data: 1626889728
I0917 11:19:35.529959  3359 layer_factory.hpp:77] Creating layer fire6/squeeze1x1
I0917 11:19:35.529973  3359 net.cpp:94] Creating Layer fire6/squeeze1x1
I0917 11:19:35.529980  3359 net.cpp:435] fire6/squeeze1x1 <- pool5
I0917 11:19:35.529990  3359 net.cpp:409] fire6/squeeze1x1 -> fire6/squeeze1x1
I0917 11:19:35.535655  3359 net.cpp:144] Setting up fire6/squeeze1x1
I0917 11:19:35.535670  3359 net.cpp:151] Top shape: 64 48 14 14 (602112)
I0917 11:19:35.535691  3359 net.cpp:159] Memory required for data: 1629298176
I0917 11:19:35.535703  3359 layer_factory.hpp:77] Creating layer fire6/relu_squeeze1x1
I0917 11:19:35.535713  3359 net.cpp:94] Creating Layer fire6/relu_squeeze1x1
I0917 11:19:35.535720  3359 net.cpp:435] fire6/relu_squeeze1x1 <- fire6/squeeze1x1
I0917 11:19:35.535729  3359 net.cpp:396] fire6/relu_squeeze1x1 -> fire6/squeeze1x1 (in-place)
I0917 11:19:35.535742  3359 net.cpp:144] Setting up fire6/relu_squeeze1x1
I0917 11:19:35.535750  3359 net.cpp:151] Top shape: 64 48 14 14 (602112)
I0917 11:19:35.535758  3359 net.cpp:159] Memory required for data: 1631706624
I0917 11:19:35.535763  3359 layer_factory.hpp:77] Creating layer fire6/squeeze1x1_fire6/relu_squeeze1x1_0_split
I0917 11:19:35.535773  3359 net.cpp:94] Creating Layer fire6/squeeze1x1_fire6/relu_squeeze1x1_0_split
I0917 11:19:35.535780  3359 net.cpp:435] fire6/squeeze1x1_fire6/relu_squeeze1x1_0_split <- fire6/squeeze1x1
I0917 11:19:35.535790  3359 net.cpp:409] fire6/squeeze1x1_fire6/relu_squeeze1x1_0_split -> fire6/squeeze1x1_fire6/relu_squeeze1x1_0_split_0
I0917 11:19:35.535801  3359 net.cpp:409] fire6/squeeze1x1_fire6/relu_squeeze1x1_0_split -> fire6/squeeze1x1_fire6/relu_squeeze1x1_0_split_1
I0917 11:19:35.535863  3359 net.cpp:144] Setting up fire6/squeeze1x1_fire6/relu_squeeze1x1_0_split
I0917 11:19:35.535873  3359 net.cpp:151] Top shape: 64 48 14 14 (602112)
I0917 11:19:35.535881  3359 net.cpp:151] Top shape: 64 48 14 14 (602112)
I0917 11:19:35.535888  3359 net.cpp:159] Memory required for data: 1636523520
I0917 11:19:35.535895  3359 layer_factory.hpp:77] Creating layer fire6/expand1x1
I0917 11:19:35.535907  3359 net.cpp:94] Creating Layer fire6/expand1x1
I0917 11:19:35.535914  3359 net.cpp:435] fire6/expand1x1 <- fire6/squeeze1x1_fire6/relu_squeeze1x1_0_split_0
I0917 11:19:35.535924  3359 net.cpp:409] fire6/expand1x1 -> fire6/expand1x1
I0917 11:19:35.539680  3359 net.cpp:144] Setting up fire6/expand1x1
I0917 11:19:35.539701  3359 net.cpp:151] Top shape: 64 192 14 14 (2408448)
I0917 11:19:35.539708  3359 net.cpp:159] Memory required for data: 1646157312
I0917 11:19:35.539723  3359 layer_factory.hpp:77] Creating layer fire6/relu_expand1x1
I0917 11:19:35.539736  3359 net.cpp:94] Creating Layer fire6/relu_expand1x1
I0917 11:19:35.539746  3359 net.cpp:435] fire6/relu_expand1x1 <- fire6/expand1x1
I0917 11:19:35.539755  3359 net.cpp:396] fire6/relu_expand1x1 -> fire6/expand1x1 (in-place)
I0917 11:19:35.539770  3359 net.cpp:144] Setting up fire6/relu_expand1x1
I0917 11:19:35.539778  3359 net.cpp:151] Top shape: 64 192 14 14 (2408448)
I0917 11:19:35.539785  3359 net.cpp:159] Memory required for data: 1655791104
I0917 11:19:35.539793  3359 layer_factory.hpp:77] Creating layer fire6/expand3x3
I0917 11:19:35.539808  3359 net.cpp:94] Creating Layer fire6/expand3x3
I0917 11:19:35.539815  3359 net.cpp:435] fire6/expand3x3 <- fire6/squeeze1x1_fire6/relu_squeeze1x1_0_split_1
I0917 11:19:35.539825  3359 net.cpp:409] fire6/expand3x3 -> fire6/expand3x3
I0917 11:19:35.548324  3359 net.cpp:144] Setting up fire6/expand3x3
I0917 11:19:35.548349  3359 net.cpp:151] Top shape: 64 192 14 14 (2408448)
I0917 11:19:35.548357  3359 net.cpp:159] Memory required for data: 1665424896
I0917 11:19:35.548372  3359 layer_factory.hpp:77] Creating layer fire6/relu_expand3x3
I0917 11:19:35.548385  3359 net.cpp:94] Creating Layer fire6/relu_expand3x3
I0917 11:19:35.548394  3359 net.cpp:435] fire6/relu_expand3x3 <- fire6/expand3x3
I0917 11:19:35.548405  3359 net.cpp:396] fire6/relu_expand3x3 -> fire6/expand3x3 (in-place)
I0917 11:19:35.548420  3359 net.cpp:144] Setting up fire6/relu_expand3x3
I0917 11:19:35.548429  3359 net.cpp:151] Top shape: 64 192 14 14 (2408448)
I0917 11:19:35.548435  3359 net.cpp:159] Memory required for data: 1675058688
I0917 11:19:35.548442  3359 layer_factory.hpp:77] Creating layer fire6/concat
I0917 11:19:35.548454  3359 net.cpp:94] Creating Layer fire6/concat
I0917 11:19:35.548460  3359 net.cpp:435] fire6/concat <- fire6/expand1x1
I0917 11:19:35.548468  3359 net.cpp:435] fire6/concat <- fire6/expand3x3
I0917 11:19:35.548496  3359 net.cpp:409] fire6/concat -> fire6/concat
I0917 11:19:35.548569  3359 net.cpp:144] Setting up fire6/concat
I0917 11:19:35.548579  3359 net.cpp:151] Top shape: 64 384 14 14 (4816896)
I0917 11:19:35.548586  3359 net.cpp:159] Memory required for data: 1694326272
I0917 11:19:35.548593  3359 layer_factory.hpp:77] Creating layer fire7/squeeze1x1
I0917 11:19:35.548607  3359 net.cpp:94] Creating Layer fire7/squeeze1x1
I0917 11:19:35.548615  3359 net.cpp:435] fire7/squeeze1x1 <- fire6/concat
I0917 11:19:35.548625  3359 net.cpp:409] fire7/squeeze1x1 -> fire7/squeeze1x1
I0917 11:19:35.551301  3359 net.cpp:144] Setting up fire7/squeeze1x1
I0917 11:19:35.551314  3359 net.cpp:151] Top shape: 64 48 14 14 (602112)
I0917 11:19:35.551322  3359 net.cpp:159] Memory required for data: 1696734720
I0917 11:19:35.551343  3359 layer_factory.hpp:77] Creating layer fire7/relu_squeeze1x1
I0917 11:19:35.551353  3359 net.cpp:94] Creating Layer fire7/relu_squeeze1x1
I0917 11:19:35.551362  3359 net.cpp:435] fire7/relu_squeeze1x1 <- fire7/squeeze1x1
I0917 11:19:35.551370  3359 net.cpp:396] fire7/relu_squeeze1x1 -> fire7/squeeze1x1 (in-place)
I0917 11:19:35.551383  3359 net.cpp:144] Setting up fire7/relu_squeeze1x1
I0917 11:19:35.551391  3359 net.cpp:151] Top shape: 64 48 14 14 (602112)
I0917 11:19:35.551398  3359 net.cpp:159] Memory required for data: 1699143168
I0917 11:19:35.551405  3359 layer_factory.hpp:77] Creating layer fire7/squeeze1x1_fire7/relu_squeeze1x1_0_split
I0917 11:19:35.551415  3359 net.cpp:94] Creating Layer fire7/squeeze1x1_fire7/relu_squeeze1x1_0_split
I0917 11:19:35.551422  3359 net.cpp:435] fire7/squeeze1x1_fire7/relu_squeeze1x1_0_split <- fire7/squeeze1x1
I0917 11:19:35.551431  3359 net.cpp:409] fire7/squeeze1x1_fire7/relu_squeeze1x1_0_split -> fire7/squeeze1x1_fire7/relu_squeeze1x1_0_split_0
I0917 11:19:35.551442  3359 net.cpp:409] fire7/squeeze1x1_fire7/relu_squeeze1x1_0_split -> fire7/squeeze1x1_fire7/relu_squeeze1x1_0_split_1
I0917 11:19:35.551498  3359 net.cpp:144] Setting up fire7/squeeze1x1_fire7/relu_squeeze1x1_0_split
I0917 11:19:35.551508  3359 net.cpp:151] Top shape: 64 48 14 14 (602112)
I0917 11:19:35.551517  3359 net.cpp:151] Top shape: 64 48 14 14 (602112)
I0917 11:19:35.551524  3359 net.cpp:159] Memory required for data: 1703960064
I0917 11:19:35.551532  3359 layer_factory.hpp:77] Creating layer fire7/expand1x1
I0917 11:19:35.551544  3359 net.cpp:94] Creating Layer fire7/expand1x1
I0917 11:19:35.551553  3359 net.cpp:435] fire7/expand1x1 <- fire7/squeeze1x1_fire7/relu_squeeze1x1_0_split_0
I0917 11:19:35.551563  3359 net.cpp:409] fire7/expand1x1 -> fire7/expand1x1
I0917 11:19:35.553809  3359 net.cpp:144] Setting up fire7/expand1x1
I0917 11:19:35.553830  3359 net.cpp:151] Top shape: 64 192 14 14 (2408448)
I0917 11:19:35.553838  3359 net.cpp:159] Memory required for data: 1713593856
I0917 11:19:35.553851  3359 layer_factory.hpp:77] Creating layer fire7/relu_expand1x1
I0917 11:19:35.553864  3359 net.cpp:94] Creating Layer fire7/relu_expand1x1
I0917 11:19:35.553874  3359 net.cpp:435] fire7/relu_expand1x1 <- fire7/expand1x1
I0917 11:19:35.553884  3359 net.cpp:396] fire7/relu_expand1x1 -> fire7/expand1x1 (in-place)
I0917 11:19:35.553896  3359 net.cpp:144] Setting up fire7/relu_expand1x1
I0917 11:19:35.553905  3359 net.cpp:151] Top shape: 64 192 14 14 (2408448)
I0917 11:19:35.553912  3359 net.cpp:159] Memory required for data: 1723227648
I0917 11:19:35.553920  3359 layer_factory.hpp:77] Creating layer fire7/expand3x3
I0917 11:19:35.553932  3359 net.cpp:94] Creating Layer fire7/expand3x3
I0917 11:19:35.553939  3359 net.cpp:435] fire7/expand3x3 <- fire7/squeeze1x1_fire7/relu_squeeze1x1_0_split_1
I0917 11:19:35.553949  3359 net.cpp:409] fire7/expand3x3 -> fire7/expand3x3
I0917 11:19:35.561353  3359 net.cpp:144] Setting up fire7/expand3x3
I0917 11:19:35.561383  3359 net.cpp:151] Top shape: 64 192 14 14 (2408448)
I0917 11:19:35.561390  3359 net.cpp:159] Memory required for data: 1732861440
I0917 11:19:35.561404  3359 layer_factory.hpp:77] Creating layer fire7/relu_expand3x3
I0917 11:19:35.561444  3359 net.cpp:94] Creating Layer fire7/relu_expand3x3
I0917 11:19:35.561453  3359 net.cpp:435] fire7/relu_expand3x3 <- fire7/expand3x3
I0917 11:19:35.561465  3359 net.cpp:396] fire7/relu_expand3x3 -> fire7/expand3x3 (in-place)
I0917 11:19:35.561480  3359 net.cpp:144] Setting up fire7/relu_expand3x3
I0917 11:19:35.561488  3359 net.cpp:151] Top shape: 64 192 14 14 (2408448)
I0917 11:19:35.561496  3359 net.cpp:159] Memory required for data: 1742495232
I0917 11:19:35.561502  3359 layer_factory.hpp:77] Creating layer fire7/concat
I0917 11:19:35.561512  3359 net.cpp:94] Creating Layer fire7/concat
I0917 11:19:35.561519  3359 net.cpp:435] fire7/concat <- fire7/expand1x1
I0917 11:19:35.561527  3359 net.cpp:435] fire7/concat <- fire7/expand3x3
I0917 11:19:35.561537  3359 net.cpp:409] fire7/concat -> fire7/concat
I0917 11:19:35.561604  3359 net.cpp:144] Setting up fire7/concat
I0917 11:19:35.561614  3359 net.cpp:151] Top shape: 64 384 14 14 (4816896)
I0917 11:19:35.561620  3359 net.cpp:159] Memory required for data: 1761762816
I0917 11:19:35.561627  3359 layer_factory.hpp:77] Creating layer fire8/squeeze1x1
I0917 11:19:35.561661  3359 net.cpp:94] Creating Layer fire8/squeeze1x1
I0917 11:19:35.561669  3359 net.cpp:435] fire8/squeeze1x1 <- fire7/concat
I0917 11:19:35.561679  3359 net.cpp:409] fire8/squeeze1x1 -> fire8/squeeze1x1
I0917 11:19:35.564177  3359 net.cpp:144] Setting up fire8/squeeze1x1
I0917 11:19:35.564195  3359 net.cpp:151] Top shape: 64 64 14 14 (802816)
I0917 11:19:35.564203  3359 net.cpp:159] Memory required for data: 1764974080
I0917 11:19:35.564214  3359 layer_factory.hpp:77] Creating layer fire8/relu_squeeze1x1
I0917 11:19:35.564225  3359 net.cpp:94] Creating Layer fire8/relu_squeeze1x1
I0917 11:19:35.564234  3359 net.cpp:435] fire8/relu_squeeze1x1 <- fire8/squeeze1x1
I0917 11:19:35.564242  3359 net.cpp:396] fire8/relu_squeeze1x1 -> fire8/squeeze1x1 (in-place)
I0917 11:19:35.564254  3359 net.cpp:144] Setting up fire8/relu_squeeze1x1
I0917 11:19:35.564263  3359 net.cpp:151] Top shape: 64 64 14 14 (802816)
I0917 11:19:35.564270  3359 net.cpp:159] Memory required for data: 1768185344
I0917 11:19:35.564277  3359 layer_factory.hpp:77] Creating layer fire8/squeeze1x1_fire8/relu_squeeze1x1_0_split
I0917 11:19:35.564287  3359 net.cpp:94] Creating Layer fire8/squeeze1x1_fire8/relu_squeeze1x1_0_split
I0917 11:19:35.564294  3359 net.cpp:435] fire8/squeeze1x1_fire8/relu_squeeze1x1_0_split <- fire8/squeeze1x1
I0917 11:19:35.564304  3359 net.cpp:409] fire8/squeeze1x1_fire8/relu_squeeze1x1_0_split -> fire8/squeeze1x1_fire8/relu_squeeze1x1_0_split_0
I0917 11:19:35.564316  3359 net.cpp:409] fire8/squeeze1x1_fire8/relu_squeeze1x1_0_split -> fire8/squeeze1x1_fire8/relu_squeeze1x1_0_split_1
I0917 11:19:35.564374  3359 net.cpp:144] Setting up fire8/squeeze1x1_fire8/relu_squeeze1x1_0_split
I0917 11:19:35.564384  3359 net.cpp:151] Top shape: 64 64 14 14 (802816)
I0917 11:19:35.564393  3359 net.cpp:151] Top shape: 64 64 14 14 (802816)
I0917 11:19:35.564400  3359 net.cpp:159] Memory required for data: 1774607872
I0917 11:19:35.564407  3359 layer_factory.hpp:77] Creating layer fire8/expand1x1
I0917 11:19:35.564420  3359 net.cpp:94] Creating Layer fire8/expand1x1
I0917 11:19:35.564427  3359 net.cpp:435] fire8/expand1x1 <- fire8/squeeze1x1_fire8/relu_squeeze1x1_0_split_0
I0917 11:19:35.564438  3359 net.cpp:409] fire8/expand1x1 -> fire8/expand1x1
I0917 11:19:35.566979  3359 net.cpp:144] Setting up fire8/expand1x1
I0917 11:19:35.567003  3359 net.cpp:151] Top shape: 64 256 14 14 (3211264)
I0917 11:19:35.567010  3359 net.cpp:159] Memory required for data: 1787452928
I0917 11:19:35.567023  3359 layer_factory.hpp:77] Creating layer fire8/relu_expand1x1
I0917 11:19:35.567035  3359 net.cpp:94] Creating Layer fire8/relu_expand1x1
I0917 11:19:35.567044  3359 net.cpp:435] fire8/relu_expand1x1 <- fire8/expand1x1
I0917 11:19:35.567054  3359 net.cpp:396] fire8/relu_expand1x1 -> fire8/expand1x1 (in-place)
I0917 11:19:35.567066  3359 net.cpp:144] Setting up fire8/relu_expand1x1
I0917 11:19:35.567075  3359 net.cpp:151] Top shape: 64 256 14 14 (3211264)
I0917 11:19:35.567106  3359 net.cpp:159] Memory required for data: 1800297984
I0917 11:19:35.567113  3359 layer_factory.hpp:77] Creating layer fire8/expand3x3
I0917 11:19:35.567126  3359 net.cpp:94] Creating Layer fire8/expand3x3
I0917 11:19:35.567134  3359 net.cpp:435] fire8/expand3x3 <- fire8/squeeze1x1_fire8/relu_squeeze1x1_0_split_1
I0917 11:19:35.567144  3359 net.cpp:409] fire8/expand3x3 -> fire8/expand3x3
I0917 11:19:35.579565  3359 net.cpp:144] Setting up fire8/expand3x3
I0917 11:19:35.579597  3359 net.cpp:151] Top shape: 64 256 14 14 (3211264)
I0917 11:19:35.579605  3359 net.cpp:159] Memory required for data: 1813143040
I0917 11:19:35.579620  3359 layer_factory.hpp:77] Creating layer fire8/relu_expand3x3
I0917 11:19:35.579635  3359 net.cpp:94] Creating Layer fire8/relu_expand3x3
I0917 11:19:35.579645  3359 net.cpp:435] fire8/relu_expand3x3 <- fire8/expand3x3
I0917 11:19:35.579656  3359 net.cpp:396] fire8/relu_expand3x3 -> fire8/expand3x3 (in-place)
I0917 11:19:35.579671  3359 net.cpp:144] Setting up fire8/relu_expand3x3
I0917 11:19:35.579680  3359 net.cpp:151] Top shape: 64 256 14 14 (3211264)
I0917 11:19:35.579687  3359 net.cpp:159] Memory required for data: 1825988096
I0917 11:19:35.579694  3359 layer_factory.hpp:77] Creating layer fire8/concat
I0917 11:19:35.579704  3359 net.cpp:94] Creating Layer fire8/concat
I0917 11:19:35.579712  3359 net.cpp:435] fire8/concat <- fire8/expand1x1
I0917 11:19:35.579720  3359 net.cpp:435] fire8/concat <- fire8/expand3x3
I0917 11:19:35.579730  3359 net.cpp:409] fire8/concat -> fire8/concat
I0917 11:19:35.579805  3359 net.cpp:144] Setting up fire8/concat
I0917 11:19:35.579815  3359 net.cpp:151] Top shape: 64 512 14 14 (6422528)
I0917 11:19:35.579823  3359 net.cpp:159] Memory required for data: 1851678208
I0917 11:19:35.579829  3359 layer_factory.hpp:77] Creating layer fire9/squeeze1x1
I0917 11:19:35.579843  3359 net.cpp:94] Creating Layer fire9/squeeze1x1
I0917 11:19:35.579850  3359 net.cpp:435] fire9/squeeze1x1 <- fire8/concat
I0917 11:19:35.579860  3359 net.cpp:409] fire9/squeeze1x1 -> fire9/squeeze1x1
I0917 11:19:35.582710  3359 net.cpp:144] Setting up fire9/squeeze1x1
I0917 11:19:35.582729  3359 net.cpp:151] Top shape: 64 64 14 14 (802816)
I0917 11:19:35.582736  3359 net.cpp:159] Memory required for data: 1854889472
I0917 11:19:35.582748  3359 layer_factory.hpp:77] Creating layer fire9/relu_squeeze1x1
I0917 11:19:35.582775  3359 net.cpp:94] Creating Layer fire9/relu_squeeze1x1
I0917 11:19:35.582784  3359 net.cpp:435] fire9/relu_squeeze1x1 <- fire9/squeeze1x1
I0917 11:19:35.582794  3359 net.cpp:396] fire9/relu_squeeze1x1 -> fire9/squeeze1x1 (in-place)
I0917 11:19:35.582808  3359 net.cpp:144] Setting up fire9/relu_squeeze1x1
I0917 11:19:35.582816  3359 net.cpp:151] Top shape: 64 64 14 14 (802816)
I0917 11:19:35.582823  3359 net.cpp:159] Memory required for data: 1858100736
I0917 11:19:35.582830  3359 layer_factory.hpp:77] Creating layer fire9/squeeze1x1_fire9/relu_squeeze1x1_0_split
I0917 11:19:35.582841  3359 net.cpp:94] Creating Layer fire9/squeeze1x1_fire9/relu_squeeze1x1_0_split
I0917 11:19:35.582849  3359 net.cpp:435] fire9/squeeze1x1_fire9/relu_squeeze1x1_0_split <- fire9/squeeze1x1
I0917 11:19:35.582859  3359 net.cpp:409] fire9/squeeze1x1_fire9/relu_squeeze1x1_0_split -> fire9/squeeze1x1_fire9/relu_squeeze1x1_0_split_0
I0917 11:19:35.582870  3359 net.cpp:409] fire9/squeeze1x1_fire9/relu_squeeze1x1_0_split -> fire9/squeeze1x1_fire9/relu_squeeze1x1_0_split_1
I0917 11:19:35.582932  3359 net.cpp:144] Setting up fire9/squeeze1x1_fire9/relu_squeeze1x1_0_split
I0917 11:19:35.582942  3359 net.cpp:151] Top shape: 64 64 14 14 (802816)
I0917 11:19:35.582952  3359 net.cpp:151] Top shape: 64 64 14 14 (802816)
I0917 11:19:35.582958  3359 net.cpp:159] Memory required for data: 1864523264
I0917 11:19:35.582965  3359 layer_factory.hpp:77] Creating layer fire9/expand1x1
I0917 11:19:35.582978  3359 net.cpp:94] Creating Layer fire9/expand1x1
I0917 11:19:35.582985  3359 net.cpp:435] fire9/expand1x1 <- fire9/squeeze1x1_fire9/relu_squeeze1x1_0_split_0
I0917 11:19:35.583024  3359 net.cpp:409] fire9/expand1x1 -> fire9/expand1x1
I0917 11:19:35.585597  3359 net.cpp:144] Setting up fire9/expand1x1
I0917 11:19:35.585614  3359 net.cpp:151] Top shape: 64 256 14 14 (3211264)
I0917 11:19:35.585623  3359 net.cpp:159] Memory required for data: 1877368320
I0917 11:19:35.585647  3359 layer_factory.hpp:77] Creating layer fire9/relu_expand1x1
I0917 11:19:35.585659  3359 net.cpp:94] Creating Layer fire9/relu_expand1x1
I0917 11:19:35.585669  3359 net.cpp:435] fire9/relu_expand1x1 <- fire9/expand1x1
I0917 11:19:35.585678  3359 net.cpp:396] fire9/relu_expand1x1 -> fire9/expand1x1 (in-place)
I0917 11:19:35.585690  3359 net.cpp:144] Setting up fire9/relu_expand1x1
I0917 11:19:35.585700  3359 net.cpp:151] Top shape: 64 256 14 14 (3211264)
I0917 11:19:35.585706  3359 net.cpp:159] Memory required for data: 1890213376
I0917 11:19:35.585713  3359 layer_factory.hpp:77] Creating layer fire9/expand3x3
I0917 11:19:35.585726  3359 net.cpp:94] Creating Layer fire9/expand3x3
I0917 11:19:35.585734  3359 net.cpp:435] fire9/expand3x3 <- fire9/squeeze1x1_fire9/relu_squeeze1x1_0_split_1
I0917 11:19:35.585744  3359 net.cpp:409] fire9/expand3x3 -> fire9/expand3x3
I0917 11:19:35.593739  3359 net.cpp:144] Setting up fire9/expand3x3
I0917 11:19:35.593771  3359 net.cpp:151] Top shape: 64 256 14 14 (3211264)
I0917 11:19:35.593780  3359 net.cpp:159] Memory required for data: 1903058432
I0917 11:19:35.593794  3359 layer_factory.hpp:77] Creating layer fire9/relu_expand3x3
I0917 11:19:35.593808  3359 net.cpp:94] Creating Layer fire9/relu_expand3x3
I0917 11:19:35.593817  3359 net.cpp:435] fire9/relu_expand3x3 <- fire9/expand3x3
I0917 11:19:35.593828  3359 net.cpp:396] fire9/relu_expand3x3 -> fire9/expand3x3 (in-place)
I0917 11:19:35.593843  3359 net.cpp:144] Setting up fire9/relu_expand3x3
I0917 11:19:35.593852  3359 net.cpp:151] Top shape: 64 256 14 14 (3211264)
I0917 11:19:35.593858  3359 net.cpp:159] Memory required for data: 1915903488
I0917 11:19:35.593865  3359 layer_factory.hpp:77] Creating layer fire9/concat
I0917 11:19:35.593876  3359 net.cpp:94] Creating Layer fire9/concat
I0917 11:19:35.593883  3359 net.cpp:435] fire9/concat <- fire9/expand1x1
I0917 11:19:35.593891  3359 net.cpp:435] fire9/concat <- fire9/expand3x3
I0917 11:19:35.593901  3359 net.cpp:409] fire9/concat -> fire9/concat
I0917 11:19:35.593988  3359 net.cpp:144] Setting up fire9/concat
I0917 11:19:35.593998  3359 net.cpp:151] Top shape: 64 512 14 14 (6422528)
I0917 11:19:35.594005  3359 net.cpp:159] Memory required for data: 1941593600
I0917 11:19:35.594012  3359 layer_factory.hpp:77] Creating layer drop9
I0917 11:19:35.594024  3359 net.cpp:94] Creating Layer drop9
I0917 11:19:35.594032  3359 net.cpp:435] drop9 <- fire9/concat
I0917 11:19:35.594040  3359 net.cpp:396] drop9 -> fire9/concat (in-place)
I0917 11:19:35.594079  3359 net.cpp:144] Setting up drop9
I0917 11:19:35.594089  3359 net.cpp:151] Top shape: 64 512 14 14 (6422528)
I0917 11:19:35.594095  3359 net.cpp:159] Memory required for data: 1967283712
I0917 11:19:35.594102  3359 layer_factory.hpp:77] Creating layer conv10
I0917 11:19:35.594116  3359 net.cpp:94] Creating Layer conv10
I0917 11:19:35.594123  3359 net.cpp:435] conv10 <- fire9/concat
I0917 11:19:35.594133  3359 net.cpp:409] conv10 -> conv10
I0917 11:19:35.596014  3359 net.cpp:144] Setting up conv10
I0917 11:19:35.596035  3359 net.cpp:151] Top shape: 64 2 14 14 (25088)
I0917 11:19:35.596042  3359 net.cpp:159] Memory required for data: 1967384064
I0917 11:19:35.596055  3359 layer_factory.hpp:77] Creating layer relu_conv10
I0917 11:19:35.596066  3359 net.cpp:94] Creating Layer relu_conv10
I0917 11:19:35.596074  3359 net.cpp:435] relu_conv10 <- conv10
I0917 11:19:35.596084  3359 net.cpp:396] relu_conv10 -> conv10 (in-place)
I0917 11:19:35.596097  3359 net.cpp:144] Setting up relu_conv10
I0917 11:19:35.596107  3359 net.cpp:151] Top shape: 64 2 14 14 (25088)
I0917 11:19:35.596112  3359 net.cpp:159] Memory required for data: 1967484416
I0917 11:19:35.596119  3359 layer_factory.hpp:77] Creating layer pool10
I0917 11:19:35.596130  3359 net.cpp:94] Creating Layer pool10
I0917 11:19:35.596164  3359 net.cpp:435] pool10 <- conv10
I0917 11:19:35.596175  3359 net.cpp:409] pool10 -> pool10
I0917 11:19:35.596237  3359 net.cpp:144] Setting up pool10
I0917 11:19:35.596247  3359 net.cpp:151] Top shape: 64 2 1 1 (128)
I0917 11:19:35.596254  3359 net.cpp:159] Memory required for data: 1967484928
I0917 11:19:35.596261  3359 layer_factory.hpp:77] Creating layer pool10_pool10_0_split
I0917 11:19:35.596271  3359 net.cpp:94] Creating Layer pool10_pool10_0_split
I0917 11:19:35.596279  3359 net.cpp:435] pool10_pool10_0_split <- pool10
I0917 11:19:35.596288  3359 net.cpp:409] pool10_pool10_0_split -> pool10_pool10_0_split_0
I0917 11:19:35.596298  3359 net.cpp:409] pool10_pool10_0_split -> pool10_pool10_0_split_1
I0917 11:19:35.596354  3359 net.cpp:144] Setting up pool10_pool10_0_split
I0917 11:19:35.596364  3359 net.cpp:151] Top shape: 64 2 1 1 (128)
I0917 11:19:35.596371  3359 net.cpp:151] Top shape: 64 2 1 1 (128)
I0917 11:19:35.596379  3359 net.cpp:159] Memory required for data: 1967485952
I0917 11:19:35.596385  3359 layer_factory.hpp:77] Creating layer accuracy
I0917 11:19:35.596395  3359 net.cpp:94] Creating Layer accuracy
I0917 11:19:35.596403  3359 net.cpp:435] accuracy <- pool10_pool10_0_split_0
I0917 11:19:35.597666  3359 net.cpp:435] accuracy <- label_val-data_1_split_0
I0917 11:19:35.597677  3359 net.cpp:409] accuracy -> accuracy
…
