…
I1018 23:03:56.090893  3328 net.cpp:323] The NetState phase (0) differed from the phase (1) specified by a rule in layer accuracy
I1018 23:03:56.091157  3328 net.cpp:52] Initializing net from parameters:
state {
phase: TRAIN
}
layer {
name: "train-data"
type: "Data"
top: "data"
top: "label"
include {
phase: TRAIN
}
transform_param {
mirror: true
crop_size: 224
mean_file: "/media/myuser/120Gb/DIGITS/digits/jobs/20160917-133511-8c62/mean.binaryproto"
}
data_param {
source: "/media/myuser/120Gb/DIGITS/digits/jobs/20160917-133511-8c62/train_db"
batch_size: 128
backend: LMDB
}
}
layer {
name: "conv1"
type: "Convolution"
bottom: "data"
top: "conv1"
param {
lr_mult: 1
decay_mult: 1
}
param {
lr_mult: 2
decay_mult: 0
}
convolution_param {
num_output: 96
kernel_size: 11
stride: 4
weight_filler {
type: "gaussian"
mean: 0
std: 0.01
}
bias_filler {
type: "constant"
value: 0
}
}
}
layer {
name: "relu0"
type: "ReLU"
bottom: "conv1"
top: "conv1"
}
layer {
name: "cccp1"
type: "Convolution"
bottom: "conv1"
top: "cccp1"
param {
lr_mult: 1
decay_mult: 1
}
param {
lr_mult: 2
decay_mult: 0
}
convolution_param {
num_output: 96
kernel_size: 1
stride: 1
weight_filler {
type: "gaussian"
mean: 0
std: 0.05
}
bias_filler {
type: "constant"
value: 0
}
}
}
layer {
name: "relu1"
type: "ReLU"
bottom: "cccp1"
top: "cccp1"
}
layer {
name: "cccp2"
type: "Convolution"
bottom: "cccp1"
top: "cccp2"
param {
lr_mult: 1
decay_mult: 1
}
param {
lr_mult: 2
decay_mult: 0
}
convolution_param {
num_output: 96
kernel_size: 1
stride: 1
weight_filler {
type: "gaussian"
mean: 0
std: 0.05
}
bias_filler {
type: "constant"
value: 0
}
}
}
layer {
name: "relu2"
type: "ReLU"
bottom: "cccp2"
top: "cccp2"
}
layer {
name: "pool0"
type: "Pooling"
bottom: "cccp2"
top: "pool0"
pooling_param {
pool: MAX
kernel_size: 3
stride: 2
}
}
layer {
name: "conv2"
type: "Convolution"
bottom: "pool0"
top: "conv2"
param {
lr_mult: 1
decay_mult: 1
}
param {
lr_mult: 2
decay_mult: 0
}
convolution_param {
num_output: 256
pad: 2
kernel_size: 5
stride: 1
weight_filler {
type: "gaussian"
mean: 0
std: 0.05
}
bias_filler {
type: "constant"
value: 0
}
}
}
layer {
name: "relu3"
type: "ReLU"
bottom: "conv2"
top: "conv2"
}
layer {
name: "cccp3"
type: "Convolution"
bottom: "conv2"
top: "cccp3"
param {
lr_mult: 1
decay_mult: 1
}
param {
lr_mult: 2
decay_mult: 0
}
convolution_param {
num_output: 256
kernel_size: 1
stride: 1
weight_filler {
type: "gaussian"
mean: 0
std: 0.05
}
bias_filler {
type: "constant"
value: 0
}
}
}
layer {
name: "relu5"
type: "ReLU"
bottom: "cccp3"
top: "cccp3"
}
layer {
name: "cccp4"
type: "Convolution"
bottom: "cccp3"
top: "cccp4"
param {
lr_mult: 1
decay_mult: 1
}
param {
lr_mult: 2
decay_mult: 0
}
convolution_param {
num_output: 256
kernel_size: 1
stride: 1
weight_filler {
type: "gaussian"
mean: 0
std: 0.05
}
bias_filler {
type: "constant"
value: 0
}
}
}
layer {
name: "relu6"
type: "ReLU"
bottom: "cccp4"
top: "cccp4"
}
layer {
name: "pool2"
type: "Pooling"
bottom: "cccp4"
top: "pool2"
pooling_param {
pool: MAX
kernel_size: 3
stride: 2
}
}
layer {
name: "conv3"
type: "Convolution"
bottom: "pool2"
top: "conv3"
param {
lr_mult: 1
decay_mult: 1
}
param {
lr_mult: 2
decay_mult: 0
}
convolution_param {
num_output: 384
pad: 1
kernel_size: 3
stride: 1
weight_filler {
type: "gaussian"
mean: 0
std: 0.01
}
bias_filler {
type: "constant"
value: 0
}
}
}
layer {
name: "relu7"
type: "ReLU"
bottom: "conv3"
top: "conv3"
}
layer {
name: "cccp5"
type: "Convolution"
bottom: "conv3"
top: "cccp5"
param {
lr_mult: 1
decay_mult: 1
}
param {
lr_mult: 2
decay_mult: 0
}
convolution_param {
num_output: 384
kernel_size: 1
stride: 1
weight_filler {
type: "gaussian"
mean: 0
std: 0.05
}
bias_filler {
type: "constant"
value: 0
}
}
}
layer {
name: "relu8"
type: "ReLU"
bottom: "cccp5"
top: "cccp5"
}
layer {
name: "cccp6"
type: "Convolution"
bottom: "cccp5"
top: "cccp6"
param {
lr_mult: 1
decay_mult: 1
}
param {
lr_mult: 2
decay_mult: 0
}
convolution_param {
num_output: 384
kernel_size: 1
stride: 1
weight_filler {
type: "gaussian"
mean: 0
std: 0.05
}
bias_filler {
type: "constant"
value: 0
}
}
}
layer {
name: "relu9"
type: "ReLU"
bottom: "cccp6"
top: "cccp6"
}
layer {
name: "pool3"
type: "Pooling"
bottom: "cccp6"
top: "pool3"
pooling_param {
pool: MAX
kernel_size: 3
stride: 2
}
}
layer {
name: "drop"
type: "Dropout"
bottom: "pool3"
top: "pool3"
dropout_param {
dropout_ratio: 0.5
}
}
layer {
name: "conv4-1024"
type: "Convolution"
bottom: "pool3"
top: "conv4"
param {
lr_mult: 1
decay_mult: 1
}
param {
lr_mult: 2
decay_mult: 0
}
convolution_param {
num_output: 1024
pad: 1
kernel_size: 3
stride: 1
weight_filler {
type: "gaussian"
mean: 0
std: 0.05
}
bias_filler {
type: "constant"
value: 0
}
}
}
layer {
name: "relu10"
type: "ReLU"
bottom: "conv4"
top: "conv4"
}
layer {
name: "cccp7-1024"
type: "Convolution"
bottom: "conv4"
top: "cccp7"
param {
lr_mult: 1
decay_mult: 1
}
param {
lr_mult: 2
decay_mult: 0
}
convolution_param {
num_output: 1024
kernel_size: 1
stride: 1
weight_filler {
type: "gaussian"
mean: 0
std: 0.05
}
bias_filler {
type: "constant"
value: 0
}
}
}
layer {
name: "relu11"
type: "ReLU"
bottom: "cccp7"
top: "cccp7"
}
layer {
name: "cccp8-1024"
type: "Convolution"
bottom: "cccp7"
top: "cccp8"
param {
lr_mult: 1
decay_mult: 1
}
param {
lr_mult: 2
decay_mult: 0
}
convolution_param {
num_output: 2
kernel_size: 1
stride: 1
weight_filler {
type: "gaussian"
mean: 0
std: 0.01
}
bias_filler {
type: "constant"
value: 0
}
}
}
layer {
name: "relu12"
type: "ReLU"
bottom: "cccp8"
top: "cccp8"
}
layer {
name: "pool4"
type: "Pooling"
bottom: "cccp8"
top: "pool4"
pooling_param {
pool: AVE
kernel_size: 6
stride: 1
}
}
layer {
name: "loss"
type: "SoftmaxWithLoss"
bottom: "pool4"
bottom: "label"
top: "loss"
}
I1018 23:03:56.091311  3328 layer_factory.hpp:77] Creating layer train-data
I1018 23:03:56.091825  3328 net.cpp:94] Creating Layer train-data
I1018 23:03:56.091850  3328 net.cpp:409] train-data -> data
I1018 23:03:56.091881  3328 net.cpp:409] train-data -> label
I1018 23:03:56.091902  3328 data_transformer.cpp:25] Loading mean file from: /media/myuser/120Gb/DIGITS/digits/jobs/20160917-133511-8c62/mean.binaryproto
I1018 23:03:56.095347  3334 db_lmdb.cpp:35] Opened lmdb /media/myuser/120Gb/DIGITS/digits/jobs/20160917-133511-8c62/train_db
I1018 23:03:56.105412  3328 data_layer.cpp:76] output data size: 128,3,224,224
I1018 23:03:56.359378  3328 net.cpp:144] Setting up train-data
I1018 23:03:56.359419  3328 net.cpp:151] Top shape: 128 3 224 224 (19267584)
I1018 23:03:56.359431  3328 net.cpp:151] Top shape: 128 (128)
I1018 23:03:56.359438  3328 net.cpp:159] Memory required for data: 77070848
I1018 23:03:56.359454  3328 layer_factory.hpp:77] Creating layer conv1
I1018 23:03:56.359483  3328 net.cpp:94] Creating Layer conv1
I1018 23:03:56.363512  3328 net.cpp:435] conv1 <- data
I1018 23:03:56.363536  3328 net.cpp:409] conv1 -> conv1
I1018 23:04:00.863708  3328 net.cpp:144] Setting up conv1
I1018 23:04:00.863754  3328 net.cpp:151] Top shape: 128 96 54 54 (35831808)
I1018 23:04:00.863764  3328 net.cpp:159] Memory required for data: 220398080
I1018 23:04:00.863791  3328 layer_factory.hpp:77] Creating layer relu0
I1018 23:04:00.863811  3328 net.cpp:94] Creating Layer relu0
I1018 23:04:00.863821  3328 net.cpp:435] relu0 <- conv1
I1018 23:04:00.863831  3328 net.cpp:396] relu0 -> conv1 (in-place)
I1018 23:04:00.863867  3328 net.cpp:144] Setting up relu0
I1018 23:04:00.863878  3328 net.cpp:151] Top shape: 128 96 54 54 (35831808)
I1018 23:04:00.863885  3328 net.cpp:159] Memory required for data: 363725312
I1018 23:04:00.863893  3328 layer_factory.hpp:77] Creating layer cccp1
I1018 23:04:00.863911  3328 net.cpp:94] Creating Layer cccp1
I1018 23:04:00.863919  3328 net.cpp:435] cccp1 <- conv1
I1018 23:04:00.863930  3328 net.cpp:409] cccp1 -> cccp1
I1018 23:04:00.936507  3328 net.cpp:144] Setting up cccp1
I1018 23:04:00.936544  3328 net.cpp:151] Top shape: 128 96 54 54 (35831808)
I1018 23:04:00.936553  3328 net.cpp:159] Memory required for data: 507052544
I1018 23:04:00.936573  3328 layer_factory.hpp:77] Creating layer relu1
I1018 23:04:00.936589  3328 net.cpp:94] Creating Layer relu1
I1018 23:04:00.936599  3328 net.cpp:435] relu1 <- cccp1
I1018 23:04:00.936609  3328 net.cpp:396] relu1 -> cccp1 (in-place)
I1018 23:04:00.936625  3328 net.cpp:144] Setting up relu1
I1018 23:04:00.936633  3328 net.cpp:151] Top shape: 128 96 54 54 (35831808)
I1018 23:04:00.936640  3328 net.cpp:159] Memory required for data: 650379776
I1018 23:04:00.936647  3328 layer_factory.hpp:77] Creating layer cccp2
I1018 23:04:00.936664  3328 net.cpp:94] Creating Layer cccp2
I1018 23:04:00.936672  3328 net.cpp:435] cccp2 <- cccp1
I1018 23:04:00.936682  3328 net.cpp:409] cccp2 -> cccp2
I1018 23:04:00.987152  3328 net.cpp:144] Setting up cccp2
I1018 23:04:00.987192  3328 net.cpp:151] Top shape: 128 96 54 54 (35831808)
I1018 23:04:00.987200  3328 net.cpp:159] Memory required for data: 793707008
I1018 23:04:00.987221  3328 layer_factory.hpp:77] Creating layer relu2
I1018 23:04:00.987236  3328 net.cpp:94] Creating Layer relu2
I1018 23:04:00.987246  3328 net.cpp:435] relu2 <- cccp2
I1018 23:04:00.987256  3328 net.cpp:396] relu2 -> cccp2 (in-place)
I1018 23:04:00.987272  3328 net.cpp:144] Setting up relu2
I1018 23:04:00.987282  3328 net.cpp:151] Top shape: 128 96 54 54 (35831808)
I1018 23:04:00.987288  3328 net.cpp:159] Memory required for data: 937034240
I1018 23:04:00.987295  3328 layer_factory.hpp:77] Creating layer pool0
I1018 23:04:00.987311  3328 net.cpp:94] Creating Layer pool0
I1018 23:04:00.987319  3328 net.cpp:435] pool0 <- cccp2
I1018 23:04:00.987329  3328 net.cpp:409] pool0 -> pool0
I1018 23:04:00.987438  3328 net.cpp:144] Setting up pool0
I1018 23:04:00.987448  3328 net.cpp:151] Top shape: 128 96 27 27 (8957952)
I1018 23:04:00.987457  3328 net.cpp:159] Memory required for data: 972866048
I1018 23:04:00.987463  3328 layer_factory.hpp:77] Creating layer conv2
I1018 23:04:00.987526  3328 net.cpp:94] Creating Layer conv2
I1018 23:04:00.987534  3328 net.cpp:435] conv2 <- pool0
I1018 23:04:00.987545  3328 net.cpp:409] conv2 -> conv2
I1018 23:04:01.321887  3328 net.cpp:144] Setting up conv2
I1018 23:04:01.321928  3328 net.cpp:151] Top shape: 128 256 27 27 (23887872)
I1018 23:04:01.321935  3328 net.cpp:159] Memory required for data: 1068417536
I1018 23:04:01.321951  3328 layer_factory.hpp:77] Creating layer relu3
I1018 23:04:01.321965  3328 net.cpp:94] Creating Layer relu3
I1018 23:04:01.321974  3328 net.cpp:435] relu3 <- conv2
I1018 23:04:01.321985  3328 net.cpp:396] relu3 -> conv2 (in-place)
I1018 23:04:01.322001  3328 net.cpp:144] Setting up relu3
I1018 23:04:01.322010  3328 net.cpp:151] Top shape: 128 256 27 27 (23887872)
I1018 23:04:01.322017  3328 net.cpp:159] Memory required for data: 1163969024
I1018 23:04:01.322024  3328 layer_factory.hpp:77] Creating layer cccp3
I1018 23:04:01.322041  3328 net.cpp:94] Creating Layer cccp3
I1018 23:04:01.322049  3328 net.cpp:435] cccp3 <- conv2
I1018 23:04:01.322060  3328 net.cpp:409] cccp3 -> cccp3
I1018 23:04:01.366147  3328 net.cpp:144] Setting up cccp3
I1018 23:04:01.366181  3328 net.cpp:151] Top shape: 128 256 27 27 (23887872)
I1018 23:04:01.366189  3328 net.cpp:159] Memory required for data: 1259520512
I1018 23:04:01.366211  3328 layer_factory.hpp:77] Creating layer relu5
I1018 23:04:01.366225  3328 net.cpp:94] Creating Layer relu5
I1018 23:04:01.366235  3328 net.cpp:435] relu5 <- cccp3
I1018 23:04:01.366245  3328 net.cpp:396] relu5 -> cccp3 (in-place)
I1018 23:04:01.366261  3328 net.cpp:144] Setting up relu5
I1018 23:04:01.366271  3328 net.cpp:151] Top shape: 128 256 27 27 (23887872)
I1018 23:04:01.366277  3328 net.cpp:159] Memory required for data: 1355072000
I1018 23:04:01.366284  3328 layer_factory.hpp:77] Creating layer cccp4
I1018 23:04:01.366300  3328 net.cpp:94] Creating Layer cccp4
I1018 23:04:01.366308  3328 net.cpp:435] cccp4 <- cccp3
I1018 23:04:01.366318  3328 net.cpp:409] cccp4 -> cccp4
I1018 23:04:01.410581  3328 net.cpp:144] Setting up cccp4
I1018 23:04:01.410621  3328 net.cpp:151] Top shape: 128 256 27 27 (23887872)
I1018 23:04:01.410629  3328 net.cpp:159] Memory required for data: 1450623488
I1018 23:04:01.410645  3328 layer_factory.hpp:77] Creating layer relu6
I1018 23:04:01.410660  3328 net.cpp:94] Creating Layer relu6
I1018 23:04:01.410668  3328 net.cpp:435] relu6 <- cccp4
I1018 23:04:01.410679  3328 net.cpp:396] relu6 -> cccp4 (in-place)
I1018 23:04:01.410696  3328 net.cpp:144] Setting up relu6
I1018 23:04:01.410704  3328 net.cpp:151] Top shape: 128 256 27 27 (23887872)
I1018 23:04:01.410712  3328 net.cpp:159] Memory required for data: 1546174976
I1018 23:04:01.410718  3328 layer_factory.hpp:77] Creating layer pool2
I1018 23:04:01.410732  3328 net.cpp:94] Creating Layer pool2
I1018 23:04:01.410738  3328 net.cpp:435] pool2 <- cccp4
I1018 23:04:01.410748  3328 net.cpp:409] pool2 -> pool2
I1018 23:04:01.410840  3328 net.cpp:144] Setting up pool2
I1018 23:04:01.410851  3328 net.cpp:151] Top shape: 128 256 13 13 (5537792)
I1018 23:04:01.410858  3328 net.cpp:159] Memory required for data: 1568326144
I1018 23:04:01.410866  3328 layer_factory.hpp:77] Creating layer conv3
I1018 23:04:01.410882  3328 net.cpp:94] Creating Layer conv3
I1018 23:04:01.410890  3328 net.cpp:435] conv3 <- pool2
I1018 23:04:01.410900  3328 net.cpp:409] conv3 -> conv3
I1018 23:04:01.617657  3328 net.cpp:144] Setting up conv3
I1018 23:04:01.617686  3328 net.cpp:151] Top shape: 128 384 13 13 (8306688)
I1018 23:04:01.617694  3328 net.cpp:159] Memory required for data: 1601552896
I1018 23:04:01.617712  3328 layer_factory.hpp:77] Creating layer relu7
I1018 23:04:01.617730  3328 net.cpp:94] Creating Layer relu7
I1018 23:04:01.617739  3328 net.cpp:435] relu7 <- conv3
I1018 23:04:01.617750  3328 net.cpp:396] relu7 -> conv3 (in-place)
I1018 23:04:01.617766  3328 net.cpp:144] Setting up relu7
I1018 23:04:01.617776  3328 net.cpp:151] Top shape: 128 384 13 13 (8306688)
I1018 23:04:01.617782  3328 net.cpp:159] Memory required for data: 1634779648
I1018 23:04:01.617790  3328 layer_factory.hpp:77] Creating layer cccp5
I1018 23:04:01.617832  3328 net.cpp:94] Creating Layer cccp5
I1018 23:04:01.617841  3328 net.cpp:435] cccp5 <- conv3
I1018 23:04:01.617852  3328 net.cpp:409] cccp5 -> cccp5
I1018 23:04:01.646081  3328 net.cpp:144] Setting up cccp5
I1018 23:04:01.646103  3328 net.cpp:151] Top shape: 128 384 13 13 (8306688)
I1018 23:04:01.646116  3328 net.cpp:159] Memory required for data: 1668006400
I1018 23:04:01.646132  3328 layer_factory.hpp:77] Creating layer relu8
I1018 23:04:01.646147  3328 net.cpp:94] Creating Layer relu8
I1018 23:04:01.646159  3328 net.cpp:435] relu8 <- cccp5
I1018 23:04:01.646173  3328 net.cpp:396] relu8 -> cccp5 (in-place)
I1018 23:04:01.646193  3328 net.cpp:144] Setting up relu8
I1018 23:04:01.646203  3328 net.cpp:151] Top shape: 128 384 13 13 (8306688)
I1018 23:04:01.646209  3328 net.cpp:159] Memory required for data: 1701233152
I1018 23:04:01.646216  3328 layer_factory.hpp:77] Creating layer cccp6
I1018 23:04:01.646230  3328 net.cpp:94] Creating Layer cccp6
I1018 23:04:01.646237  3328 net.cpp:435] cccp6 <- cccp5
I1018 23:04:01.646248  3328 net.cpp:409] cccp6 -> cccp6
I1018 23:04:01.675459  3328 net.cpp:144] Setting up cccp6
I1018 23:04:01.675482  3328 net.cpp:151] Top shape: 128 384 13 13 (8306688)
I1018 23:04:01.675505  3328 net.cpp:159] Memory required for data: 1734459904
I1018 23:04:01.675532  3328 layer_factory.hpp:77] Creating layer relu9
I1018 23:04:01.675549  3328 net.cpp:94] Creating Layer relu9
I1018 23:04:01.675565  3328 net.cpp:435] relu9 <- cccp6
I1018 23:04:01.675573  3328 net.cpp:396] relu9 -> cccp6 (in-place)
I1018 23:04:01.675586  3328 net.cpp:144] Setting up relu9
I1018 23:04:01.675595  3328 net.cpp:151] Top shape: 128 384 13 13 (8306688)
I1018 23:04:01.675602  3328 net.cpp:159] Memory required for data: 1767686656
I1018 23:04:01.675609  3328 layer_factory.hpp:77] Creating layer pool3
I1018 23:04:01.675621  3328 net.cpp:94] Creating Layer pool3
I1018 23:04:01.675628  3328 net.cpp:435] pool3 <- cccp6
I1018 23:04:01.675638  3328 net.cpp:409] pool3 -> pool3
I1018 23:04:01.675690  3328 net.cpp:144] Setting up pool3
I1018 23:04:01.675700  3328 net.cpp:151] Top shape: 128 384 6 6 (1769472)
I1018 23:04:01.675707  3328 net.cpp:159] Memory required for data: 1774764544
I1018 23:04:01.675715  3328 layer_factory.hpp:77] Creating layer drop
I1018 23:04:01.675732  3328 net.cpp:94] Creating Layer drop
I1018 23:04:01.675740  3328 net.cpp:435] drop <- pool3
I1018 23:04:01.675750  3328 net.cpp:396] drop -> pool3 (in-place)
I1018 23:04:01.675781  3328 net.cpp:144] Setting up drop
I1018 23:04:01.675791  3328 net.cpp:151] Top shape: 128 384 6 6 (1769472)
I1018 23:04:01.675798  3328 net.cpp:159] Memory required for data: 1781842432
I1018 23:04:01.675806  3328 layer_factory.hpp:77] Creating layer conv4-1024
I1018 23:04:01.675819  3328 net.cpp:94] Creating Layer conv4-1024
I1018 23:04:01.675827  3328 net.cpp:435] conv4-1024 <- pool3
I1018 23:04:01.675837  3328 net.cpp:409] conv4-1024 -> conv4
I1018 23:04:01.981207  3328 net.cpp:144] Setting up conv4-1024
I1018 23:04:01.981238  3328 net.cpp:151] Top shape: 128 1024 6 6 (4718592)
I1018 23:04:01.981246  3328 net.cpp:159] Memory required for data: 1800716800
I1018 23:04:01.981262  3328 layer_factory.hpp:77] Creating layer relu10
I1018 23:04:01.981276  3328 net.cpp:94] Creating Layer relu10
I1018 23:04:01.981286  3328 net.cpp:435] relu10 <- conv4
I1018 23:04:01.981297  3328 net.cpp:396] relu10 -> conv4 (in-place)
I1018 23:04:01.981312  3328 net.cpp:144] Setting up relu10
I1018 23:04:01.981322  3328 net.cpp:151] Top shape: 128 1024 6 6 (4718592)
I1018 23:04:01.981328  3328 net.cpp:159] Memory required for data: 1819591168
I1018 23:04:01.981334  3328 layer_factory.hpp:77] Creating layer cccp7-1024
I1018 23:04:01.981350  3328 net.cpp:94] Creating Layer cccp7-1024
I1018 23:04:01.981359  3328 net.cpp:435] cccp7-1024 <- conv4
I1018 23:04:01.981369  3328 net.cpp:409] cccp7-1024 -> cccp7
I1018 23:04:02.075837  3328 net.cpp:144] Setting up cccp7-1024
I1018 23:04:02.075873  3328 net.cpp:151] Top shape: 128 1024 6 6 (4718592)
I1018 23:04:02.075914  3328 net.cpp:159] Memory required for data: 1838465536
I1018 23:04:02.075935  3328 layer_factory.hpp:77] Creating layer relu11
I1018 23:04:02.075954  3328 net.cpp:94] Creating Layer relu11
I1018 23:04:02.075968  3328 net.cpp:435] relu11 <- cccp7
I1018 23:04:02.075983  3328 net.cpp:396] relu11 -> cccp7 (in-place)
I1018 23:04:02.076002  3328 net.cpp:144] Setting up relu11
I1018 23:04:02.076016  3328 net.cpp:151] Top shape: 128 1024 6 6 (4718592)
I1018 23:04:02.076027  3328 net.cpp:159] Memory required for data: 1857339904
I1018 23:04:02.076038  3328 layer_factory.hpp:77] Creating layer cccp8-1024
I1018 23:04:02.076061  3328 net.cpp:94] Creating Layer cccp8-1024
I1018 23:04:02.076071  3328 net.cpp:435] cccp8-1024 <- cccp7
I1018 23:04:02.076087  3328 net.cpp:409] cccp8-1024 -> cccp8
I1018 23:04:02.081485  3328 net.cpp:144] Setting up cccp8-1024
I1018 23:04:02.081506  3328 net.cpp:151] Top shape: 128 2 6 6 (9216)
I1018 23:04:02.081517  3328 net.cpp:159] Memory required for data: 1857376768
I1018 23:04:02.081534  3328 layer_factory.hpp:77] Creating layer relu12
I1018 23:04:02.081548  3328 net.cpp:94] Creating Layer relu12
I1018 23:04:02.081559  3328 net.cpp:435] relu12 <- cccp8
I1018 23:04:02.081573  3328 net.cpp:396] relu12 -> cccp8 (in-place)
I1018 23:04:02.081590  3328 net.cpp:144] Setting up relu12
I1018 23:04:02.081604  3328 net.cpp:151] Top shape: 128 2 6 6 (9216)
I1018 23:04:02.081614  3328 net.cpp:159] Memory required for data: 1857413632
I1018 23:04:02.081625  3328 layer_factory.hpp:77] Creating layer pool4
I1018 23:04:02.081640  3328 net.cpp:94] Creating Layer pool4
I1018 23:04:02.081651  3328 net.cpp:435] pool4 <- cccp8
I1018 23:04:02.081666  3328 net.cpp:409] pool4 -> pool4
I1018 23:04:02.081729  3328 net.cpp:144] Setting up pool4
I1018 23:04:02.081744  3328 net.cpp:151] Top shape: 128 2 1 1 (256)
I1018 23:04:02.081754  3328 net.cpp:159] Memory required for data: 1857414656
I1018 23:04:02.081765  3328 layer_factory.hpp:77] Creating layer loss
I1018 23:04:02.081787  3328 net.cpp:94] Creating Layer loss
I1018 23:04:02.081799  3328 net.cpp:435] loss <- pool4
I1018 23:04:02.081810  3328 net.cpp:435] loss <- label
I1018 23:04:02.081826  3328 net.cpp:409] loss -> loss
I1018 23:04:02.081851  3328 layer_factory.hpp:77] Creating layer loss
…
I1018 23:04:02.084195  3328 net.cpp:323] The NetState phase (1) differed from the phase (0) specified by a rule in layer train-data
I1018 23:04:02.084641  3328 net.cpp:52] Initializing net from parameters:
state {
phase: TEST
}
layer {
name: "val-data"
type: "Data"
top: "data"
top: "label"
include {
phase: TEST
}
transform_param {
crop_size: 224
mean_file: "/media/myuser/120Gb/DIGITS/digits/jobs/20160917-133511-8c62/mean.binaryproto"
}
data_param {
source: "/media/myuser/120Gb/DIGITS/digits/jobs/20160917-133511-8c62/val_db"
batch_size: 128
backend: LMDB
}
}
layer {
name: "conv1"
type: "Convolution"
bottom: "data"
top: "conv1"
param {
lr_mult: 1
decay_mult: 1
}
param {
lr_mult: 2
decay_mult: 0
}
convolution_param {
num_output: 96
kernel_size: 11
stride: 4
weight_filler {
type: "gaussian"
mean: 0
std: 0.01
}
bias_filler {
type: "constant"
value: 0
}
}
}
layer {
name: "relu0"
type: "ReLU"
bottom: "conv1"
top: "conv1"
}
layer {
name: "cccp1"
type: "Convolution"
bottom: "conv1"
top: "cccp1"
param {
lr_mult: 1
decay_mult: 1
}
param {
lr_mult: 2
decay_mult: 0
}
convolution_param {
num_output: 96
kernel_size: 1
stride: 1
weight_filler {
type: "gaussian"
mean: 0
std: 0.05
}
bias_filler {
type: "constant"
value: 0
}
}
}
layer {
name: "relu1"
type: "ReLU"
bottom: "cccp1"
top: "cccp1"
}
layer {
name: "cccp2"
type: "Convolution"
bottom: "cccp1"
top: "cccp2"
param {
lr_mult: 1
decay_mult: 1
}
param {
lr_mult: 2
decay_mult: 0
}
convolution_param {
num_output: 96
kernel_size: 1
stride: 1
weight_filler {
type: "gaussian"
mean: 0
std: 0.05
}
bias_filler {
type: "constant"
value: 0
}
}
}
layer {
name: "relu2"
type: "ReLU"
bottom: "cccp2"
top: "cccp2"
}
layer {
name: "pool0"
type: "Pooling"
bottom: "cccp2"
top: "pool0"
pooling_param {
pool: MAX
kernel_size: 3
stride: 2
}
}
layer {
name: "conv2"
type: "Convolution"
bottom: "pool0"
top: "conv2"
param {
lr_mult: 1
decay_mult: 1
}
param {
lr_mult: 2
decay_mult: 0
}
convolution_param {
num_output: 256
pad: 2
kernel_size: 5
stride: 1
weight_filler {
type: "gaussian"
mean: 0
std: 0.05
}
bias_filler {
type: "constant"
value: 0
}
}
}
layer {
name: "relu3"
type: "ReLU"
bottom: "conv2"
top: "conv2"
}
layer {
name: "cccp3"
type: "Convolution"
bottom: "conv2"
top: "cccp3"
param {
lr_mult: 1
decay_mult: 1
}
param {
lr_mult: 2
decay_mult: 0
}
convolution_param {
num_output: 256
kernel_size: 1
stride: 1
weight_filler {
type: "gaussian"
mean: 0
std: 0.05
}
bias_filler {
type: "constant"
value: 0
}
}
}
layer {
name: "relu5"
type: "ReLU"
bottom: "cccp3"
top: "cccp3"
}
layer {
name: "cccp4"
type: "Convolution"
bottom: "cccp3"
top: "cccp4"
param {
lr_mult: 1
decay_mult: 1
}
param {
lr_mult: 2
decay_mult: 0
}
convolution_param {
num_output: 256
kernel_size: 1
stride: 1
weight_filler {
type: "gaussian"
mean: 0
std: 0.05
}
bias_filler {
type: "constant"
value: 0
}
}
}
layer {
name: "relu6"
type: "ReLU"
bottom: "cccp4"
top: "cccp4"
}
layer {
name: "pool2"
type: "Pooling"
bottom: "cccp4"
top: "pool2"
pooling_param {
pool: MAX
kernel_size: 3
stride: 2
}
}
layer {
name: "conv3"
type: "Convolution"
bottom: "pool2"
top: "conv3"
param {
lr_mult: 1
decay_mult: 1
}
param {
lr_mult: 2
decay_mult: 0
}
convolution_param {
num_output: 384
pad: 1
kernel_size: 3
stride: 1
weight_filler {
type: "gaussian"
mean: 0
std: 0.01
}
bias_filler {
type: "constant"
value: 0
}
}
}
layer {
name: "relu7"
type: "ReLU"
bottom: "conv3"
top: "conv3"
}
layer {
name: "cccp5"
type: "Convolution"
bottom: "conv3"
top: "cccp5"
param {
lr_mult: 1
decay_mult: 1
}
param {
lr_mult: 2
decay_mult: 0
}
convolution_param {
num_output: 384
kernel_size: 1
stride: 1
weight_filler {
type: "gaussian"
mean: 0
std: 0.05
}
bias_filler {
type: "constant"
value: 0
}
}
}
layer {
name: "relu8"
type: "ReLU"
bottom: "cccp5"
top: "cccp5"
}
layer {
name: "cccp6"
type: "Convolution"
bottom: "cccp5"
top: "cccp6"
param {
lr_mult: 1
decay_mult: 1
}
param {
lr_mult: 2
decay_mult: 0
}
convolution_param {
num_output: 384
kernel_size: 1
stride: 1
weight_filler {
type: "gaussian"
mean: 0
std: 0.05
}
bias_filler {
type: "constant"
value: 0
}
}
}
layer {
name: "relu9"
type: "ReLU"
bottom: "cccp6"
top: "cccp6"
}
layer {
name: "pool3"
type: "Pooling"
bottom: "cccp6"
top: "pool3"
pooling_param {
pool: MAX
kernel_size: 3
stride: 2
}
}
layer {
name: "drop"
type: "Dropout"
bottom: "pool3"
top: "pool3"
dropout_param {
dropout_ratio: 0.5
}
}
layer {
name: "conv4-1024"
type: "Convolution"
bottom: "pool3"
top: "conv4"
param {
lr_mult: 1
decay_mult: 1
}
param {
lr_mult: 2
decay_mult: 0
}
convolution_param {
num_output: 1024
pad: 1
kernel_size: 3
stride: 1
weight_filler {
type: "gaussian"
mean: 0
std: 0.05
}
bias_filler {
type: "constant"
value: 0
}
}
}
layer {
name: "relu10"
type: "ReLU"
bottom: "conv4"
top: "conv4"
}
layer {
name: "cccp7-1024"
type: "Convolution"
bottom: "conv4"
top: "cccp7"
param {
lr_mult: 1
decay_mult: 1
}
param {
lr_mult: 2
decay_mult: 0
}
convolution_param {
num_output: 1024
kernel_size: 1
stride: 1
weight_filler {
type: "gaussian"
mean: 0
std: 0.05
}
bias_filler {
type: "constant"
value: 0
}
}
}
layer {
name: "relu11"
type: "ReLU"
bottom: "cccp7"
top: "cccp7"
}
layer {
name: "cccp8-1024"
type: "Convolution"
bottom: "cccp7"
top: "cccp8"
param {
lr_mult: 1
decay_mult: 1
}
param {
lr_mult: 2
decay_mult: 0
}
convolution_param {
num_output: 2
kernel_size: 1
stride: 1
weight_filler {
type: "gaussian"
mean: 0
std: 0.01
}
bias_filler {
type: "constant"
value: 0
}
}
}
layer {
name: "relu12"
type: "ReLU"
bottom: "cccp8"
top: "cccp8"
}
layer {
name: "pool4"
type: "Pooling"
bottom: "cccp8"
top: "pool4"
pooling_param {
pool: AVE
kernel_size: 6
stride: 1
}
}
layer {
name: "accuracy"
type: "Accuracy"
bottom: "pool4"
bottom: "label"
top: "accuracy"
include {
phase: TEST
}
}
layer {
name: "loss"
type: "SoftmaxWithLoss"
bottom: "pool4"
bottom: "label"
top: "loss"
}
I1018 23:04:02.084880  3328 layer_factory.hpp:77] Creating layer val-data
I1018 23:04:02.085486  3328 net.cpp:94] Creating Layer val-data
I1018 23:04:02.085508  3328 net.cpp:409] val-data -> data
I1018 23:04:02.085528  3328 net.cpp:409] val-data -> label
I1018 23:04:02.085548  3328 data_transformer.cpp:25] Loading mean file from: /media/myuser/120Gb/DIGITS/digits/jobs/20160917-133511-8c62/mean.binaryproto
I1018 23:04:02.086392  3338 db_lmdb.cpp:35] Opened lmdb /media/myuser/120Gb/DIGITS/digits/jobs/20160917-133511-8c62/val_db
I1018 23:04:02.096029  3328 data_layer.cpp:76] output data size: 128,3,224,224
I1018 23:04:02.366956  3328 net.cpp:144] Setting up val-data
I1018 23:04:02.366991  3328 net.cpp:151] Top shape: 128 3 224 224 (19267584)
I1018 23:04:02.367002  3328 net.cpp:151] Top shape: 128 (128)
I1018 23:04:02.367009  3328 net.cpp:159] Memory required for data: 77070848
I1018 23:04:02.367020  3328 layer_factory.hpp:77] Creating layer label_val-data_1_split
I1018 23:04:02.367038  3328 net.cpp:94] Creating Layer label_val-data_1_split
I1018 23:04:02.367046  3328 net.cpp:435] label_val-data_1_split <- label
I1018 23:04:02.367058  3328 net.cpp:409] label_val-data_1_split -> label_val-data_1_split_0
I1018 23:04:02.367074  3328 net.cpp:409] label_val-data_1_split -> label_val-data_1_split_1
I1018 23:04:02.367137  3328 net.cpp:144] Setting up label_val-data_1_split
I1018 23:04:02.367147  3328 net.cpp:151] Top shape: 128 (128)
I1018 23:04:02.367156  3328 net.cpp:151] Top shape: 128 (128)
I1018 23:04:02.367164  3328 net.cpp:159] Memory required for data: 77071872
I1018 23:04:02.367172  3328 layer_factory.hpp:77] Creating layer conv1
I1018 23:04:02.367190  3328 net.cpp:94] Creating Layer conv1
I1018 23:04:02.367198  3328 net.cpp:435] conv1 <- data
I1018 23:04:02.367209  3328 net.cpp:409] conv1 -> conv1
I1018 23:04:02.416482  3328 net.cpp:144] Setting up conv1
I1018 23:04:02.416523  3328 net.cpp:151] Top shape: 128 96 54 54 (35831808)
I1018 23:04:02.416532  3328 net.cpp:159] Memory required for data: 220399104
I1018 23:04:02.416550  3328 layer_factory.hpp:77] Creating layer relu0
I1018 23:04:02.416565  3328 net.cpp:94] Creating Layer relu0
I1018 23:04:02.416574  3328 net.cpp:435] relu0 <- conv1
I1018 23:04:02.416584  3328 net.cpp:396] relu0 -> conv1 (in-place)
I1018 23:04:02.416601  3328 net.cpp:144] Setting up relu0
I1018 23:04:02.416610  3328 net.cpp:151] Top shape: 128 96 54 54 (35831808)
I1018 23:04:02.416617  3328 net.cpp:159] Memory required for data: 363726336
I1018 23:04:02.416625  3328 layer_factory.hpp:77] Creating layer cccp1
I1018 23:04:02.416643  3328 net.cpp:94] Creating Layer cccp1
I1018 23:04:02.416651  3328 net.cpp:435] cccp1 <- conv1
I1018 23:04:02.416662  3328 net.cpp:409] cccp1 -> cccp1
I1018 23:04:02.431618  3328 net.cpp:144] Setting up cccp1
I1018 23:04:02.431653  3328 net.cpp:151] Top shape: 128 96 54 54 (35831808)
I1018 23:04:02.431663  3328 net.cpp:159] Memory required for data: 507053568
I1018 23:04:02.431682  3328 layer_factory.hpp:77] Creating layer relu1
I1018 23:04:02.431697  3328 net.cpp:94] Creating Layer relu1
I1018 23:04:02.431706  3328 net.cpp:435] relu1 <- cccp1
I1018 23:04:02.431717  3328 net.cpp:396] relu1 -> cccp1 (in-place)
I1018 23:04:02.431735  3328 net.cpp:144] Setting up relu1
I1018 23:04:02.431743  3328 net.cpp:151] Top shape: 128 96 54 54 (35831808)
I1018 23:04:02.431751  3328 net.cpp:159] Memory required for data: 650380800
I1018 23:04:02.431758  3328 layer_factory.hpp:77] Creating layer cccp2
I1018 23:04:02.431776  3328 net.cpp:94] Creating Layer cccp2
I1018 23:04:02.431783  3328 net.cpp:435] cccp2 <- cccp1
I1018 23:04:02.431794  3328 net.cpp:409] cccp2 -> cccp2
I1018 23:04:02.443701  3328 net.cpp:144] Setting up cccp2
I1018 23:04:02.443738  3328 net.cpp:151] Top shape: 128 96 54 54 (35831808)
I1018 23:04:02.443745  3328 net.cpp:159] Memory required for data: 793708032
I1018 23:04:02.443765  3328 layer_factory.hpp:77] Creating layer relu2
I1018 23:04:02.443779  3328 net.cpp:94] Creating Layer relu2
I1018 23:04:02.443817  3328 net.cpp:435] relu2 <- cccp2
I1018 23:04:02.443828  3328 net.cpp:396] relu2 -> cccp2 (in-place)
I1018 23:04:02.443843  3328 net.cpp:144] Setting up relu2
I1018 23:04:02.443852  3328 net.cpp:151] Top shape: 128 96 54 54 (35831808)
I1018 23:04:02.443859  3328 net.cpp:159] Memory required for data: 937035264
I1018 23:04:02.443866  3328 layer_factory.hpp:77] Creating layer pool0
I1018 23:04:02.443881  3328 net.cpp:94] Creating Layer pool0
I1018 23:04:02.443889  3328 net.cpp:435] pool0 <- cccp2
I1018 23:04:02.443899  3328 net.cpp:409] pool0 -> pool0
I1018 23:04:02.443999  3328 net.cpp:144] Setting up pool0
I1018 23:04:02.444008  3328 net.cpp:151] Top shape: 128 96 27 27 (8957952)
I1018 23:04:02.444015  3328 net.cpp:159] Memory required for data: 972867072
I1018 23:04:02.444022  3328 layer_factory.hpp:77] Creating layer conv2
I1018 23:04:02.444038  3328 net.cpp:94] Creating Layer conv2
I1018 23:04:02.444046  3328 net.cpp:435] conv2 <- pool0
I1018 23:04:02.444056  3328 net.cpp:409] conv2 -> conv2
I1018 23:04:02.579324  3328 net.cpp:144] Setting up conv2
I1018 23:04:02.579367  3328 net.cpp:151] Top shape: 128 256 27 27 (23887872)
I1018 23:04:02.579375  3328 net.cpp:159] Memory required for data: 1068418560
I1018 23:04:02.579391  3328 layer_factory.hpp:77] Creating layer relu3
I1018 23:04:02.579406  3328 net.cpp:94] Creating Layer relu3
I1018 23:04:02.579416  3328 net.cpp:435] relu3 <- conv2
I1018 23:04:02.579427  3328 net.cpp:396] relu3 -> conv2 (in-place)
I1018 23:04:02.579442  3328 net.cpp:144] Setting up relu3
I1018 23:04:02.579452  3328 net.cpp:151] Top shape: 128 256 27 27 (23887872)
I1018 23:04:02.579459  3328 net.cpp:159] Memory required for data: 1163970048
I1018 23:04:02.579466  3328 layer_factory.hpp:77] Creating layer cccp3
I1018 23:04:02.579483  3328 net.cpp:94] Creating Layer cccp3
I1018 23:04:02.579499  3328 net.cpp:435] cccp3 <- conv2
I1018 23:04:02.579510  3328 net.cpp:409] cccp3 -> cccp3
I1018 23:04:02.596318  3328 net.cpp:144] Setting up cccp3
I1018 23:04:02.596364  3328 net.cpp:151] Top shape: 128 256 27 27 (23887872)
I1018 23:04:02.596371  3328 net.cpp:159] Memory required for data: 1259521536
I1018 23:04:02.596397  3328 layer_factory.hpp:77] Creating layer relu5
I1018 23:04:02.596415  3328 net.cpp:94] Creating Layer relu5
I1018 23:04:02.596426  3328 net.cpp:435] relu5 <- cccp3
I1018 23:04:02.596436  3328 net.cpp:396] relu5 -> cccp3 (in-place)
I1018 23:04:02.596457  3328 net.cpp:144] Setting up relu5
I1018 23:04:02.596465  3328 net.cpp:151] Top shape: 128 256 27 27 (23887872)
I1018 23:04:02.596472  3328 net.cpp:159] Memory required for data: 1355073024
I1018 23:04:02.596479  3328 layer_factory.hpp:77] Creating layer cccp4
I1018 23:04:02.596499  3328 net.cpp:94] Creating Layer cccp4
I1018 23:04:02.596508  3328 net.cpp:435] cccp4 <- cccp3
I1018 23:04:02.596518  3328 net.cpp:409] cccp4 -> cccp4
I1018 23:04:02.613251  3328 net.cpp:144] Setting up cccp4
I1018 23:04:02.613297  3328 net.cpp:151] Top shape: 128 256 27 27 (23887872)
I1018 23:04:02.613306  3328 net.cpp:159] Memory required for data: 1450624512
I1018 23:04:02.613325  3328 layer_factory.hpp:77] Creating layer relu6
I1018 23:04:02.613342  3328 net.cpp:94] Creating Layer relu6
I1018 23:04:02.613351  3328 net.cpp:435] relu6 <- cccp4
I1018 23:04:02.613363  3328 net.cpp:396] relu6 -> cccp4 (in-place)
I1018 23:04:02.613381  3328 net.cpp:144] Setting up relu6
I1018 23:04:02.613390  3328 net.cpp:151] Top shape: 128 256 27 27 (23887872)
I1018 23:04:02.613397  3328 net.cpp:159] Memory required for data: 1546176000
I1018 23:04:02.613404  3328 layer_factory.hpp:77] Creating layer pool2
I1018 23:04:02.613416  3328 net.cpp:94] Creating Layer pool2
I1018 23:04:02.613423  3328 net.cpp:435] pool2 <- cccp4
I1018 23:04:02.613433  3328 net.cpp:409] pool2 -> pool2
I1018 23:04:02.613554  3328 net.cpp:144] Setting up pool2
I1018 23:04:02.613564  3328 net.cpp:151] Top shape: 128 256 13 13 (5537792)
I1018 23:04:02.613571  3328 net.cpp:159] Memory required for data: 1568327168
I1018 23:04:02.613579  3328 layer_factory.hpp:77] Creating layer conv3
I1018 23:04:02.613639  3328 net.cpp:94] Creating Layer conv3
I1018 23:04:02.613648  3328 net.cpp:435] conv3 <- pool2
I1018 23:04:02.613659  3328 net.cpp:409] conv3 -> conv3
I1018 23:04:02.777976  3328 net.cpp:144] Setting up conv3
I1018 23:04:02.778026  3328 net.cpp:151] Top shape: 128 384 13 13 (8306688)
I1018 23:04:02.778035  3328 net.cpp:159] Memory required for data: 1601553920
I1018 23:04:02.778055  3328 layer_factory.hpp:77] Creating layer relu7
I1018 23:04:02.778074  3328 net.cpp:94] Creating Layer relu7
I1018 23:04:02.778084  3328 net.cpp:435] relu7 <- conv3
I1018 23:04:02.778095  3328 net.cpp:396] relu7 -> conv3 (in-place)
I1018 23:04:02.778115  3328 net.cpp:144] Setting up relu7
I1018 23:04:02.778126  3328 net.cpp:151] Top shape: 128 384 13 13 (8306688)
I1018 23:04:02.778132  3328 net.cpp:159] Memory required for data: 1634780672
I1018 23:04:02.778139  3328 layer_factory.hpp:77] Creating layer cccp5
I1018 23:04:02.778159  3328 net.cpp:94] Creating Layer cccp5
I1018 23:04:02.778167  3328 net.cpp:435] cccp5 <- conv3
I1018 23:04:02.778178  3328 net.cpp:409] cccp5 -> cccp5
I1018 23:04:02.797601  3328 net.cpp:144] Setting up cccp5
I1018 23:04:02.797641  3328 net.cpp:151] Top shape: 128 384 13 13 (8306688)
I1018 23:04:02.797649  3328 net.cpp:159] Memory required for data: 1668007424
I1018 23:04:02.797665  3328 layer_factory.hpp:77] Creating layer relu8
I1018 23:04:02.797680  3328 net.cpp:94] Creating Layer relu8
I1018 23:04:02.797689  3328 net.cpp:435] relu8 <- cccp5
I1018 23:04:02.797700  3328 net.cpp:396] relu8 -> cccp5 (in-place)
I1018 23:04:02.797718  3328 net.cpp:144] Setting up relu8
I1018 23:04:02.797726  3328 net.cpp:151] Top shape: 128 384 13 13 (8306688)
I1018 23:04:02.797734  3328 net.cpp:159] Memory required for data: 1701234176
I1018 23:04:02.797740  3328 layer_factory.hpp:77] Creating layer cccp6
I1018 23:04:02.797757  3328 net.cpp:94] Creating Layer cccp6
I1018 23:04:02.797765  3328 net.cpp:435] cccp6 <- cccp5
I1018 23:04:02.797776  3328 net.cpp:409] cccp6 -> cccp6
I1018 23:04:02.826128  3328 net.cpp:144] Setting up cccp6
I1018 23:04:02.826164  3328 net.cpp:151] Top shape: 128 384 13 13 (8306688)
I1018 23:04:02.826172  3328 net.cpp:159] Memory required for data: 1734460928
I1018 23:04:02.826195  3328 layer_factory.hpp:77] Creating layer relu9
I1018 23:04:02.826210  3328 net.cpp:94] Creating Layer relu9
I1018 23:04:02.826217  3328 net.cpp:435] relu9 <- cccp6
I1018 23:04:02.826228  3328 net.cpp:396] relu9 -> cccp6 (in-place)
I1018 23:04:02.826244  3328 net.cpp:144] Setting up relu9
I1018 23:04:02.826253  3328 net.cpp:151] Top shape: 128 384 13 13 (8306688)
I1018 23:04:02.826261  3328 net.cpp:159] Memory required for data: 1767687680
I1018 23:04:02.826267  3328 layer_factory.hpp:77] Creating layer pool3
I1018 23:04:02.826279  3328 net.cpp:94] Creating Layer pool3
I1018 23:04:02.826287  3328 net.cpp:435] pool3 <- cccp6
I1018 23:04:02.826297  3328 net.cpp:409] pool3 -> pool3
I1018 23:04:02.826391  3328 net.cpp:144] Setting up pool3
I1018 23:04:02.826401  3328 net.cpp:151] Top shape: 128 384 6 6 (1769472)
I1018 23:04:02.826408  3328 net.cpp:159] Memory required for data: 1774765568
I1018 23:04:02.826416  3328 layer_factory.hpp:77] Creating layer drop
I1018 23:04:02.826426  3328 net.cpp:94] Creating Layer drop
I1018 23:04:02.826434  3328 net.cpp:435] drop <- pool3
I1018 23:04:02.826443  3328 net.cpp:396] drop -> pool3 (in-place)
I1018 23:04:02.826472  3328 net.cpp:144] Setting up drop
I1018 23:04:02.826481  3328 net.cpp:151] Top shape: 128 384 6 6 (1769472)
I1018 23:04:02.826488  3328 net.cpp:159] Memory required for data: 1781843456
I1018 23:04:02.826495  3328 layer_factory.hpp:77] Creating layer conv4-1024
I1018 23:04:02.826511  3328 net.cpp:94] Creating Layer conv4-1024
I1018 23:04:02.826519  3328 net.cpp:435] conv4-1024 <- pool3
I1018 23:04:02.826530  3328 net.cpp:409] conv4-1024 -> conv4
I1018 23:04:03.074159  3328 net.cpp:144] Setting up conv4-1024
I1018 23:04:03.074200  3328 net.cpp:151] Top shape: 128 1024 6 6 (4718592)
I1018 23:04:03.074208  3328 net.cpp:159] Memory required for data: 1800717824
I1018 23:04:03.074257  3328 layer_factory.hpp:77] Creating layer relu10
I1018 23:04:03.074272  3328 net.cpp:94] Creating Layer relu10
I1018 23:04:03.074282  3328 net.cpp:435] relu10 <- conv4
I1018 23:04:03.074293  3328 net.cpp:396] relu10 -> conv4 (in-place)
I1018 23:04:03.074311  3328 net.cpp:144] Setting up relu10
I1018 23:04:03.074319  3328 net.cpp:151] Top shape: 128 1024 6 6 (4718592)
I1018 23:04:03.074326  3328 net.cpp:159] Memory required for data: 1819592192
I1018 23:04:03.074333  3328 layer_factory.hpp:77] Creating layer cccp7-1024
I1018 23:04:03.074350  3328 net.cpp:94] Creating Layer cccp7-1024
I1018 23:04:03.074358  3328 net.cpp:435] cccp7-1024 <- conv4
I1018 23:04:03.074368  3328 net.cpp:409] cccp7-1024 -> cccp7
I1018 23:04:03.176852  3328 net.cpp:144] Setting up cccp7-1024
I1018 23:04:03.176901  3328 net.cpp:151] Top shape: 128 1024 6 6 (4718592)
I1018 23:04:03.176910  3328 net.cpp:159] Memory required for data: 1838466560
I1018 23:04:03.176925  3328 layer_factory.hpp:77] Creating layer relu11
I1018 23:04:03.176939  3328 net.cpp:94] Creating Layer relu11
I1018 23:04:03.176949  3328 net.cpp:435] relu11 <- cccp7
I1018 23:04:03.176959  3328 net.cpp:396] relu11 -> cccp7 (in-place)
I1018 23:04:03.176975  3328 net.cpp:144] Setting up relu11
I1018 23:04:03.176985  3328 net.cpp:151] Top shape: 128 1024 6 6 (4718592)
I1018 23:04:03.176991  3328 net.cpp:159] Memory required for data: 1857340928
I1018 23:04:03.176998  3328 layer_factory.hpp:77] Creating layer cccp8-1024
I1018 23:04:03.177014  3328 net.cpp:94] Creating Layer cccp8-1024
I1018 23:04:03.177022  3328 net.cpp:435] cccp8-1024 <- cccp7
I1018 23:04:03.177032  3328 net.cpp:409] cccp8-1024 -> cccp8
I1018 23:04:03.178349  3328 net.cpp:144] Setting up cccp8-1024
I1018 23:04:03.178360  3328 net.cpp:151] Top shape: 128 2 6 6 (9216)
I1018 23:04:03.178367  3328 net.cpp:159] Memory required for data: 1857377792
I1018 23:04:03.178378  3328 layer_factory.hpp:77] Creating layer relu12
I1018 23:04:03.178387  3328 net.cpp:94] Creating Layer relu12
I1018 23:04:03.178395  3328 net.cpp:435] relu12 <- cccp8
I1018 23:04:03.178405  3328 net.cpp:396] relu12 -> cccp8 (in-place)
I1018 23:04:03.178416  3328 net.cpp:144] Setting up relu12
I1018 23:04:03.178424  3328 net.cpp:151] Top shape: 128 2 6 6 (9216)
I1018 23:04:03.178431  3328 net.cpp:159] Memory required for data: 1857414656
I1018 23:04:03.178438  3328 layer_factory.hpp:77] Creating layer pool4
I1018 23:04:03.178449  3328 net.cpp:94] Creating Layer pool4
I1018 23:04:03.178457  3328 net.cpp:435] pool4 <- cccp8
I1018 23:04:03.178467  3328 net.cpp:409] pool4 -> pool4
I1018 23:04:03.178501  3328 net.cpp:144] Setting up pool4
I1018 23:04:03.178510  3328 net.cpp:151] Top shape: 128 2 1 1 (256)
I1018 23:04:03.178517  3328 net.cpp:159] Memory required for data: 1857415680
I1018 23:04:03.178524  3328 layer_factory.hpp:77] Creating layer pool4_pool4_0_split
I1018 23:04:03.178534  3328 net.cpp:94] Creating Layer pool4_pool4_0_split
I1018 23:04:03.178541  3328 net.cpp:435] pool4_pool4_0_split <- pool4
I1018 23:04:03.178550  3328 net.cpp:409] pool4_pool4_0_split -> pool4_pool4_0_split_0
I1018 23:04:03.178561  3328 net.cpp:409] pool4_pool4_0_split -> pool4_pool4_0_split_1
I1018 23:04:03.178607  3328 net.cpp:144] Setting up pool4_pool4_0_split
I1018 23:04:03.178617  3328 net.cpp:151] Top shape: 128 2 1 1 (256)
I1018 23:04:03.178625  3328 net.cpp:151] Top shape: 128 2 1 1 (256)
I1018 23:04:03.178632  3328 net.cpp:159] Memory required for data: 1857417728
I1018 23:04:03.178638  3328 layer_factory.hpp:77] Creating layer accuracy
I1018 23:04:03.178658  3328 net.cpp:94] Creating Layer accuracy
I1018 23:04:03.178664  3328 net.cpp:435] accuracy <- pool4_pool4_0_split_0
I1018 23:04:03.178673  3328 net.cpp:435] accuracy <- label_val-data_1_split_0
I1018 23:04:03.178683  3328 net.cpp:409] accuracy -> accuracy
…
