…
I0917 20:53:19.938977  5941 net.cpp:323] The NetState phase (0) differed from the phase (1) specified by a rule in layer accuracy
I0917 20:53:19.939231  5941 net.cpp:52] Initializing net from parameters:
state {
phase: TRAIN
}
layer {
name: "train-data"
type: "Data"
top: "data"
top: "label"
include {
phase: TRAIN
}
transform_param {
mirror: true
crop_size: 224
mean_file: "/media/myuser/120Gb/DIGITS/digits/jobs/20160917-133511-8c62/mean.binaryproto"
}
data_param {
source: "/media/myuser/120Gb/DIGITS/digits/jobs/20160917-133511-8c62/train_db"
batch_size: 16
backend: LMDB
}
}
layer {
name: "conv1_1"
type: "Convolution"
bottom: "data"
top: "conv1_1"
convolution_param {
num_output: 64
pad: 1
kernel_size: 3
weight_filler {
type: "xavier"
}
bias_filler {
type: "constant"
value: 0
}
}
}
layer {
name: "relu1_1"
type: "ReLU"
bottom: "conv1_1"
top: "conv1_1"
}
layer {
name: "conv1_2"
type: "Convolution"
bottom: "conv1_1"
top: "conv1_2"
convolution_param {
num_output: 64
pad: 1
kernel_size: 3
weight_filler {
type: "xavier"
}
bias_filler {
type: "constant"
value: 0
}
}
}
layer {
name: "relu1_2"
type: "ReLU"
bottom: "conv1_2"
top: "conv1_2"
}
layer {
name: "pool1"
type: "Pooling"
bottom: "conv1_2"
top: "pool1"
pooling_param {
pool: MAX
kernel_size: 2
stride: 2
}
}
layer {
name: "conv2_1"
type: "Convolution"
bottom: "pool1"
top: "conv2_1"
convolution_param {
num_output: 128
pad: 1
kernel_size: 3
weight_filler {
type: "xavier"
}
bias_filler {
type: "constant"
value: 0
}
}
}
layer {
name: "relu2_1"
type: "ReLU"
bottom: "conv2_1"
top: "conv2_1"
}
layer {
name: "conv2_2"
type: "Convolution"
bottom: "conv2_1"
top: "conv2_2"
convolution_param {
num_output: 128
pad: 1
kernel_size: 3
weight_filler {
type: "xavier"
}
bias_filler {
type: "constant"
value: 0
}
}
}
layer {
name: "relu2_2"
type: "ReLU"
bottom: "conv2_2"
top: "conv2_2"
}
layer {
name: "pool2"
type: "Pooling"
bottom: "conv2_2"
top: "pool2"
pooling_param {
pool: MAX
kernel_size: 2
stride: 2
}
}
layer {
name: "conv3_1"
type: "Convolution"
bottom: "pool2"
top: "conv3_1"
convolution_param {
num_output: 256
pad: 1
kernel_size: 3
weight_filler {
type: "xavier"
}
bias_filler {
type: "constant"
value: 0
}
}
}
layer {
name: "relu3_1"
type: "ReLU"
bottom: "conv3_1"
top: "conv3_1"
}
layer {
name: "conv3_2"
type: "Convolution"
bottom: "conv3_1"
top: "conv3_2"
convolution_param {
num_output: 256
pad: 1
kernel_size: 3
weight_filler {
type: "xavier"
}
bias_filler {
type: "constant"
value: 0
}
}
}
layer {
name: "relu3_2"
type: "ReLU"
bottom: "conv3_2"
top: "conv3_2"
}
layer {
name: "conv3_3"
type: "Convolution"
bottom: "conv3_2"
top: "conv3_3"
convolution_param {
num_output: 256
pad: 1
kernel_size: 3
weight_filler {
type: "xavier"
}
bias_filler {
type: "constant"
value: 0
}
}
}
layer {
name: "relu3_3"
type: "ReLU"
bottom: "conv3_3"
top: "conv3_3"
}
layer {
name: "conv3_4"
type: "Convolution"
bottom: "conv3_3"
top: "conv3_4"
convolution_param {
num_output: 256
pad: 1
kernel_size: 3
weight_filler {
type: "xavier"
}
bias_filler {
type: "constant"
value: 0
}
}
}
layer {
name: "relu3_4"
type: "ReLU"
bottom: "conv3_4"
top: "conv3_4"
}
layer {
name: "pool3"
type: "Pooling"
bottom: "conv3_4"
top: "pool3"
pooling_param {
pool: MAX
kernel_size: 2
stride: 2
}
}
layer {
name: "conv4_1"
type: "Convolution"
bottom: "pool3"
top: "conv4_1"
convolution_param {
num_output: 512
pad: 1
kernel_size: 3
weight_filler {
type: "xavier"
}
bias_filler {
type: "constant"
value: 0
}
}
}
layer {
name: "relu4_1"
type: "ReLU"
bottom: "conv4_1"
top: "conv4_1"
}
layer {
name: "conv4_2"
type: "Convolution"
bottom: "conv4_1"
top: "conv4_2"
convolution_param {
num_output: 512
pad: 1
kernel_size: 3
weight_filler {
type: "xavier"
}
bias_filler {
type: "constant"
value: 0
}
}
}
layer {
name: "relu4_2"
type: "ReLU"
bottom: "conv4_2"
top: "conv4_2"
}
layer {
name: "conv4_3"
type: "Convolution"
bottom: "conv4_2"
top: "conv4_3"
convolution_param {
num_output: 512
pad: 1
kernel_size: 3
weight_filler {
type: "xavier"
}
bias_filler {
type: "constant"
value: 0
}
}
}
layer {
name: "relu4_3"
type: "ReLU"
bottom: "conv4_3"
top: "conv4_3"
}
layer {
name: "conv4_4"
type: "Convolution"
bottom: "conv4_3"
top: "conv4_4"
convolution_param {
num_output: 512
pad: 1
kernel_size: 3
weight_filler {
type: "xavier"
}
bias_filler {
type: "constant"
value: 0
}
}
}
layer {
name: "relu4_4"
type: "ReLU"
bottom: "conv4_4"
top: "conv4_4"
}
layer {
name: "pool4"
type: "Pooling"
bottom: "conv4_4"
top: "pool4"
pooling_param {
pool: MAX
kernel_size: 2
stride: 2
}
}
layer {
name: "conv5_1"
type: "Convolution"
bottom: "pool4"
top: "conv5_1"
convolution_param {
num_output: 512
pad: 1
kernel_size: 3
weight_filler {
type: "xavier"
}
bias_filler {
type: "constant"
value: 0
}
}
}
layer {
name: "relu5_1"
type: "ReLU"
bottom: "conv5_1"
top: "conv5_1"
}
layer {
name: "conv5_2"
type: "Convolution"
bottom: "conv5_1"
top: "conv5_2"
convolution_param {
num_output: 512
pad: 1
kernel_size: 3
weight_filler {
type: "xavier"
}
bias_filler {
type: "constant"
value: 0
}
}
}
layer {
name: "relu5_2"
type: "ReLU"
bottom: "conv5_2"
top: "conv5_2"
}
layer {
name: "conv5_3"
type: "Convolution"
bottom: "conv5_2"
top: "conv5_3"
convolution_param {
num_output: 512
pad: 1
kernel_size: 3
weight_filler {
type: "xavier"
}
bias_filler {
type: "constant"
value: 0
}
}
}
layer {
name: "relu5_3"
type: "ReLU"
bottom: "conv5_3"
top: "conv5_3"
}
layer {
name: "conv5_4"
type: "Convolution"
bottom: "conv5_3"
top: "conv5_4"
convolution_param {
num_output: 512
pad: 1
kernel_size: 3
weight_filler {
type: "xavier"
}
bias_filler {
type: "constant"
value: 0
}
}
}
layer {
name: "relu5_4"
type: "ReLU"
bottom: "conv5_4"
top: "conv5_4"
}
layer {
name: "pool5"
type: "Pooling"
bottom: "conv5_4"
top: "pool5"
pooling_param {
pool: MAX
kernel_size: 2
stride: 2
}
}
layer {
name: "fc6"
type: "InnerProduct"
bottom: "pool5"
top: "fc6"
inner_product_param {
num_output: 4096
weight_filler {
type: "xavier"
}
bias_filler {
type: "constant"
value: 0.1
}
}
}
layer {
name: "relu6"
type: "ReLU"
bottom: "fc6"
top: "fc6"
}
layer {
name: "drop6"
type: "Dropout"
bottom: "fc6"
top: "fc6"
dropout_param {
dropout_ratio: 0.5
}
}
layer {
name: "fc7"
type: "InnerProduct"
bottom: "fc6"
top: "fc7"
inner_product_param {
num_output: 4096
weight_filler {
type: "xavier"
}
bias_filler {
type: "constant"
value: 0.1
}
}
}
layer {
name: "relu7"
type: "ReLU"
bottom: "fc7"
top: "fc7"
}
layer {
name: "drop7"
type: "Dropout"
bottom: "fc7"
top: "fc7"
dropout_param {
dropout_ratio: 0.5
}
}
layer {
name: "fc8"
type: "InnerProduct"
bottom: "fc7"
top: "fc8"
inner_product_param {
num_output: 2
weight_filler {
type: "xavier"
}
bias_filler {
type: "constant"
value: 0.1
}
}
}
layer {
name: "loss"
type: "SoftmaxWithLoss"
bottom: "fc8"
bottom: "label"
top: "loss"
}
I0917 20:53:19.939426  5941 layer_factory.hpp:77] Creating layer train-data
I0917 20:53:19.939847  5941 net.cpp:94] Creating Layer train-data
I0917 20:53:19.939862  5941 net.cpp:409] train-data -> data
I0917 20:53:19.939893  5941 net.cpp:409] train-data -> label
I0917 20:53:19.939914  5941 data_transformer.cpp:25] Loading mean file from: /media/myuser/120Gb/DIGITS/digits/jobs/20160917-133511-8c62/mean.binaryproto
I0917 20:53:19.971495  5947 db_lmdb.cpp:35] Opened lmdb /media/myuser/120Gb/DIGITS/digits/jobs/20160917-133511-8c62/train_db
I0917 20:53:20.061460  5941 data_layer.cpp:76] output data size: 16,3,224,224
I0917 20:53:20.094712  5941 net.cpp:144] Setting up train-data
I0917 20:53:20.094753  5941 net.cpp:151] Top shape: 16 3 224 224 (2408448)
I0917 20:53:20.094815  5941 net.cpp:151] Top shape: 16 (16)
I0917 20:53:20.094822  5941 net.cpp:159] Memory required for data: 9633856
I0917 20:53:20.094837  5941 layer_factory.hpp:77] Creating layer conv1_1
I0917 20:53:20.094864  5941 net.cpp:94] Creating Layer conv1_1
I0917 20:53:20.094874  5941 net.cpp:435] conv1_1 <- data
I0917 20:53:20.094892  5941 net.cpp:409] conv1_1 -> conv1_1
I0917 20:53:20.164568  5941 net.cpp:144] Setting up conv1_1
I0917 20:53:20.164609  5941 net.cpp:151] Top shape: 16 64 224 224 (51380224)
I0917 20:53:20.164618  5941 net.cpp:159] Memory required for data: 215154752
I0917 20:53:20.164641  5941 layer_factory.hpp:77] Creating layer relu1_1
I0917 20:53:20.164657  5941 net.cpp:94] Creating Layer relu1_1
I0917 20:53:20.164666  5941 net.cpp:435] relu1_1 <- conv1_1
I0917 20:53:20.164677  5941 net.cpp:396] relu1_1 -> conv1_1 (in-place)
I0917 20:53:20.164708  5941 net.cpp:144] Setting up relu1_1
I0917 20:53:20.164718  5941 net.cpp:151] Top shape: 16 64 224 224 (51380224)
I0917 20:53:20.164726  5941 net.cpp:159] Memory required for data: 420675648
I0917 20:53:20.164732  5941 layer_factory.hpp:77] Creating layer conv1_2
I0917 20:53:20.164748  5941 net.cpp:94] Creating Layer conv1_2
I0917 20:53:20.164755  5941 net.cpp:435] conv1_2 <- conv1_1
I0917 20:53:20.164765  5941 net.cpp:409] conv1_2 -> conv1_2
I0917 20:53:20.414592  5941 net.cpp:144] Setting up conv1_2
I0917 20:53:20.414633  5941 net.cpp:151] Top shape: 16 64 224 224 (51380224)
I0917 20:53:20.414644  5941 net.cpp:159] Memory required for data: 626196544
I0917 20:53:20.414677  5941 layer_factory.hpp:77] Creating layer relu1_2
I0917 20:53:20.414695  5941 net.cpp:94] Creating Layer relu1_2
I0917 20:53:20.414703  5941 net.cpp:435] relu1_2 <- conv1_2
I0917 20:53:20.414713  5941 net.cpp:396] relu1_2 -> conv1_2 (in-place)
I0917 20:53:20.414729  5941 net.cpp:144] Setting up relu1_2
I0917 20:53:20.414738  5941 net.cpp:151] Top shape: 16 64 224 224 (51380224)
I0917 20:53:20.414746  5941 net.cpp:159] Memory required for data: 831717440
I0917 20:53:20.414753  5941 layer_factory.hpp:77] Creating layer pool1
I0917 20:53:20.414768  5941 net.cpp:94] Creating Layer pool1
I0917 20:53:20.414775  5941 net.cpp:435] pool1 <- conv1_2
I0917 20:53:20.414785  5941 net.cpp:409] pool1 -> pool1
I0917 20:53:20.414888  5941 net.cpp:144] Setting up pool1
I0917 20:53:20.414901  5941 net.cpp:151] Top shape: 16 64 112 112 (12845056)
I0917 20:53:20.414937  5941 net.cpp:159] Memory required for data: 883097664
I0917 20:53:20.414944  5941 layer_factory.hpp:77] Creating layer conv2_1
I0917 20:53:20.414960  5941 net.cpp:94] Creating Layer conv2_1
I0917 20:53:20.414968  5941 net.cpp:435] conv2_1 <- pool1
I0917 20:53:20.414978  5941 net.cpp:409] conv2_1 -> conv2_1
I0917 20:53:20.512687  5941 net.cpp:144] Setting up conv2_1
I0917 20:53:20.512730  5941 net.cpp:151] Top shape: 16 128 112 112 (25690112)
I0917 20:53:20.512742  5941 net.cpp:159] Memory required for data: 985858112
I0917 20:53:20.512771  5941 layer_factory.hpp:77] Creating layer relu2_1
I0917 20:53:20.512792  5941 net.cpp:94] Creating Layer relu2_1
I0917 20:53:20.512804  5941 net.cpp:435] relu2_1 <- conv2_1
I0917 20:53:20.512820  5941 net.cpp:396] relu2_1 -> conv2_1 (in-place)
I0917 20:53:20.512843  5941 net.cpp:144] Setting up relu2_1
I0917 20:53:20.512857  5941 net.cpp:151] Top shape: 16 128 112 112 (25690112)
I0917 20:53:20.512868  5941 net.cpp:159] Memory required for data: 1088618560
I0917 20:53:20.512878  5941 layer_factory.hpp:77] Creating layer conv2_2
I0917 20:53:20.512904  5941 net.cpp:94] Creating Layer conv2_2
I0917 20:53:20.512915  5941 net.cpp:435] conv2_2 <- conv2_1
I0917 20:53:20.512931  5941 net.cpp:409] conv2_2 -> conv2_2
I0917 20:53:20.675328  5941 net.cpp:144] Setting up conv2_2
I0917 20:53:20.675372  5941 net.cpp:151] Top shape: 16 128 112 112 (25690112)
I0917 20:53:20.675384  5941 net.cpp:159] Memory required for data: 1191379008
I0917 20:53:20.675411  5941 layer_factory.hpp:77] Creating layer relu2_2
I0917 20:53:20.675427  5941 net.cpp:94] Creating Layer relu2_2
I0917 20:53:20.675436  5941 net.cpp:435] relu2_2 <- conv2_2
I0917 20:53:20.675447  5941 net.cpp:396] relu2_2 -> conv2_2 (in-place)
I0917 20:53:20.675464  5941 net.cpp:144] Setting up relu2_2
I0917 20:53:20.675473  5941 net.cpp:151] Top shape: 16 128 112 112 (25690112)
I0917 20:53:20.675480  5941 net.cpp:159] Memory required for data: 1294139456
I0917 20:53:20.675487  5941 layer_factory.hpp:77] Creating layer pool2
I0917 20:53:20.675499  5941 net.cpp:94] Creating Layer pool2
I0917 20:53:20.675508  5941 net.cpp:435] pool2 <- conv2_2
I0917 20:53:20.675516  5941 net.cpp:409] pool2 -> pool2
I0917 20:53:20.675604  5941 net.cpp:144] Setting up pool2
I0917 20:53:20.675614  5941 net.cpp:151] Top shape: 16 128 56 56 (6422528)
I0917 20:53:20.675621  5941 net.cpp:159] Memory required for data: 1319829568
I0917 20:53:20.675628  5941 layer_factory.hpp:77] Creating layer conv3_1
I0917 20:53:20.675647  5941 net.cpp:94] Creating Layer conv3_1
I0917 20:53:20.675653  5941 net.cpp:435] conv3_1 <- pool2
I0917 20:53:20.675663  5941 net.cpp:409] conv3_1 -> conv3_1
I0917 20:53:20.756300  5941 net.cpp:144] Setting up conv3_1
I0917 20:53:20.756338  5941 net.cpp:151] Top shape: 16 256 56 56 (12845056)
I0917 20:53:20.756350  5941 net.cpp:159] Memory required for data: 1371209792
I0917 20:53:20.756379  5941 layer_factory.hpp:77] Creating layer relu3_1
I0917 20:53:20.756403  5941 net.cpp:94] Creating Layer relu3_1
I0917 20:53:20.756412  5941 net.cpp:435] relu3_1 <- conv3_1
I0917 20:53:20.756422  5941 net.cpp:396] relu3_1 -> conv3_1 (in-place)
I0917 20:53:20.756439  5941 net.cpp:144] Setting up relu3_1
I0917 20:53:20.756448  5941 net.cpp:151] Top shape: 16 256 56 56 (12845056)
I0917 20:53:20.756455  5941 net.cpp:159] Memory required for data: 1422590016
I0917 20:53:20.756463  5941 layer_factory.hpp:77] Creating layer conv3_2
I0917 20:53:20.756479  5941 net.cpp:94] Creating Layer conv3_2
I0917 20:53:20.756485  5941 net.cpp:435] conv3_2 <- conv3_1
I0917 20:53:20.756496  5941 net.cpp:409] conv3_2 -> conv3_2
I0917 20:53:20.911980  5941 net.cpp:144] Setting up conv3_2
I0917 20:53:20.912021  5941 net.cpp:151] Top shape: 16 256 56 56 (12845056)
I0917 20:53:20.912034  5941 net.cpp:159] Memory required for data: 1473970240
I0917 20:53:20.912056  5941 layer_factory.hpp:77] Creating layer relu3_2
I0917 20:53:20.912077  5941 net.cpp:94] Creating Layer relu3_2
I0917 20:53:20.912091  5941 net.cpp:435] relu3_2 <- conv3_2
I0917 20:53:20.912138  5941 net.cpp:396] relu3_2 -> conv3_2 (in-place)
I0917 20:53:20.912163  5941 net.cpp:144] Setting up relu3_2
I0917 20:53:20.912176  5941 net.cpp:151] Top shape: 16 256 56 56 (12845056)
I0917 20:53:20.912186  5941 net.cpp:159] Memory required for data: 1525350464
I0917 20:53:20.912197  5941 layer_factory.hpp:77] Creating layer conv3_3
I0917 20:53:20.912220  5941 net.cpp:94] Creating Layer conv3_3
I0917 20:53:20.912231  5941 net.cpp:435] conv3_3 <- conv3_2
I0917 20:53:20.912247  5941 net.cpp:409] conv3_3 -> conv3_3
I0917 20:53:21.068827  5941 net.cpp:144] Setting up conv3_3
I0917 20:53:21.068866  5941 net.cpp:151] Top shape: 16 256 56 56 (12845056)
I0917 20:53:21.068878  5941 net.cpp:159] Memory required for data: 1576730688
I0917 20:53:21.068900  5941 layer_factory.hpp:77] Creating layer relu3_3
I0917 20:53:21.068927  5941 net.cpp:94] Creating Layer relu3_3
I0917 20:53:21.068939  5941 net.cpp:435] relu3_3 <- conv3_3
I0917 20:53:21.068955  5941 net.cpp:396] relu3_3 -> conv3_3 (in-place)
I0917 20:53:21.068979  5941 net.cpp:144] Setting up relu3_3
I0917 20:53:21.068992  5941 net.cpp:151] Top shape: 16 256 56 56 (12845056)
I0917 20:53:21.069002  5941 net.cpp:159] Memory required for data: 1628110912
I0917 20:53:21.069013  5941 layer_factory.hpp:77] Creating layer conv3_4
I0917 20:53:21.069036  5941 net.cpp:94] Creating Layer conv3_4
I0917 20:53:21.069047  5941 net.cpp:435] conv3_4 <- conv3_3
I0917 20:53:21.069062  5941 net.cpp:409] conv3_4 -> conv3_4
I0917 20:53:21.229094  5941 net.cpp:144] Setting up conv3_4
I0917 20:53:21.229135  5941 net.cpp:151] Top shape: 16 256 56 56 (12845056)
I0917 20:53:21.229147  5941 net.cpp:159] Memory required for data: 1679491136
I0917 20:53:21.229171  5941 layer_factory.hpp:77] Creating layer relu3_4
I0917 20:53:21.229190  5941 net.cpp:94] Creating Layer relu3_4
I0917 20:53:21.229203  5941 net.cpp:435] relu3_4 <- conv3_4
I0917 20:53:21.229218  5941 net.cpp:396] relu3_4 -> conv3_4 (in-place)
I0917 20:53:21.229243  5941 net.cpp:144] Setting up relu3_4
I0917 20:53:21.229255  5941 net.cpp:151] Top shape: 16 256 56 56 (12845056)
I0917 20:53:21.229266  5941 net.cpp:159] Memory required for data: 1730871360
I0917 20:53:21.229277  5941 layer_factory.hpp:77] Creating layer pool3
I0917 20:53:21.229293  5941 net.cpp:94] Creating Layer pool3
I0917 20:53:21.229305  5941 net.cpp:435] pool3 <- conv3_4
I0917 20:53:21.229320  5941 net.cpp:409] pool3 -> pool3
I0917 20:53:21.229431  5941 net.cpp:144] Setting up pool3
I0917 20:53:21.229446  5941 net.cpp:151] Top shape: 16 256 28 28 (3211264)
I0917 20:53:21.229457  5941 net.cpp:159] Memory required for data: 1743716416
I0917 20:53:21.229468  5941 layer_factory.hpp:77] Creating layer conv4_1
I0917 20:53:21.229491  5941 net.cpp:94] Creating Layer conv4_1
I0917 20:53:21.229502  5941 net.cpp:435] conv4_1 <- pool3
I0917 20:53:21.229517  5941 net.cpp:409] conv4_1 -> conv4_1
I0917 20:53:21.323921  5941 net.cpp:144] Setting up conv4_1
I0917 20:53:21.323958  5941 net.cpp:151] Top shape: 16 512 28 28 (6422528)
I0917 20:53:21.323971  5941 net.cpp:159] Memory required for data: 1769406528
I0917 20:53:21.324002  5941 layer_factory.hpp:77] Creating layer relu4_1
I0917 20:53:21.324023  5941 net.cpp:94] Creating Layer relu4_1
I0917 20:53:21.324035  5941 net.cpp:435] relu4_1 <- conv4_1
I0917 20:53:21.324049  5941 net.cpp:396] relu4_1 -> conv4_1 (in-place)
I0917 20:53:21.324071  5941 net.cpp:144] Setting up relu4_1
I0917 20:53:21.324085  5941 net.cpp:151] Top shape: 16 512 28 28 (6422528)
I0917 20:53:21.324096  5941 net.cpp:159] Memory required for data: 1795096640
I0917 20:53:21.324107  5941 layer_factory.hpp:77] Creating layer conv4_2
I0917 20:53:21.324129  5941 net.cpp:94] Creating Layer conv4_2
I0917 20:53:21.324141  5941 net.cpp:435] conv4_2 <- conv4_1
I0917 20:53:21.324156  5941 net.cpp:409] conv4_2 -> conv4_2
I0917 20:53:21.498265  5941 net.cpp:144] Setting up conv4_2
I0917 20:53:21.498311  5941 net.cpp:151] Top shape: 16 512 28 28 (6422528)
I0917 20:53:21.498322  5941 net.cpp:159] Memory required for data: 1820786752
I0917 20:53:21.498345  5941 layer_factory.hpp:77] Creating layer relu4_2
I0917 20:53:21.498397  5941 net.cpp:94] Creating Layer relu4_2
I0917 20:53:21.498411  5941 net.cpp:435] relu4_2 <- conv4_2
I0917 20:53:21.498426  5941 net.cpp:396] relu4_2 -> conv4_2 (in-place)
I0917 20:53:21.498450  5941 net.cpp:144] Setting up relu4_2
I0917 20:53:21.498463  5941 net.cpp:151] Top shape: 16 512 28 28 (6422528)
I0917 20:53:21.498474  5941 net.cpp:159] Memory required for data: 1846476864
I0917 20:53:21.498484  5941 layer_factory.hpp:77] Creating layer conv4_3
I0917 20:53:21.498507  5941 net.cpp:94] Creating Layer conv4_3
I0917 20:53:21.498517  5941 net.cpp:435] conv4_3 <- conv4_2
I0917 20:53:21.498533  5941 net.cpp:409] conv4_3 -> conv4_3
I0917 20:53:21.684072  5941 net.cpp:144] Setting up conv4_3
I0917 20:53:21.684108  5941 net.cpp:151] Top shape: 16 512 28 28 (6422528)
I0917 20:53:21.684116  5941 net.cpp:159] Memory required for data: 1872166976
I0917 20:53:21.684134  5941 layer_factory.hpp:77] Creating layer relu4_3
I0917 20:53:21.684149  5941 net.cpp:94] Creating Layer relu4_3
I0917 20:53:21.684157  5941 net.cpp:435] relu4_3 <- conv4_3
I0917 20:53:21.684168  5941 net.cpp:396] relu4_3 -> conv4_3 (in-place)
I0917 20:53:21.684185  5941 net.cpp:144] Setting up relu4_3
I0917 20:53:21.684195  5941 net.cpp:151] Top shape: 16 512 28 28 (6422528)
I0917 20:53:21.684201  5941 net.cpp:159] Memory required for data: 1897857088
I0917 20:53:21.684208  5941 layer_factory.hpp:77] Creating layer conv4_4
I0917 20:53:21.684224  5941 net.cpp:94] Creating Layer conv4_4
I0917 20:53:21.684232  5941 net.cpp:435] conv4_4 <- conv4_3
I0917 20:53:21.684242  5941 net.cpp:409] conv4_4 -> conv4_4
I0917 20:53:21.849503  5941 net.cpp:144] Setting up conv4_4
I0917 20:53:21.849547  5941 net.cpp:151] Top shape: 16 512 28 28 (6422528)
I0917 20:53:21.849558  5941 net.cpp:159] Memory required for data: 1923547200
I0917 20:53:21.849581  5941 layer_factory.hpp:77] Creating layer relu4_4
I0917 20:53:21.849601  5941 net.cpp:94] Creating Layer relu4_4
I0917 20:53:21.849614  5941 net.cpp:435] relu4_4 <- conv4_4
I0917 20:53:21.849629  5941 net.cpp:396] relu4_4 -> conv4_4 (in-place)
I0917 20:53:21.849663  5941 net.cpp:144] Setting up relu4_4
I0917 20:53:21.849676  5941 net.cpp:151] Top shape: 16 512 28 28 (6422528)
I0917 20:53:21.849687  5941 net.cpp:159] Memory required for data: 1949237312
I0917 20:53:21.849697  5941 layer_factory.hpp:77] Creating layer pool4
I0917 20:53:21.849714  5941 net.cpp:94] Creating Layer pool4
I0917 20:53:21.849725  5941 net.cpp:435] pool4 <- conv4_4
I0917 20:53:21.849740  5941 net.cpp:409] pool4 -> pool4
I0917 20:53:21.849848  5941 net.cpp:144] Setting up pool4
I0917 20:53:21.849864  5941 net.cpp:151] Top shape: 16 512 14 14 (1605632)
I0917 20:53:21.849875  5941 net.cpp:159] Memory required for data: 1955659840
I0917 20:53:21.849885  5941 layer_factory.hpp:77] Creating layer conv5_1
I0917 20:53:21.849907  5941 net.cpp:94] Creating Layer conv5_1
I0917 20:53:21.849920  5941 net.cpp:435] conv5_1 <- pool4
I0917 20:53:21.849934  5941 net.cpp:409] conv5_1 -> conv5_1
I0917 20:53:21.934201  5941 net.cpp:144] Setting up conv5_1
I0917 20:53:21.934244  5941 net.cpp:151] Top shape: 16 512 14 14 (1605632)
I0917 20:53:21.934257  5941 net.cpp:159] Memory required for data: 1962082368
I0917 20:53:21.934279  5941 layer_factory.hpp:77] Creating layer relu5_1
I0917 20:53:21.934298  5941 net.cpp:94] Creating Layer relu5_1
I0917 20:53:21.934312  5941 net.cpp:435] relu5_1 <- conv5_1
I0917 20:53:21.934327  5941 net.cpp:396] relu5_1 -> conv5_1 (in-place)
I0917 20:53:21.934350  5941 net.cpp:144] Setting up relu5_1
I0917 20:53:21.934365  5941 net.cpp:151] Top shape: 16 512 14 14 (1605632)
I0917 20:53:21.934376  5941 net.cpp:159] Memory required for data: 1968504896
I0917 20:53:21.934386  5941 layer_factory.hpp:77] Creating layer conv5_2
I0917 20:53:21.934407  5941 net.cpp:94] Creating Layer conv5_2
I0917 20:53:21.934418  5941 net.cpp:435] conv5_2 <- conv5_1
I0917 20:53:21.934434  5941 net.cpp:409] conv5_2 -> conv5_2
I0917 20:53:22.019954  5941 net.cpp:144] Setting up conv5_2
I0917 20:53:22.020036  5941 net.cpp:151] Top shape: 16 512 14 14 (1605632)
I0917 20:53:22.020050  5941 net.cpp:159] Memory required for data: 1974927424
I0917 20:53:22.020072  5941 layer_factory.hpp:77] Creating layer relu5_2
I0917 20:53:22.020103  5941 net.cpp:94] Creating Layer relu5_2
I0917 20:53:22.020117  5941 net.cpp:435] relu5_2 <- conv5_2
I0917 20:53:22.020133  5941 net.cpp:396] relu5_2 -> conv5_2 (in-place)
I0917 20:53:22.020156  5941 net.cpp:144] Setting up relu5_2
I0917 20:53:22.020170  5941 net.cpp:151] Top shape: 16 512 14 14 (1605632)
I0917 20:53:22.020180  5941 net.cpp:159] Memory required for data: 1981349952
I0917 20:53:22.020191  5941 layer_factory.hpp:77] Creating layer conv5_3
I0917 20:53:22.020215  5941 net.cpp:94] Creating Layer conv5_3
I0917 20:53:22.020226  5941 net.cpp:435] conv5_3 <- conv5_2
I0917 20:53:22.020241  5941 net.cpp:409] conv5_3 -> conv5_3
I0917 20:53:22.111780  5941 net.cpp:144] Setting up conv5_3
I0917 20:53:22.111829  5941 net.cpp:151] Top shape: 16 512 14 14 (1605632)
I0917 20:53:22.111837  5941 net.cpp:159] Memory required for data: 1987772480
I0917 20:53:22.111855  5941 layer_factory.hpp:77] Creating layer relu5_3
I0917 20:53:22.111873  5941 net.cpp:94] Creating Layer relu5_3
I0917 20:53:22.111883  5941 net.cpp:435] relu5_3 <- conv5_3
I0917 20:53:22.111896  5941 net.cpp:396] relu5_3 -> conv5_3 (in-place)
I0917 20:53:22.111915  5941 net.cpp:144] Setting up relu5_3
I0917 20:53:22.111924  5941 net.cpp:151] Top shape: 16 512 14 14 (1605632)
I0917 20:53:22.111932  5941 net.cpp:159] Memory required for data: 1994195008
I0917 20:53:22.111939  5941 layer_factory.hpp:77] Creating layer conv5_4
I0917 20:53:22.111960  5941 net.cpp:94] Creating Layer conv5_4
I0917 20:53:22.111968  5941 net.cpp:435] conv5_4 <- conv5_3
I0917 20:53:22.111980  5941 net.cpp:409] conv5_4 -> conv5_4
I0917 20:53:22.190837  5941 net.cpp:144] Setting up conv5_4
I0917 20:53:22.190884  5941 net.cpp:151] Top shape: 16 512 14 14 (1605632)
I0917 20:53:22.190893  5941 net.cpp:159] Memory required for data: 2000617536
I0917 20:53:22.190913  5941 layer_factory.hpp:77] Creating layer relu5_4
I0917 20:53:22.190930  5941 net.cpp:94] Creating Layer relu5_4
I0917 20:53:22.190942  5941 net.cpp:435] relu5_4 <- conv5_4
I0917 20:53:22.190953  5941 net.cpp:396] relu5_4 -> conv5_4 (in-place)
I0917 20:53:22.190973  5941 net.cpp:144] Setting up relu5_4
I0917 20:53:22.190982  5941 net.cpp:151] Top shape: 16 512 14 14 (1605632)
I0917 20:53:22.190990  5941 net.cpp:159] Memory required for data: 2007040064
I0917 20:53:22.190997  5941 layer_factory.hpp:77] Creating layer pool5
I0917 20:53:22.191011  5941 net.cpp:94] Creating Layer pool5
I0917 20:53:22.191018  5941 net.cpp:435] pool5 <- conv5_4
I0917 20:53:22.191028  5941 net.cpp:409] pool5 -> pool5
I0917 20:53:22.191141  5941 net.cpp:144] Setting up pool5
I0917 20:53:22.191153  5941 net.cpp:151] Top shape: 16 512 7 7 (401408)
I0917 20:53:22.191160  5941 net.cpp:159] Memory required for data: 2008645696
I0917 20:53:22.191167  5941 layer_factory.hpp:77] Creating layer fc6
I0917 20:53:22.191190  5941 net.cpp:94] Creating Layer fc6
I0917 20:53:22.191198  5941 net.cpp:435] fc6 <- pool5
I0917 20:53:22.191210  5941 net.cpp:409] fc6 -> fc6
I0917 20:53:23.313881  5941 net.cpp:144] Setting up fc6
I0917 20:53:23.313932  5941 net.cpp:151] Top shape: 16 4096 (65536)
I0917 20:53:23.313941  5941 net.cpp:159] Memory required for data: 2008907840
I0917 20:53:23.313974  5941 layer_factory.hpp:77] Creating layer relu6
I0917 20:53:23.313992  5941 net.cpp:94] Creating Layer relu6
I0917 20:53:23.314002  5941 net.cpp:435] relu6 <- fc6
I0917 20:53:23.314013  5941 net.cpp:396] relu6 -> fc6 (in-place)
I0917 20:53:23.314031  5941 net.cpp:144] Setting up relu6
I0917 20:53:23.314040  5941 net.cpp:151] Top shape: 16 4096 (65536)
I0917 20:53:23.314048  5941 net.cpp:159] Memory required for data: 2009169984
I0917 20:53:23.314054  5941 layer_factory.hpp:77] Creating layer drop6
I0917 20:53:23.314067  5941 net.cpp:94] Creating Layer drop6
I0917 20:53:23.314074  5941 net.cpp:435] drop6 <- fc6
I0917 20:53:23.314083  5941 net.cpp:396] drop6 -> fc6 (in-place)
I0917 20:53:23.314173  5941 net.cpp:144] Setting up drop6
I0917 20:53:23.314183  5941 net.cpp:151] Top shape: 16 4096 (65536)
I0917 20:53:23.314190  5941 net.cpp:159] Memory required for data: 2009432128
I0917 20:53:23.314198  5941 layer_factory.hpp:77] Creating layer fc7
I0917 20:53:23.314210  5941 net.cpp:94] Creating Layer fc7
I0917 20:53:23.314218  5941 net.cpp:435] fc7 <- fc6
I0917 20:53:23.314229  5941 net.cpp:409] fc7 -> fc7
I0917 20:53:23.494824  5941 net.cpp:144] Setting up fc7
I0917 20:53:23.494866  5941 net.cpp:151] Top shape: 16 4096 (65536)
I0917 20:53:23.494874  5941 net.cpp:159] Memory required for data: 2009694272
I0917 20:53:23.494891  5941 layer_factory.hpp:77] Creating layer relu7
I0917 20:53:23.494907  5941 net.cpp:94] Creating Layer relu7
I0917 20:53:23.494916  5941 net.cpp:435] relu7 <- fc7
I0917 20:53:23.494928  5941 net.cpp:396] relu7 -> fc7 (in-place)
I0917 20:53:23.494945  5941 net.cpp:144] Setting up relu7
I0917 20:53:23.494953  5941 net.cpp:151] Top shape: 16 4096 (65536)
I0917 20:53:23.494961  5941 net.cpp:159] Memory required for data: 2009956416
I0917 20:53:23.494967  5941 layer_factory.hpp:77] Creating layer drop7
I0917 20:53:23.494979  5941 net.cpp:94] Creating Layer drop7
I0917 20:53:23.494987  5941 net.cpp:435] drop7 <- fc7
I0917 20:53:23.494997  5941 net.cpp:396] drop7 -> fc7 (in-place)
I0917 20:53:23.495030  5941 net.cpp:144] Setting up drop7
I0917 20:53:23.495039  5941 net.cpp:151] Top shape: 16 4096 (65536)
I0917 20:53:23.495046  5941 net.cpp:159] Memory required for data: 2010218560
I0917 20:53:23.495054  5941 layer_factory.hpp:77] Creating layer fc8
I0917 20:53:23.495065  5941 net.cpp:94] Creating Layer fc8
I0917 20:53:23.495074  5941 net.cpp:435] fc8 <- fc7
I0917 20:53:23.495082  5941 net.cpp:409] fc8 -> fc8
I0917 20:53:23.495283  5941 net.cpp:144] Setting up fc8
I0917 20:53:23.495293  5941 net.cpp:151] Top shape: 16 2 (32)
I0917 20:53:23.495301  5941 net.cpp:159] Memory required for data: 2010218688
I0917 20:53:23.495311  5941 layer_factory.hpp:77] Creating layer loss
I0917 20:53:23.495332  5941 net.cpp:94] Creating Layer loss
I0917 20:53:23.495338  5941 net.cpp:435] loss <- fc8
I0917 20:53:23.495347  5941 net.cpp:435] loss <- label
I0917 20:53:23.495359  5941 net.cpp:409] loss -> loss
I0917 20:53:23.495378  5941 layer_factory.hpp:77] Creating layer loss
…
I0917 20:53:23.497246  5941 net.cpp:323] The NetState phase (1) differed from the phase (0) specified by a rule in layer train-data
I0917 20:53:23.497529  5941 net.cpp:52] Initializing net from parameters:
state {
phase: TEST
}
layer {
name: "val-data"
type: "Data"
top: "data"
top: "label"
include {
phase: TEST
}
transform_param {
crop_size: 224
mean_file: "/media/myuser/120Gb/DIGITS/digits/jobs/20160917-133511-8c62/mean.binaryproto"
}
data_param {
source: "/media/myuser/120Gb/DIGITS/digits/jobs/20160917-133511-8c62/val_db"
batch_size: 16
backend: LMDB
}
}
layer {
name: "conv1_1"
type: "Convolution"
bottom: "data"
top: "conv1_1"
convolution_param {
num_output: 64
pad: 1
kernel_size: 3
weight_filler {
type: "xavier"
}
bias_filler {
type: "constant"
value: 0
}
}
}
layer {
name: "relu1_1"
type: "ReLU"
bottom: "conv1_1"
top: "conv1_1"
}
layer {
name: "conv1_2"
type: "Convolution"
bottom: "conv1_1"
top: "conv1_2"
convolution_param {
num_output: 64
pad: 1
kernel_size: 3
weight_filler {
type: "xavier"
}
bias_filler {
type: "constant"
value: 0
}
}
}
layer {
name: "relu1_2"
type: "ReLU"
bottom: "conv1_2"
top: "conv1_2"
}
layer {
name: "pool1"
type: "Pooling"
bottom: "conv1_2"
top: "pool1"
pooling_param {
pool: MAX
kernel_size: 2
stride: 2
}
}
layer {
name: "conv2_1"
type: "Convolution"
bottom: "pool1"
top: "conv2_1"
convolution_param {
num_output: 128
pad: 1
kernel_size: 3
weight_filler {
type: "xavier"
}
bias_filler {
type: "constant"
value: 0
}
}
}
layer {
name: "relu2_1"
type: "ReLU"
bottom: "conv2_1"
top: "conv2_1"
}
layer {
name: "conv2_2"
type: "Convolution"
bottom: "conv2_1"
top: "conv2_2"
convolution_param {
num_output: 128
pad: 1
kernel_size: 3
weight_filler {
type: "xavier"
}
bias_filler {
type: "constant"
value: 0
}
}
}
layer {
name: "relu2_2"
type: "ReLU"
bottom: "conv2_2"
top: "conv2_2"
}
layer {
name: "pool2"
type: "Pooling"
bottom: "conv2_2"
top: "pool2"
pooling_param {
pool: MAX
kernel_size: 2
stride: 2
}
}
layer {
name: "conv3_1"
type: "Convolution"
bottom: "pool2"
top: "conv3_1"
convolution_param {
num_output: 256
pad: 1
kernel_size: 3
weight_filler {
type: "xavier"
}
bias_filler {
type: "constant"
value: 0
}
}
}
layer {
name: "relu3_1"
type: "ReLU"
bottom: "conv3_1"
top: "conv3_1"
}
layer {
name: "conv3_2"
type: "Convolution"
bottom: "conv3_1"
top: "conv3_2"
convolution_param {
num_output: 256
pad: 1
kernel_size: 3
weight_filler {
type: "xavier"
}
bias_filler {
type: "constant"
value: 0
}
}
}
layer {
name: "relu3_2"
type: "ReLU"
bottom: "conv3_2"
top: "conv3_2"
}
layer {
name: "conv3_3"
type: "Convolution"
bottom: "conv3_2"
top: "conv3_3"
convolution_param {
num_output: 256
pad: 1
kernel_size: 3
weight_filler {
type: "xavier"
}
bias_filler {
type: "constant"
value: 0
}
}
}
layer {
name: "relu3_3"
type: "ReLU"
bottom: "conv3_3"
top: "conv3_3"
}
layer {
name: "conv3_4"
type: "Convolution"
bottom: "conv3_3"
top: "conv3_4"
convolution_param {
num_output: 256
pad: 1
kernel_size: 3
weight_filler {
type: "xavier"
}
bias_filler {
type: "constant"
value: 0
}
}
}
layer {
name: "relu3_4"
type: "ReLU"
bottom: "conv3_4"
top: "conv3_4"
}
layer {
name: "pool3"
type: "Pooling"
bottom: "conv3_4"
top: "pool3"
pooling_param {
pool: MAX
kernel_size: 2
stride: 2
}
}
layer {
name: "conv4_1"
type: "Convolution"
bottom: "pool3"
top: "conv4_1"
convolution_param {
num_output: 512
pad: 1
kernel_size: 3
weight_filler {
type: "xavier"
}
bias_filler {
type: "constant"
value: 0
}
}
}
layer {
name: "relu4_1"
type: "ReLU"
bottom: "conv4_1"
top: "conv4_1"
}
layer {
name: "conv4_2"
type: "Convolution"
bottom: "conv4_1"
top: "conv4_2"
convolution_param {
num_output: 512
pad: 1
kernel_size: 3
weight_filler {
type: "xavier"
}
bias_filler {
type: "constant"
value: 0
}
}
}
layer {
name: "relu4_2"
type: "ReLU"
bottom: "conv4_2"
top: "conv4_2"
}
layer {
name: "conv4_3"
type: "Convolution"
bottom: "conv4_2"
top: "conv4_3"
convolution_param {
num_output: 512
pad: 1
kernel_size: 3
weight_filler {
type: "xavier"
}
bias_filler {
type: "constant"
value: 0
}
}
}
layer {
name: "relu4_3"
type: "ReLU"
bottom: "conv4_3"
top: "conv4_3"
}
layer {
name: "conv4_4"
type: "Convolution"
bottom: "conv4_3"
top: "conv4_4"
convolution_param {
num_output: 512
pad: 1
kernel_size: 3
weight_filler {
type: "xavier"
}
bias_filler {
type: "constant"
value: 0
}
}
}
layer {
name: "relu4_4"
type: "ReLU"
bottom: "conv4_4"
top: "conv4_4"
}
layer {
name: "pool4"
type: "Pooling"
bottom: "conv4_4"
top: "pool4"
pooling_param {
pool: MAX
kernel_size: 2
stride: 2
}
}
layer {
name: "conv5_1"
type: "Convolution"
bottom: "pool4"
top: "conv5_1"
convolution_param {
num_output: 512
pad: 1
kernel_size: 3
weight_filler {
type: "xavier"
}
bias_filler {
type: "constant"
value: 0
}
}
}
layer {
name: "relu5_1"
type: "ReLU"
bottom: "conv5_1"
top: "conv5_1"
}
layer {
name: "conv5_2"
type: "Convolution"
bottom: "conv5_1"
top: "conv5_2"
convolution_param {
num_output: 512
pad: 1
kernel_size: 3
weight_filler {
type: "xavier"
}
bias_filler {
type: "constant"
value: 0
}
}
}
layer {
name: "relu5_2"
type: "ReLU"
bottom: "conv5_2"
top: "conv5_2"
}
layer {
name: "conv5_3"
type: "Convolution"
bottom: "conv5_2"
top: "conv5_3"
convolution_param {
num_output: 512
pad: 1
kernel_size: 3
weight_filler {
type: "xavier"
}
bias_filler {
type: "constant"
value: 0
}
}
}
layer {
name: "relu5_3"
type: "ReLU"
bottom: "conv5_3"
top: "conv5_3"
}
layer {
name: "conv5_4"
type: "Convolution"
bottom: "conv5_3"
top: "conv5_4"
convolution_param {
num_output: 512
pad: 1
kernel_size: 3
weight_filler {
type: "xavier"
}
bias_filler {
type: "constant"
value: 0
}
}
}
layer {
name: "relu5_4"
type: "ReLU"
bottom: "conv5_4"
top: "conv5_4"
}
layer {
name: "pool5"
type: "Pooling"
bottom: "conv5_4"
top: "pool5"
pooling_param {
pool: MAX
kernel_size: 2
stride: 2
}
}
layer {
name: "fc6"
type: "InnerProduct"
bottom: "pool5"
top: "fc6"
inner_product_param {
num_output: 4096
weight_filler {
type: "xavier"
}
bias_filler {
type: "constant"
value: 0.1
}
}
}
layer {
name: "relu6"
type: "ReLU"
bottom: "fc6"
top: "fc6"
}
layer {
name: "drop6"
type: "Dropout"
bottom: "fc6"
top: "fc6"
dropout_param {
dropout_ratio: 0.5
}
}
layer {
name: "fc7"
type: "InnerProduct"
bottom: "fc6"
top: "fc7"
inner_product_param {
num_output: 4096
weight_filler {
type: "xavier"
}
bias_filler {
type: "constant"
value: 0.1
}
}
}
layer {
name: "relu7"
type: "ReLU"
bottom: "fc7"
top: "fc7"
}
layer {
name: "drop7"
type: "Dropout"
bottom: "fc7"
top: "fc7"
dropout_param {
dropout_ratio: 0.5
}
}
layer {
name: "fc8"
type: "InnerProduct"
bottom: "fc7"
top: "fc8"
inner_product_param {
num_output: 2
weight_filler {
type: "xavier"
}
bias_filler {
type: "constant"
value: 0.1
}
}
}
layer {
name: "accuracy"
type: "Accuracy"
bottom: "fc8"
bottom: "label"
top: "accuracy"
include {
phase: TEST
}
}
layer {
name: "loss"
type: "SoftmaxWithLoss"
bottom: "fc8"
bottom: "label"
top: "loss"
}
I0917 20:53:23.497746  5941 layer_factory.hpp:77] Creating layer val-data
I0917 20:53:23.500146  5941 net.cpp:94] Creating Layer val-data
I0917 20:53:23.500185  5941 net.cpp:409] val-data -> data
I0917 20:53:23.500205  5941 net.cpp:409] val-data -> label
I0917 20:53:23.500219  5941 data_transformer.cpp:25] Loading mean file from: /media/myuser/120Gb/DIGITS/digits/jobs/20160917-133511-8c62/mean.binaryproto
I0917 20:53:23.522900  5951 db_lmdb.cpp:35] Opened lmdb /media/myuser/120Gb/DIGITS/digits/jobs/20160917-133511-8c62/val_db
I0917 20:53:23.545768  5941 data_layer.cpp:76] output data size: 16,3,224,224
I0917 20:53:23.579727  5941 net.cpp:144] Setting up val-data
I0917 20:53:23.579764  5941 net.cpp:151] Top shape: 16 3 224 224 (2408448)
I0917 20:53:23.579776  5941 net.cpp:151] Top shape: 16 (16)
I0917 20:53:23.579783  5941 net.cpp:159] Memory required for data: 9633856
I0917 20:53:23.579793  5941 layer_factory.hpp:77] Creating layer label_val-data_1_split
I0917 20:53:23.579818  5941 net.cpp:94] Creating Layer label_val-data_1_split
I0917 20:53:23.579826  5941 net.cpp:435] label_val-data_1_split <- label
I0917 20:53:23.579838  5941 net.cpp:409] label_val-data_1_split -> label_val-data_1_split_0
I0917 20:53:23.579852  5941 net.cpp:409] label_val-data_1_split -> label_val-data_1_split_1
I0917 20:53:23.579982  5941 net.cpp:144] Setting up label_val-data_1_split
I0917 20:53:23.579993  5941 net.cpp:151] Top shape: 16 (16)
I0917 20:53:23.580000  5941 net.cpp:151] Top shape: 16 (16)
I0917 20:53:23.580008  5941 net.cpp:159] Memory required for data: 9633984
I0917 20:53:23.580015  5941 layer_factory.hpp:77] Creating layer conv1_1
I0917 20:53:23.580032  5941 net.cpp:94] Creating Layer conv1_1
I0917 20:53:23.580065  5941 net.cpp:435] conv1_1 <- data
I0917 20:53:23.580076  5941 net.cpp:409] conv1_1 -> conv1_1
I0917 20:53:23.595547  5941 net.cpp:144] Setting up conv1_1
I0917 20:53:23.595573  5941 net.cpp:151] Top shape: 16 64 224 224 (51380224)
I0917 20:53:23.595582  5941 net.cpp:159] Memory required for data: 215154880
I0917 20:53:23.595600  5941 layer_factory.hpp:77] Creating layer relu1_1
I0917 20:53:23.595614  5941 net.cpp:94] Creating Layer relu1_1
I0917 20:53:23.595623  5941 net.cpp:435] relu1_1 <- conv1_1
I0917 20:53:23.595633  5941 net.cpp:396] relu1_1 -> conv1_1 (in-place)
I0917 20:53:23.595649  5941 net.cpp:144] Setting up relu1_1
I0917 20:53:23.595657  5941 net.cpp:151] Top shape: 16 64 224 224 (51380224)
I0917 20:53:23.595664  5941 net.cpp:159] Memory required for data: 420675776
I0917 20:53:23.595671  5941 layer_factory.hpp:77] Creating layer conv1_2
I0917 20:53:23.595688  5941 net.cpp:94] Creating Layer conv1_2
I0917 20:53:23.595696  5941 net.cpp:435] conv1_2 <- conv1_1
I0917 20:53:23.595706  5941 net.cpp:409] conv1_2 -> conv1_2
I0917 20:53:23.681512  5941 net.cpp:144] Setting up conv1_2
I0917 20:53:23.681550  5941 net.cpp:151] Top shape: 16 64 224 224 (51380224)
I0917 20:53:23.681558  5941 net.cpp:159] Memory required for data: 626196672
I0917 20:53:23.681578  5941 layer_factory.hpp:77] Creating layer relu1_2
I0917 20:53:23.681593  5941 net.cpp:94] Creating Layer relu1_2
I0917 20:53:23.681602  5941 net.cpp:435] relu1_2 <- conv1_2
I0917 20:53:23.681612  5941 net.cpp:396] relu1_2 -> conv1_2 (in-place)
I0917 20:53:23.681628  5941 net.cpp:144] Setting up relu1_2
I0917 20:53:23.681653  5941 net.cpp:151] Top shape: 16 64 224 224 (51380224)
I0917 20:53:23.681660  5941 net.cpp:159] Memory required for data: 831717568
I0917 20:53:23.681668  5941 layer_factory.hpp:77] Creating layer pool1
I0917 20:53:23.681679  5941 net.cpp:94] Creating Layer pool1
I0917 20:53:23.681686  5941 net.cpp:435] pool1 <- conv1_2
I0917 20:53:23.681696  5941 net.cpp:409] pool1 -> pool1
I0917 20:53:23.681805  5941 net.cpp:144] Setting up pool1
I0917 20:53:23.681815  5941 net.cpp:151] Top shape: 16 64 112 112 (12845056)
I0917 20:53:23.681823  5941 net.cpp:159] Memory required for data: 883097792
I0917 20:53:23.681829  5941 layer_factory.hpp:77] Creating layer conv2_1
I0917 20:53:23.681845  5941 net.cpp:94] Creating Layer conv2_1
I0917 20:53:23.681854  5941 net.cpp:435] conv2_1 <- pool1
I0917 20:53:23.681864  5941 net.cpp:409] conv2_1 -> conv2_1
I0917 20:53:23.716401  5941 net.cpp:144] Setting up conv2_1
I0917 20:53:23.716433  5941 net.cpp:151] Top shape: 16 128 112 112 (25690112)
I0917 20:53:23.716440  5941 net.cpp:159] Memory required for data: 985858240
I0917 20:53:23.716460  5941 layer_factory.hpp:77] Creating layer relu2_1
I0917 20:53:23.716477  5941 net.cpp:94] Creating Layer relu2_1
I0917 20:53:23.716486  5941 net.cpp:435] relu2_1 <- conv2_1
I0917 20:53:23.716497  5941 net.cpp:396] relu2_1 -> conv2_1 (in-place)
I0917 20:53:23.716513  5941 net.cpp:144] Setting up relu2_1
I0917 20:53:23.716522  5941 net.cpp:151] Top shape: 16 128 112 112 (25690112)
I0917 20:53:23.716529  5941 net.cpp:159] Memory required for data: 1088618688
I0917 20:53:23.716536  5941 layer_factory.hpp:77] Creating layer conv2_2
I0917 20:53:23.716552  5941 net.cpp:94] Creating Layer conv2_2
I0917 20:53:23.716560  5941 net.cpp:435] conv2_2 <- conv2_1
I0917 20:53:23.716570  5941 net.cpp:409] conv2_2 -> conv2_2
I0917 20:53:23.775589  5941 net.cpp:144] Setting up conv2_2
I0917 20:53:23.775629  5941 net.cpp:151] Top shape: 16 128 112 112 (25690112)
I0917 20:53:23.775641  5941 net.cpp:159] Memory required for data: 1191379136
I0917 20:53:23.775661  5941 layer_factory.hpp:77] Creating layer relu2_2
I0917 20:53:23.775683  5941 net.cpp:94] Creating Layer relu2_2
I0917 20:53:23.775692  5941 net.cpp:435] relu2_2 <- conv2_2
I0917 20:53:23.775703  5941 net.cpp:396] relu2_2 -> conv2_2 (in-place)
I0917 20:53:23.775719  5941 net.cpp:144] Setting up relu2_2
I0917 20:53:23.775728  5941 net.cpp:151] Top shape: 16 128 112 112 (25690112)
I0917 20:53:23.775735  5941 net.cpp:159] Memory required for data: 1294139584
I0917 20:53:23.775768  5941 layer_factory.hpp:77] Creating layer pool2
I0917 20:53:23.775780  5941 net.cpp:94] Creating Layer pool2
I0917 20:53:23.775787  5941 net.cpp:435] pool2 <- conv2_2
I0917 20:53:23.775797  5941 net.cpp:409] pool2 -> pool2
I0917 20:53:23.775902  5941 net.cpp:144] Setting up pool2
I0917 20:53:23.775912  5941 net.cpp:151] Top shape: 16 128 56 56 (6422528)
I0917 20:53:23.775918  5941 net.cpp:159] Memory required for data: 1319829696
I0917 20:53:23.775925  5941 layer_factory.hpp:77] Creating layer conv3_1
I0917 20:53:23.775940  5941 net.cpp:94] Creating Layer conv3_1
I0917 20:53:23.775949  5941 net.cpp:435] conv3_1 <- pool2
I0917 20:53:23.775959  5941 net.cpp:409] conv3_1 -> conv3_1
I0917 20:53:23.807663  5941 net.cpp:144] Setting up conv3_1
I0917 20:53:23.807704  5941 net.cpp:151] Top shape: 16 256 56 56 (12845056)
I0917 20:53:23.807716  5941 net.cpp:159] Memory required for data: 1371209920
I0917 20:53:23.807746  5941 layer_factory.hpp:77] Creating layer relu3_1
I0917 20:53:23.807762  5941 net.cpp:94] Creating Layer relu3_1
I0917 20:53:23.807771  5941 net.cpp:435] relu3_1 <- conv3_1
I0917 20:53:23.807781  5941 net.cpp:396] relu3_1 -> conv3_1 (in-place)
I0917 20:53:23.807798  5941 net.cpp:144] Setting up relu3_1
I0917 20:53:23.807807  5941 net.cpp:151] Top shape: 16 256 56 56 (12845056)
I0917 20:53:23.807814  5941 net.cpp:159] Memory required for data: 1422590144
I0917 20:53:23.807821  5941 layer_factory.hpp:77] Creating layer conv3_2
I0917 20:53:23.807837  5941 net.cpp:94] Creating Layer conv3_2
I0917 20:53:23.807844  5941 net.cpp:435] conv3_2 <- conv3_1
I0917 20:53:23.807855  5941 net.cpp:409] conv3_2 -> conv3_2
I0917 20:53:23.859889  5941 net.cpp:144] Setting up conv3_2
I0917 20:53:23.859925  5941 net.cpp:151] Top shape: 16 256 56 56 (12845056)
I0917 20:53:23.859937  5941 net.cpp:159] Memory required for data: 1473970368
I0917 20:53:23.859959  5941 layer_factory.hpp:77] Creating layer relu3_2
I0917 20:53:23.859982  5941 net.cpp:94] Creating Layer relu3_2
I0917 20:53:23.859992  5941 net.cpp:435] relu3_2 <- conv3_2
I0917 20:53:23.860002  5941 net.cpp:396] relu3_2 -> conv3_2 (in-place)
I0917 20:53:23.860018  5941 net.cpp:144] Setting up relu3_2
I0917 20:53:23.860028  5941 net.cpp:151] Top shape: 16 256 56 56 (12845056)
I0917 20:53:23.860034  5941 net.cpp:159] Memory required for data: 1525350592
I0917 20:53:23.860041  5941 layer_factory.hpp:77] Creating layer conv3_3
I0917 20:53:23.860062  5941 net.cpp:94] Creating Layer conv3_3
I0917 20:53:23.860069  5941 net.cpp:435] conv3_3 <- conv3_2
I0917 20:53:23.860080  5941 net.cpp:409] conv3_3 -> conv3_3
I0917 20:53:23.914224  5941 net.cpp:144] Setting up conv3_3
I0917 20:53:23.914263  5941 net.cpp:151] Top shape: 16 256 56 56 (12845056)
I0917 20:53:23.914274  5941 net.cpp:159] Memory required for data: 1576730816
I0917 20:53:23.914296  5941 layer_factory.hpp:77] Creating layer relu3_3
I0917 20:53:23.914319  5941 net.cpp:94] Creating Layer relu3_3
I0917 20:53:23.914329  5941 net.cpp:435] relu3_3 <- conv3_3
I0917 20:53:23.914340  5941 net.cpp:396] relu3_3 -> conv3_3 (in-place)
I0917 20:53:23.914355  5941 net.cpp:144] Setting up relu3_3
I0917 20:53:23.914364  5941 net.cpp:151] Top shape: 16 256 56 56 (12845056)
I0917 20:53:23.914371  5941 net.cpp:159] Memory required for data: 1628111040
I0917 20:53:23.914378  5941 layer_factory.hpp:77] Creating layer conv3_4
I0917 20:53:23.914394  5941 net.cpp:94] Creating Layer conv3_4
I0917 20:53:23.914402  5941 net.cpp:435] conv3_4 <- conv3_3
I0917 20:53:23.914412  5941 net.cpp:409] conv3_4 -> conv3_4
I0917 20:53:23.967517  5941 net.cpp:144] Setting up conv3_4
I0917 20:53:23.967553  5941 net.cpp:151] Top shape: 16 256 56 56 (12845056)
I0917 20:53:23.967561  5941 net.cpp:159] Memory required for data: 1679491264
I0917 20:53:23.967577  5941 layer_factory.hpp:77] Creating layer relu3_4
I0917 20:53:23.967592  5941 net.cpp:94] Creating Layer relu3_4
I0917 20:53:23.967602  5941 net.cpp:435] relu3_4 <- conv3_4
I0917 20:53:23.967612  5941 net.cpp:396] relu3_4 -> conv3_4 (in-place)
I0917 20:53:23.967628  5941 net.cpp:144] Setting up relu3_4
I0917 20:53:23.967664  5941 net.cpp:151] Top shape: 16 256 56 56 (12845056)
I0917 20:53:23.967671  5941 net.cpp:159] Memory required for data: 1730871488
I0917 20:53:23.967679  5941 layer_factory.hpp:77] Creating layer pool3
I0917 20:53:23.967690  5941 net.cpp:94] Creating Layer pool3
I0917 20:53:23.967697  5941 net.cpp:435] pool3 <- conv3_4
I0917 20:53:23.967707  5941 net.cpp:409] pool3 -> pool3
I0917 20:53:23.967811  5941 net.cpp:144] Setting up pool3
I0917 20:53:23.967821  5941 net.cpp:151] Top shape: 16 256 28 28 (3211264)
I0917 20:53:23.967828  5941 net.cpp:159] Memory required for data: 1743716544
I0917 20:53:23.967835  5941 layer_factory.hpp:77] Creating layer conv4_1
I0917 20:53:23.967851  5941 net.cpp:94] Creating Layer conv4_1
I0917 20:53:23.967859  5941 net.cpp:435] conv4_1 <- pool3
I0917 20:53:23.967869  5941 net.cpp:409] conv4_1 -> conv4_1
I0917 20:53:24.004529  5941 net.cpp:144] Setting up conv4_1
I0917 20:53:24.004570  5941 net.cpp:151] Top shape: 16 512 28 28 (6422528)
I0917 20:53:24.004578  5941 net.cpp:159] Memory required for data: 1769406656
I0917 20:53:24.004604  5941 layer_factory.hpp:77] Creating layer relu4_1
I0917 20:53:24.004619  5941 net.cpp:94] Creating Layer relu4_1
I0917 20:53:24.004629  5941 net.cpp:435] relu4_1 <- conv4_1
I0917 20:53:24.004639  5941 net.cpp:396] relu4_1 -> conv4_1 (in-place)
I0917 20:53:24.004657  5941 net.cpp:144] Setting up relu4_1
I0917 20:53:24.004665  5941 net.cpp:151] Top shape: 16 512 28 28 (6422528)
I0917 20:53:24.004673  5941 net.cpp:159] Memory required for data: 1795096768
I0917 20:53:24.004679  5941 layer_factory.hpp:77] Creating layer conv4_2
I0917 20:53:24.004695  5941 net.cpp:94] Creating Layer conv4_2
I0917 20:53:24.004703  5941 net.cpp:435] conv4_2 <- conv4_1
I0917 20:53:24.004714  5941 net.cpp:409] conv4_2 -> conv4_2
I0917 20:53:24.071753  5941 net.cpp:144] Setting up conv4_2
I0917 20:53:24.071784  5941 net.cpp:151] Top shape: 16 512 28 28 (6422528)
I0917 20:53:24.071791  5941 net.cpp:159] Memory required for data: 1820786880
I0917 20:53:24.071806  5941 layer_factory.hpp:77] Creating layer relu4_2
I0917 20:53:24.071821  5941 net.cpp:94] Creating Layer relu4_2
I0917 20:53:24.071830  5941 net.cpp:435] relu4_2 <- conv4_2
I0917 20:53:24.071841  5941 net.cpp:396] relu4_2 -> conv4_2 (in-place)
I0917 20:53:24.071856  5941 net.cpp:144] Setting up relu4_2
I0917 20:53:24.071866  5941 net.cpp:151] Top shape: 16 512 28 28 (6422528)
I0917 20:53:24.071872  5941 net.cpp:159] Memory required for data: 1846476992
I0917 20:53:24.071879  5941 layer_factory.hpp:77] Creating layer conv4_3
I0917 20:53:24.071894  5941 net.cpp:94] Creating Layer conv4_3
I0917 20:53:24.071902  5941 net.cpp:435] conv4_3 <- conv4_2
I0917 20:53:24.071913  5941 net.cpp:409] conv4_3 -> conv4_3
I0917 20:53:24.137568  5941 net.cpp:144] Setting up conv4_3
I0917 20:53:24.137599  5941 net.cpp:151] Top shape: 16 512 28 28 (6422528)
I0917 20:53:24.137608  5941 net.cpp:159] Memory required for data: 1872167104
I0917 20:53:24.137624  5941 layer_factory.hpp:77] Creating layer relu4_3
I0917 20:53:24.137646  5941 net.cpp:94] Creating Layer relu4_3
I0917 20:53:24.137656  5941 net.cpp:435] relu4_3 <- conv4_3
I0917 20:53:24.137667  5941 net.cpp:396] relu4_3 -> conv4_3 (in-place)
I0917 20:53:24.137683  5941 net.cpp:144] Setting up relu4_3
I0917 20:53:24.137692  5941 net.cpp:151] Top shape: 16 512 28 28 (6422528)
I0917 20:53:24.137699  5941 net.cpp:159] Memory required for data: 1897857216
I0917 20:53:24.137706  5941 layer_factory.hpp:77] Creating layer conv4_4
I0917 20:53:24.137722  5941 net.cpp:94] Creating Layer conv4_4
I0917 20:53:24.137728  5941 net.cpp:435] conv4_4 <- conv4_3
I0917 20:53:24.137739  5941 net.cpp:409] conv4_4 -> conv4_4
I0917 20:53:24.202831  5941 net.cpp:144] Setting up conv4_4
I0917 20:53:24.202860  5941 net.cpp:151] Top shape: 16 512 28 28 (6422528)
I0917 20:53:24.202868  5941 net.cpp:159] Memory required for data: 1923547328
I0917 20:53:24.202883  5941 layer_factory.hpp:77] Creating layer relu4_4
I0917 20:53:24.202896  5941 net.cpp:94] Creating Layer relu4_4
I0917 20:53:24.202931  5941 net.cpp:435] relu4_4 <- conv4_4
I0917 20:53:24.202942  5941 net.cpp:396] relu4_4 -> conv4_4 (in-place)
I0917 20:53:24.202957  5941 net.cpp:144] Setting up relu4_4
I0917 20:53:24.202966  5941 net.cpp:151] Top shape: 16 512 28 28 (6422528)
I0917 20:53:24.202973  5941 net.cpp:159] Memory required for data: 1949237440
I0917 20:53:24.202980  5941 layer_factory.hpp:77] Creating layer pool4
I0917 20:53:24.202991  5941 net.cpp:94] Creating Layer pool4
I0917 20:53:24.202999  5941 net.cpp:435] pool4 <- conv4_4
I0917 20:53:24.203008  5941 net.cpp:409] pool4 -> pool4
I0917 20:53:24.203068  5941 net.cpp:144] Setting up pool4
I0917 20:53:24.203078  5941 net.cpp:151] Top shape: 16 512 14 14 (1605632)
I0917 20:53:24.203085  5941 net.cpp:159] Memory required for data: 1955659968
I0917 20:53:24.203093  5941 layer_factory.hpp:77] Creating layer conv5_1
I0917 20:53:24.203106  5941 net.cpp:94] Creating Layer conv5_1
I0917 20:53:24.203114  5941 net.cpp:435] conv5_1 <- pool4
I0917 20:53:24.203125  5941 net.cpp:409] conv5_1 -> conv5_1
I0917 20:53:24.243003  5941 net.cpp:144] Setting up conv5_1
I0917 20:53:24.243033  5941 net.cpp:151] Top shape: 16 512 14 14 (1605632)
I0917 20:53:24.243041  5941 net.cpp:159] Memory required for data: 1962082496
I0917 20:53:24.243055  5941 layer_factory.hpp:77] Creating layer relu5_1
I0917 20:53:24.243069  5941 net.cpp:94] Creating Layer relu5_1
I0917 20:53:24.243078  5941 net.cpp:435] relu5_1 <- conv5_1
I0917 20:53:24.243089  5941 net.cpp:396] relu5_1 -> conv5_1 (in-place)
I0917 20:53:24.243103  5941 net.cpp:144] Setting up relu5_1
I0917 20:53:24.243113  5941 net.cpp:151] Top shape: 16 512 14 14 (1605632)
I0917 20:53:24.243119  5941 net.cpp:159] Memory required for data: 1968505024
I0917 20:53:24.243127  5941 layer_factory.hpp:77] Creating layer conv5_2
I0917 20:53:24.243149  5941 net.cpp:94] Creating Layer conv5_2
I0917 20:53:24.243157  5941 net.cpp:435] conv5_2 <- conv5_1
I0917 20:53:24.243168  5941 net.cpp:409] conv5_2 -> conv5_2
I0917 20:53:24.283056  5941 net.cpp:144] Setting up conv5_2
I0917 20:53:24.283085  5941 net.cpp:151] Top shape: 16 512 14 14 (1605632)
I0917 20:53:24.283093  5941 net.cpp:159] Memory required for data: 1974927552
I0917 20:53:24.283107  5941 layer_factory.hpp:77] Creating layer relu5_2
I0917 20:53:24.283121  5941 net.cpp:94] Creating Layer relu5_2
I0917 20:53:24.283131  5941 net.cpp:435] relu5_2 <- conv5_2
I0917 20:53:24.283141  5941 net.cpp:396] relu5_2 -> conv5_2 (in-place)
I0917 20:53:24.283157  5941 net.cpp:144] Setting up relu5_2
I0917 20:53:24.283166  5941 net.cpp:151] Top shape: 16 512 14 14 (1605632)
I0917 20:53:24.283174  5941 net.cpp:159] Memory required for data: 1981350080
I0917 20:53:24.283180  5941 layer_factory.hpp:77] Creating layer conv5_3
I0917 20:53:24.283195  5941 net.cpp:94] Creating Layer conv5_3
I0917 20:53:24.283203  5941 net.cpp:435] conv5_3 <- conv5_2
I0917 20:53:24.283215  5941 net.cpp:409] conv5_3 -> conv5_3
I0917 20:53:24.322736  5941 net.cpp:144] Setting up conv5_3
I0917 20:53:24.322765  5941 net.cpp:151] Top shape: 16 512 14 14 (1605632)
I0917 20:53:24.322772  5941 net.cpp:159] Memory required for data: 1987772608
I0917 20:53:24.322788  5941 layer_factory.hpp:77] Creating layer relu5_3
I0917 20:53:24.322801  5941 net.cpp:94] Creating Layer relu5_3
I0917 20:53:24.322810  5941 net.cpp:435] relu5_3 <- conv5_3
I0917 20:53:24.322821  5941 net.cpp:396] relu5_3 -> conv5_3 (in-place)
I0917 20:53:24.322835  5941 net.cpp:144] Setting up relu5_3
I0917 20:53:24.322844  5941 net.cpp:151] Top shape: 16 512 14 14 (1605632)
I0917 20:53:24.322851  5941 net.cpp:159] Memory required for data: 1994195136
I0917 20:53:24.322859  5941 layer_factory.hpp:77] Creating layer conv5_4
I0917 20:53:24.322873  5941 net.cpp:94] Creating Layer conv5_4
I0917 20:53:24.322880  5941 net.cpp:435] conv5_4 <- conv5_3
I0917 20:53:24.322891  5941 net.cpp:409] conv5_4 -> conv5_4
I0917 20:53:24.362679  5941 net.cpp:144] Setting up conv5_4
I0917 20:53:24.362705  5941 net.cpp:151] Top shape: 16 512 14 14 (1605632)
I0917 20:53:24.362714  5941 net.cpp:159] Memory required for data: 2000617664
I0917 20:53:24.362747  5941 layer_factory.hpp:77] Creating layer relu5_4
I0917 20:53:24.362761  5941 net.cpp:94] Creating Layer relu5_4
I0917 20:53:24.362771  5941 net.cpp:435] relu5_4 <- conv5_4
I0917 20:53:24.362781  5941 net.cpp:396] relu5_4 -> conv5_4 (in-place)
I0917 20:53:24.362797  5941 net.cpp:144] Setting up relu5_4
I0917 20:53:24.362805  5941 net.cpp:151] Top shape: 16 512 14 14 (1605632)
I0917 20:53:24.362812  5941 net.cpp:159] Memory required for data: 2007040192
I0917 20:53:24.362819  5941 layer_factory.hpp:77] Creating layer pool5
I0917 20:53:24.362831  5941 net.cpp:94] Creating Layer pool5
I0917 20:53:24.362838  5941 net.cpp:435] pool5 <- conv5_4
I0917 20:53:24.362848  5941 net.cpp:409] pool5 -> pool5
I0917 20:53:24.362916  5941 net.cpp:144] Setting up pool5
I0917 20:53:24.362926  5941 net.cpp:151] Top shape: 16 512 7 7 (401408)
I0917 20:53:24.362933  5941 net.cpp:159] Memory required for data: 2008645824
I0917 20:53:24.362941  5941 layer_factory.hpp:77] Creating layer fc6
I0917 20:53:24.362952  5941 net.cpp:94] Creating Layer fc6
I0917 20:53:24.362959  5941 net.cpp:435] fc6 <- pool5
I0917 20:53:24.362969  5941 net.cpp:409] fc6 -> fc6
I0917 20:53:25.464228  5941 net.cpp:144] Setting up fc6
I0917 20:53:25.464275  5941 net.cpp:151] Top shape: 16 4096 (65536)
I0917 20:53:25.464283  5941 net.cpp:159] Memory required for data: 2008907968
I0917 20:53:25.464314  5941 layer_factory.hpp:77] Creating layer relu6
I0917 20:53:25.464330  5941 net.cpp:94] Creating Layer relu6
I0917 20:53:25.464340  5941 net.cpp:435] relu6 <- fc6
I0917 20:53:25.464351  5941 net.cpp:396] relu6 -> fc6 (in-place)
I0917 20:53:25.464370  5941 net.cpp:144] Setting up relu6
I0917 20:53:25.464377  5941 net.cpp:151] Top shape: 16 4096 (65536)
I0917 20:53:25.464385  5941 net.cpp:159] Memory required for data: 2009170112
I0917 20:53:25.464391  5941 layer_factory.hpp:77] Creating layer drop6
I0917 20:53:25.464403  5941 net.cpp:94] Creating Layer drop6
I0917 20:53:25.464411  5941 net.cpp:435] drop6 <- fc6
I0917 20:53:25.464421  5941 net.cpp:396] drop6 -> fc6 (in-place)
I0917 20:53:25.464457  5941 net.cpp:144] Setting up drop6
I0917 20:53:25.464467  5941 net.cpp:151] Top shape: 16 4096 (65536)
I0917 20:53:25.464473  5941 net.cpp:159] Memory required for data: 2009432256
I0917 20:53:25.464479  5941 layer_factory.hpp:77] Creating layer fc7
I0917 20:53:25.464493  5941 net.cpp:94] Creating Layer fc7
I0917 20:53:25.464500  5941 net.cpp:435] fc7 <- fc6
I0917 20:53:25.464509  5941 net.cpp:409] fc7 -> fc7
I0917 20:53:25.644260  5941 net.cpp:144] Setting up fc7
I0917 20:53:25.644310  5941 net.cpp:151] Top shape: 16 4096 (65536)
I0917 20:53:25.644318  5941 net.cpp:159] Memory required for data: 2009694400
I0917 20:53:25.644335  5941 layer_factory.hpp:77] Creating layer relu7
I0917 20:53:25.644352  5941 net.cpp:94] Creating Layer relu7
I0917 20:53:25.644362  5941 net.cpp:435] relu7 <- fc7
I0917 20:53:25.644374  5941 net.cpp:396] relu7 -> fc7 (in-place)
I0917 20:53:25.644392  5941 net.cpp:144] Setting up relu7
I0917 20:53:25.644400  5941 net.cpp:151] Top shape: 16 4096 (65536)
I0917 20:53:25.644407  5941 net.cpp:159] Memory required for data: 2009956544
I0917 20:53:25.644414  5941 layer_factory.hpp:77] Creating layer drop7
I0917 20:53:25.644426  5941 net.cpp:94] Creating Layer drop7
I0917 20:53:25.644433  5941 net.cpp:435] drop7 <- fc7
I0917 20:53:25.644443  5941 net.cpp:396] drop7 -> fc7 (in-place)
I0917 20:53:25.644480  5941 net.cpp:144] Setting up drop7
I0917 20:53:25.644490  5941 net.cpp:151] Top shape: 16 4096 (65536)
I0917 20:53:25.644496  5941 net.cpp:159] Memory required for data: 2010218688
I0917 20:53:25.644503  5941 layer_factory.hpp:77] Creating layer fc8
I0917 20:53:25.644516  5941 net.cpp:94] Creating Layer fc8
I0917 20:53:25.644523  5941 net.cpp:435] fc8 <- fc7
I0917 20:53:25.644533  5941 net.cpp:409] fc8 -> fc8
I0917 20:53:25.644752  5941 net.cpp:144] Setting up fc8
I0917 20:53:25.644762  5941 net.cpp:151] Top shape: 16 2 (32)
I0917 20:53:25.644769  5941 net.cpp:159] Memory required for data: 2010218816
I0917 20:53:25.644779  5941 layer_factory.hpp:77] Creating layer fc8_fc8_0_split
I0917 20:53:25.644834  5941 net.cpp:94] Creating Layer fc8_fc8_0_split
I0917 20:53:25.644842  5941 net.cpp:435] fc8_fc8_0_split <- fc8
I0917 20:53:25.644851  5941 net.cpp:409] fc8_fc8_0_split -> fc8_fc8_0_split_0
I0917 20:53:25.644862  5941 net.cpp:409] fc8_fc8_0_split -> fc8_fc8_0_split_1
I0917 20:53:25.644914  5941 net.cpp:144] Setting up fc8_fc8_0_split
I0917 20:53:25.644923  5941 net.cpp:151] Top shape: 16 2 (32)
I0917 20:53:25.644932  5941 net.cpp:151] Top shape: 16 2 (32)
I0917 20:53:25.644938  5941 net.cpp:159] Memory required for data: 2010219072
I0917 20:53:25.644945  5941 layer_factory.hpp:77] Creating layer accuracy
I0917 20:53:25.644956  5941 net.cpp:94] Creating Layer accuracy
I0917 20:53:25.644964  5941 net.cpp:435] accuracy <- fc8_fc8_0_split_0
I0917 20:53:25.644973  5941 net.cpp:435] accuracy <- label_val-data_1_split_0
I0917 20:53:25.644982  5941 net.cpp:409] accuracy -> accuracy
…
