…
I1129 19:00:01.071754  5014 net.cpp:323] The NetState phase (0) differed from the phase (1) specified by a rule in layer accuracy
I1129 19:00:01.072060  5014 net.cpp:52] Initializing net from parameters:
state {
phase: TRAIN
}
layer {
name: "train-data"
type: "Data"
top: "data"
top: "label"
include {
phase: TRAIN
}
transform_param {
mirror: true
crop_size: 227
mean_file: "/media/myuser/120Gb/DIGITS/digits/jobs/20161129-185048-9470/mean.binaryproto"
}
data_param {
source: "/media/myuser/120Gb/DIGITS/digits/jobs/20161129-185048-9470/train_db"
batch_size: 64
backend: LMDB
}
}
layer {
name: "conv1"
type: "Convolution"
bottom: "data"
top: "conv1"
convolution_param {
num_output: 64
kernel_size: 3
stride: 2
weight_filler {
type: "xavier"
}
}
}
layer {
name: "relu_conv1"
type: "ReLU"
bottom: "conv1"
top: "conv1"
}
layer {
name: "pool1"
type: "Pooling"
bottom: "conv1"
top: "pool1"
pooling_param {
pool: MAX
kernel_size: 3
stride: 2
}
}
layer {
name: "fire2/squeeze1x1"
type: "Convolution"
bottom: "pool1"
top: "fire2/squeeze1x1"
convolution_param {
num_output: 16
kernel_size: 1
weight_filler {
type: "xavier"
}
}
}
layer {
name: "fire2/relu_squeeze1x1"
type: "ReLU"
bottom: "fire2/squeeze1x1"
top: "fire2/squeeze1x1"
}
layer {
name: "fire2/expand1x1"
type: "Convolution"
bottom: "fire2/squeeze1x1"
top: "fire2/expand1x1"
convolution_param {
num_output: 64
kernel_size: 1
weight_filler {
type: "xavier"
}
}
}
layer {
name: "fire2/relu_expand1x1"
type: "ReLU"
bottom: "fire2/expand1x1"
top: "fire2/expand1x1"
}
layer {
name: "fire2/expand3x3"
type: "Convolution"
bottom: "fire2/squeeze1x1"
top: "fire2/expand3x3"
convolution_param {
num_output: 64
pad: 1
kernel_size: 3
weight_filler {
type: "xavier"
}
}
}
layer {
name: "fire2/relu_expand3x3"
type: "ReLU"
bottom: "fire2/expand3x3"
top: "fire2/expand3x3"
}
layer {
name: "fire2/concat"
type: "Concat"
bottom: "fire2/expand1x1"
bottom: "fire2/expand3x3"
top: "fire2/concat"
}
layer {
name: "fire3/squeeze1x1"
type: "Convolution"
bottom: "fire2/concat"
top: "fire3/squeeze1x1"
convolution_param {
num_output: 16
kernel_size: 1
weight_filler {
type: "xavier"
}
}
}
layer {
name: "fire3/relu_squeeze1x1"
type: "ReLU"
bottom: "fire3/squeeze1x1"
top: "fire3/squeeze1x1"
}
layer {
name: "fire3/expand1x1"
type: "Convolution"
bottom: "fire3/squeeze1x1"
top: "fire3/expand1x1"
convolution_param {
num_output: 64
kernel_size: 1
weight_filler {
type: "xavier"
}
}
}
layer {
name: "fire3/relu_expand1x1"
type: "ReLU"
bottom: "fire3/expand1x1"
top: "fire3/expand1x1"
}
layer {
name: "fire3/expand3x3"
type: "Convolution"
bottom: "fire3/squeeze1x1"
top: "fire3/expand3x3"
convolution_param {
num_output: 64
pad: 1
kernel_size: 3
weight_filler {
type: "xavier"
}
}
}
layer {
name: "fire3/relu_expand3x3"
type: "ReLU"
bottom: "fire3/expand3x3"
top: "fire3/expand3x3"
}
layer {
name: "fire3/concat"
type: "Concat"
bottom: "fire3/expand1x1"
bottom: "fire3/expand3x3"
top: "fire3/concat"
}
layer {
name: "pool3"
type: "Pooling"
bottom: "fire3/concat"
top: "pool3"
pooling_param {
pool: MAX
kernel_size: 3
stride: 2
}
}
layer {
name: "fire4/squeeze1x1"
type: "Convolution"
bottom: "pool3"
top: "fire4/squeeze1x1"
convolution_param {
num_output: 32
kernel_size: 1
weight_filler {
type: "xavier"
}
}
}
layer {
name: "fire4/relu_squeeze1x1"
type: "ReLU"
bottom: "fire4/squeeze1x1"
top: "fire4/squeeze1x1"
}
layer {
name: "fire4/expand1x1"
type: "Convolution"
bottom: "fire4/squeeze1x1"
top: "fire4/expand1x1"
convolution_param {
num_output: 128
kernel_size: 1
weight_filler {
type: "xavier"
}
}
}
layer {
name: "fire4/relu_expand1x1"
type: "ReLU"
bottom: "fire4/expand1x1"
top: "fire4/expand1x1"
}
layer {
name: "fire4/expand3x3"
type: "Convolution"
bottom: "fire4/squeeze1x1"
top: "fire4/expand3x3"
convolution_param {
num_output: 128
pad: 1
kernel_size: 3
weight_filler {
type: "xavier"
}
}
}
layer {
name: "fire4/relu_expand3x3"
type: "ReLU"
bottom: "fire4/expand3x3"
top: "fire4/expand3x3"
}
layer {
name: "fire4/concat"
type: "Concat"
bottom: "fire4/expand1x1"
bottom: "fire4/expand3x3"
top: "fire4/concat"
}
layer {
name: "fire5/squeeze1x1"
type: "Convolution"
bottom: "fire4/concat"
top: "fire5/squeeze1x1"
convolution_param {
num_output: 32
kernel_size: 1
weight_filler {
type: "xavier"
}
}
}
layer {
name: "fire5/relu_squeeze1x1"
type: "ReLU"
bottom: "fire5/squeeze1x1"
top: "fire5/squeeze1x1"
}
layer {
name: "fire5/expand1x1"
type: "Convolution"
bottom: "fire5/squeeze1x1"
top: "fire5/expand1x1"
convolution_param {
num_output: 128
kernel_size: 1
weight_filler {
type: "xavier"
}
}
}
layer {
name: "fire5/relu_expand1x1"
type: "ReLU"
bottom: "fire5/expand1x1"
top: "fire5/expand1x1"
}
layer {
name: "fire5/expand3x3"
type: "Convolution"
bottom: "fire5/squeeze1x1"
top: "fire5/expand3x3"
convolution_param {
num_output: 128
pad: 1
kernel_size: 3
weight_filler {
type: "xavier"
}
}
}
layer {
name: "fire5/relu_expand3x3"
type: "ReLU"
bottom: "fire5/expand3x3"
top: "fire5/expand3x3"
}
layer {
name: "fire5/concat"
type: "Concat"
bottom: "fire5/expand1x1"
bottom: "fire5/expand3x3"
top: "fire5/concat"
}
layer {
name: "pool5"
type: "Pooling"
bottom: "fire5/concat"
top: "pool5"
pooling_param {
pool: MAX
kernel_size: 3
stride: 2
}
}
layer {
name: "fire6/squeeze1x1"
type: "Convolution"
bottom: "pool5"
top: "fire6/squeeze1x1"
convolution_param {
num_output: 48
kernel_size: 1
weight_filler {
type: "xavier"
}
}
}
layer {
name: "fire6/relu_squeeze1x1"
type: "ReLU"
bottom: "fire6/squeeze1x1"
top: "fire6/squeeze1x1"
}
layer {
name: "fire6/expand1x1"
type: "Convolution"
bottom: "fire6/squeeze1x1"
top: "fire6/expand1x1"
convolution_param {
num_output: 192
kernel_size: 1
weight_filler {
type: "xavier"
}
}
}
layer {
name: "fire6/relu_expand1x1"
type: "ReLU"
bottom: "fire6/expand1x1"
top: "fire6/expand1x1"
}
layer {
name: "fire6/expand3x3"
type: "Convolution"
bottom: "fire6/squeeze1x1"
top: "fire6/expand3x3"
convolution_param {
num_output: 192
pad: 1
kernel_size: 3
weight_filler {
type: "xavier"
}
}
}
layer {
name: "fire6/relu_expand3x3"
type: "ReLU"
bottom: "fire6/expand3x3"
top: "fire6/expand3x3"
}
layer {
name: "fire6/concat"
type: "Concat"
bottom: "fire6/expand1x1"
bottom: "fire6/expand3x3"
top: "fire6/concat"
}
layer {
name: "fire7/squeeze1x1"
type: "Convolution"
bottom: "fire6/concat"
top: "fire7/squeeze1x1"
convolution_param {
num_output: 48
kernel_size: 1
weight_filler {
type: "xavier"
}
}
}
layer {
name: "fire7/relu_squeeze1x1"
type: "ReLU"
bottom: "fire7/squeeze1x1"
top: "fire7/squeeze1x1"
}
layer {
name: "fire7/expand1x1"
type: "Convolution"
bottom: "fire7/squeeze1x1"
top: "fire7/expand1x1"
convolution_param {
num_output: 192
kernel_size: 1
weight_filler {
type: "xavier"
}
}
}
layer {
name: "fire7/relu_expand1x1"
type: "ReLU"
bottom: "fire7/expand1x1"
top: "fire7/expand1x1"
}
layer {
name: "fire7/expand3x3"
type: "Convolution"
bottom: "fire7/squeeze1x1"
top: "fire7/expand3x3"
convolution_param {
num_output: 192
pad: 1
kernel_size: 3
weight_filler {
type: "xavier"
}
}
}
layer {
name: "fire7/relu_expand3x3"
type: "ReLU"
bottom: "fire7/expand3x3"
top: "fire7/expand3x3"
}
layer {
name: "fire7/concat"
type: "Concat"
bottom: "fire7/expand1x1"
bottom: "fire7/expand3x3"
top: "fire7/concat"
}
layer {
name: "fire8/squeeze1x1"
type: "Convolution"
bottom: "fire7/concat"
top: "fire8/squeeze1x1"
convolution_param {
num_output: 64
kernel_size: 1
weight_filler {
type: "xavier"
}
}
}
layer {
name: "fire8/relu_squeeze1x1"
type: "ReLU"
bottom: "fire8/squeeze1x1"
top: "fire8/squeeze1x1"
}
layer {
name: "fire8/expand1x1"
type: "Convolution"
bottom: "fire8/squeeze1x1"
top: "fire8/expand1x1"
convolution_param {
num_output: 256
kernel_size: 1
weight_filler {
type: "xavier"
}
}
}
layer {
name: "fire8/relu_expand1x1"
type: "ReLU"
bottom: "fire8/expand1x1"
top: "fire8/expand1x1"
}
layer {
name: "fire8/expand3x3"
type: "Convolution"
bottom: "fire8/squeeze1x1"
top: "fire8/expand3x3"
convolution_param {
num_output: 256
pad: 1
kernel_size: 3
weight_filler {
type: "xavier"
}
}
}
layer {
name: "fire8/relu_expand3x3"
type: "ReLU"
bottom: "fire8/expand3x3"
top: "fire8/expand3x3"
}
layer {
name: "fire8/concat"
type: "Concat"
bottom: "fire8/expand1x1"
bottom: "fire8/expand3x3"
top: "fire8/concat"
}
layer {
name: "fire9/squeeze1x1"
type: "Convolution"
bottom: "fire8/concat"
top: "fire9/squeeze1x1"
convolution_param {
num_output: 64
kernel_size: 1
weight_filler {
type: "xavier"
}
}
}
layer {
name: "fire9/relu_squeeze1x1"
type: "ReLU"
bottom: "fire9/squeeze1x1"
top: "fire9/squeeze1x1"
}
layer {
name: "fire9/expand1x1"
type: "Convolution"
bottom: "fire9/squeeze1x1"
top: "fire9/expand1x1"
convolution_param {
num_output: 256
kernel_size: 1
weight_filler {
type: "xavier"
}
}
}
layer {
name: "fire9/relu_expand1x1"
type: "ReLU"
bottom: "fire9/expand1x1"
top: "fire9/expand1x1"
}
layer {
name: "fire9/expand3x3"
type: "Convolution"
bottom: "fire9/squeeze1x1"
top: "fire9/expand3x3"
convolution_param {
num_output: 256
pad: 1
kernel_size: 3
weight_filler {
type: "xavier"
}
}
}
layer {
name: "fire9/relu_expand3x3"
type: "ReLU"
bottom: "fire9/expand3x3"
top: "fire9/expand3x3"
}
layer {
name: "fire9/concat"
type: "Concat"
bottom: "fire9/expand1x1"
bottom: "fire9/expand3x3"
top: "fire9/concat"
}
layer {
name: "drop9"
type: "Dropout"
bottom: "fire9/concat"
top: "fire9/concat"
dropout_param {
dropout_ratio: 0.5
}
}
layer {
name: "conv10_output"
type: "Convolution"
bottom: "fire9/concat"
top: "conv10_output"
convolution_param {
num_output: 2
kernel_size: 1
weight_filler {
type: "gaussian"
mean: 0
std: 0.01
}
}
}
layer {
name: "relu_conv10"
type: "ReLU"
bottom: "conv10_output"
top: "conv10_output"
}
layer {
name: "pool10"
type: "Pooling"
bottom: "conv10_output"
top: "pool10"
pooling_param {
pool: AVE
global_pooling: true
}
}
layer {
name: "loss"
type: "SoftmaxWithLoss"
bottom: "pool10"
bottom: "label"
top: "loss"
}
I1129 19:00:01.072407  5014 layer_factory.hpp:77] Creating layer train-data
I1129 19:00:01.072885  5014 net.cpp:94] Creating Layer train-data
I1129 19:00:01.072911  5014 net.cpp:409] train-data -> data
I1129 19:00:01.072942  5014 net.cpp:409] train-data -> label
I1129 19:00:01.072960  5014 data_transformer.cpp:25] Loading mean file from: /media/myuser/120Gb/DIGITS/digits/jobs/20161129-185048-9470/mean.binaryproto
I1129 19:00:01.079329  5020 db_lmdb.cpp:35] Opened lmdb /media/myuser/120Gb/DIGITS/digits/jobs/20161129-185048-9470/train_db
I1129 19:00:01.112406  5014 data_layer.cpp:76] output data size: 64,3,227,227
I1129 19:00:01.279484  5014 net.cpp:144] Setting up train-data
I1129 19:00:01.279541  5014 net.cpp:151] Top shape: 64 3 227 227 (9893568)
I1129 19:00:01.279553  5014 net.cpp:151] Top shape: 64 (64)
I1129 19:00:01.279561  5014 net.cpp:159] Memory required for data: 39574528
I1129 19:00:01.279580  5014 layer_factory.hpp:77] Creating layer conv1
I1129 19:00:01.279608  5014 net.cpp:94] Creating Layer conv1
I1129 19:00:01.279619  5014 net.cpp:435] conv1 <- data
I1129 19:00:01.279639  5014 net.cpp:409] conv1 -> conv1
I1129 19:00:01.300961  5023 blocking_queue.cpp:50] Waiting for data
I1129 19:00:01.490707  5014 net.cpp:144] Setting up conv1
I1129 19:00:01.490758  5014 net.cpp:151] Top shape: 64 64 113 113 (52301824)
I1129 19:00:01.490767  5014 net.cpp:159] Memory required for data: 248781824
I1129 19:00:01.490794  5014 layer_factory.hpp:77] Creating layer relu_conv1
I1129 19:00:01.490813  5014 net.cpp:94] Creating Layer relu_conv1
I1129 19:00:01.490823  5014 net.cpp:435] relu_conv1 <- conv1
I1129 19:00:01.490834  5014 net.cpp:396] relu_conv1 -> conv1 (in-place)
I1129 19:00:01.490871  5014 net.cpp:144] Setting up relu_conv1
I1129 19:00:01.490881  5014 net.cpp:151] Top shape: 64 64 113 113 (52301824)
I1129 19:00:01.490888  5014 net.cpp:159] Memory required for data: 457989120
I1129 19:00:01.490896  5014 layer_factory.hpp:77] Creating layer pool1
I1129 19:00:01.490911  5014 net.cpp:94] Creating Layer pool1
I1129 19:00:01.490919  5014 net.cpp:435] pool1 <- conv1
I1129 19:00:01.490929  5014 net.cpp:409] pool1 -> pool1
I1129 19:00:01.491045  5014 net.cpp:144] Setting up pool1
I1129 19:00:01.491057  5014 net.cpp:151] Top shape: 64 64 56 56 (12845056)
I1129 19:00:01.491065  5014 net.cpp:159] Memory required for data: 509369344
I1129 19:00:01.491072  5014 layer_factory.hpp:77] Creating layer fire2/squeeze1x1
I1129 19:00:01.491091  5014 net.cpp:94] Creating Layer fire2/squeeze1x1
I1129 19:00:01.491117  5014 net.cpp:435] fire2/squeeze1x1 <- pool1
I1129 19:00:01.491127  5014 net.cpp:409] fire2/squeeze1x1 -> fire2/squeeze1x1
I1129 19:00:01.525436  5014 net.cpp:144] Setting up fire2/squeeze1x1
I1129 19:00:01.525477  5014 net.cpp:151] Top shape: 64 16 56 56 (3211264)
I1129 19:00:01.525486  5014 net.cpp:159] Memory required for data: 522214400
I1129 19:00:01.525508  5014 layer_factory.hpp:77] Creating layer fire2/relu_squeeze1x1
I1129 19:00:01.525523  5014 net.cpp:94] Creating Layer fire2/relu_squeeze1x1
I1129 19:00:01.525532  5014 net.cpp:435] fire2/relu_squeeze1x1 <- fire2/squeeze1x1
I1129 19:00:01.525542  5014 net.cpp:396] fire2/relu_squeeze1x1 -> fire2/squeeze1x1 (in-place)
I1129 19:00:01.525559  5014 net.cpp:144] Setting up fire2/relu_squeeze1x1
I1129 19:00:01.525568  5014 net.cpp:151] Top shape: 64 16 56 56 (3211264)
I1129 19:00:01.525575  5014 net.cpp:159] Memory required for data: 535059456
I1129 19:00:01.525583  5014 layer_factory.hpp:77] Creating layer fire2/squeeze1x1_fire2/relu_squeeze1x1_0_split
I1129 19:00:01.525599  5014 net.cpp:94] Creating Layer fire2/squeeze1x1_fire2/relu_squeeze1x1_0_split
I1129 19:00:01.525606  5014 net.cpp:435] fire2/squeeze1x1_fire2/relu_squeeze1x1_0_split <- fire2/squeeze1x1
I1129 19:00:01.525616  5014 net.cpp:409] fire2/squeeze1x1_fire2/relu_squeeze1x1_0_split -> fire2/squeeze1x1_fire2/relu_squeeze1x1_0_split_0
I1129 19:00:01.525629  5014 net.cpp:409] fire2/squeeze1x1_fire2/relu_squeeze1x1_0_split -> fire2/squeeze1x1_fire2/relu_squeeze1x1_0_split_1
I1129 19:00:01.526288  5014 net.cpp:144] Setting up fire2/squeeze1x1_fire2/relu_squeeze1x1_0_split
I1129 19:00:01.526301  5014 net.cpp:151] Top shape: 64 16 56 56 (3211264)
I1129 19:00:01.526343  5014 net.cpp:151] Top shape: 64 16 56 56 (3211264)
I1129 19:00:01.526350  5014 net.cpp:159] Memory required for data: 560749568
I1129 19:00:01.526358  5014 layer_factory.hpp:77] Creating layer fire2/expand1x1
I1129 19:00:01.526376  5014 net.cpp:94] Creating Layer fire2/expand1x1
I1129 19:00:01.526384  5014 net.cpp:435] fire2/expand1x1 <- fire2/squeeze1x1_fire2/relu_squeeze1x1_0_split_0
I1129 19:00:01.526396  5014 net.cpp:409] fire2/expand1x1 -> fire2/expand1x1
I1129 19:00:01.537250  5014 net.cpp:144] Setting up fire2/expand1x1
I1129 19:00:01.537281  5014 net.cpp:151] Top shape: 64 64 56 56 (12845056)
I1129 19:00:01.537289  5014 net.cpp:159] Memory required for data: 612129792
I1129 19:00:01.537309  5014 layer_factory.hpp:77] Creating layer fire2/relu_expand1x1
I1129 19:00:01.537328  5014 net.cpp:94] Creating Layer fire2/relu_expand1x1
I1129 19:00:01.537336  5014 net.cpp:435] fire2/relu_expand1x1 <- fire2/expand1x1
I1129 19:00:01.537346  5014 net.cpp:396] fire2/relu_expand1x1 -> fire2/expand1x1 (in-place)
I1129 19:00:01.537364  5014 net.cpp:144] Setting up fire2/relu_expand1x1
I1129 19:00:01.537374  5014 net.cpp:151] Top shape: 64 64 56 56 (12845056)
I1129 19:00:01.537380  5014 net.cpp:159] Memory required for data: 663510016
I1129 19:00:01.537387  5014 layer_factory.hpp:77] Creating layer fire2/expand3x3
I1129 19:00:01.537406  5014 net.cpp:94] Creating Layer fire2/expand3x3
I1129 19:00:01.537415  5014 net.cpp:435] fire2/expand3x3 <- fire2/squeeze1x1_fire2/relu_squeeze1x1_0_split_1
I1129 19:00:01.537425  5014 net.cpp:409] fire2/expand3x3 -> fire2/expand3x3
I1129 19:00:01.562965  5014 net.cpp:144] Setting up fire2/expand3x3
I1129 19:00:01.563035  5014 net.cpp:151] Top shape: 64 64 56 56 (12845056)
I1129 19:00:01.563052  5014 net.cpp:159] Memory required for data: 714890240
I1129 19:00:01.563084  5014 layer_factory.hpp:77] Creating layer fire2/relu_expand3x3
I1129 19:00:01.563113  5014 net.cpp:94] Creating Layer fire2/relu_expand3x3
I1129 19:00:01.563133  5014 net.cpp:435] fire2/relu_expand3x3 <- fire2/expand3x3
I1129 19:00:01.563155  5014 net.cpp:396] fire2/relu_expand3x3 -> fire2/expand3x3 (in-place)
I1129 19:00:01.563189  5014 net.cpp:144] Setting up fire2/relu_expand3x3
I1129 19:00:01.563208  5014 net.cpp:151] Top shape: 64 64 56 56 (12845056)
I1129 19:00:01.563225  5014 net.cpp:159] Memory required for data: 766270464
I1129 19:00:01.563238  5014 layer_factory.hpp:77] Creating layer fire2/concat
I1129 19:00:01.563261  5014 net.cpp:94] Creating Layer fire2/concat
I1129 19:00:01.563275  5014 net.cpp:435] fire2/concat <- fire2/expand1x1
I1129 19:00:01.563293  5014 net.cpp:435] fire2/concat <- fire2/expand3x3
I1129 19:00:01.563308  5014 net.cpp:409] fire2/concat -> fire2/concat
I1129 19:00:01.563434  5014 net.cpp:144] Setting up fire2/concat
I1129 19:00:01.563455  5014 net.cpp:151] Top shape: 64 128 56 56 (25690112)
I1129 19:00:01.563470  5014 net.cpp:159] Memory required for data: 869030912
I1129 19:00:01.563485  5014 layer_factory.hpp:77] Creating layer fire3/squeeze1x1
I1129 19:00:01.563515  5014 net.cpp:94] Creating Layer fire3/squeeze1x1
I1129 19:00:01.563531  5014 net.cpp:435] fire3/squeeze1x1 <- fire2/concat
I1129 19:00:01.563552  5014 net.cpp:409] fire3/squeeze1x1 -> fire3/squeeze1x1
I1129 19:00:01.583686  5014 net.cpp:144] Setting up fire3/squeeze1x1
I1129 19:00:01.583724  5014 net.cpp:151] Top shape: 64 16 56 56 (3211264)
I1129 19:00:01.583731  5014 net.cpp:159] Memory required for data: 881875968
I1129 19:00:01.583752  5014 layer_factory.hpp:77] Creating layer fire3/relu_squeeze1x1
I1129 19:00:01.583767  5014 net.cpp:94] Creating Layer fire3/relu_squeeze1x1
I1129 19:00:01.583776  5014 net.cpp:435] fire3/relu_squeeze1x1 <- fire3/squeeze1x1
I1129 19:00:01.583786  5014 net.cpp:396] fire3/relu_squeeze1x1 -> fire3/squeeze1x1 (in-place)
I1129 19:00:01.583802  5014 net.cpp:144] Setting up fire3/relu_squeeze1x1
I1129 19:00:01.583811  5014 net.cpp:151] Top shape: 64 16 56 56 (3211264)
I1129 19:00:01.583818  5014 net.cpp:159] Memory required for data: 894721024
I1129 19:00:01.583825  5014 layer_factory.hpp:77] Creating layer fire3/squeeze1x1_fire3/relu_squeeze1x1_0_split
I1129 19:00:01.583863  5014 net.cpp:94] Creating Layer fire3/squeeze1x1_fire3/relu_squeeze1x1_0_split
I1129 19:00:01.583870  5014 net.cpp:435] fire3/squeeze1x1_fire3/relu_squeeze1x1_0_split <- fire3/squeeze1x1
I1129 19:00:01.583880  5014 net.cpp:409] fire3/squeeze1x1_fire3/relu_squeeze1x1_0_split -> fire3/squeeze1x1_fire3/relu_squeeze1x1_0_split_0
I1129 19:00:01.583891  5014 net.cpp:409] fire3/squeeze1x1_fire3/relu_squeeze1x1_0_split -> fire3/squeeze1x1_fire3/relu_squeeze1x1_0_split_1
I1129 19:00:01.583994  5014 net.cpp:144] Setting up fire3/squeeze1x1_fire3/relu_squeeze1x1_0_split
I1129 19:00:01.584005  5014 net.cpp:151] Top shape: 64 16 56 56 (3211264)
I1129 19:00:01.584014  5014 net.cpp:151] Top shape: 64 16 56 56 (3211264)
I1129 19:00:01.584022  5014 net.cpp:159] Memory required for data: 920411136
I1129 19:00:01.584028  5014 layer_factory.hpp:77] Creating layer fire3/expand1x1
I1129 19:00:01.584044  5014 net.cpp:94] Creating Layer fire3/expand1x1
I1129 19:00:01.584053  5014 net.cpp:435] fire3/expand1x1 <- fire3/squeeze1x1_fire3/relu_squeeze1x1_0_split_0
I1129 19:00:01.584062  5014 net.cpp:409] fire3/expand1x1 -> fire3/expand1x1
I1129 19:00:01.595358  5014 net.cpp:144] Setting up fire3/expand1x1
I1129 19:00:01.595392  5014 net.cpp:151] Top shape: 64 64 56 56 (12845056)
I1129 19:00:01.595401  5014 net.cpp:159] Memory required for data: 971791360
I1129 19:00:01.595417  5014 layer_factory.hpp:77] Creating layer fire3/relu_expand1x1
I1129 19:00:01.595437  5014 net.cpp:94] Creating Layer fire3/relu_expand1x1
I1129 19:00:01.595446  5014 net.cpp:435] fire3/relu_expand1x1 <- fire3/expand1x1
I1129 19:00:01.595456  5014 net.cpp:396] fire3/relu_expand1x1 -> fire3/expand1x1 (in-place)
I1129 19:00:01.595474  5014 net.cpp:144] Setting up fire3/relu_expand1x1
I1129 19:00:01.595482  5014 net.cpp:151] Top shape: 64 64 56 56 (12845056)
I1129 19:00:01.595489  5014 net.cpp:159] Memory required for data: 1023171584
I1129 19:00:01.595496  5014 layer_factory.hpp:77] Creating layer fire3/expand3x3
I1129 19:00:01.595512  5014 net.cpp:94] Creating Layer fire3/expand3x3
I1129 19:00:01.595520  5014 net.cpp:435] fire3/expand3x3 <- fire3/squeeze1x1_fire3/relu_squeeze1x1_0_split_1
I1129 19:00:01.595530  5014 net.cpp:409] fire3/expand3x3 -> fire3/expand3x3
I1129 19:00:01.620077  5014 net.cpp:144] Setting up fire3/expand3x3
I1129 19:00:01.620115  5014 net.cpp:151] Top shape: 64 64 56 56 (12845056)
I1129 19:00:01.620123  5014 net.cpp:159] Memory required for data: 1074551808
I1129 19:00:01.620139  5014 layer_factory.hpp:77] Creating layer fire3/relu_expand3x3
I1129 19:00:01.620153  5014 net.cpp:94] Creating Layer fire3/relu_expand3x3
I1129 19:00:01.620163  5014 net.cpp:435] fire3/relu_expand3x3 <- fire3/expand3x3
I1129 19:00:01.620174  5014 net.cpp:396] fire3/relu_expand3x3 -> fire3/expand3x3 (in-place)
I1129 19:00:01.620190  5014 net.cpp:144] Setting up fire3/relu_expand3x3
I1129 19:00:01.620199  5014 net.cpp:151] Top shape: 64 64 56 56 (12845056)
I1129 19:00:01.620206  5014 net.cpp:159] Memory required for data: 1125932032
I1129 19:00:01.620214  5014 layer_factory.hpp:77] Creating layer fire3/concat
I1129 19:00:01.620224  5014 net.cpp:94] Creating Layer fire3/concat
I1129 19:00:01.620231  5014 net.cpp:435] fire3/concat <- fire3/expand1x1
I1129 19:00:01.620240  5014 net.cpp:435] fire3/concat <- fire3/expand3x3
I1129 19:00:01.620249  5014 net.cpp:409] fire3/concat -> fire3/concat
I1129 19:00:01.620321  5014 net.cpp:144] Setting up fire3/concat
I1129 19:00:01.620331  5014 net.cpp:151] Top shape: 64 128 56 56 (25690112)
I1129 19:00:01.620337  5014 net.cpp:159] Memory required for data: 1228692480
I1129 19:00:01.620344  5014 layer_factory.hpp:77] Creating layer pool3
I1129 19:00:01.620357  5014 net.cpp:94] Creating Layer pool3
I1129 19:00:01.620365  5014 net.cpp:435] pool3 <- fire3/concat
I1129 19:00:01.620375  5014 net.cpp:409] pool3 -> pool3
I1129 19:00:01.620429  5014 net.cpp:144] Setting up pool3
I1129 19:00:01.620440  5014 net.cpp:151] Top shape: 64 128 28 28 (6422528)
I1129 19:00:01.620481  5014 net.cpp:159] Memory required for data: 1254382592
I1129 19:00:01.620488  5014 layer_factory.hpp:77] Creating layer fire4/squeeze1x1
I1129 19:00:01.620504  5014 net.cpp:94] Creating Layer fire4/squeeze1x1
I1129 19:00:01.620512  5014 net.cpp:435] fire4/squeeze1x1 <- pool3
I1129 19:00:01.620523  5014 net.cpp:409] fire4/squeeze1x1 -> fire4/squeeze1x1
I1129 19:00:01.631314  5014 net.cpp:144] Setting up fire4/squeeze1x1
I1129 19:00:01.631347  5014 net.cpp:151] Top shape: 64 32 28 28 (1605632)
I1129 19:00:01.631356  5014 net.cpp:159] Memory required for data: 1260805120
I1129 19:00:01.631371  5014 layer_factory.hpp:77] Creating layer fire4/relu_squeeze1x1
I1129 19:00:01.631384  5014 net.cpp:94] Creating Layer fire4/relu_squeeze1x1
I1129 19:00:01.631393  5014 net.cpp:435] fire4/relu_squeeze1x1 <- fire4/squeeze1x1
I1129 19:00:01.631403  5014 net.cpp:396] fire4/relu_squeeze1x1 -> fire4/squeeze1x1 (in-place)
I1129 19:00:01.631419  5014 net.cpp:144] Setting up fire4/relu_squeeze1x1
I1129 19:00:01.631428  5014 net.cpp:151] Top shape: 64 32 28 28 (1605632)
I1129 19:00:01.631435  5014 net.cpp:159] Memory required for data: 1267227648
I1129 19:00:01.631443  5014 layer_factory.hpp:77] Creating layer fire4/squeeze1x1_fire4/relu_squeeze1x1_0_split
I1129 19:00:01.631453  5014 net.cpp:94] Creating Layer fire4/squeeze1x1_fire4/relu_squeeze1x1_0_split
I1129 19:00:01.631460  5014 net.cpp:435] fire4/squeeze1x1_fire4/relu_squeeze1x1_0_split <- fire4/squeeze1x1
I1129 19:00:01.631469  5014 net.cpp:409] fire4/squeeze1x1_fire4/relu_squeeze1x1_0_split -> fire4/squeeze1x1_fire4/relu_squeeze1x1_0_split_0
I1129 19:00:01.631481  5014 net.cpp:409] fire4/squeeze1x1_fire4/relu_squeeze1x1_0_split -> fire4/squeeze1x1_fire4/relu_squeeze1x1_0_split_1
I1129 19:00:01.631557  5014 net.cpp:144] Setting up fire4/squeeze1x1_fire4/relu_squeeze1x1_0_split
I1129 19:00:01.631567  5014 net.cpp:151] Top shape: 64 32 28 28 (1605632)
I1129 19:00:01.631577  5014 net.cpp:151] Top shape: 64 32 28 28 (1605632)
I1129 19:00:01.631583  5014 net.cpp:159] Memory required for data: 1280072704
I1129 19:00:01.631590  5014 layer_factory.hpp:77] Creating layer fire4/expand1x1
I1129 19:00:01.631605  5014 net.cpp:94] Creating Layer fire4/expand1x1
I1129 19:00:01.631613  5014 net.cpp:435] fire4/expand1x1 <- fire4/squeeze1x1_fire4/relu_squeeze1x1_0_split_0
I1129 19:00:01.631623  5014 net.cpp:409] fire4/expand1x1 -> fire4/expand1x1
I1129 19:00:01.638188  5014 net.cpp:144] Setting up fire4/expand1x1
I1129 19:00:01.638216  5014 net.cpp:151] Top shape: 64 128 28 28 (6422528)
I1129 19:00:01.638222  5014 net.cpp:159] Memory required for data: 1305762816
I1129 19:00:01.638244  5014 layer_factory.hpp:77] Creating layer fire4/relu_expand1x1
I1129 19:00:01.638258  5014 net.cpp:94] Creating Layer fire4/relu_expand1x1
I1129 19:00:01.638267  5014 net.cpp:435] fire4/relu_expand1x1 <- fire4/expand1x1
I1129 19:00:01.638278  5014 net.cpp:396] fire4/relu_expand1x1 -> fire4/expand1x1 (in-place)
I1129 19:00:01.638293  5014 net.cpp:144] Setting up fire4/relu_expand1x1
I1129 19:00:01.638301  5014 net.cpp:151] Top shape: 64 128 28 28 (6422528)
I1129 19:00:01.638309  5014 net.cpp:159] Memory required for data: 1331452928
I1129 19:00:01.638315  5014 layer_factory.hpp:77] Creating layer fire4/expand3x3
I1129 19:00:01.638330  5014 net.cpp:94] Creating Layer fire4/expand3x3
I1129 19:00:01.638339  5014 net.cpp:435] fire4/expand3x3 <- fire4/squeeze1x1_fire4/relu_squeeze1x1_0_split_1
I1129 19:00:01.638348  5014 net.cpp:409] fire4/expand3x3 -> fire4/expand3x3
I1129 19:00:01.665280  5014 net.cpp:144] Setting up fire4/expand3x3
I1129 19:00:01.665316  5014 net.cpp:151] Top shape: 64 128 28 28 (6422528)
I1129 19:00:01.665324  5014 net.cpp:159] Memory required for data: 1357143040
I1129 19:00:01.665339  5014 layer_factory.hpp:77] Creating layer fire4/relu_expand3x3
I1129 19:00:01.665354  5014 net.cpp:94] Creating Layer fire4/relu_expand3x3
I1129 19:00:01.665364  5014 net.cpp:435] fire4/relu_expand3x3 <- fire4/expand3x3
I1129 19:00:01.665374  5014 net.cpp:396] fire4/relu_expand3x3 -> fire4/expand3x3 (in-place)
I1129 19:00:01.665417  5014 net.cpp:144] Setting up fire4/relu_expand3x3
I1129 19:00:01.665426  5014 net.cpp:151] Top shape: 64 128 28 28 (6422528)
I1129 19:00:01.665433  5014 net.cpp:159] Memory required for data: 1382833152
I1129 19:00:01.665441  5014 layer_factory.hpp:77] Creating layer fire4/concat
I1129 19:00:01.665452  5014 net.cpp:94] Creating Layer fire4/concat
I1129 19:00:01.665458  5014 net.cpp:435] fire4/concat <- fire4/expand1x1
I1129 19:00:01.665467  5014 net.cpp:435] fire4/concat <- fire4/expand3x3
I1129 19:00:01.665475  5014 net.cpp:409] fire4/concat -> fire4/concat
I1129 19:00:01.665549  5014 net.cpp:144] Setting up fire4/concat
I1129 19:00:01.665560  5014 net.cpp:151] Top shape: 64 256 28 28 (12845056)
I1129 19:00:01.665566  5014 net.cpp:159] Memory required for data: 1434213376
I1129 19:00:01.665573  5014 layer_factory.hpp:77] Creating layer fire5/squeeze1x1
I1129 19:00:01.665588  5014 net.cpp:94] Creating Layer fire5/squeeze1x1
I1129 19:00:01.665596  5014 net.cpp:435] fire5/squeeze1x1 <- fire4/concat
I1129 19:00:01.665606  5014 net.cpp:409] fire5/squeeze1x1 -> fire5/squeeze1x1
I1129 19:00:01.691529  5014 net.cpp:144] Setting up fire5/squeeze1x1
I1129 19:00:01.691555  5014 net.cpp:151] Top shape: 64 32 28 28 (1605632)
I1129 19:00:01.691562  5014 net.cpp:159] Memory required for data: 1440635904
I1129 19:00:01.691577  5014 layer_factory.hpp:77] Creating layer fire5/relu_squeeze1x1
I1129 19:00:01.691591  5014 net.cpp:94] Creating Layer fire5/relu_squeeze1x1
I1129 19:00:01.691601  5014 net.cpp:435] fire5/relu_squeeze1x1 <- fire5/squeeze1x1
I1129 19:00:01.691611  5014 net.cpp:396] fire5/relu_squeeze1x1 -> fire5/squeeze1x1 (in-place)
I1129 19:00:01.691625  5014 net.cpp:144] Setting up fire5/relu_squeeze1x1
I1129 19:00:01.691634  5014 net.cpp:151] Top shape: 64 32 28 28 (1605632)
I1129 19:00:01.691640  5014 net.cpp:159] Memory required for data: 1447058432
I1129 19:00:01.691648  5014 layer_factory.hpp:77] Creating layer fire5/squeeze1x1_fire5/relu_squeeze1x1_0_split
I1129 19:00:01.691658  5014 net.cpp:94] Creating Layer fire5/squeeze1x1_fire5/relu_squeeze1x1_0_split
I1129 19:00:01.691665  5014 net.cpp:435] fire5/squeeze1x1_fire5/relu_squeeze1x1_0_split <- fire5/squeeze1x1
I1129 19:00:01.691674  5014 net.cpp:409] fire5/squeeze1x1_fire5/relu_squeeze1x1_0_split -> fire5/squeeze1x1_fire5/relu_squeeze1x1_0_split_0
I1129 19:00:01.691685  5014 net.cpp:409] fire5/squeeze1x1_fire5/relu_squeeze1x1_0_split -> fire5/squeeze1x1_fire5/relu_squeeze1x1_0_split_1
I1129 19:00:01.691756  5014 net.cpp:144] Setting up fire5/squeeze1x1_fire5/relu_squeeze1x1_0_split
I1129 19:00:01.691766  5014 net.cpp:151] Top shape: 64 32 28 28 (1605632)
I1129 19:00:01.691776  5014 net.cpp:151] Top shape: 64 32 28 28 (1605632)
I1129 19:00:01.691783  5014 net.cpp:159] Memory required for data: 1459903488
I1129 19:00:01.691792  5014 layer_factory.hpp:77] Creating layer fire5/expand1x1
I1129 19:00:01.691820  5014 net.cpp:94] Creating Layer fire5/expand1x1
I1129 19:00:01.691828  5014 net.cpp:435] fire5/expand1x1 <- fire5/squeeze1x1_fire5/relu_squeeze1x1_0_split_0
I1129 19:00:01.691838  5014 net.cpp:409] fire5/expand1x1 -> fire5/expand1x1
I1129 19:00:01.698618  5014 net.cpp:144] Setting up fire5/expand1x1
I1129 19:00:01.698647  5014 net.cpp:151] Top shape: 64 128 28 28 (6422528)
I1129 19:00:01.698655  5014 net.cpp:159] Memory required for data: 1485593600
I1129 19:00:01.698670  5014 layer_factory.hpp:77] Creating layer fire5/relu_expand1x1
I1129 19:00:01.698683  5014 net.cpp:94] Creating Layer fire5/relu_expand1x1
I1129 19:00:01.698693  5014 net.cpp:435] fire5/relu_expand1x1 <- fire5/expand1x1
I1129 19:00:01.698704  5014 net.cpp:396] fire5/relu_expand1x1 -> fire5/expand1x1 (in-place)
I1129 19:00:01.698719  5014 net.cpp:144] Setting up fire5/relu_expand1x1
I1129 19:00:01.698727  5014 net.cpp:151] Top shape: 64 128 28 28 (6422528)
I1129 19:00:01.698734  5014 net.cpp:159] Memory required for data: 1511283712
I1129 19:00:01.698741  5014 layer_factory.hpp:77] Creating layer fire5/expand3x3
I1129 19:00:01.698755  5014 net.cpp:94] Creating Layer fire5/expand3x3
I1129 19:00:01.698789  5014 net.cpp:435] fire5/expand3x3 <- fire5/squeeze1x1_fire5/relu_squeeze1x1_0_split_1
I1129 19:00:01.698801  5014 net.cpp:409] fire5/expand3x3 -> fire5/expand3x3
I1129 19:00:01.717600  5014 net.cpp:144] Setting up fire5/expand3x3
I1129 19:00:01.717638  5014 net.cpp:151] Top shape: 64 128 28 28 (6422528)
I1129 19:00:01.717646  5014 net.cpp:159] Memory required for data: 1536973824
I1129 19:00:01.717664  5014 layer_factory.hpp:77] Creating layer fire5/relu_expand3x3
I1129 19:00:01.717679  5014 net.cpp:94] Creating Layer fire5/relu_expand3x3
I1129 19:00:01.717689  5014 net.cpp:435] fire5/relu_expand3x3 <- fire5/expand3x3
I1129 19:00:01.717701  5014 net.cpp:396] fire5/relu_expand3x3 -> fire5/expand3x3 (in-place)
I1129 19:00:01.717718  5014 net.cpp:144] Setting up fire5/relu_expand3x3
I1129 19:00:01.717727  5014 net.cpp:151] Top shape: 64 128 28 28 (6422528)
I1129 19:00:01.717735  5014 net.cpp:159] Memory required for data: 1562663936
I1129 19:00:01.717742  5014 layer_factory.hpp:77] Creating layer fire5/concat
I1129 19:00:01.717753  5014 net.cpp:94] Creating Layer fire5/concat
I1129 19:00:01.717761  5014 net.cpp:435] fire5/concat <- fire5/expand1x1
I1129 19:00:01.717769  5014 net.cpp:435] fire5/concat <- fire5/expand3x3
I1129 19:00:01.717779  5014 net.cpp:409] fire5/concat -> fire5/concat
I1129 19:00:01.717855  5014 net.cpp:144] Setting up fire5/concat
I1129 19:00:01.717865  5014 net.cpp:151] Top shape: 64 256 28 28 (12845056)
I1129 19:00:01.717872  5014 net.cpp:159] Memory required for data: 1614044160
I1129 19:00:01.717880  5014 layer_factory.hpp:77] Creating layer pool5
I1129 19:00:01.717892  5014 net.cpp:94] Creating Layer pool5
I1129 19:00:01.717900  5014 net.cpp:435] pool5 <- fire5/concat
I1129 19:00:01.717910  5014 net.cpp:409] pool5 -> pool5
I1129 19:00:01.717963  5014 net.cpp:144] Setting up pool5
I1129 19:00:01.717973  5014 net.cpp:151] Top shape: 64 256 14 14 (3211264)
I1129 19:00:01.717980  5014 net.cpp:159] Memory required for data: 1626889216
I1129 19:00:01.717988  5014 layer_factory.hpp:77] Creating layer fire6/squeeze1x1
I1129 19:00:01.718008  5014 net.cpp:94] Creating Layer fire6/squeeze1x1
I1129 19:00:01.718015  5014 net.cpp:435] fire6/squeeze1x1 <- pool5
I1129 19:00:01.718026  5014 net.cpp:409] fire6/squeeze1x1 -> fire6/squeeze1x1
I1129 19:00:01.724285  5014 net.cpp:144] Setting up fire6/squeeze1x1
I1129 19:00:01.724313  5014 net.cpp:151] Top shape: 64 48 14 14 (602112)
I1129 19:00:01.724319  5014 net.cpp:159] Memory required for data: 1629297664
I1129 19:00:01.724334  5014 layer_factory.hpp:77] Creating layer fire6/relu_squeeze1x1
I1129 19:00:01.724347  5014 net.cpp:94] Creating Layer fire6/relu_squeeze1x1
I1129 19:00:01.724356  5014 net.cpp:435] fire6/relu_squeeze1x1 <- fire6/squeeze1x1
I1129 19:00:01.724367  5014 net.cpp:396] fire6/relu_squeeze1x1 -> fire6/squeeze1x1 (in-place)
I1129 19:00:01.724382  5014 net.cpp:144] Setting up fire6/relu_squeeze1x1
I1129 19:00:01.724390  5014 net.cpp:151] Top shape: 64 48 14 14 (602112)
I1129 19:00:01.724397  5014 net.cpp:159] Memory required for data: 1631706112
I1129 19:00:01.724405  5014 layer_factory.hpp:77] Creating layer fire6/squeeze1x1_fire6/relu_squeeze1x1_0_split
I1129 19:00:01.724414  5014 net.cpp:94] Creating Layer fire6/squeeze1x1_fire6/relu_squeeze1x1_0_split
I1129 19:00:01.724421  5014 net.cpp:435] fire6/squeeze1x1_fire6/relu_squeeze1x1_0_split <- fire6/squeeze1x1
I1129 19:00:01.724431  5014 net.cpp:409] fire6/squeeze1x1_fire6/relu_squeeze1x1_0_split -> fire6/squeeze1x1_fire6/relu_squeeze1x1_0_split_0
I1129 19:00:01.724442  5014 net.cpp:409] fire6/squeeze1x1_fire6/relu_squeeze1x1_0_split -> fire6/squeeze1x1_fire6/relu_squeeze1x1_0_split_1
I1129 19:00:01.724520  5014 net.cpp:144] Setting up fire6/squeeze1x1_fire6/relu_squeeze1x1_0_split
I1129 19:00:01.724530  5014 net.cpp:151] Top shape: 64 48 14 14 (602112)
I1129 19:00:01.724540  5014 net.cpp:151] Top shape: 64 48 14 14 (602112)
I1129 19:00:01.724547  5014 net.cpp:159] Memory required for data: 1636523008
I1129 19:00:01.724555  5014 layer_factory.hpp:77] Creating layer fire6/expand1x1
I1129 19:00:01.724594  5014 net.cpp:94] Creating Layer fire6/expand1x1
I1129 19:00:01.724602  5014 net.cpp:435] fire6/expand1x1 <- fire6/squeeze1x1_fire6/relu_squeeze1x1_0_split_0
I1129 19:00:01.724612  5014 net.cpp:409] fire6/expand1x1 -> fire6/expand1x1
I1129 19:00:01.734550  5014 net.cpp:144] Setting up fire6/expand1x1
I1129 19:00:01.734585  5014 net.cpp:151] Top shape: 64 192 14 14 (2408448)
I1129 19:00:01.734592  5014 net.cpp:159] Memory required for data: 1646156800
I1129 19:00:01.734609  5014 layer_factory.hpp:77] Creating layer fire6/relu_expand1x1
I1129 19:00:01.734625  5014 net.cpp:94] Creating Layer fire6/relu_expand1x1
I1129 19:00:01.734635  5014 net.cpp:435] fire6/relu_expand1x1 <- fire6/expand1x1
I1129 19:00:01.734647  5014 net.cpp:396] fire6/relu_expand1x1 -> fire6/expand1x1 (in-place)
I1129 19:00:01.734664  5014 net.cpp:144] Setting up fire6/relu_expand1x1
I1129 19:00:01.734673  5014 net.cpp:151] Top shape: 64 192 14 14 (2408448)
I1129 19:00:01.734680  5014 net.cpp:159] Memory required for data: 1655790592
I1129 19:00:01.734688  5014 layer_factory.hpp:77] Creating layer fire6/expand3x3
I1129 19:00:01.734706  5014 net.cpp:94] Creating Layer fire6/expand3x3
I1129 19:00:01.734714  5014 net.cpp:435] fire6/expand3x3 <- fire6/squeeze1x1_fire6/relu_squeeze1x1_0_split_1
I1129 19:00:01.734725  5014 net.cpp:409] fire6/expand3x3 -> fire6/expand3x3
I1129 19:00:01.746527  5014 net.cpp:144] Setting up fire6/expand3x3
I1129 19:00:01.746562  5014 net.cpp:151] Top shape: 64 192 14 14 (2408448)
I1129 19:00:01.746569  5014 net.cpp:159] Memory required for data: 1665424384
I1129 19:00:01.746585  5014 layer_factory.hpp:77] Creating layer fire6/relu_expand3x3
I1129 19:00:01.746599  5014 net.cpp:94] Creating Layer fire6/relu_expand3x3
I1129 19:00:01.746608  5014 net.cpp:435] fire6/relu_expand3x3 <- fire6/expand3x3
I1129 19:00:01.746619  5014 net.cpp:396] fire6/relu_expand3x3 -> fire6/expand3x3 (in-place)
I1129 19:00:01.746709  5014 net.cpp:144] Setting up fire6/relu_expand3x3
I1129 19:00:01.746719  5014 net.cpp:151] Top shape: 64 192 14 14 (2408448)
I1129 19:00:01.746726  5014 net.cpp:159] Memory required for data: 1675058176
I1129 19:00:01.746733  5014 layer_factory.hpp:77] Creating layer fire6/concat
I1129 19:00:01.746744  5014 net.cpp:94] Creating Layer fire6/concat
I1129 19:00:01.746752  5014 net.cpp:435] fire6/concat <- fire6/expand1x1
I1129 19:00:01.746760  5014 net.cpp:435] fire6/concat <- fire6/expand3x3
I1129 19:00:01.746770  5014 net.cpp:409] fire6/concat -> fire6/concat
I1129 19:00:01.746842  5014 net.cpp:144] Setting up fire6/concat
I1129 19:00:01.746852  5014 net.cpp:151] Top shape: 64 384 14 14 (4816896)
I1129 19:00:01.746860  5014 net.cpp:159] Memory required for data: 1694325760
I1129 19:00:01.746867  5014 layer_factory.hpp:77] Creating layer fire7/squeeze1x1
I1129 19:00:01.746881  5014 net.cpp:94] Creating Layer fire7/squeeze1x1
I1129 19:00:01.746889  5014 net.cpp:435] fire7/squeeze1x1 <- fire6/concat
I1129 19:00:01.746899  5014 net.cpp:409] fire7/squeeze1x1 -> fire7/squeeze1x1
I1129 19:00:01.753299  5014 net.cpp:144] Setting up fire7/squeeze1x1
I1129 19:00:01.753329  5014 net.cpp:151] Top shape: 64 48 14 14 (602112)
I1129 19:00:01.753335  5014 net.cpp:159] Memory required for data: 1696734208
I1129 19:00:01.753361  5014 layer_factory.hpp:77] Creating layer fire7/relu_squeeze1x1
I1129 19:00:01.753376  5014 net.cpp:94] Creating Layer fire7/relu_squeeze1x1
I1129 19:00:01.753384  5014 net.cpp:435] fire7/relu_squeeze1x1 <- fire7/squeeze1x1
I1129 19:00:01.753394  5014 net.cpp:396] fire7/relu_squeeze1x1 -> fire7/squeeze1x1 (in-place)
I1129 19:00:01.753408  5014 net.cpp:144] Setting up fire7/relu_squeeze1x1
I1129 19:00:01.753417  5014 net.cpp:151] Top shape: 64 48 14 14 (602112)
I1129 19:00:01.753423  5014 net.cpp:159] Memory required for data: 1699142656
I1129 19:00:01.753430  5014 layer_factory.hpp:77] Creating layer fire7/squeeze1x1_fire7/relu_squeeze1x1_0_split
I1129 19:00:01.753440  5014 net.cpp:94] Creating Layer fire7/squeeze1x1_fire7/relu_squeeze1x1_0_split
I1129 19:00:01.753448  5014 net.cpp:435] fire7/squeeze1x1_fire7/relu_squeeze1x1_0_split <- fire7/squeeze1x1
I1129 19:00:01.753484  5014 net.cpp:409] fire7/squeeze1x1_fire7/relu_squeeze1x1_0_split -> fire7/squeeze1x1_fire7/relu_squeeze1x1_0_split_0
I1129 19:00:01.753496  5014 net.cpp:409] fire7/squeeze1x1_fire7/relu_squeeze1x1_0_split -> fire7/squeeze1x1_fire7/relu_squeeze1x1_0_split_1
I1129 19:00:01.753569  5014 net.cpp:144] Setting up fire7/squeeze1x1_fire7/relu_squeeze1x1_0_split
I1129 19:00:01.753579  5014 net.cpp:151] Top shape: 64 48 14 14 (602112)
I1129 19:00:01.753588  5014 net.cpp:151] Top shape: 64 48 14 14 (602112)
I1129 19:00:01.753595  5014 net.cpp:159] Memory required for data: 1703959552
I1129 19:00:01.753602  5014 layer_factory.hpp:77] Creating layer fire7/expand1x1
I1129 19:00:01.753617  5014 net.cpp:94] Creating Layer fire7/expand1x1
I1129 19:00:01.753623  5014 net.cpp:435] fire7/expand1x1 <- fire7/squeeze1x1_fire7/relu_squeeze1x1_0_split_0
I1129 19:00:01.753633  5014 net.cpp:409] fire7/expand1x1 -> fire7/expand1x1
I1129 19:00:01.758401  5014 net.cpp:144] Setting up fire7/expand1x1
I1129 19:00:01.758431  5014 net.cpp:151] Top shape: 64 192 14 14 (2408448)
I1129 19:00:01.758440  5014 net.cpp:159] Memory required for data: 1713593344
I1129 19:00:01.758455  5014 layer_factory.hpp:77] Creating layer fire7/relu_expand1x1
I1129 19:00:01.758471  5014 net.cpp:94] Creating Layer fire7/relu_expand1x1
I1129 19:00:01.758479  5014 net.cpp:435] fire7/relu_expand1x1 <- fire7/expand1x1
I1129 19:00:01.758492  5014 net.cpp:396] fire7/relu_expand1x1 -> fire7/expand1x1 (in-place)
I1129 19:00:01.758509  5014 net.cpp:144] Setting up fire7/relu_expand1x1
I1129 19:00:01.758518  5014 net.cpp:151] Top shape: 64 192 14 14 (2408448)
I1129 19:00:01.758527  5014 net.cpp:159] Memory required for data: 1723227136
I1129 19:00:01.758534  5014 layer_factory.hpp:77] Creating layer fire7/expand3x3
I1129 19:00:01.758553  5014 net.cpp:94] Creating Layer fire7/expand3x3
I1129 19:00:01.758559  5014 net.cpp:435] fire7/expand3x3 <- fire7/squeeze1x1_fire7/relu_squeeze1x1_0_split_1
I1129 19:00:01.758570  5014 net.cpp:409] fire7/expand3x3 -> fire7/expand3x3
I1129 19:00:01.773870  5014 net.cpp:144] Setting up fire7/expand3x3
I1129 19:00:01.773962  5014 net.cpp:151] Top shape: 64 192 14 14 (2408448)
I1129 19:00:01.773970  5014 net.cpp:159] Memory required for data: 1732860928
I1129 19:00:01.773986  5014 layer_factory.hpp:77] Creating layer fire7/relu_expand3x3
I1129 19:00:01.774000  5014 net.cpp:94] Creating Layer fire7/relu_expand3x3
I1129 19:00:01.774010  5014 net.cpp:435] fire7/relu_expand3x3 <- fire7/expand3x3
I1129 19:00:01.774021  5014 net.cpp:396] fire7/relu_expand3x3 -> fire7/expand3x3 (in-place)
I1129 19:00:01.774037  5014 net.cpp:144] Setting up fire7/relu_expand3x3
I1129 19:00:01.774045  5014 net.cpp:151] Top shape: 64 192 14 14 (2408448)
I1129 19:00:01.774052  5014 net.cpp:159] Memory required for data: 1742494720
I1129 19:00:01.774060  5014 layer_factory.hpp:77] Creating layer fire7/concat
I1129 19:00:01.774070  5014 net.cpp:94] Creating Layer fire7/concat
I1129 19:00:01.774077  5014 net.cpp:435] fire7/concat <- fire7/expand1x1
I1129 19:00:01.774085  5014 net.cpp:435] fire7/concat <- fire7/expand3x3
I1129 19:00:01.774096  5014 net.cpp:409] fire7/concat -> fire7/concat
I1129 19:00:01.774165  5014 net.cpp:144] Setting up fire7/concat
I1129 19:00:01.774175  5014 net.cpp:151] Top shape: 64 384 14 14 (4816896)
I1129 19:00:01.774183  5014 net.cpp:159] Memory required for data: 1761762304
I1129 19:00:01.774189  5014 layer_factory.hpp:77] Creating layer fire8/squeeze1x1
I1129 19:00:01.774204  5014 net.cpp:94] Creating Layer fire8/squeeze1x1
I1129 19:00:01.774211  5014 net.cpp:435] fire8/squeeze1x1 <- fire7/concat
I1129 19:00:01.774220  5014 net.cpp:409] fire8/squeeze1x1 -> fire8/squeeze1x1
I1129 19:00:01.780958  5014 net.cpp:144] Setting up fire8/squeeze1x1
I1129 19:00:01.780992  5014 net.cpp:151] Top shape: 64 64 14 14 (802816)
I1129 19:00:01.781000  5014 net.cpp:159] Memory required for data: 1764973568
I1129 19:00:01.781015  5014 layer_factory.hpp:77] Creating layer fire8/relu_squeeze1x1
I1129 19:00:01.781059  5014 net.cpp:94] Creating Layer fire8/relu_squeeze1x1
I1129 19:00:01.781069  5014 net.cpp:435] fire8/relu_squeeze1x1 <- fire8/squeeze1x1
I1129 19:00:01.781080  5014 net.cpp:396] fire8/relu_squeeze1x1 -> fire8/squeeze1x1 (in-place)
I1129 19:00:01.781096  5014 net.cpp:144] Setting up fire8/relu_squeeze1x1
I1129 19:00:01.781105  5014 net.cpp:151] Top shape: 64 64 14 14 (802816)
I1129 19:00:01.781112  5014 net.cpp:159] Memory required for data: 1768184832
I1129 19:00:01.781119  5014 layer_factory.hpp:77] Creating layer fire8/squeeze1x1_fire8/relu_squeeze1x1_0_split
I1129 19:00:01.781131  5014 net.cpp:94] Creating Layer fire8/squeeze1x1_fire8/relu_squeeze1x1_0_split
I1129 19:00:01.781137  5014 net.cpp:435] fire8/squeeze1x1_fire8/relu_squeeze1x1_0_split <- fire8/squeeze1x1
I1129 19:00:01.781147  5014 net.cpp:409] fire8/squeeze1x1_fire8/relu_squeeze1x1_0_split -> fire8/squeeze1x1_fire8/relu_squeeze1x1_0_split_0
I1129 19:00:01.781159  5014 net.cpp:409] fire8/squeeze1x1_fire8/relu_squeeze1x1_0_split -> fire8/squeeze1x1_fire8/relu_squeeze1x1_0_split_1
I1129 19:00:01.781250  5014 net.cpp:144] Setting up fire8/squeeze1x1_fire8/relu_squeeze1x1_0_split
I1129 19:00:01.781260  5014 net.cpp:151] Top shape: 64 64 14 14 (802816)
I1129 19:00:01.781268  5014 net.cpp:151] Top shape: 64 64 14 14 (802816)
I1129 19:00:01.781275  5014 net.cpp:159] Memory required for data: 1774607360
I1129 19:00:01.781282  5014 layer_factory.hpp:77] Creating layer fire8/expand1x1
I1129 19:00:01.781298  5014 net.cpp:94] Creating Layer fire8/expand1x1
I1129 19:00:01.781306  5014 net.cpp:435] fire8/expand1x1 <- fire8/squeeze1x1_fire8/relu_squeeze1x1_0_split_0
I1129 19:00:01.781316  5014 net.cpp:409] fire8/expand1x1 -> fire8/expand1x1
I1129 19:00:01.787101  5014 net.cpp:144] Setting up fire8/expand1x1
I1129 19:00:01.787129  5014 net.cpp:151] Top shape: 64 256 14 14 (3211264)
I1129 19:00:01.787137  5014 net.cpp:159] Memory required for data: 1787452416
I1129 19:00:01.787152  5014 layer_factory.hpp:77] Creating layer fire8/relu_expand1x1
I1129 19:00:01.787164  5014 net.cpp:94] Creating Layer fire8/relu_expand1x1
I1129 19:00:01.787175  5014 net.cpp:435] fire8/relu_expand1x1 <- fire8/expand1x1
I1129 19:00:01.787186  5014 net.cpp:396] fire8/relu_expand1x1 -> fire8/expand1x1 (in-place)
I1129 19:00:01.787201  5014 net.cpp:144] Setting up fire8/relu_expand1x1
I1129 19:00:01.787210  5014 net.cpp:151] Top shape: 64 256 14 14 (3211264)
I1129 19:00:01.787217  5014 net.cpp:159] Memory required for data: 1800297472
I1129 19:00:01.787225  5014 layer_factory.hpp:77] Creating layer fire8/expand3x3
I1129 19:00:01.787240  5014 net.cpp:94] Creating Layer fire8/expand3x3
I1129 19:00:01.787247  5014 net.cpp:435] fire8/expand3x3 <- fire8/squeeze1x1_fire8/relu_squeeze1x1_0_split_1
I1129 19:00:01.787257  5014 net.cpp:409] fire8/expand3x3 -> fire8/expand3x3
I1129 19:00:01.807991  5014 net.cpp:144] Setting up fire8/expand3x3
I1129 19:00:01.808029  5014 net.cpp:151] Top shape: 64 256 14 14 (3211264)
I1129 19:00:01.808037  5014 net.cpp:159] Memory required for data: 1813142528
I1129 19:00:01.808054  5014 layer_factory.hpp:77] Creating layer fire8/relu_expand3x3
I1129 19:00:01.808070  5014 net.cpp:94] Creating Layer fire8/relu_expand3x3
I1129 19:00:01.808081  5014 net.cpp:435] fire8/relu_expand3x3 <- fire8/expand3x3
I1129 19:00:01.808094  5014 net.cpp:396] fire8/relu_expand3x3 -> fire8/expand3x3 (in-place)
I1129 19:00:01.808110  5014 net.cpp:144] Setting up fire8/relu_expand3x3
I1129 19:00:01.808120  5014 net.cpp:151] Top shape: 64 256 14 14 (3211264)
I1129 19:00:01.808126  5014 net.cpp:159] Memory required for data: 1825987584
I1129 19:00:01.808133  5014 layer_factory.hpp:77] Creating layer fire8/concat
I1129 19:00:01.808145  5014 net.cpp:94] Creating Layer fire8/concat
I1129 19:00:01.808152  5014 net.cpp:435] fire8/concat <- fire8/expand1x1
I1129 19:00:01.808161  5014 net.cpp:435] fire8/concat <- fire8/expand3x3
I1129 19:00:01.808169  5014 net.cpp:409] fire8/concat -> fire8/concat
I1129 19:00:01.808253  5014 net.cpp:144] Setting up fire8/concat
I1129 19:00:01.808262  5014 net.cpp:151] Top shape: 64 512 14 14 (6422528)
I1129 19:00:01.808303  5014 net.cpp:159] Memory required for data: 1851677696
I1129 19:00:01.808311  5014 layer_factory.hpp:77] Creating layer fire9/squeeze1x1
I1129 19:00:01.808327  5014 net.cpp:94] Creating Layer fire9/squeeze1x1
I1129 19:00:01.808336  5014 net.cpp:435] fire9/squeeze1x1 <- fire8/concat
I1129 19:00:01.808346  5014 net.cpp:409] fire9/squeeze1x1 -> fire9/squeeze1x1
I1129 19:00:01.816718  5014 net.cpp:144] Setting up fire9/squeeze1x1
I1129 19:00:01.816748  5014 net.cpp:151] Top shape: 64 64 14 14 (802816)
I1129 19:00:01.816756  5014 net.cpp:159] Memory required for data: 1854888960
I1129 19:00:01.816771  5014 layer_factory.hpp:77] Creating layer fire9/relu_squeeze1x1
I1129 19:00:01.816786  5014 net.cpp:94] Creating Layer fire9/relu_squeeze1x1
I1129 19:00:01.816794  5014 net.cpp:435] fire9/relu_squeeze1x1 <- fire9/squeeze1x1
I1129 19:00:01.816804  5014 net.cpp:396] fire9/relu_squeeze1x1 -> fire9/squeeze1x1 (in-place)
I1129 19:00:01.816819  5014 net.cpp:144] Setting up fire9/relu_squeeze1x1
I1129 19:00:01.816828  5014 net.cpp:151] Top shape: 64 64 14 14 (802816)
I1129 19:00:01.816835  5014 net.cpp:159] Memory required for data: 1858100224
I1129 19:00:01.816843  5014 layer_factory.hpp:77] Creating layer fire9/squeeze1x1_fire9/relu_squeeze1x1_0_split
I1129 19:00:01.816867  5014 net.cpp:94] Creating Layer fire9/squeeze1x1_fire9/relu_squeeze1x1_0_split
I1129 19:00:01.816875  5014 net.cpp:435] fire9/squeeze1x1_fire9/relu_squeeze1x1_0_split <- fire9/squeeze1x1
I1129 19:00:01.816885  5014 net.cpp:409] fire9/squeeze1x1_fire9/relu_squeeze1x1_0_split -> fire9/squeeze1x1_fire9/relu_squeeze1x1_0_split_0
I1129 19:00:01.816896  5014 net.cpp:409] fire9/squeeze1x1_fire9/relu_squeeze1x1_0_split -> fire9/squeeze1x1_fire9/relu_squeeze1x1_0_split_1
I1129 19:00:01.816972  5014 net.cpp:144] Setting up fire9/squeeze1x1_fire9/relu_squeeze1x1_0_split
I1129 19:00:01.816982  5014 net.cpp:151] Top shape: 64 64 14 14 (802816)
I1129 19:00:01.816992  5014 net.cpp:151] Top shape: 64 64 14 14 (802816)
I1129 19:00:01.816998  5014 net.cpp:159] Memory required for data: 1864522752
I1129 19:00:01.817006  5014 layer_factory.hpp:77] Creating layer fire9/expand1x1
I1129 19:00:01.817021  5014 net.cpp:94] Creating Layer fire9/expand1x1
I1129 19:00:01.817028  5014 net.cpp:435] fire9/expand1x1 <- fire9/squeeze1x1_fire9/relu_squeeze1x1_0_split_0
I1129 19:00:01.817039  5014 net.cpp:409] fire9/expand1x1 -> fire9/expand1x1
I1129 19:00:01.822202  5014 net.cpp:144] Setting up fire9/expand1x1
I1129 19:00:01.822232  5014 net.cpp:151] Top shape: 64 256 14 14 (3211264)
I1129 19:00:01.822240  5014 net.cpp:159] Memory required for data: 1877367808
I1129 19:00:01.822255  5014 layer_factory.hpp:77] Creating layer fire9/relu_expand1x1
I1129 19:00:01.822269  5014 net.cpp:94] Creating Layer fire9/relu_expand1x1
I1129 19:00:01.822278  5014 net.cpp:435] fire9/relu_expand1x1 <- fire9/expand1x1
I1129 19:00:01.822289  5014 net.cpp:396] fire9/relu_expand1x1 -> fire9/expand1x1 (in-place)
I1129 19:00:01.822305  5014 net.cpp:144] Setting up fire9/relu_expand1x1
I1129 19:00:01.822314  5014 net.cpp:151] Top shape: 64 256 14 14 (3211264)
I1129 19:00:01.822321  5014 net.cpp:159] Memory required for data: 1890212864
I1129 19:00:01.822329  5014 layer_factory.hpp:77] Creating layer fire9/expand3x3
I1129 19:00:01.822345  5014 net.cpp:94] Creating Layer fire9/expand3x3
I1129 19:00:01.822353  5014 net.cpp:435] fire9/expand3x3 <- fire9/squeeze1x1_fire9/relu_squeeze1x1_0_split_1
I1129 19:00:01.822365  5014 net.cpp:409] fire9/expand3x3 -> fire9/expand3x3
I1129 19:00:01.845033  5014 net.cpp:144] Setting up fire9/expand3x3
I1129 19:00:01.845072  5014 net.cpp:151] Top shape: 64 256 14 14 (3211264)
I1129 19:00:01.845079  5014 net.cpp:159] Memory required for data: 1903057920
I1129 19:00:01.845098  5014 layer_factory.hpp:77] Creating layer fire9/relu_expand3x3
I1129 19:00:01.845113  5014 net.cpp:94] Creating Layer fire9/relu_expand3x3
I1129 19:00:01.845124  5014 net.cpp:435] fire9/relu_expand3x3 <- fire9/expand3x3
I1129 19:00:01.845135  5014 net.cpp:396] fire9/relu_expand3x3 -> fire9/expand3x3 (in-place)
I1129 19:00:01.845182  5014 net.cpp:144] Setting up fire9/relu_expand3x3
I1129 19:00:01.845192  5014 net.cpp:151] Top shape: 64 256 14 14 (3211264)
I1129 19:00:01.845199  5014 net.cpp:159] Memory required for data: 1915902976
I1129 19:00:01.845206  5014 layer_factory.hpp:77] Creating layer fire9/concat
I1129 19:00:01.845217  5014 net.cpp:94] Creating Layer fire9/concat
I1129 19:00:01.845226  5014 net.cpp:435] fire9/concat <- fire9/expand1x1
I1129 19:00:01.845233  5014 net.cpp:435] fire9/concat <- fire9/expand3x3
I1129 19:00:01.845245  5014 net.cpp:409] fire9/concat -> fire9/concat
I1129 19:00:01.845347  5014 net.cpp:144] Setting up fire9/concat
I1129 19:00:01.845357  5014 net.cpp:151] Top shape: 64 512 14 14 (6422528)
I1129 19:00:01.845366  5014 net.cpp:159] Memory required for data: 1941593088
I1129 19:00:01.845372  5014 layer_factory.hpp:77] Creating layer drop9
I1129 19:00:01.845386  5014 net.cpp:94] Creating Layer drop9
I1129 19:00:01.845393  5014 net.cpp:435] drop9 <- fire9/concat
I1129 19:00:01.845402  5014 net.cpp:396] drop9 -> fire9/concat (in-place)
I1129 19:00:01.845446  5014 net.cpp:144] Setting up drop9
I1129 19:00:01.845456  5014 net.cpp:151] Top shape: 64 512 14 14 (6422528)
I1129 19:00:01.845463  5014 net.cpp:159] Memory required for data: 1967283200
I1129 19:00:01.845471  5014 layer_factory.hpp:77] Creating layer conv10_output
I1129 19:00:01.845489  5014 net.cpp:94] Creating Layer conv10_output
I1129 19:00:01.845496  5014 net.cpp:435] conv10_output <- fire9/concat
I1129 19:00:01.845507  5014 net.cpp:409] conv10_output -> conv10_output
I1129 19:00:01.851413  5014 net.cpp:144] Setting up conv10_output
I1129 19:00:01.851440  5014 net.cpp:151] Top shape: 64 2 14 14 (25088)
I1129 19:00:01.851447  5014 net.cpp:159] Memory required for data: 1967383552
I1129 19:00:01.851462  5014 layer_factory.hpp:77] Creating layer relu_conv10
I1129 19:00:01.851475  5014 net.cpp:94] Creating Layer relu_conv10
I1129 19:00:01.851483  5014 net.cpp:435] relu_conv10 <- conv10_output
I1129 19:00:01.851493  5014 net.cpp:396] relu_conv10 -> conv10_output (in-place)
I1129 19:00:01.851508  5014 net.cpp:144] Setting up relu_conv10
I1129 19:00:01.851517  5014 net.cpp:151] Top shape: 64 2 14 14 (25088)
I1129 19:00:01.851524  5014 net.cpp:159] Memory required for data: 1967483904
I1129 19:00:01.851531  5014 layer_factory.hpp:77] Creating layer pool10
I1129 19:00:01.851542  5014 net.cpp:94] Creating Layer pool10
I1129 19:00:01.851549  5014 net.cpp:435] pool10 <- conv10_output
I1129 19:00:01.851560  5014 net.cpp:409] pool10 -> pool10
I1129 19:00:01.851625  5014 net.cpp:144] Setting up pool10
I1129 19:00:01.851636  5014 net.cpp:151] Top shape: 64 2 1 1 (128)
I1129 19:00:01.851644  5014 net.cpp:159] Memory required for data: 1967484416
I1129 19:00:01.851650  5014 layer_factory.hpp:77] Creating layer loss
I1129 19:00:01.866145  5014 net.cpp:94] Creating Layer loss
I1129 19:00:01.866185  5014 net.cpp:435] loss <- pool10
I1129 19:00:01.866197  5014 net.cpp:435] loss <- label
I1129 19:00:01.866211  5014 net.cpp:409] loss -> loss
I1129 19:00:01.866235  5014 layer_factory.hpp:77] Creating layer loss
…
I1129 19:00:01.868748  5014 net.cpp:323] The NetState phase (1) differed from the phase (0) specified by a rule in layer train-data
I1129 19:00:01.872807  5014 net.cpp:52] Initializing net from parameters:
state {
phase: TEST
}
layer {
name: "val-data"
type: "Data"
top: "data"
top: "label"
include {
phase: TEST
}
transform_param {
crop_size: 227
mean_file: "/media/myuser/120Gb/DIGITS/digits/jobs/20161129-185048-9470/mean.binaryproto"
}
data_param {
source: "/media/myuser/120Gb/DIGITS/digits/jobs/20161129-185048-9470/val_db"
batch_size: 64
backend: LMDB
}
}
layer {
name: "conv1"
type: "Convolution"
bottom: "data"
top: "conv1"
convolution_param {
num_output: 64
kernel_size: 3
stride: 2
weight_filler {
type: "xavier"
}
}
}
layer {
name: "relu_conv1"
type: "ReLU"
bottom: "conv1"
top: "conv1"
}
layer {
name: "pool1"
type: "Pooling"
bottom: "conv1"
top: "pool1"
pooling_param {
pool: MAX
kernel_size: 3
stride: 2
}
}
layer {
name: "fire2/squeeze1x1"
type: "Convolution"
bottom: "pool1"
top: "fire2/squeeze1x1"
convolution_param {
num_output: 16
kernel_size: 1
weight_filler {
type: "xavier"
}
}
}
layer {
name: "fire2/relu_squeeze1x1"
type: "ReLU"
bottom: "fire2/squeeze1x1"
top: "fire2/squeeze1x1"
}
layer {
name: "fire2/expand1x1"
type: "Convolution"
bottom: "fire2/squeeze1x1"
top: "fire2/expand1x1"
convolution_param {
num_output: 64
kernel_size: 1
weight_filler {
type: "xavier"
}
}
}
layer {
name: "fire2/relu_expand1x1"
type: "ReLU"
bottom: "fire2/expand1x1"
top: "fire2/expand1x1"
}
layer {
name: "fire2/expand3x3"
type: "Convolution"
bottom: "fire2/squeeze1x1"
top: "fire2/expand3x3"
convolution_param {
num_output: 64
pad: 1
kernel_size: 3
weight_filler {
type: "xavier"
}
}
}
layer {
name: "fire2/relu_expand3x3"
type: "ReLU"
bottom: "fire2/expand3x3"
top: "fire2/expand3x3"
}
layer {
name: "fire2/concat"
type: "Concat"
bottom: "fire2/expand1x1"
bottom: "fire2/expand3x3"
top: "fire2/concat"
}
layer {
name: "fire3/squeeze1x1"
type: "Convolution"
bottom: "fire2/concat"
top: "fire3/squeeze1x1"
convolution_param {
num_output: 16
kernel_size: 1
weight_filler {
type: "xavier"
}
}
}
layer {
name: "fire3/relu_squeeze1x1"
type: "ReLU"
bottom: "fire3/squeeze1x1"
top: "fire3/squeeze1x1"
}
layer {
name: "fire3/expand1x1"
type: "Convolution"
bottom: "fire3/squeeze1x1"
top: "fire3/expand1x1"
convolution_param {
num_output: 64
kernel_size: 1
weight_filler {
type: "xavier"
}
}
}
layer {
name: "fire3/relu_expand1x1"
type: "ReLU"
bottom: "fire3/expand1x1"
top: "fire3/expand1x1"
}
layer {
name: "fire3/expand3x3"
type: "Convolution"
bottom: "fire3/squeeze1x1"
top: "fire3/expand3x3"
convolution_param {
num_output: 64
pad: 1
kernel_size: 3
weight_filler {
type: "xavier"
}
}
}
layer {
name: "fire3/relu_expand3x3"
type: "ReLU"
bottom: "fire3/expand3x3"
top: "fire3/expand3x3"
}
layer {
name: "fire3/concat"
type: "Concat"
bottom: "fire3/expand1x1"
bottom: "fire3/expand3x3"
top: "fire3/concat"
}
layer {
name: "pool3"
type: "Pooling"
bottom: "fire3/concat"
top: "pool3"
pooling_param {
pool: MAX
kernel_size: 3
stride: 2
}
}
layer {
name: "fire4/squeeze1x1"
type: "Convolution"
bottom: "pool3"
top: "fire4/squeeze1x1"
convolution_param {
num_output: 32
kernel_size: 1
weight_filler {
type: "xavier"
}
}
}
layer {
name: "fire4/relu_squeeze1x1"
type: "ReLU"
bottom: "fire4/squeeze1x1"
top: "fire4/squeeze1x1"
}
layer {
name: "fire4/expand1x1"
type: "Convolution"
bottom: "fire4/squeeze1x1"
top: "fire4/expand1x1"
convolution_param {
num_output: 128
kernel_size: 1
weight_filler {
type: "xavier"
}
}
}
layer {
name: "fire4/relu_expand1x1"
type: "ReLU"
bottom: "fire4/expand1x1"
top: "fire4/expand1x1"
}
layer {
name: "fire4/expand3x3"
type: "Convolution"
bottom: "fire4/squeeze1x1"
top: "fire4/expand3x3"
convolution_param {
num_output: 128
pad: 1
kernel_size: 3
weight_filler {
type: "xavier"
}
}
}
layer {
name: "fire4/relu_expand3x3"
type: "ReLU"
bottom: "fire4/expand3x3"
top: "fire4/expand3x3"
}
layer {
name: "fire4/concat"
type: "Concat"
bottom: "fire4/expand1x1"
bottom: "fire4/expand3x3"
top: "fire4/concat"
}
layer {
name: "fire5/squeeze1x1"
type: "Convolution"
bottom: "fire4/concat"
top: "fire5/squeeze1x1"
convolution_param {
num_output: 32
kernel_size: 1
weight_filler {
type: "xavier"
}
}
}
layer {
name: "fire5/relu_squeeze1x1"
type: "ReLU"
bottom: "fire5/squeeze1x1"
top: "fire5/squeeze1x1"
}
layer {
name: "fire5/expand1x1"
type: "Convolution"
bottom: "fire5/squeeze1x1"
top: "fire5/expand1x1"
convolution_param {
num_output: 128
kernel_size: 1
weight_filler {
type: "xavier"
}
}
}
layer {
name: "fire5/relu_expand1x1"
type: "ReLU"
bottom: "fire5/expand1x1"
top: "fire5/expand1x1"
}
layer {
name: "fire5/expand3x3"
type: "Convolution"
bottom: "fire5/squeeze1x1"
top: "fire5/expand3x3"
convolution_param {
num_output: 128
pad: 1
kernel_size: 3
weight_filler {
type: "xavier"
}
}
}
layer {
name: "fire5/relu_expand3x3"
type: "ReLU"
bottom: "fire5/expand3x3"
top: "fire5/expand3x3"
}
layer {
name: "fire5/concat"
type: "Concat"
bottom: "fire5/expand1x1"
bottom: "fire5/expand3x3"
top: "fire5/concat"
}
layer {
name: "pool5"
type: "Pooling"
bottom: "fire5/concat"
top: "pool5"
pooling_param {
pool: MAX
kernel_size: 3
stride: 2
}
}
layer {
name: "fire6/squeeze1x1"
type: "Convolution"
bottom: "pool5"
top: "fire6/squeeze1x1"
convolution_param {
num_output: 48
kernel_size: 1
weight_filler {
type: "xavier"
}
}
}
layer {
name: "fire6/relu_squeeze1x1"
type: "ReLU"
bottom: "fire6/squeeze1x1"
top: "fire6/squeeze1x1"
}
layer {
name: "fire6/expand1x1"
type: "Convolution"
bottom: "fire6/squeeze1x1"
top: "fire6/expand1x1"
convolution_param {
num_output: 192
kernel_size: 1
weight_filler {
type: "xavier"
}
}
}
layer {
name: "fire6/relu_expand1x1"
type: "ReLU"
bottom: "fire6/expand1x1"
top: "fire6/expand1x1"
}
layer {
name: "fire6/expand3x3"
type: "Convolution"
bottom: "fire6/squeeze1x1"
top: "fire6/expand3x3"
convolution_param {
num_output: 192
pad: 1
kernel_size: 3
weight_filler {
type: "xavier"
}
}
}
layer {
name: "fire6/relu_expand3x3"
type: "ReLU"
bottom: "fire6/expand3x3"
top: "fire6/expand3x3"
}
layer {
name: "fire6/concat"
type: "Concat"
bottom: "fire6/expand1x1"
bottom: "fire6/expand3x3"
top: "fire6/concat"
}
layer {
name: "fire7/squeeze1x1"
type: "Convolution"
bottom: "fire6/concat"
top: "fire7/squeeze1x1"
convolution_param {
num_output: 48
kernel_size: 1
weight_filler {
type: "xavier"
}
}
}
layer {
name: "fire7/relu_squeeze1x1"
type: "ReLU"
bottom: "fire7/squeeze1x1"
top: "fire7/squeeze1x1"
}
layer {
name: "fire7/expand1x1"
type: "Convolution"
bottom: "fire7/squeeze1x1"
top: "fire7/expand1x1"
convolution_param {
num_output: 192
kernel_size: 1
weight_filler {
type: "xavier"
}
}
}
layer {
name: "fire7/relu_expand1x1"
type: "ReLU"
bottom: "fire7/expand1x1"
top: "fire7/expand1x1"
}
layer {
name: "fire7/expand3x3"
type: "Convolution"
bottom: "fire7/squeeze1x1"
top: "fire7/expand3x3"
convolution_param {
num_output: 192
pad: 1
kernel_size: 3
weight_filler {
type: "xavier"
}
}
}
layer {
name: "fire7/relu_expand3x3"
type: "ReLU"
bottom: "fire7/expand3x3"
top: "fire7/expand3x3"
}
layer {
name: "fire7/concat"
type: "Concat"
bottom: "fire7/expand1x1"
bottom: "fire7/expand3x3"
top: "fire7/concat"
}
layer {
name: "fire8/squeeze1x1"
type: "Convolution"
bottom: "fire7/concat"
top: "fire8/squeeze1x1"
convolution_param {
num_output: 64
kernel_size: 1
weight_filler {
type: "xavier"
}
}
}
layer {
name: "fire8/relu_squeeze1x1"
type: "ReLU"
bottom: "fire8/squeeze1x1"
top: "fire8/squeeze1x1"
}
layer {
name: "fire8/expand1x1"
type: "Convolution"
bottom: "fire8/squeeze1x1"
top: "fire8/expand1x1"
convolution_param {
num_output: 256
kernel_size: 1
weight_filler {
type: "xavier"
}
}
}
layer {
name: "fire8/relu_expand1x1"
type: "ReLU"
bottom: "fire8/expand1x1"
top: "fire8/expand1x1"
}
layer {
name: "fire8/expand3x3"
type: "Convolution"
bottom: "fire8/squeeze1x1"
top: "fire8/expand3x3"
convolution_param {
num_output: 256
pad: 1
kernel_size: 3
weight_filler {
type: "xavier"
}
}
}
layer {
name: "fire8/relu_expand3x3"
type: "ReLU"
bottom: "fire8/expand3x3"
top: "fire8/expand3x3"
}
layer {
name: "fire8/concat"
type: "Concat"
bottom: "fire8/expand1x1"
bottom: "fire8/expand3x3"
top: "fire8/concat"
}
layer {
name: "fire9/squeeze1x1"
type: "Convolution"
bottom: "fire8/concat"
top: "fire9/squeeze1x1"
convolution_param {
num_output: 64
kernel_size: 1
weight_filler {
type: "xavier"
}
}
}
layer {
name: "fire9/relu_squeeze1x1"
type: "ReLU"
bottom: "fire9/squeeze1x1"
top: "fire9/squeeze1x1"
}
layer {
name: "fire9/expand1x1"
type: "Convolution"
bottom: "fire9/squeeze1x1"
top: "fire9/expand1x1"
convolution_param {
num_output: 256
kernel_size: 1
weight_filler {
type: "xavier"
}
}
}
layer {
name: "fire9/relu_expand1x1"
type: "ReLU"
bottom: "fire9/expand1x1"
top: "fire9/expand1x1"
}
layer {
name: "fire9/expand3x3"
type: "Convolution"
bottom: "fire9/squeeze1x1"
top: "fire9/expand3x3"
convolution_param {
num_output: 256
pad: 1
kernel_size: 3
weight_filler {
type: "xavier"
}
}
}
layer {
name: "fire9/relu_expand3x3"
type: "ReLU"
bottom: "fire9/expand3x3"
top: "fire9/expand3x3"
}
layer {
name: "fire9/concat"
type: "Concat"
bottom: "fire9/expand1x1"
bottom: "fire9/expand3x3"
top: "fire9/concat"
}
layer {
name: "drop9"
type: "Dropout"
bottom: "fire9/concat"
top: "fire9/concat"
dropout_param {
dropout_ratio: 0.5
}
}
layer {
name: "conv10_output"
type: "Convolution"
bottom: "fire9/concat"
top: "conv10_output"
convolution_param {
num_output: 2
kernel_size: 1
weight_filler {
type: "gaussian"
mean: 0
std: 0.01
}
}
}
layer {
name: "relu_conv10"
type: "ReLU"
bottom: "conv10_output"
top: "conv10_output"
}
layer {
name: "pool10"
type: "Pooling"
bottom: "conv10_output"
top: "pool10"
pooling_param {
pool: AVE
global_pooling: true
}
}
layer {
name: "accuracy"
type: "Accuracy"
bottom: "pool10"
bottom: "label"
top: "accuracy"
include {
phase: TEST
}
}
layer {
name: "loss"
type: "SoftmaxWithLoss"
bottom: "pool10"
bottom: "label"
top: "loss"
}
I1129 19:00:01.873145  5014 layer_factory.hpp:77] Creating layer val-data
I1129 19:00:01.873333  5014 net.cpp:94] Creating Layer val-data
I1129 19:00:01.873345  5014 net.cpp:409] val-data -> data
I1129 19:00:01.873359  5014 net.cpp:409] val-data -> label
I1129 19:00:01.873373  5014 data_transformer.cpp:25] Loading mean file from: /media/myuser/120Gb/DIGITS/digits/jobs/20161129-185048-9470/mean.binaryproto
I1129 19:00:01.896347  5024 db_lmdb.cpp:35] Opened lmdb /media/myuser/120Gb/DIGITS/digits/jobs/20161129-185048-9470/val_db
I1129 19:00:01.947624  5014 data_layer.cpp:76] output data size: 64,3,227,227
I1129 19:00:02.075028  5014 net.cpp:144] Setting up val-data
I1129 19:00:02.075062  5014 net.cpp:151] Top shape: 64 3 227 227 (9893568)
I1129 19:00:02.075073  5014 net.cpp:151] Top shape: 64 (64)
I1129 19:00:02.075080  5014 net.cpp:159] Memory required for data: 39574528
I1129 19:00:02.075091  5014 layer_factory.hpp:77] Creating layer label_val-data_1_split
I1129 19:00:02.075109  5014 net.cpp:94] Creating Layer label_val-data_1_split
I1129 19:00:02.075117  5014 net.cpp:435] label_val-data_1_split <- label
I1129 19:00:02.075129  5014 net.cpp:409] label_val-data_1_split -> label_val-data_1_split_0
I1129 19:00:02.075143  5014 net.cpp:409] label_val-data_1_split -> label_val-data_1_split_1
I1129 19:00:02.075206  5014 net.cpp:144] Setting up label_val-data_1_split
I1129 19:00:02.075217  5014 net.cpp:151] Top shape: 64 (64)
I1129 19:00:02.075224  5014 net.cpp:151] Top shape: 64 (64)
I1129 19:00:02.075232  5014 net.cpp:159] Memory required for data: 39575040
I1129 19:00:02.075239  5014 layer_factory.hpp:77] Creating layer conv1
I1129 19:00:02.075258  5014 net.cpp:94] Creating Layer conv1
I1129 19:00:02.075265  5014 net.cpp:435] conv1 <- data
I1129 19:00:02.075274  5014 net.cpp:409] conv1 -> conv1
I1129 19:00:02.091805  5014 net.cpp:144] Setting up conv1
I1129 19:00:02.091825  5014 net.cpp:151] Top shape: 64 64 113 113 (52301824)
I1129 19:00:02.091832  5014 net.cpp:159] Memory required for data: 248782336
I1129 19:00:02.091848  5014 layer_factory.hpp:77] Creating layer relu_conv1
I1129 19:00:02.091861  5014 net.cpp:94] Creating Layer relu_conv1
I1129 19:00:02.091868  5014 net.cpp:435] relu_conv1 <- conv1
I1129 19:00:02.091877  5014 net.cpp:396] relu_conv1 -> conv1 (in-place)
I1129 19:00:02.091892  5014 net.cpp:144] Setting up relu_conv1
I1129 19:00:02.091900  5014 net.cpp:151] Top shape: 64 64 113 113 (52301824)
I1129 19:00:02.091907  5014 net.cpp:159] Memory required for data: 457989632
I1129 19:00:02.091914  5014 layer_factory.hpp:77] Creating layer pool1
I1129 19:00:02.091927  5014 net.cpp:94] Creating Layer pool1
I1129 19:00:02.091934  5014 net.cpp:435] pool1 <- conv1
I1129 19:00:02.091943  5014 net.cpp:409] pool1 -> pool1
I1129 19:00:02.092007  5014 net.cpp:144] Setting up pool1
I1129 19:00:02.092017  5014 net.cpp:151] Top shape: 64 64 56 56 (12845056)
I1129 19:00:02.092025  5014 net.cpp:159] Memory required for data: 509369856
I1129 19:00:02.092056  5014 layer_factory.hpp:77] Creating layer fire2/squeeze1x1
I1129 19:00:02.092068  5014 net.cpp:94] Creating Layer fire2/squeeze1x1
I1129 19:00:02.092077  5014 net.cpp:435] fire2/squeeze1x1 <- pool1
I1129 19:00:02.092085  5014 net.cpp:409] fire2/squeeze1x1 -> fire2/squeeze1x1
I1129 19:00:02.094786  5014 net.cpp:144] Setting up fire2/squeeze1x1
I1129 19:00:02.094800  5014 net.cpp:151] Top shape: 64 16 56 56 (3211264)
I1129 19:00:02.094808  5014 net.cpp:159] Memory required for data: 522214912
I1129 19:00:02.094821  5014 layer_factory.hpp:77] Creating layer fire2/relu_squeeze1x1
I1129 19:00:02.094831  5014 net.cpp:94] Creating Layer fire2/relu_squeeze1x1
I1129 19:00:02.094840  5014 net.cpp:435] fire2/relu_squeeze1x1 <- fire2/squeeze1x1
I1129 19:00:02.094848  5014 net.cpp:396] fire2/relu_squeeze1x1 -> fire2/squeeze1x1 (in-place)
I1129 19:00:02.094859  5014 net.cpp:144] Setting up fire2/relu_squeeze1x1
I1129 19:00:02.094868  5014 net.cpp:151] Top shape: 64 16 56 56 (3211264)
I1129 19:00:02.094876  5014 net.cpp:159] Memory required for data: 535059968
I1129 19:00:02.094882  5014 layer_factory.hpp:77] Creating layer fire2/squeeze1x1_fire2/relu_squeeze1x1_0_split
I1129 19:00:02.094892  5014 net.cpp:94] Creating Layer fire2/squeeze1x1_fire2/relu_squeeze1x1_0_split
I1129 19:00:02.094899  5014 net.cpp:435] fire2/squeeze1x1_fire2/relu_squeeze1x1_0_split <- fire2/squeeze1x1
I1129 19:00:02.094908  5014 net.cpp:409] fire2/squeeze1x1_fire2/relu_squeeze1x1_0_split -> fire2/squeeze1x1_fire2/relu_squeeze1x1_0_split_0
I1129 19:00:02.094919  5014 net.cpp:409] fire2/squeeze1x1_fire2/relu_squeeze1x1_0_split -> fire2/squeeze1x1_fire2/relu_squeeze1x1_0_split_1
I1129 19:00:02.094974  5014 net.cpp:144] Setting up fire2/squeeze1x1_fire2/relu_squeeze1x1_0_split
I1129 19:00:02.094985  5014 net.cpp:151] Top shape: 64 16 56 56 (3211264)
I1129 19:00:02.094993  5014 net.cpp:151] Top shape: 64 16 56 56 (3211264)
I1129 19:00:02.095000  5014 net.cpp:159] Memory required for data: 560750080
I1129 19:00:02.095007  5014 layer_factory.hpp:77] Creating layer fire2/expand1x1
I1129 19:00:02.095021  5014 net.cpp:94] Creating Layer fire2/expand1x1
I1129 19:00:02.095028  5014 net.cpp:435] fire2/expand1x1 <- fire2/squeeze1x1_fire2/relu_squeeze1x1_0_split_0
I1129 19:00:02.095038  5014 net.cpp:409] fire2/expand1x1 -> fire2/expand1x1
I1129 19:00:02.097797  5014 net.cpp:144] Setting up fire2/expand1x1
I1129 19:00:02.097817  5014 net.cpp:151] Top shape: 64 64 56 56 (12845056)
I1129 19:00:02.097825  5014 net.cpp:159] Memory required for data: 612130304
I1129 19:00:02.097841  5014 layer_factory.hpp:77] Creating layer fire2/relu_expand1x1
I1129 19:00:02.097853  5014 net.cpp:94] Creating Layer fire2/relu_expand1x1
I1129 19:00:02.097862  5014 net.cpp:435] fire2/relu_expand1x1 <- fire2/expand1x1
I1129 19:00:02.097872  5014 net.cpp:396] fire2/relu_expand1x1 -> fire2/expand1x1 (in-place)
I1129 19:00:02.097884  5014 net.cpp:144] Setting up fire2/relu_expand1x1
I1129 19:00:02.097892  5014 net.cpp:151] Top shape: 64 64 56 56 (12845056)
I1129 19:00:02.097899  5014 net.cpp:159] Memory required for data: 663510528
I1129 19:00:02.097906  5014 layer_factory.hpp:77] Creating layer fire2/expand3x3
I1129 19:00:02.097920  5014 net.cpp:94] Creating Layer fire2/expand3x3
I1129 19:00:02.097928  5014 net.cpp:435] fire2/expand3x3 <- fire2/squeeze1x1_fire2/relu_squeeze1x1_0_split_1
I1129 19:00:02.097939  5014 net.cpp:409] fire2/expand3x3 -> fire2/expand3x3
I1129 19:00:02.108099  5014 net.cpp:144] Setting up fire2/expand3x3
I1129 19:00:02.108127  5014 net.cpp:151] Top shape: 64 64 56 56 (12845056)
I1129 19:00:02.108135  5014 net.cpp:159] Memory required for data: 714890752
I1129 19:00:02.108152  5014 layer_factory.hpp:77] Creating layer fire2/relu_expand3x3
I1129 19:00:02.108166  5014 net.cpp:94] Creating Layer fire2/relu_expand3x3
I1129 19:00:02.108175  5014 net.cpp:435] fire2/relu_expand3x3 <- fire2/expand3x3
I1129 19:00:02.108186  5014 net.cpp:396] fire2/relu_expand3x3 -> fire2/expand3x3 (in-place)
I1129 19:00:02.108201  5014 net.cpp:144] Setting up fire2/relu_expand3x3
I1129 19:00:02.108232  5014 net.cpp:151] Top shape: 64 64 56 56 (12845056)
I1129 19:00:02.108238  5014 net.cpp:159] Memory required for data: 766270976
I1129 19:00:02.108245  5014 layer_factory.hpp:77] Creating layer fire2/concat
I1129 19:00:02.108256  5014 net.cpp:94] Creating Layer fire2/concat
I1129 19:00:02.108263  5014 net.cpp:435] fire2/concat <- fire2/expand1x1
I1129 19:00:02.108273  5014 net.cpp:435] fire2/concat <- fire2/expand3x3
I1129 19:00:02.108283  5014 net.cpp:409] fire2/concat -> fire2/concat
I1129 19:00:02.108366  5014 net.cpp:144] Setting up fire2/concat
I1129 19:00:02.108376  5014 net.cpp:151] Top shape: 64 128 56 56 (25690112)
I1129 19:00:02.108383  5014 net.cpp:159] Memory required for data: 869031424
I1129 19:00:02.108391  5014 layer_factory.hpp:77] Creating layer fire3/squeeze1x1
I1129 19:00:02.108404  5014 net.cpp:94] Creating Layer fire3/squeeze1x1
I1129 19:00:02.108412  5014 net.cpp:435] fire3/squeeze1x1 <- fire2/concat
I1129 19:00:02.108423  5014 net.cpp:409] fire3/squeeze1x1 -> fire3/squeeze1x1
I1129 19:00:02.113200  5014 net.cpp:144] Setting up fire3/squeeze1x1
I1129 19:00:02.113260  5014 net.cpp:151] Top shape: 64 16 56 56 (3211264)
I1129 19:00:02.113270  5014 net.cpp:159] Memory required for data: 881876480
I1129 19:00:02.113301  5014 layer_factory.hpp:77] Creating layer fire3/relu_squeeze1x1
I1129 19:00:02.113320  5014 net.cpp:94] Creating Layer fire3/relu_squeeze1x1
I1129 19:00:02.113330  5014 net.cpp:435] fire3/relu_squeeze1x1 <- fire3/squeeze1x1
I1129 19:00:02.113343  5014 net.cpp:396] fire3/relu_squeeze1x1 -> fire3/squeeze1x1 (in-place)
I1129 19:00:02.113363  5014 net.cpp:144] Setting up fire3/relu_squeeze1x1
I1129 19:00:02.113373  5014 net.cpp:151] Top shape: 64 16 56 56 (3211264)
I1129 19:00:02.113381  5014 net.cpp:159] Memory required for data: 894721536
I1129 19:00:02.113389  5014 layer_factory.hpp:77] Creating layer fire3/squeeze1x1_fire3/relu_squeeze1x1_0_split
I1129 19:00:02.113401  5014 net.cpp:94] Creating Layer fire3/squeeze1x1_fire3/relu_squeeze1x1_0_split
I1129 19:00:02.113409  5014 net.cpp:435] fire3/squeeze1x1_fire3/relu_squeeze1x1_0_split <- fire3/squeeze1x1
I1129 19:00:02.113420  5014 net.cpp:409] fire3/squeeze1x1_fire3/relu_squeeze1x1_0_split -> fire3/squeeze1x1_fire3/relu_squeeze1x1_0_split_0
I1129 19:00:02.113433  5014 net.cpp:409] fire3/squeeze1x1_fire3/relu_squeeze1x1_0_split -> fire3/squeeze1x1_fire3/relu_squeeze1x1_0_split_1
I1129 19:00:02.113600  5014 net.cpp:144] Setting up fire3/squeeze1x1_fire3/relu_squeeze1x1_0_split
I1129 19:00:02.113611  5014 net.cpp:151] Top shape: 64 16 56 56 (3211264)
I1129 19:00:02.113621  5014 net.cpp:151] Top shape: 64 16 56 56 (3211264)
I1129 19:00:02.113628  5014 net.cpp:159] Memory required for data: 920411648
I1129 19:00:02.113636  5014 layer_factory.hpp:77] Creating layer fire3/expand1x1
I1129 19:00:02.113664  5014 net.cpp:94] Creating Layer fire3/expand1x1
I1129 19:00:02.113672  5014 net.cpp:435] fire3/expand1x1 <- fire3/squeeze1x1_fire3/relu_squeeze1x1_0_split_0
I1129 19:00:02.113685  5014 net.cpp:409] fire3/expand1x1 -> fire3/expand1x1
I1129 19:00:02.117264  5014 net.cpp:144] Setting up fire3/expand1x1
I1129 19:00:02.117322  5014 net.cpp:151] Top shape: 64 64 56 56 (12845056)
I1129 19:00:02.117331  5014 net.cpp:159] Memory required for data: 971791872
I1129 19:00:02.117353  5014 layer_factory.hpp:77] Creating layer fire3/relu_expand1x1
I1129 19:00:02.117373  5014 net.cpp:94] Creating Layer fire3/relu_expand1x1
I1129 19:00:02.117385  5014 net.cpp:435] fire3/relu_expand1x1 <- fire3/expand1x1
I1129 19:00:02.117398  5014 net.cpp:396] fire3/relu_expand1x1 -> fire3/expand1x1 (in-place)
I1129 19:00:02.117419  5014 net.cpp:144] Setting up fire3/relu_expand1x1
I1129 19:00:02.117427  5014 net.cpp:151] Top shape: 64 64 56 56 (12845056)
I1129 19:00:02.117435  5014 net.cpp:159] Memory required for data: 1023172096
I1129 19:00:02.117444  5014 layer_factory.hpp:77] Creating layer fire3/expand3x3
I1129 19:00:02.117463  5014 net.cpp:94] Creating Layer fire3/expand3x3
I1129 19:00:02.117473  5014 net.cpp:435] fire3/expand3x3 <- fire3/squeeze1x1_fire3/relu_squeeze1x1_0_split_1
I1129 19:00:02.117527  5014 net.cpp:409] fire3/expand3x3 -> fire3/expand3x3
I1129 19:00:02.141443  5014 net.cpp:144] Setting up fire3/expand3x3
I1129 19:00:02.148156  5014 net.cpp:151] Top shape: 64 64 56 56 (12845056)
I1129 19:00:02.148165  5014 net.cpp:159] Memory required for data: 1074552320
I1129 19:00:02.148186  5014 layer_factory.hpp:77] Creating layer fire3/relu_expand3x3
I1129 19:00:02.148207  5014 net.cpp:94] Creating Layer fire3/relu_expand3x3
I1129 19:00:02.148219  5014 net.cpp:435] fire3/relu_expand3x3 <- fire3/expand3x3
I1129 19:00:02.148233  5014 net.cpp:396] fire3/relu_expand3x3 -> fire3/expand3x3 (in-place)
I1129 19:00:02.148255  5014 net.cpp:144] Setting up fire3/relu_expand3x3
I1129 19:00:02.148265  5014 net.cpp:151] Top shape: 64 64 56 56 (12845056)
I1129 19:00:02.148272  5014 net.cpp:159] Memory required for data: 1125932544
I1129 19:00:02.148280  5014 layer_factory.hpp:77] Creating layer fire3/concat
I1129 19:00:02.148294  5014 net.cpp:94] Creating Layer fire3/concat
I1129 19:00:02.148303  5014 net.cpp:435] fire3/concat <- fire3/expand1x1
I1129 19:00:02.148311  5014 net.cpp:435] fire3/concat <- fire3/expand3x3
I1129 19:00:02.148324  5014 net.cpp:409] fire3/concat -> fire3/concat
I1129 19:00:02.148468  5014 net.cpp:144] Setting up fire3/concat
I1129 19:00:02.148479  5014 net.cpp:151] Top shape: 64 128 56 56 (25690112)
I1129 19:00:02.148486  5014 net.cpp:159] Memory required for data: 1228692992
I1129 19:00:02.148494  5014 layer_factory.hpp:77] Creating layer pool3
I1129 19:00:02.148509  5014 net.cpp:94] Creating Layer pool3
I1129 19:00:02.148517  5014 net.cpp:435] pool3 <- fire3/concat
I1129 19:00:02.148528  5014 net.cpp:409] pool3 -> pool3
I1129 19:00:02.148596  5014 net.cpp:144] Setting up pool3
I1129 19:00:02.148607  5014 net.cpp:151] Top shape: 64 128 28 28 (6422528)
I1129 19:00:02.148613  5014 net.cpp:159] Memory required for data: 1254383104
I1129 19:00:02.148622  5014 layer_factory.hpp:77] Creating layer fire4/squeeze1x1
I1129 19:00:02.148640  5014 net.cpp:94] Creating Layer fire4/squeeze1x1
I1129 19:00:02.148648  5014 net.cpp:435] fire4/squeeze1x1 <- pool3
I1129 19:00:02.148660  5014 net.cpp:409] fire4/squeeze1x1 -> fire4/squeeze1x1
I1129 19:00:02.164306  5014 net.cpp:144] Setting up fire4/squeeze1x1
I1129 19:00:02.164362  5014 net.cpp:151] Top shape: 64 32 28 28 (1605632)
I1129 19:00:02.164371  5014 net.cpp:159] Memory required for data: 1260805632
I1129 19:00:02.164392  5014 layer_factory.hpp:77] Creating layer fire4/relu_squeeze1x1
I1129 19:00:02.164412  5014 net.cpp:94] Creating Layer fire4/relu_squeeze1x1
I1129 19:00:02.164424  5014 net.cpp:435] fire4/relu_squeeze1x1 <- fire4/squeeze1x1
I1129 19:00:02.164438  5014 net.cpp:396] fire4/relu_squeeze1x1 -> fire4/squeeze1x1 (in-place)
I1129 19:00:02.164459  5014 net.cpp:144] Setting up fire4/relu_squeeze1x1
I1129 19:00:02.164469  5014 net.cpp:151] Top shape: 64 32 28 28 (1605632)
I1129 19:00:02.164475  5014 net.cpp:159] Memory required for data: 1267228160
I1129 19:00:02.164484  5014 layer_factory.hpp:77] Creating layer fire4/squeeze1x1_fire4/relu_squeeze1x1_0_split
I1129 19:00:02.164495  5014 net.cpp:94] Creating Layer fire4/squeeze1x1_fire4/relu_squeeze1x1_0_split
I1129 19:00:02.164504  5014 net.cpp:435] fire4/squeeze1x1_fire4/relu_squeeze1x1_0_split <- fire4/squeeze1x1
I1129 19:00:02.164515  5014 net.cpp:409] fire4/squeeze1x1_fire4/relu_squeeze1x1_0_split -> fire4/squeeze1x1_fire4/relu_squeeze1x1_0_split_0
I1129 19:00:02.164527  5014 net.cpp:409] fire4/squeeze1x1_fire4/relu_squeeze1x1_0_split -> fire4/squeeze1x1_fire4/relu_squeeze1x1_0_split_1
I1129 19:00:02.164688  5014 net.cpp:144] Setting up fire4/squeeze1x1_fire4/relu_squeeze1x1_0_split
I1129 19:00:02.164731  5014 net.cpp:151] Top shape: 64 32 28 28 (1605632)
I1129 19:00:02.164741  5014 net.cpp:151] Top shape: 64 32 28 28 (1605632)
I1129 19:00:02.164748  5014 net.cpp:159] Memory required for data: 1280073216
I1129 19:00:02.164757  5014 layer_factory.hpp:77] Creating layer fire4/expand1x1
I1129 19:00:02.164777  5014 net.cpp:94] Creating Layer fire4/expand1x1
I1129 19:00:02.164827  5014 net.cpp:435] fire4/expand1x1 <- fire4/squeeze1x1_fire4/relu_squeeze1x1_0_split_0
I1129 19:00:02.164840  5014 net.cpp:409] fire4/expand1x1 -> fire4/expand1x1
I1129 19:00:02.172854  5014 net.cpp:144] Setting up fire4/expand1x1
I1129 19:00:02.172907  5014 net.cpp:151] Top shape: 64 128 28 28 (6422528)
I1129 19:00:02.172915  5014 net.cpp:159] Memory required for data: 1305763328
I1129 19:00:02.172948  5014 layer_factory.hpp:77] Creating layer fire4/relu_expand1x1
I1129 19:00:02.172967  5014 net.cpp:94] Creating Layer fire4/relu_expand1x1
I1129 19:00:02.172978  5014 net.cpp:435] fire4/relu_expand1x1 <- fire4/expand1x1
I1129 19:00:02.172991  5014 net.cpp:396] fire4/relu_expand1x1 -> fire4/expand1x1 (in-place)
I1129 19:00:02.173012  5014 net.cpp:144] Setting up fire4/relu_expand1x1
I1129 19:00:02.173020  5014 net.cpp:151] Top shape: 64 128 28 28 (6422528)
I1129 19:00:02.173027  5014 net.cpp:159] Memory required for data: 1331453440
I1129 19:00:02.173035  5014 layer_factory.hpp:77] Creating layer fire4/expand3x3
I1129 19:00:02.173053  5014 net.cpp:94] Creating Layer fire4/expand3x3
I1129 19:00:02.173061  5014 net.cpp:435] fire4/expand3x3 <- fire4/squeeze1x1_fire4/relu_squeeze1x1_0_split_1
I1129 19:00:02.173074  5014 net.cpp:409] fire4/expand3x3 -> fire4/expand3x3
I1129 19:00:02.189527  5014 net.cpp:144] Setting up fire4/expand3x3
I1129 19:00:02.189575  5014 net.cpp:151] Top shape: 64 128 28 28 (6422528)
I1129 19:00:02.189584  5014 net.cpp:159] Memory required for data: 1357143552
I1129 19:00:02.189604  5014 layer_factory.hpp:77] Creating layer fire4/relu_expand3x3
I1129 19:00:02.189620  5014 net.cpp:94] Creating Layer fire4/relu_expand3x3
I1129 19:00:02.189631  5014 net.cpp:435] fire4/relu_expand3x3 <- fire4/expand3x3
I1129 19:00:02.189643  5014 net.cpp:396] fire4/relu_expand3x3 -> fire4/expand3x3 (in-place)
I1129 19:00:02.189662  5014 net.cpp:144] Setting up fire4/relu_expand3x3
I1129 19:00:02.189671  5014 net.cpp:151] Top shape: 64 128 28 28 (6422528)
I1129 19:00:02.189679  5014 net.cpp:159] Memory required for data: 1382833664
I1129 19:00:02.189687  5014 layer_factory.hpp:77] Creating layer fire4/concat
I1129 19:00:02.189699  5014 net.cpp:94] Creating Layer fire4/concat
I1129 19:00:02.189707  5014 net.cpp:435] fire4/concat <- fire4/expand1x1
I1129 19:00:02.189715  5014 net.cpp:435] fire4/concat <- fire4/expand3x3
I1129 19:00:02.189726  5014 net.cpp:409] fire4/concat -> fire4/concat
I1129 19:00:02.189846  5014 net.cpp:144] Setting up fire4/concat
I1129 19:00:02.189858  5014 net.cpp:151] Top shape: 64 256 28 28 (12845056)
I1129 19:00:02.189867  5014 net.cpp:159] Memory required for data: 1434213888
I1129 19:00:02.189873  5014 layer_factory.hpp:77] Creating layer fire5/squeeze1x1
I1129 19:00:02.189890  5014 net.cpp:94] Creating Layer fire5/squeeze1x1
I1129 19:00:02.189898  5014 net.cpp:435] fire5/squeeze1x1 <- fire4/concat
I1129 19:00:02.189910  5014 net.cpp:409] fire5/squeeze1x1 -> fire5/squeeze1x1
I1129 19:00:02.193084  5014 net.cpp:144] Setting up fire5/squeeze1x1
I1129 19:00:02.193104  5014 net.cpp:151] Top shape: 64 32 28 28 (1605632)
I1129 19:00:02.193112  5014 net.cpp:159] Memory required for data: 1440636416
I1129 19:00:02.193125  5014 layer_factory.hpp:77] Creating layer fire5/relu_squeeze1x1
I1129 19:00:02.193137  5014 net.cpp:94] Creating Layer fire5/relu_squeeze1x1
I1129 19:00:02.193145  5014 net.cpp:435] fire5/relu_squeeze1x1 <- fire5/squeeze1x1
I1129 19:00:02.193156  5014 net.cpp:396] fire5/relu_squeeze1x1 -> fire5/squeeze1x1 (in-place)
I1129 19:00:02.193169  5014 net.cpp:144] Setting up fire5/relu_squeeze1x1
I1129 19:00:02.193178  5014 net.cpp:151] Top shape: 64 32 28 28 (1605632)
I1129 19:00:02.193186  5014 net.cpp:159] Memory required for data: 1447058944
I1129 19:00:02.193193  5014 layer_factory.hpp:77] Creating layer fire5/squeeze1x1_fire5/relu_squeeze1x1_0_split
I1129 19:00:02.193215  5014 net.cpp:94] Creating Layer fire5/squeeze1x1_fire5/relu_squeeze1x1_0_split
I1129 19:00:02.193222  5014 net.cpp:435] fire5/squeeze1x1_fire5/relu_squeeze1x1_0_split <- fire5/squeeze1x1
I1129 19:00:02.193258  5014 net.cpp:409] fire5/squeeze1x1_fire5/relu_squeeze1x1_0_split -> fire5/squeeze1x1_fire5/relu_squeeze1x1_0_split_0
I1129 19:00:02.193269  5014 net.cpp:409] fire5/squeeze1x1_fire5/relu_squeeze1x1_0_split -> fire5/squeeze1x1_fire5/relu_squeeze1x1_0_split_1
I1129 19:00:02.193341  5014 net.cpp:144] Setting up fire5/squeeze1x1_fire5/relu_squeeze1x1_0_split
I1129 19:00:02.193352  5014 net.cpp:151] Top shape: 64 32 28 28 (1605632)
I1129 19:00:02.193361  5014 net.cpp:151] Top shape: 64 32 28 28 (1605632)
I1129 19:00:02.193368  5014 net.cpp:159] Memory required for data: 1459904000
I1129 19:00:02.193377  5014 layer_factory.hpp:77] Creating layer fire5/expand1x1
I1129 19:00:02.193390  5014 net.cpp:94] Creating Layer fire5/expand1x1
I1129 19:00:02.193398  5014 net.cpp:435] fire5/expand1x1 <- fire5/squeeze1x1_fire5/relu_squeeze1x1_0_split_0
I1129 19:00:02.193409  5014 net.cpp:409] fire5/expand1x1 -> fire5/expand1x1
I1129 19:00:02.195786  5014 net.cpp:144] Setting up fire5/expand1x1
I1129 19:00:02.195803  5014 net.cpp:151] Top shape: 64 128 28 28 (6422528)
I1129 19:00:02.195811  5014 net.cpp:159] Memory required for data: 1485594112
I1129 19:00:02.195824  5014 layer_factory.hpp:77] Creating layer fire5/relu_expand1x1
I1129 19:00:02.195837  5014 net.cpp:94] Creating Layer fire5/relu_expand1x1
I1129 19:00:02.195844  5014 net.cpp:435] fire5/relu_expand1x1 <- fire5/expand1x1
I1129 19:00:02.195857  5014 net.cpp:396] fire5/relu_expand1x1 -> fire5/expand1x1 (in-place)
I1129 19:00:02.195869  5014 net.cpp:144] Setting up fire5/relu_expand1x1
I1129 19:00:02.195878  5014 net.cpp:151] Top shape: 64 128 28 28 (6422528)
I1129 19:00:02.195885  5014 net.cpp:159] Memory required for data: 1511284224
I1129 19:00:02.195893  5014 layer_factory.hpp:77] Creating layer fire5/expand3x3
I1129 19:00:02.195907  5014 net.cpp:94] Creating Layer fire5/expand3x3
I1129 19:00:02.195915  5014 net.cpp:435] fire5/expand3x3 <- fire5/squeeze1x1_fire5/relu_squeeze1x1_0_split_1
I1129 19:00:02.195926  5014 net.cpp:409] fire5/expand3x3 -> fire5/expand3x3
I1129 19:00:02.202307  5014 net.cpp:144] Setting up fire5/expand3x3
I1129 19:00:02.202353  5014 net.cpp:151] Top shape: 64 128 28 28 (6422528)
I1129 19:00:02.202360  5014 net.cpp:159] Memory required for data: 1536974336
I1129 19:00:02.202380  5014 layer_factory.hpp:77] Creating layer fire5/relu_expand3x3
I1129 19:00:02.202399  5014 net.cpp:94] Creating Layer fire5/relu_expand3x3
I1129 19:00:02.202409  5014 net.cpp:435] fire5/relu_expand3x3 <- fire5/expand3x3
I1129 19:00:02.202421  5014 net.cpp:396] fire5/relu_expand3x3 -> fire5/expand3x3 (in-place)
I1129 19:00:02.202440  5014 net.cpp:144] Setting up fire5/relu_expand3x3
I1129 19:00:02.202450  5014 net.cpp:151] Top shape: 64 128 28 28 (6422528)
I1129 19:00:02.202456  5014 net.cpp:159] Memory required for data: 1562664448
I1129 19:00:02.202463  5014 layer_factory.hpp:77] Creating layer fire5/concat
I1129 19:00:02.202476  5014 net.cpp:94] Creating Layer fire5/concat
I1129 19:00:02.202483  5014 net.cpp:435] fire5/concat <- fire5/expand1x1
I1129 19:00:02.202492  5014 net.cpp:435] fire5/concat <- fire5/expand3x3
I1129 19:00:02.202503  5014 net.cpp:409] fire5/concat -> fire5/concat
I1129 19:00:02.202616  5014 net.cpp:144] Setting up fire5/concat
I1129 19:00:02.202626  5014 net.cpp:151] Top shape: 64 256 28 28 (12845056)
I1129 19:00:02.202635  5014 net.cpp:159] Memory required for data: 1614044672
I1129 19:00:02.202641  5014 layer_factory.hpp:77] Creating layer pool5
I1129 19:00:02.202656  5014 net.cpp:94] Creating Layer pool5
I1129 19:00:02.202662  5014 net.cpp:435] pool5 <- fire5/concat
I1129 19:00:02.202672  5014 net.cpp:409] pool5 -> pool5
I1129 19:00:02.202736  5014 net.cpp:144] Setting up pool5
I1129 19:00:02.202746  5014 net.cpp:151] Top shape: 64 256 14 14 (3211264)
I1129 19:00:02.202754  5014 net.cpp:159] Memory required for data: 1626889728
I1129 19:00:02.202760  5014 layer_factory.hpp:77] Creating layer fire6/squeeze1x1
I1129 19:00:02.202778  5014 net.cpp:94] Creating Layer fire6/squeeze1x1
I1129 19:00:02.202785  5014 net.cpp:435] fire6/squeeze1x1 <- pool5
I1129 19:00:02.202831  5014 net.cpp:409] fire6/squeeze1x1 -> fire6/squeeze1x1
I1129 19:00:02.207131  5014 net.cpp:144] Setting up fire6/squeeze1x1
I1129 19:00:02.207166  5014 net.cpp:151] Top shape: 64 48 14 14 (602112)
I1129 19:00:02.207175  5014 net.cpp:159] Memory required for data: 1629298176
I1129 19:00:02.207192  5014 layer_factory.hpp:77] Creating layer fire6/relu_squeeze1x1
I1129 19:00:02.207209  5014 net.cpp:94] Creating Layer fire6/relu_squeeze1x1
I1129 19:00:02.207221  5014 net.cpp:435] fire6/relu_squeeze1x1 <- fire6/squeeze1x1
I1129 19:00:02.207232  5014 net.cpp:396] fire6/relu_squeeze1x1 -> fire6/squeeze1x1 (in-place)
I1129 19:00:02.207249  5014 net.cpp:144] Setting up fire6/relu_squeeze1x1
I1129 19:00:02.207259  5014 net.cpp:151] Top shape: 64 48 14 14 (602112)
I1129 19:00:02.207267  5014 net.cpp:159] Memory required for data: 1631706624
I1129 19:00:02.207273  5014 layer_factory.hpp:77] Creating layer fire6/squeeze1x1_fire6/relu_squeeze1x1_0_split
I1129 19:00:02.207283  5014 net.cpp:94] Creating Layer fire6/squeeze1x1_fire6/relu_squeeze1x1_0_split
I1129 19:00:02.207290  5014 net.cpp:435] fire6/squeeze1x1_fire6/relu_squeeze1x1_0_split <- fire6/squeeze1x1
I1129 19:00:02.207301  5014 net.cpp:409] fire6/squeeze1x1_fire6/relu_squeeze1x1_0_split -> fire6/squeeze1x1_fire6/relu_squeeze1x1_0_split_0
I1129 19:00:02.207314  5014 net.cpp:409] fire6/squeeze1x1_fire6/relu_squeeze1x1_0_split -> fire6/squeeze1x1_fire6/relu_squeeze1x1_0_split_1
I1129 19:00:02.207449  5014 net.cpp:144] Setting up fire6/squeeze1x1_fire6/relu_squeeze1x1_0_split
I1129 19:00:02.207460  5014 net.cpp:151] Top shape: 64 48 14 14 (602112)
I1129 19:00:02.207468  5014 net.cpp:151] Top shape: 64 48 14 14 (602112)
I1129 19:00:02.207475  5014 net.cpp:159] Memory required for data: 1636523520
I1129 19:00:02.207484  5014 layer_factory.hpp:77] Creating layer fire6/expand1x1
I1129 19:00:02.207499  5014 net.cpp:94] Creating Layer fire6/expand1x1
I1129 19:00:02.207507  5014 net.cpp:435] fire6/expand1x1 <- fire6/squeeze1x1_fire6/relu_squeeze1x1_0_split_0
I1129 19:00:02.207517  5014 net.cpp:409] fire6/expand1x1 -> fire6/expand1x1
I1129 19:00:02.214361  5014 net.cpp:144] Setting up fire6/expand1x1
I1129 19:00:02.214392  5014 net.cpp:151] Top shape: 64 192 14 14 (2408448)
I1129 19:00:02.214401  5014 net.cpp:159] Memory required for data: 1646157312
I1129 19:00:02.214419  5014 layer_factory.hpp:77] Creating layer fire6/relu_expand1x1
I1129 19:00:02.214434  5014 net.cpp:94] Creating Layer fire6/relu_expand1x1
I1129 19:00:02.214444  5014 net.cpp:435] fire6/relu_expand1x1 <- fire6/expand1x1
I1129 19:00:02.214457  5014 net.cpp:396] fire6/relu_expand1x1 -> fire6/expand1x1 (in-place)
I1129 19:00:02.214474  5014 net.cpp:144] Setting up fire6/relu_expand1x1
I1129 19:00:02.214483  5014 net.cpp:151] Top shape: 64 192 14 14 (2408448)
I1129 19:00:02.214490  5014 net.cpp:159] Memory required for data: 1655791104
I1129 19:00:02.214498  5014 layer_factory.hpp:77] Creating layer fire6/expand3x3
I1129 19:00:02.214514  5014 net.cpp:94] Creating Layer fire6/expand3x3
I1129 19:00:02.214522  5014 net.cpp:435] fire6/expand3x3 <- fire6/squeeze1x1_fire6/relu_squeeze1x1_0_split_1
I1129 19:00:02.214534  5014 net.cpp:409] fire6/expand3x3 -> fire6/expand3x3
I1129 19:00:02.230777  5014 net.cpp:144] Setting up fire6/expand3x3
I1129 19:00:02.230810  5014 net.cpp:151] Top shape: 64 192 14 14 (2408448)
I1129 19:00:02.230819  5014 net.cpp:159] Memory required for data: 1665424896
I1129 19:00:02.230837  5014 layer_factory.hpp:77] Creating layer fire6/relu_expand3x3
I1129 19:00:02.230854  5014 net.cpp:94] Creating Layer fire6/relu_expand3x3
I1129 19:00:02.230865  5014 net.cpp:435] fire6/relu_expand3x3 <- fire6/expand3x3
I1129 19:00:02.230876  5014 net.cpp:396] fire6/relu_expand3x3 -> fire6/expand3x3 (in-place)
I1129 19:00:02.230893  5014 net.cpp:144] Setting up fire6/relu_expand3x3
I1129 19:00:02.230902  5014 net.cpp:151] Top shape: 64 192 14 14 (2408448)
I1129 19:00:02.230909  5014 net.cpp:159] Memory required for data: 1675058688
I1129 19:00:02.230917  5014 layer_factory.hpp:77] Creating layer fire6/concat
I1129 19:00:02.230950  5014 net.cpp:94] Creating Layer fire6/concat
I1129 19:00:02.230958  5014 net.cpp:435] fire6/concat <- fire6/expand1x1
I1129 19:00:02.230967  5014 net.cpp:435] fire6/concat <- fire6/expand3x3
I1129 19:00:02.230978  5014 net.cpp:409] fire6/concat -> fire6/concat
I1129 19:00:02.231088  5014 net.cpp:144] Setting up fire6/concat
I1129 19:00:02.231098  5014 net.cpp:151] Top shape: 64 384 14 14 (4816896)
I1129 19:00:02.231106  5014 net.cpp:159] Memory required for data: 1694326272
I1129 19:00:02.231112  5014 layer_factory.hpp:77] Creating layer fire7/squeeze1x1
I1129 19:00:02.231128  5014 net.cpp:94] Creating Layer fire7/squeeze1x1
I1129 19:00:02.231135  5014 net.cpp:435] fire7/squeeze1x1 <- fire6/concat
I1129 19:00:02.231145  5014 net.cpp:409] fire7/squeeze1x1 -> fire7/squeeze1x1
I1129 19:00:02.235684  5014 net.cpp:144] Setting up fire7/squeeze1x1
I1129 19:00:02.235716  5014 net.cpp:151] Top shape: 64 48 14 14 (602112)
I1129 19:00:02.235724  5014 net.cpp:159] Memory required for data: 1696734720
I1129 19:00:02.235755  5014 layer_factory.hpp:77] Creating layer fire7/relu_squeeze1x1
I1129 19:00:02.235771  5014 net.cpp:94] Creating Layer fire7/relu_squeeze1x1
I1129 19:00:02.235781  5014 net.cpp:435] fire7/relu_squeeze1x1 <- fire7/squeeze1x1
I1129 19:00:02.235793  5014 net.cpp:396] fire7/relu_squeeze1x1 -> fire7/squeeze1x1 (in-place)
I1129 19:00:02.235810  5014 net.cpp:144] Setting up fire7/relu_squeeze1x1
I1129 19:00:02.235819  5014 net.cpp:151] Top shape: 64 48 14 14 (602112)
I1129 19:00:02.235826  5014 net.cpp:159] Memory required for data: 1699143168
I1129 19:00:02.235834  5014 layer_factory.hpp:77] Creating layer fire7/squeeze1x1_fire7/relu_squeeze1x1_0_split
I1129 19:00:02.235846  5014 net.cpp:94] Creating Layer fire7/squeeze1x1_fire7/relu_squeeze1x1_0_split
I1129 19:00:02.235852  5014 net.cpp:435] fire7/squeeze1x1_fire7/relu_squeeze1x1_0_split <- fire7/squeeze1x1
I1129 19:00:02.235862  5014 net.cpp:409] fire7/squeeze1x1_fire7/relu_squeeze1x1_0_split -> fire7/squeeze1x1_fire7/relu_squeeze1x1_0_split_0
I1129 19:00:02.235873  5014 net.cpp:409] fire7/squeeze1x1_fire7/relu_squeeze1x1_0_split -> fire7/squeeze1x1_fire7/relu_squeeze1x1_0_split_1
I1129 19:00:02.235998  5014 net.cpp:144] Setting up fire7/squeeze1x1_fire7/relu_squeeze1x1_0_split
I1129 19:00:02.236009  5014 net.cpp:151] Top shape: 64 48 14 14 (602112)
I1129 19:00:02.236018  5014 net.cpp:151] Top shape: 64 48 14 14 (602112)
I1129 19:00:02.236026  5014 net.cpp:159] Memory required for data: 1703960064
I1129 19:00:02.236032  5014 layer_factory.hpp:77] Creating layer fire7/expand1x1
I1129 19:00:02.236049  5014 net.cpp:94] Creating Layer fire7/expand1x1
I1129 19:00:02.236057  5014 net.cpp:435] fire7/expand1x1 <- fire7/squeeze1x1_fire7/relu_squeeze1x1_0_split_0
I1129 19:00:02.236068  5014 net.cpp:409] fire7/expand1x1 -> fire7/expand1x1
I1129 19:00:02.246274  5014 net.cpp:144] Setting up fire7/expand1x1
I1129 19:00:02.246310  5014 net.cpp:151] Top shape: 64 192 14 14 (2408448)
I1129 19:00:02.246320  5014 net.cpp:159] Memory required for data: 1713593856
I1129 19:00:02.246338  5014 layer_factory.hpp:77] Creating layer fire7/relu_expand1x1
I1129 19:00:02.246356  5014 net.cpp:94] Creating Layer fire7/relu_expand1x1
I1129 19:00:02.246366  5014 net.cpp:435] fire7/relu_expand1x1 <- fire7/expand1x1
I1129 19:00:02.246378  5014 net.cpp:396] fire7/relu_expand1x1 -> fire7/expand1x1 (in-place)
I1129 19:00:02.246397  5014 net.cpp:144] Setting up fire7/relu_expand1x1
I1129 19:00:02.246407  5014 net.cpp:151] Top shape: 64 192 14 14 (2408448)
I1129 19:00:02.246414  5014 net.cpp:159] Memory required for data: 1723227648
I1129 19:00:02.246421  5014 layer_factory.hpp:77] Creating layer fire7/expand3x3
I1129 19:00:02.246439  5014 net.cpp:94] Creating Layer fire7/expand3x3
I1129 19:00:02.246448  5014 net.cpp:435] fire7/expand3x3 <- fire7/squeeze1x1_fire7/relu_squeeze1x1_0_split_1
I1129 19:00:02.246459  5014 net.cpp:409] fire7/expand3x3 -> fire7/expand3x3
I1129 19:00:02.255972  5014 net.cpp:144] Setting up fire7/expand3x3
I1129 19:00:02.256041  5014 net.cpp:151] Top shape: 64 192 14 14 (2408448)
I1129 19:00:02.256058  5014 net.cpp:159] Memory required for data: 1732861440
I1129 19:00:02.256075  5014 layer_factory.hpp:77] Creating layer fire7/relu_expand3x3
I1129 19:00:02.256089  5014 net.cpp:94] Creating Layer fire7/relu_expand3x3
I1129 19:00:02.256099  5014 net.cpp:435] fire7/relu_expand3x3 <- fire7/expand3x3
I1129 19:00:02.256110  5014 net.cpp:396] fire7/relu_expand3x3 -> fire7/expand3x3 (in-place)
I1129 19:00:02.256127  5014 net.cpp:144] Setting up fire7/relu_expand3x3
I1129 19:00:02.256136  5014 net.cpp:151] Top shape: 64 192 14 14 (2408448)
I1129 19:00:02.256144  5014 net.cpp:159] Memory required for data: 1742495232
I1129 19:00:02.256150  5014 layer_factory.hpp:77] Creating layer fire7/concat
I1129 19:00:02.256160  5014 net.cpp:94] Creating Layer fire7/concat
I1129 19:00:02.256167  5014 net.cpp:435] fire7/concat <- fire7/expand1x1
I1129 19:00:02.256175  5014 net.cpp:435] fire7/concat <- fire7/expand3x3
I1129 19:00:02.256186  5014 net.cpp:409] fire7/concat -> fire7/concat
I1129 19:00:02.256278  5014 net.cpp:144] Setting up fire7/concat
I1129 19:00:02.256289  5014 net.cpp:151] Top shape: 64 384 14 14 (4816896)
I1129 19:00:02.256295  5014 net.cpp:159] Memory required for data: 1761762816
I1129 19:00:02.256302  5014 layer_factory.hpp:77] Creating layer fire8/squeeze1x1
I1129 19:00:02.256316  5014 net.cpp:94] Creating Layer fire8/squeeze1x1
I1129 19:00:02.256325  5014 net.cpp:435] fire8/squeeze1x1 <- fire7/concat
I1129 19:00:02.256335  5014 net.cpp:409] fire8/squeeze1x1 -> fire8/squeeze1x1
I1129 19:00:02.258908  5014 net.cpp:144] Setting up fire8/squeeze1x1
I1129 19:00:02.258929  5014 net.cpp:151] Top shape: 64 64 14 14 (802816)
I1129 19:00:02.258946  5014 net.cpp:159] Memory required for data: 1764974080
I1129 19:00:02.258965  5014 layer_factory.hpp:77] Creating layer fire8/relu_squeeze1x1
I1129 19:00:02.258980  5014 net.cpp:94] Creating Layer fire8/relu_squeeze1x1
I1129 19:00:02.258991  5014 net.cpp:435] fire8/relu_squeeze1x1 <- fire8/squeeze1x1
I1129 19:00:02.259006  5014 net.cpp:396] fire8/relu_squeeze1x1 -> fire8/squeeze1x1 (in-place)
I1129 19:00:02.259023  5014 net.cpp:144] Setting up fire8/relu_squeeze1x1
I1129 19:00:02.259037  5014 net.cpp:151] Top shape: 64 64 14 14 (802816)
I1129 19:00:02.259047  5014 net.cpp:159] Memory required for data: 1768185344
I1129 19:00:02.259058  5014 layer_factory.hpp:77] Creating layer fire8/squeeze1x1_fire8/relu_squeeze1x1_0_split
I1129 19:00:02.259073  5014 net.cpp:94] Creating Layer fire8/squeeze1x1_fire8/relu_squeeze1x1_0_split
I1129 19:00:02.259085  5014 net.cpp:435] fire8/squeeze1x1_fire8/relu_squeeze1x1_0_split <- fire8/squeeze1x1
I1129 19:00:02.259100  5014 net.cpp:409] fire8/squeeze1x1_fire8/relu_squeeze1x1_0_split -> fire8/squeeze1x1_fire8/relu_squeeze1x1_0_split_0
I1129 19:00:02.259119  5014 net.cpp:409] fire8/squeeze1x1_fire8/relu_squeeze1x1_0_split -> fire8/squeeze1x1_fire8/relu_squeeze1x1_0_split_1
I1129 19:00:02.259176  5014 net.cpp:144] Setting up fire8/squeeze1x1_fire8/relu_squeeze1x1_0_split
I1129 19:00:02.259186  5014 net.cpp:151] Top shape: 64 64 14 14 (802816)
I1129 19:00:02.259194  5014 net.cpp:151] Top shape: 64 64 14 14 (802816)
I1129 19:00:02.259202  5014 net.cpp:159] Memory required for data: 1774607872
I1129 19:00:02.259208  5014 layer_factory.hpp:77] Creating layer fire8/expand1x1
I1129 19:00:02.259220  5014 net.cpp:94] Creating Layer fire8/expand1x1
I1129 19:00:02.259227  5014 net.cpp:435] fire8/expand1x1 <- fire8/squeeze1x1_fire8/relu_squeeze1x1_0_split_0
I1129 19:00:02.259238  5014 net.cpp:409] fire8/expand1x1 -> fire8/expand1x1
I1129 19:00:02.264875  5014 net.cpp:144] Setting up fire8/expand1x1
I1129 19:00:02.264905  5014 net.cpp:151] Top shape: 64 256 14 14 (3211264)
I1129 19:00:02.264917  5014 net.cpp:159] Memory required for data: 1787452928
I1129 19:00:02.264936  5014 layer_factory.hpp:77] Creating layer fire8/relu_expand1x1
I1129 19:00:02.264952  5014 net.cpp:94] Creating Layer fire8/relu_expand1x1
I1129 19:00:02.264966  5014 net.cpp:435] fire8/relu_expand1x1 <- fire8/expand1x1
I1129 19:00:02.265007  5014 net.cpp:396] fire8/relu_expand1x1 -> fire8/expand1x1 (in-place)
I1129 19:00:02.265022  5014 net.cpp:144] Setting up fire8/relu_expand1x1
I1129 19:00:02.265030  5014 net.cpp:151] Top shape: 64 256 14 14 (3211264)
I1129 19:00:02.265038  5014 net.cpp:159] Memory required for data: 1800297984
I1129 19:00:02.265044  5014 layer_factory.hpp:77] Creating layer fire8/expand3x3
I1129 19:00:02.265059  5014 net.cpp:94] Creating Layer fire8/expand3x3
I1129 19:00:02.265066  5014 net.cpp:435] fire8/expand3x3 <- fire8/squeeze1x1_fire8/relu_squeeze1x1_0_split_1
I1129 19:00:02.265077  5014 net.cpp:409] fire8/expand3x3 -> fire8/expand3x3
I1129 19:00:02.273227  5014 net.cpp:144] Setting up fire8/expand3x3
I1129 19:00:02.273255  5014 net.cpp:151] Top shape: 64 256 14 14 (3211264)
I1129 19:00:02.273267  5014 net.cpp:159] Memory required for data: 1813143040
I1129 19:00:02.273285  5014 layer_factory.hpp:77] Creating layer fire8/relu_expand3x3
I1129 19:00:02.273303  5014 net.cpp:94] Creating Layer fire8/relu_expand3x3
I1129 19:00:02.273316  5014 net.cpp:435] fire8/relu_expand3x3 <- fire8/expand3x3
I1129 19:00:02.273331  5014 net.cpp:396] fire8/relu_expand3x3 -> fire8/expand3x3 (in-place)
I1129 19:00:02.273350  5014 net.cpp:144] Setting up fire8/relu_expand3x3
I1129 19:00:02.273367  5014 net.cpp:151] Top shape: 64 256 14 14 (3211264)
I1129 19:00:02.273375  5014 net.cpp:159] Memory required for data: 1825988096
I1129 19:00:02.273381  5014 layer_factory.hpp:77] Creating layer fire8/concat
I1129 19:00:02.273391  5014 net.cpp:94] Creating Layer fire8/concat
I1129 19:00:02.273398  5014 net.cpp:435] fire8/concat <- fire8/expand1x1
I1129 19:00:02.273406  5014 net.cpp:435] fire8/concat <- fire8/expand3x3
I1129 19:00:02.273416  5014 net.cpp:409] fire8/concat -> fire8/concat
I1129 19:00:02.273460  5014 net.cpp:144] Setting up fire8/concat
I1129 19:00:02.273470  5014 net.cpp:151] Top shape: 64 512 14 14 (6422528)
I1129 19:00:02.273478  5014 net.cpp:159] Memory required for data: 1851678208
I1129 19:00:02.273484  5014 layer_factory.hpp:77] Creating layer fire9/squeeze1x1
I1129 19:00:02.273497  5014 net.cpp:94] Creating Layer fire9/squeeze1x1
I1129 19:00:02.273504  5014 net.cpp:435] fire9/squeeze1x1 <- fire8/concat
I1129 19:00:02.273514  5014 net.cpp:409] fire9/squeeze1x1 -> fire9/squeeze1x1
I1129 19:00:02.276199  5014 net.cpp:144] Setting up fire9/squeeze1x1
I1129 19:00:02.276214  5014 net.cpp:151] Top shape: 64 64 14 14 (802816)
I1129 19:00:02.276222  5014 net.cpp:159] Memory required for data: 1854889472
I1129 19:00:02.276233  5014 layer_factory.hpp:77] Creating layer fire9/relu_squeeze1x1
I1129 19:00:02.276260  5014 net.cpp:94] Creating Layer fire9/relu_squeeze1x1
I1129 19:00:02.276268  5014 net.cpp:435] fire9/relu_squeeze1x1 <- fire9/squeeze1x1
I1129 19:00:02.276278  5014 net.cpp:396] fire9/relu_squeeze1x1 -> fire9/squeeze1x1 (in-place)
I1129 19:00:02.276290  5014 net.cpp:144] Setting up fire9/relu_squeeze1x1
I1129 19:00:02.276298  5014 net.cpp:151] Top shape: 64 64 14 14 (802816)
I1129 19:00:02.276305  5014 net.cpp:159] Memory required for data: 1858100736
I1129 19:00:02.276314  5014 layer_factory.hpp:77] Creating layer fire9/squeeze1x1_fire9/relu_squeeze1x1_0_split
I1129 19:00:02.276324  5014 net.cpp:94] Creating Layer fire9/squeeze1x1_fire9/relu_squeeze1x1_0_split
I1129 19:00:02.276330  5014 net.cpp:435] fire9/squeeze1x1_fire9/relu_squeeze1x1_0_split <- fire9/squeeze1x1
I1129 19:00:02.276340  5014 net.cpp:409] fire9/squeeze1x1_fire9/relu_squeeze1x1_0_split -> fire9/squeeze1x1_fire9/relu_squeeze1x1_0_split_0
I1129 19:00:02.276350  5014 net.cpp:409] fire9/squeeze1x1_fire9/relu_squeeze1x1_0_split -> fire9/squeeze1x1_fire9/relu_squeeze1x1_0_split_1
I1129 19:00:02.276409  5014 net.cpp:144] Setting up fire9/squeeze1x1_fire9/relu_squeeze1x1_0_split
I1129 19:00:02.276419  5014 net.cpp:151] Top shape: 64 64 14 14 (802816)
I1129 19:00:02.276428  5014 net.cpp:151] Top shape: 64 64 14 14 (802816)
I1129 19:00:02.276437  5014 net.cpp:159] Memory required for data: 1864523264
I1129 19:00:02.276443  5014 layer_factory.hpp:77] Creating layer fire9/expand1x1
I1129 19:00:02.276476  5014 net.cpp:94] Creating Layer fire9/expand1x1
I1129 19:00:02.276484  5014 net.cpp:435] fire9/expand1x1 <- fire9/squeeze1x1_fire9/relu_squeeze1x1_0_split_0
I1129 19:00:02.276495  5014 net.cpp:409] fire9/expand1x1 -> fire9/expand1x1
I1129 19:00:02.279075  5014 net.cpp:144] Setting up fire9/expand1x1
I1129 19:00:02.279094  5014 net.cpp:151] Top shape: 64 256 14 14 (3211264)
I1129 19:00:02.279106  5014 net.cpp:159] Memory required for data: 1877368320
I1129 19:00:02.279124  5014 layer_factory.hpp:77] Creating layer fire9/relu_expand1x1
I1129 19:00:02.279137  5014 net.cpp:94] Creating Layer fire9/relu_expand1x1
I1129 19:00:02.279150  5014 net.cpp:435] fire9/relu_expand1x1 <- fire9/expand1x1
I1129 19:00:02.279163  5014 net.cpp:396] fire9/relu_expand1x1 -> fire9/expand1x1 (in-place)
I1129 19:00:02.279181  5014 net.cpp:144] Setting up fire9/relu_expand1x1
I1129 19:00:02.279194  5014 net.cpp:151] Top shape: 64 256 14 14 (3211264)
I1129 19:00:02.279204  5014 net.cpp:159] Memory required for data: 1890213376
I1129 19:00:02.279216  5014 layer_factory.hpp:77] Creating layer fire9/expand3x3
I1129 19:00:02.279232  5014 net.cpp:94] Creating Layer fire9/expand3x3
I1129 19:00:02.279244  5014 net.cpp:435] fire9/expand3x3 <- fire9/squeeze1x1_fire9/relu_squeeze1x1_0_split_1
I1129 19:00:02.279260  5014 net.cpp:409] fire9/expand3x3 -> fire9/expand3x3
I1129 19:00:02.289690  5014 net.cpp:144] Setting up fire9/expand3x3
I1129 19:00:02.289718  5014 net.cpp:151] Top shape: 64 256 14 14 (3211264)
I1129 19:00:02.289731  5014 net.cpp:159] Memory required for data: 1903058432
I1129 19:00:02.289749  5014 layer_factory.hpp:77] Creating layer fire9/relu_expand3x3
I1129 19:00:02.289767  5014 net.cpp:94] Creating Layer fire9/relu_expand3x3
I1129 19:00:02.289779  5014 net.cpp:435] fire9/relu_expand3x3 <- fire9/expand3x3
I1129 19:00:02.289798  5014 net.cpp:396] fire9/relu_expand3x3 -> fire9/expand3x3 (in-place)
I1129 19:00:02.289811  5014 net.cpp:144] Setting up fire9/relu_expand3x3
I1129 19:00:02.289820  5014 net.cpp:151] Top shape: 64 256 14 14 (3211264)
I1129 19:00:02.289827  5014 net.cpp:159] Memory required for data: 1915903488
I1129 19:00:02.289834  5014 layer_factory.hpp:77] Creating layer fire9/concat
I1129 19:00:02.289845  5014 net.cpp:94] Creating Layer fire9/concat
I1129 19:00:02.289852  5014 net.cpp:435] fire9/concat <- fire9/expand1x1
I1129 19:00:02.289860  5014 net.cpp:435] fire9/concat <- fire9/expand3x3
I1129 19:00:02.289870  5014 net.cpp:409] fire9/concat -> fire9/concat
I1129 19:00:02.289912  5014 net.cpp:144] Setting up fire9/concat
I1129 19:00:02.289922  5014 net.cpp:151] Top shape: 64 512 14 14 (6422528)
I1129 19:00:02.289929  5014 net.cpp:159] Memory required for data: 1941593600
I1129 19:00:02.289937  5014 layer_factory.hpp:77] Creating layer drop9
I1129 19:00:02.289947  5014 net.cpp:94] Creating Layer drop9
I1129 19:00:02.289954  5014 net.cpp:435] drop9 <- fire9/concat
I1129 19:00:02.289963  5014 net.cpp:396] drop9 -> fire9/concat (in-place)
I1129 19:00:02.289997  5014 net.cpp:144] Setting up drop9
I1129 19:00:02.290007  5014 net.cpp:151] Top shape: 64 512 14 14 (6422528)
I1129 19:00:02.290014  5014 net.cpp:159] Memory required for data: 1967283712
I1129 19:00:02.290021  5014 layer_factory.hpp:77] Creating layer conv10_output
I1129 19:00:02.290035  5014 net.cpp:94] Creating Layer conv10_output
I1129 19:00:02.290042  5014 net.cpp:435] conv10_output <- fire9/concat
I1129 19:00:02.290052  5014 net.cpp:409] conv10_output -> conv10_output
I1129 19:00:02.291983  5014 net.cpp:144] Setting up conv10_output
I1129 19:00:02.292007  5014 net.cpp:151] Top shape: 64 2 14 14 (25088)
I1129 19:00:02.292019  5014 net.cpp:159] Memory required for data: 1967384064
I1129 19:00:02.292037  5014 layer_factory.hpp:77] Creating layer relu_conv10
I1129 19:00:02.292054  5014 net.cpp:94] Creating Layer relu_conv10
I1129 19:00:02.292062  5014 net.cpp:435] relu_conv10 <- conv10_output
I1129 19:00:02.292073  5014 net.cpp:396] relu_conv10 -> conv10_output (in-place)
I1129 19:00:02.292084  5014 net.cpp:144] Setting up relu_conv10
I1129 19:00:02.292119  5014 net.cpp:151] Top shape: 64 2 14 14 (25088)
I1129 19:00:02.292127  5014 net.cpp:159] Memory required for data: 1967484416
I1129 19:00:02.292135  5014 layer_factory.hpp:77] Creating layer pool10
I1129 19:00:02.292147  5014 net.cpp:94] Creating Layer pool10
I1129 19:00:02.292155  5014 net.cpp:435] pool10 <- conv10_output
I1129 19:00:02.292166  5014 net.cpp:409] pool10 -> pool10
I1129 19:00:02.292213  5014 net.cpp:144] Setting up pool10
I1129 19:00:02.292223  5014 net.cpp:151] Top shape: 64 2 1 1 (128)
I1129 19:00:02.292230  5014 net.cpp:159] Memory required for data: 1967484928
I1129 19:00:02.292237  5014 layer_factory.hpp:77] Creating layer pool10_pool10_0_split
I1129 19:00:02.292248  5014 net.cpp:94] Creating Layer pool10_pool10_0_split
I1129 19:00:02.292256  5014 net.cpp:435] pool10_pool10_0_split <- pool10
I1129 19:00:02.292266  5014 net.cpp:409] pool10_pool10_0_split -> pool10_pool10_0_split_0
I1129 19:00:02.292279  5014 net.cpp:409] pool10_pool10_0_split -> pool10_pool10_0_split_1
I1129 19:00:02.292335  5014 net.cpp:144] Setting up pool10_pool10_0_split
I1129 19:00:02.292346  5014 net.cpp:151] Top shape: 64 2 1 1 (128)
I1129 19:00:02.292354  5014 net.cpp:151] Top shape: 64 2 1 1 (128)
I1129 19:00:02.292361  5014 net.cpp:159] Memory required for data: 1967485952
I1129 19:00:02.292368  5014 layer_factory.hpp:77] Creating layer accuracy
I1129 19:00:02.292379  5014 net.cpp:94] Creating Layer accuracy
I1129 19:00:02.292387  5014 net.cpp:435] accuracy <- pool10_pool10_0_split_0
I1129 19:00:02.292394  5014 net.cpp:435] accuracy <- label_val-data_1_split_0
I1129 19:00:02.292403  5014 net.cpp:409] accuracy -> accuracy
…
