…
I0904 01:20:54.835095 11459 net.cpp:323] The NetState phase (0) differed from the phase (1) specified by a rule in layer accuracy
I0904 01:20:54.835307 11459 net.cpp:52] Initializing net from parameters:
state {
phase: TRAIN
}
layer {
name: "train-data"
type: "Data"
top: "data"
top: "label"
include {
phase: TRAIN
}
transform_param {
mirror: true
crop_size: 227
mean_file: "/media/myuser/120Gb/DIGITS/digits/jobs/20160904-002550-f9dd/mean.binaryproto"
}
data_param {
source: "/media/myuser/120Gb/DIGITS/digits/jobs/20160904-002550-f9dd/train_db"
batch_size: 128
backend: LMDB
}
}
layer {
name: "conv1"
type: "Convolution"
bottom: "data"
top: "conv1"
param {
lr_mult: 1
decay_mult: 1
}
param {
lr_mult: 2
decay_mult: 0
}
convolution_param {
num_output: 96
kernel_size: 11
stride: 4
weight_filler {
type: "gaussian"
std: 0.01
}
bias_filler {
type: "constant"
value: 0
}
}
}
layer {
name: "relu1"
type: "ReLU"
bottom: "conv1"
top: "conv1"
}
layer {
name: "norm1"
type: "LRN"
bottom: "conv1"
top: "norm1"
lrn_param {
local_size: 5
alpha: 0.0001
beta: 0.75
}
}
layer {
name: "pool1"
type: "Pooling"
bottom: "norm1"
top: "pool1"
pooling_param {
pool: MAX
kernel_size: 3
stride: 2
}
}
layer {
name: "conv2"
type: "Convolution"
bottom: "pool1"
top: "conv2"
param {
lr_mult: 1
decay_mult: 1
}
param {
lr_mult: 2
decay_mult: 0
}
convolution_param {
num_output: 256
pad: 2
kernel_size: 5
group: 2
weight_filler {
type: "gaussian"
std: 0.01
}
bias_filler {
type: "constant"
value: 0.1
}
}
}
layer {
name: "relu2"
type: "ReLU"
bottom: "conv2"
top: "conv2"
}
layer {
name: "norm2"
type: "LRN"
bottom: "conv2"
top: "norm2"
lrn_param {
local_size: 5
alpha: 0.0001
beta: 0.75
}
}
layer {
name: "pool2"
type: "Pooling"
bottom: "norm2"
top: "pool2"
pooling_param {
pool: MAX
kernel_size: 3
stride: 2
}
}
layer {
name: "conv3"
type: "Convolution"
bottom: "pool2"
top: "conv3"
param {
lr_mult: 1
decay_mult: 1
}
param {
lr_mult: 2
decay_mult: 0
}
convolution_param {
num_output: 384
pad: 1
kernel_size: 3
weight_filler {
type: "gaussian"
std: 0.01
}
bias_filler {
type: "constant"
value: 0
}
}
}
layer {
name: "relu3"
type: "ReLU"
bottom: "conv3"
top: "conv3"
}
layer {
name: "conv4"
type: "Convolution"
bottom: "conv3"
top: "conv4"
param {
lr_mult: 1
decay_mult: 1
}
param {
lr_mult: 2
decay_mult: 0
}
convolution_param {
num_output: 384
pad: 1
kernel_size: 3
group: 2
weight_filler {
type: "gaussian"
std: 0.01
}
bias_filler {
type: "constant"
value: 0.1
}
}
}
layer {
name: "relu4"
type: "ReLU"
bottom: "conv4"
top: "conv4"
}
layer {
name: "conv5"
type: "Convolution"
bottom: "conv4"
top: "conv5"
param {
lr_mult: 1
decay_mult: 1
}
param {
lr_mult: 2
decay_mult: 0
}
convolution_param {
num_output: 256
pad: 1
kernel_size: 3
group: 2
weight_filler {
type: "gaussian"
std: 0.01
}
bias_filler {
type: "constant"
value: 0.1
}
}
}
layer {
name: "relu5"
type: "ReLU"
bottom: "conv5"
top: "conv5"
}
layer {
name: "pool5"
type: "Pooling"
bottom: "conv5"
top: "pool5"
pooling_param {
pool: MAX
kernel_size: 3
stride: 2
}
}
layer {
name: "fc6"
type: "InnerProduct"
bottom: "pool5"
top: "fc6"
param {
lr_mult: 1
decay_mult: 1
}
param {
lr_mult: 2
decay_mult: 0
}
inner_product_param {
num_output: 4096
weight_filler {
type: "gaussian"
std: 0.005
}
bias_filler {
type: "constant"
value: 0.1
}
}
}
layer {
name: "relu6"
type: "ReLU"
bottom: "fc6"
top: "fc6"
}
layer {
name: "drop6"
type: "Dropout"
bottom: "fc6"
top: "fc6"
dropout_param {
dropout_ratio: 0.5
}
}
layer {
name: "fc7"
type: "InnerProduct"
bottom: "fc6"
top: "fc7"
param {
lr_mult: 1
decay_mult: 1
}
param {
lr_mult: 2
decay_mult: 0
}
inner_product_param {
num_output: 4096
weight_filler {
type: "gaussian"
std: 0.005
}
bias_filler {
type: "constant"
value: 0.1
}
}
}
layer {
name: "relu7"
type: "ReLU"
bottom: "fc7"
top: "fc7"
}
layer {
name: "drop7"
type: "Dropout"
bottom: "fc7"
top: "fc7"
dropout_param {
dropout_ratio: 0.5
}
}
layer {
name: "fc8"
type: "InnerProduct"
bottom: "fc7"
top: "fc8"
param {
lr_mult: 1
decay_mult: 1
}
param {
lr_mult: 2
decay_mult: 0
}
inner_product_param {
num_output: 2
weight_filler {
type: "gaussian"
std: 0.01
}
bias_filler {
type: "constant"
value: 0
}
}
}
layer {
name: "loss"
type: "SoftmaxWithLoss"
bottom: "fc8"
bottom: "label"
top: "loss"
}
I0904 01:20:54.835441 11459 layer_factory.hpp:77] Creating layer train-data
I0904 01:20:54.835942 11459 net.cpp:94] Creating Layer train-data
I0904 01:20:54.835958 11459 net.cpp:409] train-data -> data
I0904 01:20:54.835990 11459 net.cpp:409] train-data -> label
I0904 01:20:54.836011 11459 data_transformer.cpp:25] Loading mean file from: /media/myuser/120Gb/DIGITS/digits/jobs/20160904-002550-f9dd/mean.binaryproto
I0904 01:20:54.843137 11465 db_lmdb.cpp:35] Opened lmdb /media/myuser/120Gb/DIGITS/digits/jobs/20160904-002550-f9dd/train_db
I0904 01:20:54.857903 11459 data_layer.cpp:76] output data size: 128,3,227,227
I0904 01:20:55.132630 11459 net.cpp:144] Setting up train-data
I0904 01:20:55.132673 11459 net.cpp:151] Top shape: 128 3 227 227 (19787136)
I0904 01:20:55.132684 11459 net.cpp:151] Top shape: 128 (128)
I0904 01:20:55.132693 11459 net.cpp:159] Memory required for data: 79149056
I0904 01:20:55.132707 11459 layer_factory.hpp:77] Creating layer conv1
I0904 01:20:55.132736 11459 net.cpp:94] Creating Layer conv1
I0904 01:20:55.132746 11459 net.cpp:435] conv1 <- data
I0904 01:20:55.132764 11459 net.cpp:409] conv1 -> conv1
I0904 01:20:59.696817 11459 net.cpp:144] Setting up conv1
I0904 01:20:59.696851 11459 net.cpp:151] Top shape: 128 96 55 55 (37171200)
I0904 01:20:59.696859 11459 net.cpp:159] Memory required for data: 227833856
I0904 01:20:59.696882 11459 layer_factory.hpp:77] Creating layer relu1
I0904 01:20:59.696898 11459 net.cpp:94] Creating Layer relu1
I0904 01:20:59.696907 11459 net.cpp:435] relu1 <- conv1
I0904 01:20:59.696918 11459 net.cpp:396] relu1 -> conv1 (in-place)
I0904 01:20:59.696948 11459 net.cpp:144] Setting up relu1
I0904 01:20:59.696957 11459 net.cpp:151] Top shape: 128 96 55 55 (37171200)
I0904 01:20:59.696964 11459 net.cpp:159] Memory required for data: 376518656
I0904 01:20:59.696971 11459 layer_factory.hpp:77] Creating layer norm1
I0904 01:20:59.696985 11459 net.cpp:94] Creating Layer norm1
I0904 01:20:59.696993 11459 net.cpp:435] norm1 <- conv1
I0904 01:20:59.697003 11459 net.cpp:409] norm1 -> norm1
I0904 01:20:59.697123 11459 net.cpp:144] Setting up norm1
I0904 01:20:59.697132 11459 net.cpp:151] Top shape: 128 96 55 55 (37171200)
I0904 01:20:59.697140 11459 net.cpp:159] Memory required for data: 525203456
I0904 01:20:59.697147 11459 layer_factory.hpp:77] Creating layer pool1
I0904 01:20:59.697161 11459 net.cpp:94] Creating Layer pool1
I0904 01:20:59.697168 11459 net.cpp:435] pool1 <- norm1
I0904 01:20:59.697178 11459 net.cpp:409] pool1 -> pool1
I0904 01:20:59.697234 11459 net.cpp:144] Setting up pool1
I0904 01:20:59.697244 11459 net.cpp:151] Top shape: 128 96 27 27 (8957952)
I0904 01:20:59.697252 11459 net.cpp:159] Memory required for data: 561035264
I0904 01:20:59.697259 11459 layer_factory.hpp:77] Creating layer conv2
I0904 01:20:59.697275 11459 net.cpp:94] Creating Layer conv2
I0904 01:20:59.697283 11459 net.cpp:435] conv2 <- pool1
I0904 01:20:59.697293 11459 net.cpp:409] conv2 -> conv2
I0904 01:20:59.803234 11459 net.cpp:144] Setting up conv2
I0904 01:20:59.803277 11459 net.cpp:151] Top shape: 128 256 27 27 (23887872)
I0904 01:20:59.803285 11459 net.cpp:159] Memory required for data: 656586752
I0904 01:20:59.803305 11459 layer_factory.hpp:77] Creating layer relu2
I0904 01:20:59.803319 11459 net.cpp:94] Creating Layer relu2
I0904 01:20:59.803328 11459 net.cpp:435] relu2 <- conv2
I0904 01:20:59.803339 11459 net.cpp:396] relu2 -> conv2 (in-place)
I0904 01:20:59.803356 11459 net.cpp:144] Setting up relu2
I0904 01:20:59.803365 11459 net.cpp:151] Top shape: 128 256 27 27 (23887872)
I0904 01:20:59.803372 11459 net.cpp:159] Memory required for data: 752138240
I0904 01:20:59.803380 11459 layer_factory.hpp:77] Creating layer norm2
I0904 01:20:59.803392 11459 net.cpp:94] Creating Layer norm2
I0904 01:20:59.803400 11459 net.cpp:435] norm2 <- conv2
I0904 01:20:59.803409 11459 net.cpp:409] norm2 -> norm2
I0904 01:20:59.803493 11459 net.cpp:144] Setting up norm2
I0904 01:20:59.803503 11459 net.cpp:151] Top shape: 128 256 27 27 (23887872)
I0904 01:20:59.803509 11459 net.cpp:159] Memory required for data: 847689728
I0904 01:20:59.803516 11459 layer_factory.hpp:77] Creating layer pool2
I0904 01:20:59.803530 11459 net.cpp:94] Creating Layer pool2
I0904 01:20:59.803537 11459 net.cpp:435] pool2 <- norm2
I0904 01:20:59.803547 11459 net.cpp:409] pool2 -> pool2
I0904 01:20:59.803587 11459 net.cpp:144] Setting up pool2
I0904 01:20:59.803597 11459 net.cpp:151] Top shape: 128 256 13 13 (5537792)
I0904 01:20:59.803604 11459 net.cpp:159] Memory required for data: 869840896
I0904 01:20:59.803611 11459 layer_factory.hpp:77] Creating layer conv3
I0904 01:20:59.803627 11459 net.cpp:94] Creating Layer conv3
I0904 01:20:59.803635 11459 net.cpp:435] conv3 <- pool2
I0904 01:20:59.803645 11459 net.cpp:409] conv3 -> conv3
I0904 01:20:59.961874 11459 net.cpp:144] Setting up conv3
I0904 01:20:59.961928 11459 net.cpp:151] Top shape: 128 384 13 13 (8306688)
I0904 01:20:59.961937 11459 net.cpp:159] Memory required for data: 903067648
I0904 01:20:59.961961 11459 layer_factory.hpp:77] Creating layer relu3
I0904 01:20:59.961980 11459 net.cpp:94] Creating Layer relu3
I0904 01:20:59.961989 11459 net.cpp:435] relu3 <- conv3
I0904 01:20:59.962002 11459 net.cpp:396] relu3 -> conv3 (in-place)
I0904 01:20:59.962020 11459 net.cpp:144] Setting up relu3
I0904 01:20:59.962030 11459 net.cpp:151] Top shape: 128 384 13 13 (8306688)
I0904 01:20:59.962038 11459 net.cpp:159] Memory required for data: 936294400
I0904 01:20:59.962045 11459 layer_factory.hpp:77] Creating layer conv4
I0904 01:20:59.962065 11459 net.cpp:94] Creating Layer conv4
I0904 01:20:59.962074 11459 net.cpp:435] conv4 <- conv3
I0904 01:20:59.962085 11459 net.cpp:409] conv4 -> conv4
I0904 01:21:00.077416 11459 net.cpp:144] Setting up conv4
I0904 01:21:00.077452 11459 net.cpp:151] Top shape: 128 384 13 13 (8306688)
I0904 01:21:00.077461 11459 net.cpp:159] Memory required for data: 969521152
I0904 01:21:00.077476 11459 layer_factory.hpp:77] Creating layer relu4
I0904 01:21:00.077491 11459 net.cpp:94] Creating Layer relu4
I0904 01:21:00.077499 11459 net.cpp:435] relu4 <- conv4
I0904 01:21:00.077539 11459 net.cpp:396] relu4 -> conv4 (in-place)
I0904 01:21:00.077555 11459 net.cpp:144] Setting up relu4
I0904 01:21:00.077564 11459 net.cpp:151] Top shape: 128 384 13 13 (8306688)
I0904 01:21:00.077571 11459 net.cpp:159] Memory required for data: 1002747904
I0904 01:21:00.077579 11459 layer_factory.hpp:77] Creating layer conv5
I0904 01:21:00.077595 11459 net.cpp:94] Creating Layer conv5
I0904 01:21:00.077602 11459 net.cpp:435] conv5 <- conv4
I0904 01:21:00.077613 11459 net.cpp:409] conv5 -> conv5
I0904 01:21:00.136204 11459 net.cpp:144] Setting up conv5
I0904 01:21:00.136243 11459 net.cpp:151] Top shape: 128 256 13 13 (5537792)
I0904 01:21:00.136252 11459 net.cpp:159] Memory required for data: 1024899072
I0904 01:21:00.136274 11459 layer_factory.hpp:77] Creating layer relu5
I0904 01:21:00.136289 11459 net.cpp:94] Creating Layer relu5
I0904 01:21:00.136298 11459 net.cpp:435] relu5 <- conv5
I0904 01:21:00.136309 11459 net.cpp:396] relu5 -> conv5 (in-place)
I0904 01:21:00.136325 11459 net.cpp:144] Setting up relu5
I0904 01:21:00.136335 11459 net.cpp:151] Top shape: 128 256 13 13 (5537792)
I0904 01:21:00.136343 11459 net.cpp:159] Memory required for data: 1047050240
I0904 01:21:00.136349 11459 layer_factory.hpp:77] Creating layer pool5
I0904 01:21:00.136363 11459 net.cpp:94] Creating Layer pool5
I0904 01:21:00.136369 11459 net.cpp:435] pool5 <- conv5
I0904 01:21:00.136379 11459 net.cpp:409] pool5 -> pool5
I0904 01:21:00.136471 11459 net.cpp:144] Setting up pool5
I0904 01:21:00.136481 11459 net.cpp:151] Top shape: 128 256 6 6 (1179648)
I0904 01:21:00.136487 11459 net.cpp:159] Memory required for data: 1051768832
I0904 01:21:00.136495 11459 layer_factory.hpp:77] Creating layer fc6
I0904 01:21:00.136521 11459 net.cpp:94] Creating Layer fc6
I0904 01:21:00.136528 11459 net.cpp:435] fc6 <- pool5
I0904 01:21:00.136539 11459 net.cpp:409] fc6 -> fc6
I0904 01:21:01.860946 11459 net.cpp:144] Setting up fc6
I0904 01:21:01.860991 11459 net.cpp:151] Top shape: 128 4096 (524288)
I0904 01:21:01.860999 11459 net.cpp:159] Memory required for data: 1053865984
I0904 01:21:01.861016 11459 layer_factory.hpp:77] Creating layer relu6
I0904 01:21:01.861032 11459 net.cpp:94] Creating Layer relu6
I0904 01:21:01.861042 11459 net.cpp:435] relu6 <- fc6
I0904 01:21:01.861052 11459 net.cpp:396] relu6 -> fc6 (in-place)
I0904 01:21:01.861071 11459 net.cpp:144] Setting up relu6
I0904 01:21:01.861079 11459 net.cpp:151] Top shape: 128 4096 (524288)
I0904 01:21:01.861086 11459 net.cpp:159] Memory required for data: 1055963136
I0904 01:21:01.861094 11459 layer_factory.hpp:77] Creating layer drop6
I0904 01:21:01.861106 11459 net.cpp:94] Creating Layer drop6
I0904 01:21:01.861114 11459 net.cpp:435] drop6 <- fc6
I0904 01:21:01.861124 11459 net.cpp:396] drop6 -> fc6 (in-place)
I0904 01:21:01.861152 11459 net.cpp:144] Setting up drop6
I0904 01:21:01.861162 11459 net.cpp:151] Top shape: 128 4096 (524288)
I0904 01:21:01.861169 11459 net.cpp:159] Memory required for data: 1058060288
I0904 01:21:01.861177 11459 layer_factory.hpp:77] Creating layer fc7
I0904 01:21:01.861189 11459 net.cpp:94] Creating Layer fc7
I0904 01:21:01.861197 11459 net.cpp:435] fc7 <- fc6
I0904 01:21:01.861207 11459 net.cpp:409] fc7 -> fc7
I0904 01:21:02.611631 11459 net.cpp:144] Setting up fc7
I0904 01:21:02.611670 11459 net.cpp:151] Top shape: 128 4096 (524288)
I0904 01:21:02.611677 11459 net.cpp:159] Memory required for data: 1060157440
I0904 01:21:02.611693 11459 layer_factory.hpp:77] Creating layer relu7
I0904 01:21:02.611707 11459 net.cpp:94] Creating Layer relu7
I0904 01:21:02.611717 11459 net.cpp:435] relu7 <- fc7
I0904 01:21:02.611728 11459 net.cpp:396] relu7 -> fc7 (in-place)
I0904 01:21:02.611745 11459 net.cpp:144] Setting up relu7
I0904 01:21:02.611754 11459 net.cpp:151] Top shape: 128 4096 (524288)
I0904 01:21:02.611762 11459 net.cpp:159] Memory required for data: 1062254592
I0904 01:21:02.611768 11459 layer_factory.hpp:77] Creating layer drop7
I0904 01:21:02.611779 11459 net.cpp:94] Creating Layer drop7
I0904 01:21:02.611788 11459 net.cpp:435] drop7 <- fc7
I0904 01:21:02.611827 11459 net.cpp:396] drop7 -> fc7 (in-place)
I0904 01:21:02.611852 11459 net.cpp:144] Setting up drop7
I0904 01:21:02.611861 11459 net.cpp:151] Top shape: 128 4096 (524288)
I0904 01:21:02.611868 11459 net.cpp:159] Memory required for data: 1064351744
I0904 01:21:02.611876 11459 layer_factory.hpp:77] Creating layer fc8
I0904 01:21:02.611888 11459 net.cpp:94] Creating Layer fc8
I0904 01:21:02.611896 11459 net.cpp:435] fc8 <- fc7
I0904 01:21:02.611907 11459 net.cpp:409] fc8 -> fc8
I0904 01:21:02.613661 11459 net.cpp:144] Setting up fc8
I0904 01:21:02.613677 11459 net.cpp:151] Top shape: 128 2 (256)
I0904 01:21:02.613685 11459 net.cpp:159] Memory required for data: 1064352768
I0904 01:21:02.613698 11459 layer_factory.hpp:77] Creating layer loss
I0904 01:21:02.613716 11459 net.cpp:94] Creating Layer loss
I0904 01:21:02.613724 11459 net.cpp:435] loss <- fc8
I0904 01:21:02.613732 11459 net.cpp:435] loss <- label
I0904 01:21:02.613746 11459 net.cpp:409] loss -> loss
I0904 01:21:02.613761 11459 layer_factory.hpp:77] Creating layer loss
…
I0904 01:21:02.614990 11459 net.cpp:323] The NetState phase (1) differed from the phase (0) specified by a rule in layer train-data
I0904 01:21:02.615216 11459 net.cpp:52] Initializing net from parameters:
state {
phase: TEST
}
layer {
name: "val-data"
type: "Data"
top: "data"
top: "label"
include {
phase: TEST
}
transform_param {
crop_size: 227
mean_file: "/media/myuser/120Gb/DIGITS/digits/jobs/20160904-002550-f9dd/mean.binaryproto"
}
data_param {
source: "/media/myuser/120Gb/DIGITS/digits/jobs/20160904-002550-f9dd/val_db"
batch_size: 32
backend: LMDB
}
}
layer {
name: "conv1"
type: "Convolution"
bottom: "data"
top: "conv1"
param {
lr_mult: 1
decay_mult: 1
}
param {
lr_mult: 2
decay_mult: 0
}
convolution_param {
num_output: 96
kernel_size: 11
stride: 4
weight_filler {
type: "gaussian"
std: 0.01
}
bias_filler {
type: "constant"
value: 0
}
}
}
layer {
name: "relu1"
type: "ReLU"
bottom: "conv1"
top: "conv1"
}
layer {
name: "norm1"
type: "LRN"
bottom: "conv1"
top: "norm1"
lrn_param {
local_size: 5
alpha: 0.0001
beta: 0.75
}
}
layer {
name: "pool1"
type: "Pooling"
bottom: "norm1"
top: "pool1"
pooling_param {
pool: MAX
kernel_size: 3
stride: 2
}
}
layer {
name: "conv2"
type: "Convolution"
bottom: "pool1"
top: "conv2"
param {
lr_mult: 1
decay_mult: 1
}
param {
lr_mult: 2
decay_mult: 0
}
convolution_param {
num_output: 256
pad: 2
kernel_size: 5
group: 2
weight_filler {
type: "gaussian"
std: 0.01
}
bias_filler {
type: "constant"
value: 0.1
}
}
}
layer {
name: "relu2"
type: "ReLU"
bottom: "conv2"
top: "conv2"
}
layer {
name: "norm2"
type: "LRN"
bottom: "conv2"
top: "norm2"
lrn_param {
local_size: 5
alpha: 0.0001
beta: 0.75
}
}
layer {
name: "pool2"
type: "Pooling"
bottom: "norm2"
top: "pool2"
pooling_param {
pool: MAX
kernel_size: 3
stride: 2
}
}
layer {
name: "conv3"
type: "Convolution"
bottom: "pool2"
top: "conv3"
param {
lr_mult: 1
decay_mult: 1
}
param {
lr_mult: 2
decay_mult: 0
}
convolution_param {
num_output: 384
pad: 1
kernel_size: 3
weight_filler {
type: "gaussian"
std: 0.01
}
bias_filler {
type: "constant"
value: 0
}
}
}
layer {
name: "relu3"
type: "ReLU"
bottom: "conv3"
top: "conv3"
}
layer {
name: "conv4"
type: "Convolution"
bottom: "conv3"
top: "conv4"
param {
lr_mult: 1
decay_mult: 1
}
param {
lr_mult: 2
decay_mult: 0
}
convolution_param {
num_output: 384
pad: 1
kernel_size: 3
group: 2
weight_filler {
type: "gaussian"
std: 0.01
}
bias_filler {
type: "constant"
value: 0.1
}
}
}
layer {
name: "relu4"
type: "ReLU"
bottom: "conv4"
top: "conv4"
}
layer {
name: "conv5"
type: "Convolution"
bottom: "conv4"
top: "conv5"
param {
lr_mult: 1
decay_mult: 1
}
param {
lr_mult: 2
decay_mult: 0
}
convolution_param {
num_output: 256
pad: 1
kernel_size: 3
group: 2
weight_filler {
type: "gaussian"
std: 0.01
}
bias_filler {
type: "constant"
value: 0.1
}
}
}
layer {
name: "relu5"
type: "ReLU"
bottom: "conv5"
top: "conv5"
}
layer {
name: "pool5"
type: "Pooling"
bottom: "conv5"
top: "pool5"
pooling_param {
pool: MAX
kernel_size: 3
stride: 2
}
}
layer {
name: "fc6"
type: "InnerProduct"
bottom: "pool5"
top: "fc6"
param {
lr_mult: 1
decay_mult: 1
}
param {
lr_mult: 2
decay_mult: 0
}
inner_product_param {
num_output: 4096
weight_filler {
type: "gaussian"
std: 0.005
}
bias_filler {
type: "constant"
value: 0.1
}
}
}
layer {
name: "relu6"
type: "ReLU"
bottom: "fc6"
top: "fc6"
}
layer {
name: "drop6"
type: "Dropout"
bottom: "fc6"
top: "fc6"
dropout_param {
dropout_ratio: 0.5
}
}
layer {
name: "fc7"
type: "InnerProduct"
bottom: "fc6"
top: "fc7"
param {
lr_mult: 1
decay_mult: 1
}
param {
lr_mult: 2
decay_mult: 0
}
inner_product_param {
num_output: 4096
weight_filler {
type: "gaussian"
std: 0.005
}
bias_filler {
type: "constant"
value: 0.1
}
}
}
layer {
name: "relu7"
type: "ReLU"
bottom: "fc7"
top: "fc7"
}
layer {
name: "drop7"
type: "Dropout"
bottom: "fc7"
top: "fc7"
dropout_param {
dropout_ratio: 0.5
}
}
layer {
name: "fc8"
type: "InnerProduct"
bottom: "fc7"
top: "fc8"
param {
lr_mult: 1
decay_mult: 1
}
param {
lr_mult: 2
decay_mult: 0
}
inner_product_param {
num_output: 2
weight_filler {
type: "gaussian"
std: 0.01
}
bias_filler {
type: "constant"
value: 0
}
}
}
layer {
name: "accuracy"
type: "Accuracy"
bottom: "fc8"
bottom: "label"
top: "accuracy"
include {
phase: TEST
}
}
layer {
name: "loss"
type: "SoftmaxWithLoss"
bottom: "fc8"
bottom: "label"
top: "loss"
}
I0904 01:21:02.615360 11459 layer_factory.hpp:77] Creating layer val-data
I0904 01:21:02.616520 11459 net.cpp:94] Creating Layer val-data
I0904 01:21:02.616533 11459 net.cpp:409] val-data -> data
I0904 01:21:02.616546 11459 net.cpp:409] val-data -> label
I0904 01:21:02.616559 11459 data_transformer.cpp:25] Loading mean file from: /media/myuser/120Gb/DIGITS/digits/jobs/20160904-002550-f9dd/mean.binaryproto
I0904 01:21:02.631629 11469 db_lmdb.cpp:35] Opened lmdb /media/myuser/120Gb/DIGITS/digits/jobs/20160904-002550-f9dd/val_db
I0904 01:21:02.640712 11459 data_layer.cpp:76] output data size: 32,3,227,227
I0904 01:21:02.701488 11459 net.cpp:144] Setting up val-data
I0904 01:21:02.701524 11459 net.cpp:151] Top shape: 32 3 227 227 (4946784)
I0904 01:21:02.701535 11459 net.cpp:151] Top shape: 32 (32)
I0904 01:21:02.701544 11459 net.cpp:159] Memory required for data: 19787264
I0904 01:21:02.701553 11459 layer_factory.hpp:77] Creating layer label_val-data_1_split
I0904 01:21:02.701571 11459 net.cpp:94] Creating Layer label_val-data_1_split
I0904 01:21:02.701581 11459 net.cpp:435] label_val-data_1_split <- label
I0904 01:21:02.701592 11459 net.cpp:409] label_val-data_1_split -> label_val-data_1_split_0
I0904 01:21:02.701606 11459 net.cpp:409] label_val-data_1_split -> label_val-data_1_split_1
I0904 01:21:02.701666 11459 net.cpp:144] Setting up label_val-data_1_split
I0904 01:21:02.701678 11459 net.cpp:151] Top shape: 32 (32)
I0904 01:21:02.701685 11459 net.cpp:151] Top shape: 32 (32)
I0904 01:21:02.701694 11459 net.cpp:159] Memory required for data: 19787520
I0904 01:21:02.701700 11459 layer_factory.hpp:77] Creating layer conv1
I0904 01:21:02.701719 11459 net.cpp:94] Creating Layer conv1
I0904 01:21:02.701726 11459 net.cpp:435] conv1 <- data
I0904 01:21:02.701737 11459 net.cpp:409] conv1 -> conv1
I0904 01:21:02.714989 11459 net.cpp:144] Setting up conv1
I0904 01:21:02.715006 11459 net.cpp:151] Top shape: 32 96 55 55 (9292800)
I0904 01:21:02.715013 11459 net.cpp:159] Memory required for data: 56958720
I0904 01:21:02.715029 11459 layer_factory.hpp:77] Creating layer relu1
I0904 01:21:02.715040 11459 net.cpp:94] Creating Layer relu1
I0904 01:21:02.715049 11459 net.cpp:435] relu1 <- conv1
I0904 01:21:02.715057 11459 net.cpp:396] relu1 -> conv1 (in-place)
I0904 01:21:02.715070 11459 net.cpp:144] Setting up relu1
I0904 01:21:02.715080 11459 net.cpp:151] Top shape: 32 96 55 55 (9292800)
I0904 01:21:02.715086 11459 net.cpp:159] Memory required for data: 94129920
I0904 01:21:02.715093 11459 layer_factory.hpp:77] Creating layer norm1
I0904 01:21:02.715106 11459 net.cpp:94] Creating Layer norm1
I0904 01:21:02.715114 11459 net.cpp:435] norm1 <- conv1
I0904 01:21:02.715124 11459 net.cpp:409] norm1 -> norm1
I0904 01:21:02.715178 11459 net.cpp:144] Setting up norm1
I0904 01:21:02.715188 11459 net.cpp:151] Top shape: 32 96 55 55 (9292800)
I0904 01:21:02.715194 11459 net.cpp:159] Memory required for data: 131301120
I0904 01:21:02.715201 11459 layer_factory.hpp:77] Creating layer pool1
I0904 01:21:02.715212 11459 net.cpp:94] Creating Layer pool1
I0904 01:21:02.715220 11459 net.cpp:435] pool1 <- norm1
I0904 01:21:02.715229 11459 net.cpp:409] pool1 -> pool1
I0904 01:21:02.715271 11459 net.cpp:144] Setting up pool1
I0904 01:21:02.715281 11459 net.cpp:151] Top shape: 32 96 27 27 (2239488)
I0904 01:21:02.715288 11459 net.cpp:159] Memory required for data: 140259072
I0904 01:21:02.715296 11459 layer_factory.hpp:77] Creating layer conv2
I0904 01:21:02.715309 11459 net.cpp:94] Creating Layer conv2
I0904 01:21:02.715317 11459 net.cpp:435] conv2 <- pool1
I0904 01:21:02.715327 11459 net.cpp:409] conv2 -> conv2
I0904 01:21:02.735744 11459 net.cpp:144] Setting up conv2
I0904 01:21:02.735780 11459 net.cpp:151] Top shape: 32 256 27 27 (5971968)
I0904 01:21:02.735787 11459 net.cpp:159] Memory required for data: 164146944
I0904 01:21:02.735806 11459 layer_factory.hpp:77] Creating layer relu2
I0904 01:21:02.735819 11459 net.cpp:94] Creating Layer relu2
I0904 01:21:02.735828 11459 net.cpp:435] relu2 <- conv2
I0904 01:21:02.735838 11459 net.cpp:396] relu2 -> conv2 (in-place)
I0904 01:21:02.735854 11459 net.cpp:144] Setting up relu2
I0904 01:21:02.735863 11459 net.cpp:151] Top shape: 32 256 27 27 (5971968)
I0904 01:21:02.735870 11459 net.cpp:159] Memory required for data: 188034816
I0904 01:21:02.735877 11459 layer_factory.hpp:77] Creating layer norm2
I0904 01:21:02.735893 11459 net.cpp:94] Creating Layer norm2
I0904 01:21:02.735901 11459 net.cpp:435] norm2 <- conv2
I0904 01:21:02.735911 11459 net.cpp:409] norm2 -> norm2
I0904 01:21:02.736001 11459 net.cpp:144] Setting up norm2
I0904 01:21:02.736012 11459 net.cpp:151] Top shape: 32 256 27 27 (5971968)
I0904 01:21:02.736021 11459 net.cpp:159] Memory required for data: 211922688
I0904 01:21:02.736028 11459 layer_factory.hpp:77] Creating layer pool2
I0904 01:21:02.736040 11459 net.cpp:94] Creating Layer pool2
I0904 01:21:02.736048 11459 net.cpp:435] pool2 <- norm2
I0904 01:21:02.736057 11459 net.cpp:409] pool2 -> pool2
I0904 01:21:02.736104 11459 net.cpp:144] Setting up pool2
I0904 01:21:02.736114 11459 net.cpp:151] Top shape: 32 256 13 13 (1384448)
I0904 01:21:02.736120 11459 net.cpp:159] Memory required for data: 217460480
I0904 01:21:02.736129 11459 layer_factory.hpp:77] Creating layer conv3
I0904 01:21:02.736145 11459 net.cpp:94] Creating Layer conv3
I0904 01:21:02.736153 11459 net.cpp:435] conv3 <- pool2
I0904 01:21:02.736165 11459 net.cpp:409] conv3 -> conv3
I0904 01:21:02.797281 11459 net.cpp:144] Setting up conv3
I0904 01:21:02.797317 11459 net.cpp:151] Top shape: 32 384 13 13 (2076672)
I0904 01:21:02.797325 11459 net.cpp:159] Memory required for data: 225767168
I0904 01:21:02.797344 11459 layer_factory.hpp:77] Creating layer relu3
I0904 01:21:02.797358 11459 net.cpp:94] Creating Layer relu3
I0904 01:21:02.797368 11459 net.cpp:435] relu3 <- conv3
I0904 01:21:02.797379 11459 net.cpp:396] relu3 -> conv3 (in-place)
I0904 01:21:02.797394 11459 net.cpp:144] Setting up relu3
I0904 01:21:02.797404 11459 net.cpp:151] Top shape: 32 384 13 13 (2076672)
I0904 01:21:02.797410 11459 net.cpp:159] Memory required for data: 234073856
I0904 01:21:02.797417 11459 layer_factory.hpp:77] Creating layer conv4
I0904 01:21:02.797435 11459 net.cpp:94] Creating Layer conv4
I0904 01:21:02.797442 11459 net.cpp:435] conv4 <- conv3
I0904 01:21:02.797453 11459 net.cpp:409] conv4 -> conv4
I0904 01:21:02.848784 11459 net.cpp:144] Setting up conv4
I0904 01:21:02.848821 11459 net.cpp:151] Top shape: 32 384 13 13 (2076672)
I0904 01:21:02.848829 11459 net.cpp:159] Memory required for data: 242380544
I0904 01:21:02.848845 11459 layer_factory.hpp:77] Creating layer relu4
I0904 01:21:02.848860 11459 net.cpp:94] Creating Layer relu4
I0904 01:21:02.848870 11459 net.cpp:435] relu4 <- conv4
I0904 01:21:02.848881 11459 net.cpp:396] relu4 -> conv4 (in-place)
I0904 01:21:02.848897 11459 net.cpp:144] Setting up relu4
I0904 01:21:02.848907 11459 net.cpp:151] Top shape: 32 384 13 13 (2076672)
I0904 01:21:02.848914 11459 net.cpp:159] Memory required for data: 250687232
I0904 01:21:02.848922 11459 layer_factory.hpp:77] Creating layer conv5
I0904 01:21:02.848939 11459 net.cpp:94] Creating Layer conv5
I0904 01:21:02.848948 11459 net.cpp:435] conv5 <- conv4
I0904 01:21:02.848958 11459 net.cpp:409] conv5 -> conv5
I0904 01:21:02.897433 11459 net.cpp:144] Setting up conv5
I0904 01:21:02.897470 11459 net.cpp:151] Top shape: 32 256 13 13 (1384448)
I0904 01:21:02.897477 11459 net.cpp:159] Memory required for data: 256225024
I0904 01:21:02.897500 11459 layer_factory.hpp:77] Creating layer relu5
I0904 01:21:02.897513 11459 net.cpp:94] Creating Layer relu5
I0904 01:21:02.897522 11459 net.cpp:435] relu5 <- conv5
I0904 01:21:02.897533 11459 net.cpp:396] relu5 -> conv5 (in-place)
I0904 01:21:02.897579 11459 net.cpp:144] Setting up relu5
I0904 01:21:02.897589 11459 net.cpp:151] Top shape: 32 256 13 13 (1384448)
I0904 01:21:02.897596 11459 net.cpp:159] Memory required for data: 261762816
I0904 01:21:02.897603 11459 layer_factory.hpp:77] Creating layer pool5
I0904 01:21:02.897621 11459 net.cpp:94] Creating Layer pool5
I0904 01:21:02.897629 11459 net.cpp:435] pool5 <- conv5
I0904 01:21:02.897647 11459 net.cpp:409] pool5 -> pool5
I0904 01:21:02.897737 11459 net.cpp:144] Setting up pool5
I0904 01:21:02.897747 11459 net.cpp:151] Top shape: 32 256 6 6 (294912)
I0904 01:21:02.897753 11459 net.cpp:159] Memory required for data: 262942464
I0904 01:21:02.897760 11459 layer_factory.hpp:77] Creating layer fc6
I0904 01:21:02.897773 11459 net.cpp:94] Creating Layer fc6
I0904 01:21:02.897781 11459 net.cpp:435] fc6 <- pool5
I0904 01:21:02.897791 11459 net.cpp:409] fc6 -> fc6
I0904 01:21:04.608301 11459 net.cpp:144] Setting up fc6
I0904 01:21:04.608350 11459 net.cpp:151] Top shape: 32 4096 (131072)
I0904 01:21:04.608360 11459 net.cpp:159] Memory required for data: 263466752
I0904 01:21:04.608376 11459 layer_factory.hpp:77] Creating layer relu6
I0904 01:21:04.608392 11459 net.cpp:94] Creating Layer relu6
I0904 01:21:04.608402 11459 net.cpp:435] relu6 <- fc6
I0904 01:21:04.608412 11459 net.cpp:396] relu6 -> fc6 (in-place)
I0904 01:21:04.608430 11459 net.cpp:144] Setting up relu6
I0904 01:21:04.608439 11459 net.cpp:151] Top shape: 32 4096 (131072)
I0904 01:21:04.608446 11459 net.cpp:159] Memory required for data: 263991040
I0904 01:21:04.608453 11459 layer_factory.hpp:77] Creating layer drop6
I0904 01:21:04.608464 11459 net.cpp:94] Creating Layer drop6
I0904 01:21:04.608472 11459 net.cpp:435] drop6 <- fc6
I0904 01:21:04.608481 11459 net.cpp:396] drop6 -> fc6 (in-place)
I0904 01:21:04.608515 11459 net.cpp:144] Setting up drop6
I0904 01:21:04.608525 11459 net.cpp:151] Top shape: 32 4096 (131072)
I0904 01:21:04.608532 11459 net.cpp:159] Memory required for data: 264515328
I0904 01:21:04.608539 11459 layer_factory.hpp:77] Creating layer fc7
I0904 01:21:04.608552 11459 net.cpp:94] Creating Layer fc7
I0904 01:21:04.608559 11459 net.cpp:435] fc7 <- fc6
I0904 01:21:04.608571 11459 net.cpp:409] fc7 -> fc7
I0904 01:21:05.359877 11459 net.cpp:144] Setting up fc7
I0904 01:21:05.359925 11459 net.cpp:151] Top shape: 32 4096 (131072)
I0904 01:21:05.359933 11459 net.cpp:159] Memory required for data: 265039616
I0904 01:21:05.359949 11459 layer_factory.hpp:77] Creating layer relu7
I0904 01:21:05.359966 11459 net.cpp:94] Creating Layer relu7
I0904 01:21:05.359975 11459 net.cpp:435] relu7 <- fc7
I0904 01:21:05.359987 11459 net.cpp:396] relu7 -> fc7 (in-place)
I0904 01:21:05.360004 11459 net.cpp:144] Setting up relu7
I0904 01:21:05.360013 11459 net.cpp:151] Top shape: 32 4096 (131072)
I0904 01:21:05.360020 11459 net.cpp:159] Memory required for data: 265563904
I0904 01:21:05.360028 11459 layer_factory.hpp:77] Creating layer drop7
I0904 01:21:05.360039 11459 net.cpp:94] Creating Layer drop7
I0904 01:21:05.360046 11459 net.cpp:435] drop7 <- fc7
I0904 01:21:05.360055 11459 net.cpp:396] drop7 -> fc7 (in-place)
I0904 01:21:05.360090 11459 net.cpp:144] Setting up drop7
I0904 01:21:05.360100 11459 net.cpp:151] Top shape: 32 4096 (131072)
I0904 01:21:05.360107 11459 net.cpp:159] Memory required for data: 266088192
I0904 01:21:05.360115 11459 layer_factory.hpp:77] Creating layer fc8
I0904 01:21:05.360127 11459 net.cpp:94] Creating Layer fc8
I0904 01:21:05.360136 11459 net.cpp:435] fc8 <- fc7
I0904 01:21:05.360146 11459 net.cpp:409] fc8 -> fc8
I0904 01:21:05.360626 11459 net.cpp:144] Setting up fc8
I0904 01:21:05.360637 11459 net.cpp:151] Top shape: 32 2 (64)
I0904 01:21:05.360644 11459 net.cpp:159] Memory required for data: 266088448
I0904 01:21:05.360656 11459 layer_factory.hpp:77] Creating layer fc8_fc8_0_split
I0904 01:21:05.360666 11459 net.cpp:94] Creating Layer fc8_fc8_0_split
I0904 01:21:05.360673 11459 net.cpp:435] fc8_fc8_0_split <- fc8
I0904 01:21:05.360682 11459 net.cpp:409] fc8_fc8_0_split -> fc8_fc8_0_split_0
I0904 01:21:05.360762 11459 net.cpp:409] fc8_fc8_0_split -> fc8_fc8_0_split_1
I0904 01:21:05.360811 11459 net.cpp:144] Setting up fc8_fc8_0_split
I0904 01:21:05.360822 11459 net.cpp:151] Top shape: 32 2 (64)
I0904 01:21:05.360831 11459 net.cpp:151] Top shape: 32 2 (64)
I0904 01:21:05.360837 11459 net.cpp:159] Memory required for data: 266088960
I0904 01:21:05.360844 11459 layer_factory.hpp:77] Creating layer accuracy
I0904 01:21:05.360857 11459 net.cpp:94] Creating Layer accuracy
I0904 01:21:05.360865 11459 net.cpp:435] accuracy <- fc8_fc8_0_split_0
I0904 01:21:05.360874 11459 net.cpp:435] accuracy <- label_val-data_1_split_0
I0904 01:21:05.360883 11459 net.cpp:409] accuracy -> accuracy
…
