…
I0115 22:59:35.724031  5486 net.cpp:322] The NetState phase (0) differed from the phase (1) specified by a rule in layer accuracy
I0115 22:59:35.724280  5486 net.cpp:58] Initializing net from parameters:
state {
phase: TRAIN
level: 0
stage: ""
}
layer {
name: "train-data"
type: "Data"
top: "data"
top: "label"
include {
phase: TRAIN
}
transform_param {
mirror: true
crop_size: 224
mean_file: "/media/myuser/120Gb/DIGITS/digits/jobs/20161129-185048-9470/mean.binaryproto"
}
data_param {
source: "/media/myuser/120Gb/DIGITS/digits/jobs/20161129-185048-9470/train_db"
batch_size: 16
backend: LMDB
}
}
layer {
name: "conv1_1"
type: "Convolution"
bottom: "data"
top: "conv1_1"
convolution_param {
num_output: 64
pad: 1
kernel_size: 3
weight_filler {
type: "xavier"
}
bias_filler {
type: "constant"
value: 0
}
}
}
layer {
name: "relu1_1"
type: "ReLU"
bottom: "conv1_1"
top: "conv1_1"
}
layer {
name: "conv1_2"
type: "Convolution"
bottom: "conv1_1"
top: "conv1_2"
convolution_param {
num_output: 64
pad: 1
kernel_size: 3
weight_filler {
type: "xavier"
}
bias_filler {
type: "constant"
value: 0
}
}
}
layer {
name: "relu1_2"
type: "ReLU"
bottom: "conv1_2"
top: "conv1_2"
}
layer {
name: "pool1"
type: "Pooling"
bottom: "conv1_2"
top: "pool1"
pooling_param {
pool: MAX
kernel_size: 2
stride: 2
}
}
layer {
name: "conv2_1"
type: "Convolution"
bottom: "pool1"
top: "conv2_1"
convolution_param {
num_output: 128
pad: 1
kernel_size: 3
weight_filler {
type: "xavier"
}
bias_filler {
type: "constant"
value: 0
}
}
}
layer {
name: "relu2_1"
type: "ReLU"
bottom: "conv2_1"
top: "conv2_1"
}
layer {
name: "conv2_2"
type: "Convolution"
bottom: "conv2_1"
top: "conv2_2"
convolution_param {
num_output: 128
pad: 1
kernel_size: 3
weight_filler {
type: "xavier"
}
bias_filler {
type: "constant"
value: 0
}
}
}
layer {
name: "relu2_2"
type: "ReLU"
bottom: "conv2_2"
top: "conv2_2"
}
layer {
name: "pool2"
type: "Pooling"
bottom: "conv2_2"
top: "pool2"
pooling_param {
pool: MAX
kernel_size: 2
stride: 2
}
}
layer {
name: "conv3_1"
type: "Convolution"
bottom: "pool2"
top: "conv3_1"
convolution_param {
num_output: 256
pad: 1
kernel_size: 3
weight_filler {
type: "xavier"
}
bias_filler {
type: "constant"
value: 0
}
}
}
layer {
name: "relu3_1"
type: "ReLU"
bottom: "conv3_1"
top: "conv3_1"
}
layer {
name: "conv3_2"
type: "Convolution"
bottom: "conv3_1"
top: "conv3_2"
convolution_param {
num_output: 256
pad: 1
kernel_size: 3
weight_filler {
type: "xavier"
}
bias_filler {
type: "constant"
value: 0
}
}
}
layer {
name: "relu3_2"
type: "ReLU"
bottom: "conv3_2"
top: "conv3_2"
}
layer {
name: "conv3_3"
type: "Convolution"
bottom: "conv3_2"
top: "conv3_3"
convolution_param {
num_output: 256
pad: 1
kernel_size: 3
weight_filler {
type: "xavier"
}
bias_filler {
type: "constant"
value: 0
}
}
}
layer {
name: "relu3_3"
type: "ReLU"
bottom: "conv3_3"
top: "conv3_3"
}
layer {
name: "conv3_4"
type: "Convolution"
bottom: "conv3_3"
top: "conv3_4"
convolution_param {
num_output: 256
pad: 1
kernel_size: 3
weight_filler {
type: "xavier"
}
bias_filler {
type: "constant"
value: 0
}
}
}
layer {
name: "relu3_4"
type: "ReLU"
bottom: "conv3_4"
top: "conv3_4"
}
layer {
name: "pool3"
type: "Pooling"
bottom: "conv3_4"
top: "pool3"
pooling_param {
pool: MAX
kernel_size: 2
stride: 2
}
}
layer {
name: "conv4_1"
type: "Convolution"
bottom: "pool3"
top: "conv4_1"
convolution_param {
num_output: 512
pad: 1
kernel_size: 3
weight_filler {
type: "xavier"
}
bias_filler {
type: "constant"
value: 0
}
}
}
layer {
name: "relu4_1"
type: "ReLU"
bottom: "conv4_1"
top: "conv4_1"
}
layer {
name: "conv4_2"
type: "Convolution"
bottom: "conv4_1"
top: "conv4_2"
convolution_param {
num_output: 512
pad: 1
kernel_size: 3
weight_filler {
type: "xavier"
}
bias_filler {
type: "constant"
value: 0
}
}
}
layer {
name: "relu4_2"
type: "ReLU"
bottom: "conv4_2"
top: "conv4_2"
}
layer {
name: "conv4_3"
type: "Convolution"
bottom: "conv4_2"
top: "conv4_3"
convolution_param {
num_output: 512
pad: 1
kernel_size: 3
weight_filler {
type: "xavier"
}
bias_filler {
type: "constant"
value: 0
}
}
}
layer {
name: "relu4_3"
type: "ReLU"
bottom: "conv4_3"
top: "conv4_3"
}
layer {
name: "conv4_4"
type: "Convolution"
bottom: "conv4_3"
top: "conv4_4"
convolution_param {
num_output: 512
pad: 1
kernel_size: 3
weight_filler {
type: "xavier"
}
bias_filler {
type: "constant"
value: 0
}
}
}
layer {
name: "relu4_4"
type: "ReLU"
bottom: "conv4_4"
top: "conv4_4"
}
layer {
name: "pool4"
type: "Pooling"
bottom: "conv4_4"
top: "pool4"
pooling_param {
pool: MAX
kernel_size: 2
stride: 2
}
}
layer {
name: "conv5_1"
type: "Convolution"
bottom: "pool4"
top: "conv5_1"
convolution_param {
num_output: 512
pad: 1
kernel_size: 3
weight_filler {
type: "xavier"
}
bias_filler {
type: "constant"
value: 0
}
}
}
layer {
name: "relu5_1"
type: "ReLU"
bottom: "conv5_1"
top: "conv5_1"
}
layer {
name: "conv5_2"
type: "Convolution"
bottom: "conv5_1"
top: "conv5_2"
convolution_param {
num_output: 512
pad: 1
kernel_size: 3
weight_filler {
type: "xavier"
}
bias_filler {
type: "constant"
value: 0
}
}
}
layer {
name: "relu5_2"
type: "ReLU"
bottom: "conv5_2"
top: "conv5_2"
}
layer {
name: "conv5_3"
type: "Convolution"
bottom: "conv5_2"
top: "conv5_3"
convolution_param {
num_output: 512
pad: 1
kernel_size: 3
weight_filler {
type: "xavier"
}
bias_filler {
type: "constant"
value: 0
}
}
}
layer {
name: "relu5_3"
type: "ReLU"
bottom: "conv5_3"
top: "conv5_3"
}
layer {
name: "conv5_4"
type: "Convolution"
bottom: "conv5_3"
top: "conv5_4"
convolution_param {
num_output: 512
pad: 1
kernel_size: 3
weight_filler {
type: "xavier"
}
bias_filler {
type: "constant"
value: 0
}
}
}
layer {
name: "relu5_4"
type: "ReLU"
bottom: "conv5_4"
top: "conv5_4"
}
layer {
name: "pool5"
type: "Pooling"
bottom: "conv5_4"
top: "pool5"
pooling_param {
pool: MAX
kernel_size: 2
stride: 2
}
}
layer {
name: "fc6"
type: "InnerProduct"
bottom: "pool5"
top: "fc6"
inner_product_param {
num_output: 4096
weight_filler {
type: "xavier"
}
bias_filler {
type: "constant"
value: 0.1
}
}
}
layer {
name: "relu6"
type: "ReLU"
bottom: "fc6"
top: "fc6"
}
layer {
name: "drop6"
type: "Dropout"
bottom: "fc6"
top: "fc6"
dropout_param {
dropout_ratio: 0.5
}
}
layer {
name: "fc7"
type: "InnerProduct"
bottom: "fc6"
top: "fc7"
inner_product_param {
num_output: 4096
weight_filler {
type: "xavier"
}
bias_filler {
type: "constant"
value: 0.1
}
}
}
layer {
name: "relu7"
type: "ReLU"
bottom: "fc7"
top: "fc7"
}
layer {
name: "drop7"
type: "Dropout"
bottom: "fc7"
top: "fc7"
dropout_param {
dropout_ratio: 0.5
}
}
layer {
name: "fc8_output"
type: "InnerProduct"
bottom: "fc7"
top: "fc8_output"
inner_product_param {
num_output: 2
weight_filler {
type: "xavier"
}
bias_filler {
type: "constant"
value: 0.1
}
}
}
layer {
name: "loss"
type: "SoftmaxWithLoss"
bottom: "fc8_output"
bottom: "label"
top: "loss"
}
I0115 22:59:35.724485  5486 layer_factory.hpp:77] Creating layer train-data
I0115 22:59:35.736732  5486 net.cpp:100] Creating Layer train-data
I0115 22:59:35.736747  5486 net.cpp:408] train-data -> data
I0115 22:59:35.736771  5486 net.cpp:408] train-data -> label
I0115 22:59:35.737458  5486 data_transformer.cpp:25] Loading mean file from: /media/myuser/120Gb/DIGITS/digits/jobs/20161129-185048-9470/mean.binaryproto
I0115 22:59:35.786027  5495 db_lmdb.cpp:35] Opened lmdb /media/myuser/120Gb/DIGITS/digits/jobs/20161129-185048-9470/train_db
I0115 22:59:35.860450  5486 data_layer.cpp:41] output data size: 16,3,224,224
I0115 22:59:35.890789  5486 net.cpp:150] Setting up train-data
I0115 22:59:35.890827  5486 net.cpp:157] Top shape: 16 3 224 224 (2408448)
I0115 22:59:35.890838  5486 net.cpp:157] Top shape: 16 (16)
I0115 22:59:35.890846  5486 net.cpp:165] Memory required for data: 9633856
I0115 22:59:35.890863  5486 layer_factory.hpp:77] Creating layer conv1_1
I0115 22:59:35.890892  5486 net.cpp:100] Creating Layer conv1_1
I0115 22:59:35.890902  5486 net.cpp:434] conv1_1 <- data
I0115 22:59:35.890921  5486 net.cpp:408] conv1_1 -> conv1_1
I0115 22:59:36.519876  5486 net.cpp:150] Setting up conv1_1
I0115 22:59:36.519912  5486 net.cpp:157] Top shape: 16 64 224 224 (51380224)
I0115 22:59:36.519922  5486 net.cpp:165] Memory required for data: 215154752
I0115 22:59:36.519949  5486 layer_factory.hpp:77] Creating layer relu1_1
I0115 22:59:36.519968  5486 net.cpp:100] Creating Layer relu1_1
I0115 22:59:36.519975  5486 net.cpp:434] relu1_1 <- conv1_1
I0115 22:59:36.519986  5486 net.cpp:395] relu1_1 -> conv1_1 (in-place)
I0115 22:59:36.520225  5486 net.cpp:150] Setting up relu1_1
I0115 22:59:36.520236  5486 net.cpp:157] Top shape: 16 64 224 224 (51380224)
I0115 22:59:36.520243  5486 net.cpp:165] Memory required for data: 420675648
I0115 22:59:36.520251  5486 layer_factory.hpp:77] Creating layer conv1_2
I0115 22:59:36.520267  5486 net.cpp:100] Creating Layer conv1_2
I0115 22:59:36.520274  5486 net.cpp:434] conv1_2 <- conv1_1
I0115 22:59:36.520284  5486 net.cpp:408] conv1_2 -> conv1_2
I0115 22:59:36.521703  5486 net.cpp:150] Setting up conv1_2
I0115 22:59:36.521716  5486 net.cpp:157] Top shape: 16 64 224 224 (51380224)
I0115 22:59:36.521723  5486 net.cpp:165] Memory required for data: 626196544
I0115 22:59:36.521736  5486 layer_factory.hpp:77] Creating layer relu1_2
I0115 22:59:36.521747  5486 net.cpp:100] Creating Layer relu1_2
I0115 22:59:36.521755  5486 net.cpp:434] relu1_2 <- conv1_2
I0115 22:59:36.521764  5486 net.cpp:395] relu1_2 -> conv1_2 (in-place)
I0115 22:59:36.521946  5486 net.cpp:150] Setting up relu1_2
I0115 22:59:36.521957  5486 net.cpp:157] Top shape: 16 64 224 224 (51380224)
I0115 22:59:36.521965  5486 net.cpp:165] Memory required for data: 831717440
I0115 22:59:36.521972  5486 layer_factory.hpp:77] Creating layer pool1
I0115 22:59:36.521984  5486 net.cpp:100] Creating Layer pool1
I0115 22:59:36.521992  5486 net.cpp:434] pool1 <- conv1_2
I0115 22:59:36.522001  5486 net.cpp:408] pool1 -> pool1
I0115 22:59:36.523517  5486 net.cpp:150] Setting up pool1
I0115 22:59:36.523536  5486 net.cpp:157] Top shape: 16 64 112 112 (12845056)
I0115 22:59:36.523547  5486 net.cpp:165] Memory required for data: 883097664
I0115 22:59:36.523558  5486 layer_factory.hpp:77] Creating layer conv2_1
I0115 22:59:36.523578  5486 net.cpp:100] Creating Layer conv2_1
I0115 22:59:36.523593  5486 net.cpp:434] conv2_1 <- pool1
I0115 22:59:36.523603  5486 net.cpp:408] conv2_1 -> conv2_1
I0115 22:59:36.526648  5486 net.cpp:150] Setting up conv2_1
I0115 22:59:36.526666  5486 net.cpp:157] Top shape: 16 128 112 112 (25690112)
I0115 22:59:36.526674  5486 net.cpp:165] Memory required for data: 985858112
I0115 22:59:36.526690  5486 layer_factory.hpp:77] Creating layer relu2_1
I0115 22:59:36.526702  5486 net.cpp:100] Creating Layer relu2_1
I0115 22:59:36.526710  5486 net.cpp:434] relu2_1 <- conv2_1
I0115 22:59:36.526720  5486 net.cpp:395] relu2_1 -> conv2_1 (in-place)
I0115 22:59:36.527171  5486 net.cpp:150] Setting up relu2_1
I0115 22:59:36.527184  5486 net.cpp:157] Top shape: 16 128 112 112 (25690112)
I0115 22:59:36.527190  5486 net.cpp:165] Memory required for data: 1088618560
I0115 22:59:36.527199  5486 layer_factory.hpp:77] Creating layer conv2_2
I0115 22:59:36.527215  5486 net.cpp:100] Creating Layer conv2_2
I0115 22:59:36.527222  5486 net.cpp:434] conv2_2 <- conv2_1
I0115 22:59:36.527232  5486 net.cpp:408] conv2_2 -> conv2_2
I0115 22:59:36.529866  5486 net.cpp:150] Setting up conv2_2
I0115 22:59:36.529880  5486 net.cpp:157] Top shape: 16 128 112 112 (25690112)
I0115 22:59:36.529887  5486 net.cpp:165] Memory required for data: 1191379008
I0115 22:59:36.529898  5486 layer_factory.hpp:77] Creating layer relu2_2
I0115 22:59:36.529907  5486 net.cpp:100] Creating Layer relu2_2
I0115 22:59:36.529916  5486 net.cpp:434] relu2_2 <- conv2_2
I0115 22:59:36.529927  5486 net.cpp:395] relu2_2 -> conv2_2 (in-place)
I0115 22:59:36.530125  5486 net.cpp:150] Setting up relu2_2
I0115 22:59:36.530136  5486 net.cpp:157] Top shape: 16 128 112 112 (25690112)
I0115 22:59:36.530143  5486 net.cpp:165] Memory required for data: 1294139456
I0115 22:59:36.530150  5486 layer_factory.hpp:77] Creating layer pool2
I0115 22:59:36.530164  5486 net.cpp:100] Creating Layer pool2
I0115 22:59:36.530171  5486 net.cpp:434] pool2 <- conv2_2
I0115 22:59:36.530180  5486 net.cpp:408] pool2 -> pool2
I0115 22:59:36.530226  5486 net.cpp:150] Setting up pool2
I0115 22:59:36.530236  5486 net.cpp:157] Top shape: 16 128 56 56 (6422528)
I0115 22:59:36.530243  5486 net.cpp:165] Memory required for data: 1319829568
I0115 22:59:36.530251  5486 layer_factory.hpp:77] Creating layer conv3_1
I0115 22:59:36.530264  5486 net.cpp:100] Creating Layer conv3_1
I0115 22:59:36.530272  5486 net.cpp:434] conv3_1 <- pool2
I0115 22:59:36.530282  5486 net.cpp:408] conv3_1 -> conv3_1
I0115 22:59:36.535142  5486 net.cpp:150] Setting up conv3_1
I0115 22:59:36.535162  5486 net.cpp:157] Top shape: 16 256 56 56 (12845056)
I0115 22:59:36.535171  5486 net.cpp:165] Memory required for data: 1371209792
I0115 22:59:36.535188  5486 layer_factory.hpp:77] Creating layer relu3_1
I0115 22:59:36.535198  5486 net.cpp:100] Creating Layer relu3_1
I0115 22:59:36.535207  5486 net.cpp:434] relu3_1 <- conv3_1
I0115 22:59:36.535215  5486 net.cpp:395] relu3_1 -> conv3_1 (in-place)
I0115 22:59:36.535420  5486 net.cpp:150] Setting up relu3_1
I0115 22:59:36.535431  5486 net.cpp:157] Top shape: 16 256 56 56 (12845056)
I0115 22:59:36.535439  5486 net.cpp:165] Memory required for data: 1422590016
I0115 22:59:36.535455  5486 layer_factory.hpp:77] Creating layer conv3_2
I0115 22:59:36.535470  5486 net.cpp:100] Creating Layer conv3_2
I0115 22:59:36.535477  5486 net.cpp:434] conv3_2 <- conv3_1
I0115 22:59:36.535487  5486 net.cpp:408] conv3_2 -> conv3_2
I0115 22:59:36.542763  5486 net.cpp:150] Setting up conv3_2
I0115 22:59:36.542783  5486 net.cpp:157] Top shape: 16 256 56 56 (12845056)
I0115 22:59:36.542790  5486 net.cpp:165] Memory required for data: 1473970240
I0115 22:59:36.542804  5486 layer_factory.hpp:77] Creating layer relu3_2
I0115 22:59:36.542846  5486 net.cpp:100] Creating Layer relu3_2
I0115 22:59:36.542855  5486 net.cpp:434] relu3_2 <- conv3_2
I0115 22:59:36.542863  5486 net.cpp:395] relu3_2 -> conv3_2 (in-place)
I0115 22:59:36.543069  5486 net.cpp:150] Setting up relu3_2
I0115 22:59:36.543082  5486 net.cpp:157] Top shape: 16 256 56 56 (12845056)
I0115 22:59:36.543089  5486 net.cpp:165] Memory required for data: 1525350464
I0115 22:59:36.543097  5486 layer_factory.hpp:77] Creating layer conv3_3
I0115 22:59:36.543109  5486 net.cpp:100] Creating Layer conv3_3
I0115 22:59:36.543117  5486 net.cpp:434] conv3_3 <- conv3_2
I0115 22:59:36.543128  5486 net.cpp:408] conv3_3 -> conv3_3
I0115 22:59:36.550451  5486 net.cpp:150] Setting up conv3_3
I0115 22:59:36.550472  5486 net.cpp:157] Top shape: 16 256 56 56 (12845056)
I0115 22:59:36.550482  5486 net.cpp:165] Memory required for data: 1576730688
I0115 22:59:36.550493  5486 layer_factory.hpp:77] Creating layer relu3_3
I0115 22:59:36.550510  5486 net.cpp:100] Creating Layer relu3_3
I0115 22:59:36.550518  5486 net.cpp:434] relu3_3 <- conv3_3
I0115 22:59:36.550528  5486 net.cpp:395] relu3_3 -> conv3_3 (in-place)
I0115 22:59:36.550732  5486 net.cpp:150] Setting up relu3_3
I0115 22:59:36.550743  5486 net.cpp:157] Top shape: 16 256 56 56 (12845056)
I0115 22:59:36.550750  5486 net.cpp:165] Memory required for data: 1628110912
I0115 22:59:36.550757  5486 layer_factory.hpp:77] Creating layer conv3_4
I0115 22:59:36.550772  5486 net.cpp:100] Creating Layer conv3_4
I0115 22:59:36.550779  5486 net.cpp:434] conv3_4 <- conv3_3
I0115 22:59:36.550789  5486 net.cpp:408] conv3_4 -> conv3_4
I0115 22:59:36.561668  5486 net.cpp:150] Setting up conv3_4
I0115 22:59:36.561707  5486 net.cpp:157] Top shape: 16 256 56 56 (12845056)
I0115 22:59:36.561718  5486 net.cpp:165] Memory required for data: 1679491136
I0115 22:59:36.561738  5486 layer_factory.hpp:77] Creating layer relu3_4
I0115 22:59:36.561758  5486 net.cpp:100] Creating Layer relu3_4
I0115 22:59:36.561770  5486 net.cpp:434] relu3_4 <- conv3_4
I0115 22:59:36.561786  5486 net.cpp:395] relu3_4 -> conv3_4 (in-place)
I0115 22:59:36.562106  5486 net.cpp:150] Setting up relu3_4
I0115 22:59:36.562122  5486 net.cpp:157] Top shape: 16 256 56 56 (12845056)
I0115 22:59:36.562134  5486 net.cpp:165] Memory required for data: 1730871360
I0115 22:59:36.562145  5486 layer_factory.hpp:77] Creating layer pool3
I0115 22:59:36.562160  5486 net.cpp:100] Creating Layer pool3
I0115 22:59:36.562170  5486 net.cpp:434] pool3 <- conv3_4
I0115 22:59:36.562187  5486 net.cpp:408] pool3 -> pool3
I0115 22:59:36.562259  5486 net.cpp:150] Setting up pool3
I0115 22:59:36.562274  5486 net.cpp:157] Top shape: 16 256 28 28 (3211264)
I0115 22:59:36.562285  5486 net.cpp:165] Memory required for data: 1743716416
I0115 22:59:36.562295  5486 layer_factory.hpp:77] Creating layer conv4_1
I0115 22:59:36.562320  5486 net.cpp:100] Creating Layer conv4_1
I0115 22:59:36.562332  5486 net.cpp:434] conv4_1 <- pool3
I0115 22:59:36.562347  5486 net.cpp:408] conv4_1 -> conv4_1
I0115 22:59:36.583648  5486 net.cpp:150] Setting up conv4_1
I0115 22:59:36.583693  5486 net.cpp:157] Top shape: 16 512 28 28 (6422528)
I0115 22:59:36.583708  5486 net.cpp:165] Memory required for data: 1769406528
I0115 22:59:36.583750  5486 layer_factory.hpp:77] Creating layer relu4_1
I0115 22:59:36.583771  5486 net.cpp:100] Creating Layer relu4_1
I0115 22:59:36.583784  5486 net.cpp:434] relu4_1 <- conv4_1
I0115 22:59:36.583801  5486 net.cpp:395] relu4_1 -> conv4_1 (in-place)
I0115 22:59:36.584506  5486 net.cpp:150] Setting up relu4_1
I0115 22:59:36.584524  5486 net.cpp:157] Top shape: 16 512 28 28 (6422528)
I0115 22:59:36.584535  5486 net.cpp:165] Memory required for data: 1795096640
I0115 22:59:36.584547  5486 layer_factory.hpp:77] Creating layer conv4_2
I0115 22:59:36.584571  5486 net.cpp:100] Creating Layer conv4_2
I0115 22:59:36.584583  5486 net.cpp:434] conv4_2 <- conv4_1
I0115 22:59:36.584599  5486 net.cpp:408] conv4_2 -> conv4_2
I0115 22:59:36.623343  5486 net.cpp:150] Setting up conv4_2
I0115 22:59:36.623388  5486 net.cpp:157] Top shape: 16 512 28 28 (6422528)
I0115 22:59:36.623437  5486 net.cpp:165] Memory required for data: 1820786752
I0115 22:59:36.623476  5486 layer_factory.hpp:77] Creating layer relu4_2
I0115 22:59:36.623497  5486 net.cpp:100] Creating Layer relu4_2
I0115 22:59:36.623509  5486 net.cpp:434] relu4_2 <- conv4_2
I0115 22:59:36.623525  5486 net.cpp:395] relu4_2 -> conv4_2 (in-place)
I0115 22:59:36.623853  5486 net.cpp:150] Setting up relu4_2
I0115 22:59:36.623870  5486 net.cpp:157] Top shape: 16 512 28 28 (6422528)
I0115 22:59:36.623881  5486 net.cpp:165] Memory required for data: 1846476864
I0115 22:59:36.623891  5486 layer_factory.hpp:77] Creating layer conv4_3
I0115 22:59:36.623914  5486 net.cpp:100] Creating Layer conv4_3
I0115 22:59:36.623926  5486 net.cpp:434] conv4_3 <- conv4_2
I0115 22:59:36.623945  5486 net.cpp:408] conv4_3 -> conv4_3
I0115 22:59:36.662722  5486 net.cpp:150] Setting up conv4_3
I0115 22:59:36.662766  5486 net.cpp:157] Top shape: 16 512 28 28 (6422528)
I0115 22:59:36.662778  5486 net.cpp:165] Memory required for data: 1872166976
I0115 22:59:36.662799  5486 layer_factory.hpp:77] Creating layer relu4_3
I0115 22:59:36.662823  5486 net.cpp:100] Creating Layer relu4_3
I0115 22:59:36.662837  5486 net.cpp:434] relu4_3 <- conv4_3
I0115 22:59:36.662853  5486 net.cpp:395] relu4_3 -> conv4_3 (in-place)
I0115 22:59:36.663187  5486 net.cpp:150] Setting up relu4_3
I0115 22:59:36.663203  5486 net.cpp:157] Top shape: 16 512 28 28 (6422528)
I0115 22:59:36.663218  5486 net.cpp:165] Memory required for data: 1897857088
I0115 22:59:36.663228  5486 layer_factory.hpp:77] Creating layer conv4_4
I0115 22:59:36.663249  5486 net.cpp:100] Creating Layer conv4_4
I0115 22:59:36.663259  5486 net.cpp:434] conv4_4 <- conv4_3
I0115 22:59:36.663277  5486 net.cpp:408] conv4_4 -> conv4_4
I0115 22:59:36.706208  5486 net.cpp:150] Setting up conv4_4
I0115 22:59:36.706250  5486 net.cpp:157] Top shape: 16 512 28 28 (6422528)
I0115 22:59:36.706264  5486 net.cpp:165] Memory required for data: 1923547200
I0115 22:59:36.706284  5486 layer_factory.hpp:77] Creating layer relu4_4
I0115 22:59:36.706306  5486 net.cpp:100] Creating Layer relu4_4
I0115 22:59:36.706321  5486 net.cpp:434] relu4_4 <- conv4_4
I0115 22:59:36.706336  5486 net.cpp:395] relu4_4 -> conv4_4 (in-place)
I0115 22:59:36.706658  5486 net.cpp:150] Setting up relu4_4
I0115 22:59:36.706674  5486 net.cpp:157] Top shape: 16 512 28 28 (6422528)
I0115 22:59:36.706686  5486 net.cpp:165] Memory required for data: 1949237312
I0115 22:59:36.706696  5486 layer_factory.hpp:77] Creating layer pool4
I0115 22:59:36.706717  5486 net.cpp:100] Creating Layer pool4
I0115 22:59:36.706727  5486 net.cpp:434] pool4 <- conv4_4
I0115 22:59:36.706744  5486 net.cpp:408] pool4 -> pool4
I0115 22:59:36.706820  5486 net.cpp:150] Setting up pool4
I0115 22:59:36.706835  5486 net.cpp:157] Top shape: 16 512 14 14 (1605632)
I0115 22:59:36.706845  5486 net.cpp:165] Memory required for data: 1955659840
I0115 22:59:36.706856  5486 layer_factory.hpp:77] Creating layer conv5_1
I0115 22:59:36.706877  5486 net.cpp:100] Creating Layer conv5_1
I0115 22:59:36.706888  5486 net.cpp:434] conv5_1 <- pool4
I0115 22:59:36.706907  5486 net.cpp:408] conv5_1 -> conv5_1
I0115 22:59:36.746273  5486 net.cpp:150] Setting up conv5_1
I0115 22:59:36.746309  5486 net.cpp:157] Top shape: 16 512 14 14 (1605632)
I0115 22:59:36.746320  5486 net.cpp:165] Memory required for data: 1962082368
I0115 22:59:36.746341  5486 layer_factory.hpp:77] Creating layer relu5_1
I0115 22:59:36.746361  5486 net.cpp:100] Creating Layer relu5_1
I0115 22:59:36.746374  5486 net.cpp:434] relu5_1 <- conv5_1
I0115 22:59:36.746394  5486 net.cpp:395] relu5_1 -> conv5_1 (in-place)
I0115 22:59:36.746726  5486 net.cpp:150] Setting up relu5_1
I0115 22:59:36.746742  5486 net.cpp:157] Top shape: 16 512 14 14 (1605632)
I0115 22:59:36.746752  5486 net.cpp:165] Memory required for data: 1968504896
I0115 22:59:36.746763  5486 layer_factory.hpp:77] Creating layer conv5_2
I0115 22:59:36.746786  5486 net.cpp:100] Creating Layer conv5_2
I0115 22:59:36.746798  5486 net.cpp:434] conv5_2 <- conv5_1
I0115 22:59:36.746816  5486 net.cpp:408] conv5_2 -> conv5_2
I0115 22:59:36.785645  5486 net.cpp:150] Setting up conv5_2
I0115 22:59:36.785688  5486 net.cpp:157] Top shape: 16 512 14 14 (1605632)
I0115 22:59:36.785701  5486 net.cpp:165] Memory required for data: 1974927424
I0115 22:59:36.785722  5486 layer_factory.hpp:77] Creating layer relu5_2
I0115 22:59:36.785755  5486 net.cpp:100] Creating Layer relu5_2
I0115 22:59:36.785769  5486 net.cpp:434] relu5_2 <- conv5_2
I0115 22:59:36.785785  5486 net.cpp:395] relu5_2 -> conv5_2 (in-place)
I0115 22:59:36.786106  5486 net.cpp:150] Setting up relu5_2
I0115 22:59:36.786125  5486 net.cpp:157] Top shape: 16 512 14 14 (1605632)
I0115 22:59:36.786136  5486 net.cpp:165] Memory required for data: 1981349952
I0115 22:59:36.786147  5486 layer_factory.hpp:77] Creating layer conv5_3
I0115 22:59:36.786170  5486 net.cpp:100] Creating Layer conv5_3
I0115 22:59:36.786181  5486 net.cpp:434] conv5_3 <- conv5_2
I0115 22:59:36.786197  5486 net.cpp:408] conv5_3 -> conv5_3
I0115 22:59:36.825755  5486 net.cpp:150] Setting up conv5_3
I0115 22:59:36.825793  5486 net.cpp:157] Top shape: 16 512 14 14 (1605632)
I0115 22:59:36.825805  5486 net.cpp:165] Memory required for data: 1987772480
I0115 22:59:36.825826  5486 layer_factory.hpp:77] Creating layer relu5_3
I0115 22:59:36.825845  5486 net.cpp:100] Creating Layer relu5_3
I0115 22:59:36.825858  5486 net.cpp:434] relu5_3 <- conv5_3
I0115 22:59:36.825877  5486 net.cpp:395] relu5_3 -> conv5_3 (in-place)
I0115 22:59:36.827023  5486 net.cpp:150] Setting up relu5_3
I0115 22:59:36.827041  5486 net.cpp:157] Top shape: 16 512 14 14 (1605632)
I0115 22:59:36.827054  5486 net.cpp:165] Memory required for data: 1994195008
I0115 22:59:36.827064  5486 layer_factory.hpp:77] Creating layer conv5_4
I0115 22:59:36.827087  5486 net.cpp:100] Creating Layer conv5_4
I0115 22:59:36.827100  5486 net.cpp:434] conv5_4 <- conv5_3
I0115 22:59:36.827117  5486 net.cpp:408] conv5_4 -> conv5_4
I0115 22:59:36.865903  5486 net.cpp:150] Setting up conv5_4
I0115 22:59:36.865944  5486 net.cpp:157] Top shape: 16 512 14 14 (1605632)
I0115 22:59:36.865957  5486 net.cpp:165] Memory required for data: 2000617536
I0115 22:59:36.865978  5486 layer_factory.hpp:77] Creating layer relu5_4
I0115 22:59:36.866000  5486 net.cpp:100] Creating Layer relu5_4
I0115 22:59:36.866014  5486 net.cpp:434] relu5_4 <- conv5_4
I0115 22:59:36.866031  5486 net.cpp:395] relu5_4 -> conv5_4 (in-place)
I0115 22:59:36.866346  5486 net.cpp:150] Setting up relu5_4
I0115 22:59:36.866364  5486 net.cpp:157] Top shape: 16 512 14 14 (1605632)
I0115 22:59:36.866374  5486 net.cpp:165] Memory required for data: 2007040064
I0115 22:59:36.866384  5486 layer_factory.hpp:77] Creating layer pool5
I0115 22:59:36.866405  5486 net.cpp:100] Creating Layer pool5
I0115 22:59:36.866417  5486 net.cpp:434] pool5 <- conv5_4
I0115 22:59:36.866436  5486 net.cpp:408] pool5 -> pool5
I0115 22:59:36.866518  5486 net.cpp:150] Setting up pool5
I0115 22:59:36.866533  5486 net.cpp:157] Top shape: 16 512 7 7 (401408)
I0115 22:59:36.866544  5486 net.cpp:165] Memory required for data: 2008645696
I0115 22:59:36.866554  5486 layer_factory.hpp:77] Creating layer fc6
I0115 22:59:36.867694  5486 net.cpp:100] Creating Layer fc6
I0115 22:59:36.867708  5486 net.cpp:434] fc6 <- pool5
I0115 22:59:36.867723  5486 net.cpp:408] fc6 -> fc6
I0115 22:59:37.955600  5486 net.cpp:150] Setting up fc6
I0115 22:59:37.955646  5486 net.cpp:157] Top shape: 16 4096 (65536)
I0115 22:59:37.955654  5486 net.cpp:165] Memory required for data: 2008907840
I0115 22:59:37.955683  5486 layer_factory.hpp:77] Creating layer relu6
I0115 22:59:37.955699  5486 net.cpp:100] Creating Layer relu6
I0115 22:59:37.955708  5486 net.cpp:434] relu6 <- fc6
I0115 22:59:37.955721  5486 net.cpp:395] relu6 -> fc6 (in-place)
I0115 22:59:37.956007  5486 net.cpp:150] Setting up relu6
I0115 22:59:37.956017  5486 net.cpp:157] Top shape: 16 4096 (65536)
I0115 22:59:37.956024  5486 net.cpp:165] Memory required for data: 2009169984
I0115 22:59:37.956032  5486 layer_factory.hpp:77] Creating layer drop6
I0115 22:59:37.956048  5486 net.cpp:100] Creating Layer drop6
I0115 22:59:37.956087  5486 net.cpp:434] drop6 <- fc6
I0115 22:59:37.956099  5486 net.cpp:395] drop6 -> fc6 (in-place)
I0115 22:59:37.956140  5486 net.cpp:150] Setting up drop6
I0115 22:59:37.956149  5486 net.cpp:157] Top shape: 16 4096 (65536)
I0115 22:59:37.956156  5486 net.cpp:165] Memory required for data: 2009432128
I0115 22:59:37.956163  5486 layer_factory.hpp:77] Creating layer fc7
I0115 22:59:37.956174  5486 net.cpp:100] Creating Layer fc7
I0115 22:59:37.956182  5486 net.cpp:434] fc7 <- fc6
I0115 22:59:37.956192  5486 net.cpp:408] fc7 -> fc7
I0115 22:59:38.137254  5486 net.cpp:150] Setting up fc7
I0115 22:59:38.137305  5486 net.cpp:157] Top shape: 16 4096 (65536)
I0115 22:59:38.137315  5486 net.cpp:165] Memory required for data: 2009694272
I0115 22:59:38.137331  5486 layer_factory.hpp:77] Creating layer relu7
I0115 22:59:38.137346  5486 net.cpp:100] Creating Layer relu7
I0115 22:59:38.137356  5486 net.cpp:434] relu7 <- fc7
I0115 22:59:38.137369  5486 net.cpp:395] relu7 -> fc7 (in-place)
I0115 22:59:38.137665  5486 net.cpp:150] Setting up relu7
I0115 22:59:38.137676  5486 net.cpp:157] Top shape: 16 4096 (65536)
I0115 22:59:38.137683  5486 net.cpp:165] Memory required for data: 2009956416
I0115 22:59:38.137691  5486 layer_factory.hpp:77] Creating layer drop7
I0115 22:59:38.137703  5486 net.cpp:100] Creating Layer drop7
I0115 22:59:38.137718  5486 net.cpp:434] drop7 <- fc7
I0115 22:59:38.137727  5486 net.cpp:395] drop7 -> fc7 (in-place)
I0115 22:59:38.137759  5486 net.cpp:150] Setting up drop7
I0115 22:59:38.137768  5486 net.cpp:157] Top shape: 16 4096 (65536)
I0115 22:59:38.137775  5486 net.cpp:165] Memory required for data: 2010218560
I0115 22:59:38.137783  5486 layer_factory.hpp:77] Creating layer fc8_output
I0115 22:59:38.137800  5486 net.cpp:100] Creating Layer fc8_output
I0115 22:59:38.137807  5486 net.cpp:434] fc8_output <- fc7
I0115 22:59:38.137820  5486 net.cpp:408] fc8_output -> fc8_output
I0115 22:59:38.138027  5486 net.cpp:150] Setting up fc8_output
I0115 22:59:38.138039  5486 net.cpp:157] Top shape: 16 2 (32)
I0115 22:59:38.138046  5486 net.cpp:165] Memory required for data: 2010218688
I0115 22:59:38.138056  5486 layer_factory.hpp:77] Creating layer loss
I0115 22:59:38.139156  5486 net.cpp:100] Creating Layer loss
I0115 22:59:38.139170  5486 net.cpp:434] loss <- fc8_output
I0115 22:59:38.139183  5486 net.cpp:434] loss <- label
I0115 22:59:38.139201  5486 net.cpp:408] loss -> loss
I0115 22:59:38.139227  5486 layer_factory.hpp:77] Creating layer loss
…
I0115 22:59:38.141821  5486 net.cpp:322] The NetState phase (1) differed from the phase (0) specified by a rule in layer train-data
I0115 22:59:38.142102  5486 net.cpp:58] Initializing net from parameters:
state {
phase: TEST
}
layer {
name: "val-data"
type: "Data"
top: "data"
top: "label"
include {
phase: TEST
}
transform_param {
crop_size: 224
mean_file: "/media/myuser/120Gb/DIGITS/digits/jobs/20161129-185048-9470/mean.binaryproto"
}
data_param {
source: "/media/myuser/120Gb/DIGITS/digits/jobs/20161129-185048-9470/val_db"
batch_size: 16
backend: LMDB
}
}
layer {
name: "conv1_1"
type: "Convolution"
bottom: "data"
top: "conv1_1"
convolution_param {
num_output: 64
pad: 1
kernel_size: 3
weight_filler {
type: "xavier"
}
bias_filler {
type: "constant"
value: 0
}
}
}
layer {
name: "relu1_1"
type: "ReLU"
bottom: "conv1_1"
top: "conv1_1"
}
layer {
name: "conv1_2"
type: "Convolution"
bottom: "conv1_1"
top: "conv1_2"
convolution_param {
num_output: 64
pad: 1
kernel_size: 3
weight_filler {
type: "xavier"
}
bias_filler {
type: "constant"
value: 0
}
}
}
layer {
name: "relu1_2"
type: "ReLU"
bottom: "conv1_2"
top: "conv1_2"
}
layer {
name: "pool1"
type: "Pooling"
bottom: "conv1_2"
top: "pool1"
pooling_param {
pool: MAX
kernel_size: 2
stride: 2
}
}
layer {
name: "conv2_1"
type: "Convolution"
bottom: "pool1"
top: "conv2_1"
convolution_param {
num_output: 128
pad: 1
kernel_size: 3
weight_filler {
type: "xavier"
}
bias_filler {
type: "constant"
value: 0
}
}
}
layer {
name: "relu2_1"
type: "ReLU"
bottom: "conv2_1"
top: "conv2_1"
}
layer {
name: "conv2_2"
type: "Convolution"
bottom: "conv2_1"
top: "conv2_2"
convolution_param {
num_output: 128
pad: 1
kernel_size: 3
weight_filler {
type: "xavier"
}
bias_filler {
type: "constant"
value: 0
}
}
}
layer {
name: "relu2_2"
type: "ReLU"
bottom: "conv2_2"
top: "conv2_2"
}
layer {
name: "pool2"
type: "Pooling"
bottom: "conv2_2"
top: "pool2"
pooling_param {
pool: MAX
kernel_size: 2
stride: 2
}
}
layer {
name: "conv3_1"
type: "Convolution"
bottom: "pool2"
top: "conv3_1"
convolution_param {
num_output: 256
pad: 1
kernel_size: 3
weight_filler {
type: "xavier"
}
bias_filler {
type: "constant"
value: 0
}
}
}
layer {
name: "relu3_1"
type: "ReLU"
bottom: "conv3_1"
top: "conv3_1"
}
layer {
name: "conv3_2"
type: "Convolution"
bottom: "conv3_1"
top: "conv3_2"
convolution_param {
num_output: 256
pad: 1
kernel_size: 3
weight_filler {
type: "xavier"
}
bias_filler {
type: "constant"
value: 0
}
}
}
layer {
name: "relu3_2"
type: "ReLU"
bottom: "conv3_2"
top: "conv3_2"
}
layer {
name: "conv3_3"
type: "Convolution"
bottom: "conv3_2"
top: "conv3_3"
convolution_param {
num_output: 256
pad: 1
kernel_size: 3
weight_filler {
type: "xavier"
}
bias_filler {
type: "constant"
value: 0
}
}
}
layer {
name: "relu3_3"
type: "ReLU"
bottom: "conv3_3"
top: "conv3_3"
}
layer {
name: "conv3_4"
type: "Convolution"
bottom: "conv3_3"
top: "conv3_4"
convolution_param {
num_output: 256
pad: 1
kernel_size: 3
weight_filler {
type: "xavier"
}
bias_filler {
type: "constant"
value: 0
}
}
}
layer {
name: "relu3_4"
type: "ReLU"
bottom: "conv3_4"
top: "conv3_4"
}
layer {
name: "pool3"
type: "Pooling"
bottom: "conv3_4"
top: "pool3"
pooling_param {
pool: MAX
kernel_size: 2
stride: 2
}
}
layer {
name: "conv4_1"
type: "Convolution"
bottom: "pool3"
top: "conv4_1"
convolution_param {
num_output: 512
pad: 1
kernel_size: 3
weight_filler {
type: "xavier"
}
bias_filler {
type: "constant"
value: 0
}
}
}
layer {
name: "relu4_1"
type: "ReLU"
bottom: "conv4_1"
top: "conv4_1"
}
layer {
name: "conv4_2"
type: "Convolution"
bottom: "conv4_1"
top: "conv4_2"
convolution_param {
num_output: 512
pad: 1
kernel_size: 3
weight_filler {
type: "xavier"
}
bias_filler {
type: "constant"
value: 0
}
}
}
layer {
name: "relu4_2"
type: "ReLU"
bottom: "conv4_2"
top: "conv4_2"
}
layer {
name: "conv4_3"
type: "Convolution"
bottom: "conv4_2"
top: "conv4_3"
convolution_param {
num_output: 512
pad: 1
kernel_size: 3
weight_filler {
type: "xavier"
}
bias_filler {
type: "constant"
value: 0
}
}
}
layer {
name: "relu4_3"
type: "ReLU"
bottom: "conv4_3"
top: "conv4_3"
}
layer {
name: "conv4_4"
type: "Convolution"
bottom: "conv4_3"
top: "conv4_4"
convolution_param {
num_output: 512
pad: 1
kernel_size: 3
weight_filler {
type: "xavier"
}
bias_filler {
type: "constant"
value: 0
}
}
}
layer {
name: "relu4_4"
type: "ReLU"
bottom: "conv4_4"
top: "conv4_4"
}
layer {
name: "pool4"
type: "Pooling"
bottom: "conv4_4"
top: "pool4"
pooling_param {
pool: MAX
kernel_size: 2
stride: 2
}
}
layer {
name: "conv5_1"
type: "Convolution"
bottom: "pool4"
top: "conv5_1"
convolution_param {
num_output: 512
pad: 1
kernel_size: 3
weight_filler {
type: "xavier"
}
bias_filler {
type: "constant"
value: 0
}
}
}
layer {
name: "relu5_1"
type: "ReLU"
bottom: "conv5_1"
top: "conv5_1"
}
layer {
name: "conv5_2"
type: "Convolution"
bottom: "conv5_1"
top: "conv5_2"
convolution_param {
num_output: 512
pad: 1
kernel_size: 3
weight_filler {
type: "xavier"
}
bias_filler {
type: "constant"
value: 0
}
}
}
layer {
name: "relu5_2"
type: "ReLU"
bottom: "conv5_2"
top: "conv5_2"
}
layer {
name: "conv5_3"
type: "Convolution"
bottom: "conv5_2"
top: "conv5_3"
convolution_param {
num_output: 512
pad: 1
kernel_size: 3
weight_filler {
type: "xavier"
}
bias_filler {
type: "constant"
value: 0
}
}
}
layer {
name: "relu5_3"
type: "ReLU"
bottom: "conv5_3"
top: "conv5_3"
}
layer {
name: "conv5_4"
type: "Convolution"
bottom: "conv5_3"
top: "conv5_4"
convolution_param {
num_output: 512
pad: 1
kernel_size: 3
weight_filler {
type: "xavier"
}
bias_filler {
type: "constant"
value: 0
}
}
}
layer {
name: "relu5_4"
type: "ReLU"
bottom: "conv5_4"
top: "conv5_4"
}
layer {
name: "pool5"
type: "Pooling"
bottom: "conv5_4"
top: "pool5"
pooling_param {
pool: MAX
kernel_size: 2
stride: 2
}
}
layer {
name: "fc6"
type: "InnerProduct"
bottom: "pool5"
top: "fc6"
inner_product_param {
num_output: 4096
weight_filler {
type: "xavier"
}
bias_filler {
type: "constant"
value: 0.1
}
}
}
layer {
name: "relu6"
type: "ReLU"
bottom: "fc6"
top: "fc6"
}
layer {
name: "drop6"
type: "Dropout"
bottom: "fc6"
top: "fc6"
dropout_param {
dropout_ratio: 0.5
}
}
layer {
name: "fc7"
type: "InnerProduct"
bottom: "fc6"
top: "fc7"
inner_product_param {
num_output: 4096
weight_filler {
type: "xavier"
}
bias_filler {
type: "constant"
value: 0.1
}
}
}
layer {
name: "relu7"
type: "ReLU"
bottom: "fc7"
top: "fc7"
}
layer {
name: "drop7"
type: "Dropout"
bottom: "fc7"
top: "fc7"
dropout_param {
dropout_ratio: 0.5
}
}
layer {
name: "fc8_output"
type: "InnerProduct"
bottom: "fc7"
top: "fc8_output"
inner_product_param {
num_output: 2
weight_filler {
type: "xavier"
}
bias_filler {
type: "constant"
value: 0.1
}
}
}
layer {
name: "accuracy"
type: "Accuracy"
bottom: "fc8_output"
bottom: "label"
top: "accuracy"
include {
phase: TEST
}
}
layer {
name: "loss"
type: "SoftmaxWithLoss"
bottom: "fc8_output"
bottom: "label"
top: "loss"
}
I0115 22:59:38.142313  5486 layer_factory.hpp:77] Creating layer val-data
I0115 22:59:38.142403  5486 net.cpp:100] Creating Layer val-data
I0115 22:59:38.142415  5486 net.cpp:408] val-data -> data
I0115 22:59:38.142427  5486 net.cpp:408] val-data -> label
I0115 22:59:38.142441  5486 data_transformer.cpp:25] Loading mean file from: /media/myuser/120Gb/DIGITS/digits/jobs/20161129-185048-9470/mean.binaryproto
I0115 22:59:38.154116  5497 db_lmdb.cpp:35] Opened lmdb /media/myuser/120Gb/DIGITS/digits/jobs/20161129-185048-9470/val_db
I0115 22:59:38.157446  5486 data_layer.cpp:41] output data size: 16,3,224,224
I0115 22:59:38.190907  5486 net.cpp:150] Setting up val-data
I0115 22:59:38.190943  5486 net.cpp:157] Top shape: 16 3 224 224 (2408448)
I0115 22:59:38.190954  5486 net.cpp:157] Top shape: 16 (16)
I0115 22:59:38.190961  5486 net.cpp:165] Memory required for data: 9633856
I0115 22:59:38.190973  5486 layer_factory.hpp:77] Creating layer label_val-data_1_split
I0115 22:59:38.205427  5486 net.cpp:100] Creating Layer label_val-data_1_split
I0115 22:59:38.205446  5486 net.cpp:434] label_val-data_1_split <- label
I0115 22:59:38.205459  5486 net.cpp:408] label_val-data_1_split -> label_val-data_1_split_0
I0115 22:59:38.205474  5486 net.cpp:408] label_val-data_1_split -> label_val-data_1_split_1
I0115 22:59:38.205564  5486 net.cpp:150] Setting up label_val-data_1_split
I0115 22:59:38.205576  5486 net.cpp:157] Top shape: 16 (16)
I0115 22:59:38.205585  5486 net.cpp:157] Top shape: 16 (16)
I0115 22:59:38.205618  5486 net.cpp:165] Memory required for data: 9633984
I0115 22:59:38.205627  5486 layer_factory.hpp:77] Creating layer conv1_1
I0115 22:59:38.205646  5486 net.cpp:100] Creating Layer conv1_1
I0115 22:59:38.205653  5486 net.cpp:434] conv1_1 <- data
I0115 22:59:38.205664  5486 net.cpp:408] conv1_1 -> conv1_1
I0115 22:59:38.207386  5486 net.cpp:150] Setting up conv1_1
I0115 22:59:38.207401  5486 net.cpp:157] Top shape: 16 64 224 224 (51380224)
I0115 22:59:38.207408  5486 net.cpp:165] Memory required for data: 215154880
I0115 22:59:38.207423  5486 layer_factory.hpp:77] Creating layer relu1_1
I0115 22:59:38.207435  5486 net.cpp:100] Creating Layer relu1_1
I0115 22:59:38.207458  5486 net.cpp:434] relu1_1 <- conv1_1
I0115 22:59:38.207473  5486 net.cpp:395] relu1_1 -> conv1_1 (in-place)
I0115 22:59:38.207669  5486 net.cpp:150] Setting up relu1_1
I0115 22:59:38.207680  5486 net.cpp:157] Top shape: 16 64 224 224 (51380224)
I0115 22:59:38.207687  5486 net.cpp:165] Memory required for data: 420675776
I0115 22:59:38.207695  5486 layer_factory.hpp:77] Creating layer conv1_2
I0115 22:59:38.207708  5486 net.cpp:100] Creating Layer conv1_2
I0115 22:59:38.207716  5486 net.cpp:434] conv1_2 <- conv1_1
I0115 22:59:38.207726  5486 net.cpp:408] conv1_2 -> conv1_2
I0115 22:59:38.209431  5486 net.cpp:150] Setting up conv1_2
I0115 22:59:38.209447  5486 net.cpp:157] Top shape: 16 64 224 224 (51380224)
I0115 22:59:38.209455  5486 net.cpp:165] Memory required for data: 626196672
I0115 22:59:38.209470  5486 layer_factory.hpp:77] Creating layer relu1_2
I0115 22:59:38.209481  5486 net.cpp:100] Creating Layer relu1_2
I0115 22:59:38.209487  5486 net.cpp:434] relu1_2 <- conv1_2
I0115 22:59:38.209497  5486 net.cpp:395] relu1_2 -> conv1_2 (in-place)
I0115 22:59:38.209694  5486 net.cpp:150] Setting up relu1_2
I0115 22:59:38.209705  5486 net.cpp:157] Top shape: 16 64 224 224 (51380224)
I0115 22:59:38.209712  5486 net.cpp:165] Memory required for data: 831717568
I0115 22:59:38.209719  5486 layer_factory.hpp:77] Creating layer pool1
I0115 22:59:38.209730  5486 net.cpp:100] Creating Layer pool1
I0115 22:59:38.209738  5486 net.cpp:434] pool1 <- conv1_2
I0115 22:59:38.209746  5486 net.cpp:408] pool1 -> pool1
I0115 22:59:38.209795  5486 net.cpp:150] Setting up pool1
I0115 22:59:38.209805  5486 net.cpp:157] Top shape: 16 64 112 112 (12845056)
I0115 22:59:38.209812  5486 net.cpp:165] Memory required for data: 883097792
I0115 22:59:38.209820  5486 layer_factory.hpp:77] Creating layer conv2_1
I0115 22:59:38.209831  5486 net.cpp:100] Creating Layer conv2_1
I0115 22:59:38.209839  5486 net.cpp:434] conv2_1 <- pool1
I0115 22:59:38.209849  5486 net.cpp:408] conv2_1 -> conv2_1
I0115 22:59:38.212019  5486 net.cpp:150] Setting up conv2_1
I0115 22:59:38.212033  5486 net.cpp:157] Top shape: 16 128 112 112 (25690112)
I0115 22:59:38.212040  5486 net.cpp:165] Memory required for data: 985858240
I0115 22:59:38.212054  5486 layer_factory.hpp:77] Creating layer relu2_1
I0115 22:59:38.212066  5486 net.cpp:100] Creating Layer relu2_1
I0115 22:59:38.212074  5486 net.cpp:434] relu2_1 <- conv2_1
I0115 22:59:38.212082  5486 net.cpp:395] relu2_1 -> conv2_1 (in-place)
I0115 22:59:38.212285  5486 net.cpp:150] Setting up relu2_1
I0115 22:59:38.212297  5486 net.cpp:157] Top shape: 16 128 112 112 (25690112)
I0115 22:59:38.212304  5486 net.cpp:165] Memory required for data: 1088618688
I0115 22:59:38.212311  5486 layer_factory.hpp:77] Creating layer conv2_2
I0115 22:59:38.212323  5486 net.cpp:100] Creating Layer conv2_2
I0115 22:59:38.212330  5486 net.cpp:434] conv2_2 <- conv2_1
I0115 22:59:38.212342  5486 net.cpp:408] conv2_2 -> conv2_2
I0115 22:59:38.216578  5486 net.cpp:150] Setting up conv2_2
I0115 22:59:38.216617  5486 net.cpp:157] Top shape: 16 128 112 112 (25690112)
I0115 22:59:38.216625  5486 net.cpp:165] Memory required for data: 1191379136
I0115 22:59:38.216642  5486 layer_factory.hpp:77] Creating layer relu2_2
I0115 22:59:38.216660  5486 net.cpp:100] Creating Layer relu2_2
I0115 22:59:38.216668  5486 net.cpp:434] relu2_2 <- conv2_2
I0115 22:59:38.216681  5486 net.cpp:395] relu2_2 -> conv2_2 (in-place)
I0115 22:59:38.216956  5486 net.cpp:150] Setting up relu2_2
I0115 22:59:38.216969  5486 net.cpp:157] Top shape: 16 128 112 112 (25690112)
I0115 22:59:38.216976  5486 net.cpp:165] Memory required for data: 1294139584
I0115 22:59:38.216984  5486 layer_factory.hpp:77] Creating layer pool2
I0115 22:59:38.216998  5486 net.cpp:100] Creating Layer pool2
I0115 22:59:38.217005  5486 net.cpp:434] pool2 <- conv2_2
I0115 22:59:38.217016  5486 net.cpp:408] pool2 -> pool2
I0115 22:59:38.217079  5486 net.cpp:150] Setting up pool2
I0115 22:59:38.217092  5486 net.cpp:157] Top shape: 16 128 56 56 (6422528)
I0115 22:59:38.217098  5486 net.cpp:165] Memory required for data: 1319829696
I0115 22:59:38.217106  5486 layer_factory.hpp:77] Creating layer conv3_1
I0115 22:59:38.217121  5486 net.cpp:100] Creating Layer conv3_1
I0115 22:59:38.217129  5486 net.cpp:434] conv3_1 <- pool2
I0115 22:59:38.217142  5486 net.cpp:408] conv3_1 -> conv3_1
I0115 22:59:38.221230  5486 net.cpp:150] Setting up conv3_1
I0115 22:59:38.221251  5486 net.cpp:157] Top shape: 16 256 56 56 (12845056)
I0115 22:59:38.221257  5486 net.cpp:165] Memory required for data: 1371209920
I0115 22:59:38.221276  5486 layer_factory.hpp:77] Creating layer relu3_1
I0115 22:59:38.221289  5486 net.cpp:100] Creating Layer relu3_1
I0115 22:59:38.221297  5486 net.cpp:434] relu3_1 <- conv3_1
I0115 22:59:38.221307  5486 net.cpp:395] relu3_1 -> conv3_1 (in-place)
I0115 22:59:38.221510  5486 net.cpp:150] Setting up relu3_1
I0115 22:59:38.221523  5486 net.cpp:157] Top shape: 16 256 56 56 (12845056)
I0115 22:59:38.221529  5486 net.cpp:165] Memory required for data: 1422590144
I0115 22:59:38.221536  5486 layer_factory.hpp:77] Creating layer conv3_2
I0115 22:59:38.221549  5486 net.cpp:100] Creating Layer conv3_2
I0115 22:59:38.221556  5486 net.cpp:434] conv3_2 <- conv3_1
I0115 22:59:38.221567  5486 net.cpp:408] conv3_2 -> conv3_2
I0115 22:59:38.229369  5486 net.cpp:150] Setting up conv3_2
I0115 22:59:38.229395  5486 net.cpp:157] Top shape: 16 256 56 56 (12845056)
I0115 22:59:38.229403  5486 net.cpp:165] Memory required for data: 1473970368
I0115 22:59:38.229419  5486 layer_factory.hpp:77] Creating layer relu3_2
I0115 22:59:38.229434  5486 net.cpp:100] Creating Layer relu3_2
I0115 22:59:38.229442  5486 net.cpp:434] relu3_2 <- conv3_2
I0115 22:59:38.229454  5486 net.cpp:395] relu3_2 -> conv3_2 (in-place)
I0115 22:59:38.229960  5486 net.cpp:150] Setting up relu3_2
I0115 22:59:38.229972  5486 net.cpp:157] Top shape: 16 256 56 56 (12845056)
I0115 22:59:38.229979  5486 net.cpp:165] Memory required for data: 1525350592
I0115 22:59:38.229987  5486 layer_factory.hpp:77] Creating layer conv3_3
I0115 22:59:38.230007  5486 net.cpp:100] Creating Layer conv3_3
I0115 22:59:38.230015  5486 net.cpp:434] conv3_3 <- conv3_2
I0115 22:59:38.230026  5486 net.cpp:408] conv3_3 -> conv3_3
I0115 22:59:38.237856  5486 net.cpp:150] Setting up conv3_3
I0115 22:59:38.237881  5486 net.cpp:157] Top shape: 16 256 56 56 (12845056)
I0115 22:59:38.237889  5486 net.cpp:165] Memory required for data: 1576730816
I0115 22:59:38.237902  5486 layer_factory.hpp:77] Creating layer relu3_3
I0115 22:59:38.237916  5486 net.cpp:100] Creating Layer relu3_3
I0115 22:59:38.237924  5486 net.cpp:434] relu3_3 <- conv3_3
I0115 22:59:38.237936  5486 net.cpp:395] relu3_3 -> conv3_3 (in-place)
I0115 22:59:38.238143  5486 net.cpp:150] Setting up relu3_3
I0115 22:59:38.238155  5486 net.cpp:157] Top shape: 16 256 56 56 (12845056)
I0115 22:59:38.238162  5486 net.cpp:165] Memory required for data: 1628111040
I0115 22:59:38.238169  5486 layer_factory.hpp:77] Creating layer conv3_4
I0115 22:59:38.238183  5486 net.cpp:100] Creating Layer conv3_4
I0115 22:59:38.238190  5486 net.cpp:434] conv3_4 <- conv3_3
I0115 22:59:38.238200  5486 net.cpp:408] conv3_4 -> conv3_4
I0115 22:59:38.246429  5486 net.cpp:150] Setting up conv3_4
I0115 22:59:38.246459  5486 net.cpp:157] Top shape: 16 256 56 56 (12845056)
I0115 22:59:38.246466  5486 net.cpp:165] Memory required for data: 1679491264
I0115 22:59:38.246480  5486 layer_factory.hpp:77] Creating layer relu3_4
I0115 22:59:38.246522  5486 net.cpp:100] Creating Layer relu3_4
I0115 22:59:38.246531  5486 net.cpp:434] relu3_4 <- conv3_4
I0115 22:59:38.246542  5486 net.cpp:395] relu3_4 -> conv3_4 (in-place)
I0115 22:59:38.246752  5486 net.cpp:150] Setting up relu3_4
I0115 22:59:38.246763  5486 net.cpp:157] Top shape: 16 256 56 56 (12845056)
I0115 22:59:38.246770  5486 net.cpp:165] Memory required for data: 1730871488
I0115 22:59:38.246778  5486 layer_factory.hpp:77] Creating layer pool3
I0115 22:59:38.246788  5486 net.cpp:100] Creating Layer pool3
I0115 22:59:38.246795  5486 net.cpp:434] pool3 <- conv3_4
I0115 22:59:38.246805  5486 net.cpp:408] pool3 -> pool3
I0115 22:59:38.246857  5486 net.cpp:150] Setting up pool3
I0115 22:59:38.246867  5486 net.cpp:157] Top shape: 16 256 28 28 (3211264)
I0115 22:59:38.246875  5486 net.cpp:165] Memory required for data: 1743716544
I0115 22:59:38.246882  5486 layer_factory.hpp:77] Creating layer conv4_1
I0115 22:59:38.246899  5486 net.cpp:100] Creating Layer conv4_1
I0115 22:59:38.246906  5486 net.cpp:434] conv4_1 <- pool3
I0115 22:59:38.246918  5486 net.cpp:408] conv4_1 -> conv4_1
I0115 22:59:38.261060  5486 net.cpp:150] Setting up conv4_1
I0115 22:59:38.261090  5486 net.cpp:157] Top shape: 16 512 28 28 (6422528)
I0115 22:59:38.261097  5486 net.cpp:165] Memory required for data: 1769406656
I0115 22:59:38.261121  5486 layer_factory.hpp:77] Creating layer relu4_1
I0115 22:59:38.261137  5486 net.cpp:100] Creating Layer relu4_1
I0115 22:59:38.261145  5486 net.cpp:434] relu4_1 <- conv4_1
I0115 22:59:38.261157  5486 net.cpp:395] relu4_1 -> conv4_1 (in-place)
I0115 22:59:38.261370  5486 net.cpp:150] Setting up relu4_1
I0115 22:59:38.261381  5486 net.cpp:157] Top shape: 16 512 28 28 (6422528)
I0115 22:59:38.261389  5486 net.cpp:165] Memory required for data: 1795096768
I0115 22:59:38.261396  5486 layer_factory.hpp:77] Creating layer conv4_2
I0115 22:59:38.261410  5486 net.cpp:100] Creating Layer conv4_2
I0115 22:59:38.261418  5486 net.cpp:434] conv4_2 <- conv4_1
I0115 22:59:38.261428  5486 net.cpp:408] conv4_2 -> conv4_2
I0115 22:59:38.289744  5486 net.cpp:150] Setting up conv4_2
I0115 22:59:38.289770  5486 net.cpp:157] Top shape: 16 512 28 28 (6422528)
I0115 22:59:38.289779  5486 net.cpp:165] Memory required for data: 1820786880
I0115 22:59:38.289793  5486 layer_factory.hpp:77] Creating layer relu4_2
I0115 22:59:38.289810  5486 net.cpp:100] Creating Layer relu4_2
I0115 22:59:38.289819  5486 net.cpp:434] relu4_2 <- conv4_2
I0115 22:59:38.289831  5486 net.cpp:395] relu4_2 -> conv4_2 (in-place)
I0115 22:59:38.290052  5486 net.cpp:150] Setting up relu4_2
I0115 22:59:38.290066  5486 net.cpp:157] Top shape: 16 512 28 28 (6422528)
I0115 22:59:38.290073  5486 net.cpp:165] Memory required for data: 1846476992
I0115 22:59:38.290081  5486 layer_factory.hpp:77] Creating layer conv4_3
I0115 22:59:38.290094  5486 net.cpp:100] Creating Layer conv4_3
I0115 22:59:38.290102  5486 net.cpp:434] conv4_3 <- conv4_2
I0115 22:59:38.290114  5486 net.cpp:408] conv4_3 -> conv4_3
I0115 22:59:38.319538  5486 net.cpp:150] Setting up conv4_3
I0115 22:59:38.319576  5486 net.cpp:157] Top shape: 16 512 28 28 (6422528)
I0115 22:59:38.319586  5486 net.cpp:165] Memory required for data: 1872167104
I0115 22:59:38.319600  5486 layer_factory.hpp:77] Creating layer relu4_3
I0115 22:59:38.319620  5486 net.cpp:100] Creating Layer relu4_3
I0115 22:59:38.319630  5486 net.cpp:434] relu4_3 <- conv4_3
I0115 22:59:38.319643  5486 net.cpp:395] relu4_3 -> conv4_3 (in-place)
I0115 22:59:38.319866  5486 net.cpp:150] Setting up relu4_3
I0115 22:59:38.319878  5486 net.cpp:157] Top shape: 16 512 28 28 (6422528)
I0115 22:59:38.319885  5486 net.cpp:165] Memory required for data: 1897857216
I0115 22:59:38.319893  5486 layer_factory.hpp:77] Creating layer conv4_4
I0115 22:59:38.319912  5486 net.cpp:100] Creating Layer conv4_4
I0115 22:59:38.319921  5486 net.cpp:434] conv4_4 <- conv4_3
I0115 22:59:38.319931  5486 net.cpp:408] conv4_4 -> conv4_4
I0115 22:59:38.347661  5486 net.cpp:150] Setting up conv4_4
I0115 22:59:38.347688  5486 net.cpp:157] Top shape: 16 512 28 28 (6422528)
I0115 22:59:38.347723  5486 net.cpp:165] Memory required for data: 1923547328
I0115 22:59:38.347736  5486 layer_factory.hpp:77] Creating layer relu4_4
I0115 22:59:38.347749  5486 net.cpp:100] Creating Layer relu4_4
I0115 22:59:38.347759  5486 net.cpp:434] relu4_4 <- conv4_4
I0115 22:59:38.347770  5486 net.cpp:395] relu4_4 -> conv4_4 (in-place)
I0115 22:59:38.348314  5486 net.cpp:150] Setting up relu4_4
I0115 22:59:38.348325  5486 net.cpp:157] Top shape: 16 512 28 28 (6422528)
I0115 22:59:38.348332  5486 net.cpp:165] Memory required for data: 1949237440
I0115 22:59:38.348340  5486 layer_factory.hpp:77] Creating layer pool4
I0115 22:59:38.348352  5486 net.cpp:100] Creating Layer pool4
I0115 22:59:38.348359  5486 net.cpp:434] pool4 <- conv4_4
I0115 22:59:38.348369  5486 net.cpp:408] pool4 -> pool4
I0115 22:59:38.348424  5486 net.cpp:150] Setting up pool4
I0115 22:59:38.348434  5486 net.cpp:157] Top shape: 16 512 14 14 (1605632)
I0115 22:59:38.348441  5486 net.cpp:165] Memory required for data: 1955659968
I0115 22:59:38.348448  5486 layer_factory.hpp:77] Creating layer conv5_1
I0115 22:59:38.348464  5486 net.cpp:100] Creating Layer conv5_1
I0115 22:59:38.348471  5486 net.cpp:434] conv5_1 <- pool4
I0115 22:59:38.348481  5486 net.cpp:408] conv5_1 -> conv5_1
I0115 22:59:38.376286  5486 net.cpp:150] Setting up conv5_1
I0115 22:59:38.376315  5486 net.cpp:157] Top shape: 16 512 14 14 (1605632)
I0115 22:59:38.376323  5486 net.cpp:165] Memory required for data: 1962082496
I0115 22:59:38.376338  5486 layer_factory.hpp:77] Creating layer relu5_1
I0115 22:59:38.376355  5486 net.cpp:100] Creating Layer relu5_1
I0115 22:59:38.376364  5486 net.cpp:434] relu5_1 <- conv5_1
I0115 22:59:38.376375  5486 net.cpp:395] relu5_1 -> conv5_1 (in-place)
I0115 22:59:38.376585  5486 net.cpp:150] Setting up relu5_1
I0115 22:59:38.376595  5486 net.cpp:157] Top shape: 16 512 14 14 (1605632)
I0115 22:59:38.376605  5486 net.cpp:165] Memory required for data: 1968505024
I0115 22:59:38.376612  5486 layer_factory.hpp:77] Creating layer conv5_2
I0115 22:59:38.376636  5486 net.cpp:100] Creating Layer conv5_2
I0115 22:59:38.376644  5486 net.cpp:434] conv5_2 <- conv5_1
I0115 22:59:38.376654  5486 net.cpp:408] conv5_2 -> conv5_2
I0115 22:59:38.404827  5486 net.cpp:150] Setting up conv5_2
I0115 22:59:38.404857  5486 net.cpp:157] Top shape: 16 512 14 14 (1605632)
I0115 22:59:38.404865  5486 net.cpp:165] Memory required for data: 1974927552
I0115 22:59:38.404880  5486 layer_factory.hpp:77] Creating layer relu5_2
I0115 22:59:38.404893  5486 net.cpp:100] Creating Layer relu5_2
I0115 22:59:38.404903  5486 net.cpp:434] relu5_2 <- conv5_2
I0115 22:59:38.404917  5486 net.cpp:395] relu5_2 -> conv5_2 (in-place)
I0115 22:59:38.405125  5486 net.cpp:150] Setting up relu5_2
I0115 22:59:38.405136  5486 net.cpp:157] Top shape: 16 512 14 14 (1605632)
I0115 22:59:38.405143  5486 net.cpp:165] Memory required for data: 1981350080
I0115 22:59:38.405150  5486 layer_factory.hpp:77] Creating layer conv5_3
I0115 22:59:38.405167  5486 net.cpp:100] Creating Layer conv5_3
I0115 22:59:38.405174  5486 net.cpp:434] conv5_3 <- conv5_2
I0115 22:59:38.405187  5486 net.cpp:408] conv5_3 -> conv5_3
I0115 22:59:38.433356  5486 net.cpp:150] Setting up conv5_3
I0115 22:59:38.433390  5486 net.cpp:157] Top shape: 16 512 14 14 (1605632)
I0115 22:59:38.433399  5486 net.cpp:165] Memory required for data: 1987772608
I0115 22:59:38.433414  5486 layer_factory.hpp:77] Creating layer relu5_3
I0115 22:59:38.433432  5486 net.cpp:100] Creating Layer relu5_3
I0115 22:59:38.433442  5486 net.cpp:434] relu5_3 <- conv5_3
I0115 22:59:38.433454  5486 net.cpp:395] relu5_3 -> conv5_3 (in-place)
I0115 22:59:38.433665  5486 net.cpp:150] Setting up relu5_3
I0115 22:59:38.433677  5486 net.cpp:157] Top shape: 16 512 14 14 (1605632)
I0115 22:59:38.433686  5486 net.cpp:165] Memory required for data: 1994195136
I0115 22:59:38.433692  5486 layer_factory.hpp:77] Creating layer conv5_4
I0115 22:59:38.433707  5486 net.cpp:100] Creating Layer conv5_4
I0115 22:59:38.433714  5486 net.cpp:434] conv5_4 <- conv5_3
I0115 22:59:38.433751  5486 net.cpp:408] conv5_4 -> conv5_4
I0115 22:59:38.460453  5486 net.cpp:150] Setting up conv5_4
I0115 22:59:38.460490  5486 net.cpp:157] Top shape: 16 512 14 14 (1605632)
I0115 22:59:38.460499  5486 net.cpp:165] Memory required for data: 2000617664
I0115 22:59:38.460513  5486 layer_factory.hpp:77] Creating layer relu5_4
I0115 22:59:38.460530  5486 net.cpp:100] Creating Layer relu5_4
I0115 22:59:38.460539  5486 net.cpp:434] relu5_4 <- conv5_4
I0115 22:59:38.460554  5486 net.cpp:395] relu5_4 -> conv5_4 (in-place)
I0115 22:59:38.460767  5486 net.cpp:150] Setting up relu5_4
I0115 22:59:38.460777  5486 net.cpp:157] Top shape: 16 512 14 14 (1605632)
I0115 22:59:38.460784  5486 net.cpp:165] Memory required for data: 2007040192
I0115 22:59:38.460791  5486 layer_factory.hpp:77] Creating layer pool5
I0115 22:59:38.460803  5486 net.cpp:100] Creating Layer pool5
I0115 22:59:38.460810  5486 net.cpp:434] pool5 <- conv5_4
I0115 22:59:38.460822  5486 net.cpp:408] pool5 -> pool5
I0115 22:59:38.460885  5486 net.cpp:150] Setting up pool5
I0115 22:59:38.460896  5486 net.cpp:157] Top shape: 16 512 7 7 (401408)
I0115 22:59:38.460903  5486 net.cpp:165] Memory required for data: 2008645824
I0115 22:59:38.460911  5486 layer_factory.hpp:77] Creating layer fc6
I0115 22:59:38.460922  5486 net.cpp:100] Creating Layer fc6
I0115 22:59:38.460929  5486 net.cpp:434] fc6 <- pool5
I0115 22:59:38.460942  5486 net.cpp:408] fc6 -> fc6
I0115 22:59:39.575598  5486 net.cpp:150] Setting up fc6
I0115 22:59:39.575654  5486 net.cpp:157] Top shape: 16 4096 (65536)
I0115 22:59:39.575664  5486 net.cpp:165] Memory required for data: 2008907968
I0115 22:59:39.575691  5486 layer_factory.hpp:77] Creating layer relu6
I0115 22:59:39.575712  5486 net.cpp:100] Creating Layer relu6
I0115 22:59:39.575721  5486 net.cpp:434] relu6 <- fc6
I0115 22:59:39.575733  5486 net.cpp:395] relu6 -> fc6 (in-place)
I0115 22:59:39.576593  5486 net.cpp:150] Setting up relu6
I0115 22:59:39.576606  5486 net.cpp:157] Top shape: 16 4096 (65536)
I0115 22:59:39.576612  5486 net.cpp:165] Memory required for data: 2009170112
I0115 22:59:39.576620  5486 layer_factory.hpp:77] Creating layer drop6
I0115 22:59:39.576634  5486 net.cpp:100] Creating Layer drop6
I0115 22:59:39.576642  5486 net.cpp:434] drop6 <- fc6
I0115 22:59:39.576650  5486 net.cpp:395] drop6 -> fc6 (in-place)
I0115 22:59:39.576689  5486 net.cpp:150] Setting up drop6
I0115 22:59:39.576699  5486 net.cpp:157] Top shape: 16 4096 (65536)
I0115 22:59:39.576705  5486 net.cpp:165] Memory required for data: 2009432256
I0115 22:59:39.576712  5486 layer_factory.hpp:77] Creating layer fc7
I0115 22:59:39.576725  5486 net.cpp:100] Creating Layer fc7
I0115 22:59:39.576731  5486 net.cpp:434] fc7 <- fc6
I0115 22:59:39.576743  5486 net.cpp:408] fc7 -> fc7
I0115 22:59:39.757938  5486 net.cpp:150] Setting up fc7
I0115 22:59:39.757993  5486 net.cpp:157] Top shape: 16 4096 (65536)
I0115 22:59:39.758002  5486 net.cpp:165] Memory required for data: 2009694400
I0115 22:59:39.758018  5486 layer_factory.hpp:77] Creating layer relu7
I0115 22:59:39.758036  5486 net.cpp:100] Creating Layer relu7
I0115 22:59:39.758046  5486 net.cpp:434] relu7 <- fc7
I0115 22:59:39.758057  5486 net.cpp:395] relu7 -> fc7 (in-place)
I0115 22:59:39.758373  5486 net.cpp:150] Setting up relu7
I0115 22:59:39.758384  5486 net.cpp:157] Top shape: 16 4096 (65536)
I0115 22:59:39.758391  5486 net.cpp:165] Memory required for data: 2009956544
I0115 22:59:39.758399  5486 layer_factory.hpp:77] Creating layer drop7
I0115 22:59:39.758412  5486 net.cpp:100] Creating Layer drop7
I0115 22:59:39.758419  5486 net.cpp:434] drop7 <- fc7
I0115 22:59:39.758429  5486 net.cpp:395] drop7 -> fc7 (in-place)
I0115 22:59:39.758466  5486 net.cpp:150] Setting up drop7
I0115 22:59:39.758476  5486 net.cpp:157] Top shape: 16 4096 (65536)
I0115 22:59:39.758483  5486 net.cpp:165] Memory required for data: 2010218688
I0115 22:59:39.758491  5486 layer_factory.hpp:77] Creating layer fc8_output
I0115 22:59:39.758502  5486 net.cpp:100] Creating Layer fc8_output
I0115 22:59:39.758509  5486 net.cpp:434] fc8_output <- fc7
I0115 22:59:39.758561  5486 net.cpp:408] fc8_output -> fc8_output
I0115 22:59:39.758805  5486 net.cpp:150] Setting up fc8_output
I0115 22:59:39.758815  5486 net.cpp:157] Top shape: 16 2 (32)
I0115 22:59:39.758821  5486 net.cpp:165] Memory required for data: 2010218816
I0115 22:59:39.758831  5486 layer_factory.hpp:77] Creating layer fc8_output_fc8_output_0_split
I0115 22:59:39.758841  5486 net.cpp:100] Creating Layer fc8_output_fc8_output_0_split
I0115 22:59:39.758848  5486 net.cpp:434] fc8_output_fc8_output_0_split <- fc8_output
I0115 22:59:39.758863  5486 net.cpp:408] fc8_output_fc8_output_0_split -> fc8_output_fc8_output_0_split_0
I0115 22:59:39.758874  5486 net.cpp:408] fc8_output_fc8_output_0_split -> fc8_output_fc8_output_0_split_1
I0115 22:59:39.758927  5486 net.cpp:150] Setting up fc8_output_fc8_output_0_split
I0115 22:59:39.758939  5486 net.cpp:157] Top shape: 16 2 (32)
I0115 22:59:39.758949  5486 net.cpp:157] Top shape: 16 2 (32)
I0115 22:59:39.758955  5486 net.cpp:165] Memory required for data: 2010219072
I0115 22:59:39.758961  5486 layer_factory.hpp:77] Creating layer accuracy
I0115 22:59:39.758972  5486 net.cpp:100] Creating Layer accuracy
I0115 22:59:39.758980  5486 net.cpp:434] accuracy <- fc8_output_fc8_output_0_split_0
I0115 22:59:39.758987  5486 net.cpp:434] accuracy <- label_val-data_1_split_0
I0115 22:59:39.758997  5486 net.cpp:408] accuracy -> accuracy
…
