…
I1113 11:35:47.111732  2774 net.cpp:323] The NetState phase (0) differed from the phase (1) specified by a rule in layer accuracy
I1113 11:35:47.111981  2774 net.cpp:52] Initializing net from parameters:
state {
phase: TRAIN
}
layer {
name: "train-data"
type: "Data"
top: "data"
top: "label"
include {
phase: TRAIN
}
transform_param {
mirror: true
crop_size: 224
mean_file: "/media/myuser/120Gb/DIGITS/digits/jobs/20160917-133511-8c62/mean.binaryproto"
}
data_param {
source: "/media/myuser/120Gb/DIGITS/digits/jobs/20160917-133511-8c62/train_db"
batch_size: 16
backend: LMDB
}
}
layer {
name: "conv1_1"
type: "Convolution"
bottom: "data"
top: "conv1_1"
convolution_param {
num_output: 64
pad: 1
kernel_size: 3
weight_filler {
type: "xavier"
}
bias_filler {
type: "constant"
value: 0
}
}
}
layer {
name: "relu1_1"
type: "ReLU"
bottom: "conv1_1"
top: "conv1_1"
}
layer {
name: "conv1_2"
type: "Convolution"
bottom: "conv1_1"
top: "conv1_2"
convolution_param {
num_output: 64
pad: 1
kernel_size: 3
weight_filler {
type: "xavier"
}
bias_filler {
type: "constant"
value: 0
}
}
}
layer {
name: "relu1_2"
type: "ReLU"
bottom: "conv1_2"
top: "conv1_2"
}
layer {
name: "pool1"
type: "Pooling"
bottom: "conv1_2"
top: "pool1"
pooling_param {
pool: MAX
kernel_size: 2
stride: 2
}
}
layer {
name: "conv2_1"
type: "Convolution"
bottom: "pool1"
top: "conv2_1"
convolution_param {
num_output: 128
pad: 1
kernel_size: 3
weight_filler {
type: "xavier"
}
bias_filler {
type: "constant"
value: 0
}
}
}
layer {
name: "relu2_1"
type: "ReLU"
bottom: "conv2_1"
top: "conv2_1"
}
layer {
name: "conv2_2"
type: "Convolution"
bottom: "conv2_1"
top: "conv2_2"
convolution_param {
num_output: 128
pad: 1
kernel_size: 3
weight_filler {
type: "xavier"
}
bias_filler {
type: "constant"
value: 0
}
}
}
layer {
name: "relu2_2"
type: "ReLU"
bottom: "conv2_2"
top: "conv2_2"
}
layer {
name: "pool2"
type: "Pooling"
bottom: "conv2_2"
top: "pool2"
pooling_param {
pool: MAX
kernel_size: 2
stride: 2
}
}
layer {
name: "conv3_1"
type: "Convolution"
bottom: "pool2"
top: "conv3_1"
convolution_param {
num_output: 256
pad: 1
kernel_size: 3
weight_filler {
type: "xavier"
}
bias_filler {
type: "constant"
value: 0
}
}
}
layer {
name: "relu3_1"
type: "ReLU"
bottom: "conv3_1"
top: "conv3_1"
}
layer {
name: "conv3_2"
type: "Convolution"
bottom: "conv3_1"
top: "conv3_2"
convolution_param {
num_output: 256
pad: 1
kernel_size: 3
weight_filler {
type: "xavier"
}
bias_filler {
type: "constant"
value: 0
}
}
}
layer {
name: "relu3_2"
type: "ReLU"
bottom: "conv3_2"
top: "conv3_2"
}
layer {
name: "conv3_3"
type: "Convolution"
bottom: "conv3_2"
top: "conv3_3"
convolution_param {
num_output: 256
pad: 1
kernel_size: 3
weight_filler {
type: "xavier"
}
bias_filler {
type: "constant"
value: 0
}
}
}
layer {
name: "relu3_3"
type: "ReLU"
bottom: "conv3_3"
top: "conv3_3"
}
layer {
name: "conv3_4"
type: "Convolution"
bottom: "conv3_3"
top: "conv3_4"
convolution_param {
num_output: 256
pad: 1
kernel_size: 3
weight_filler {
type: "xavier"
}
bias_filler {
type: "constant"
value: 0
}
}
}
layer {
name: "relu3_4"
type: "ReLU"
bottom: "conv3_4"
top: "conv3_4"
}
layer {
name: "pool3"
type: "Pooling"
bottom: "conv3_4"
top: "pool3"
pooling_param {
pool: MAX
kernel_size: 2
stride: 2
}
}
layer {
name: "conv4_1"
type: "Convolution"
bottom: "pool3"
top: "conv4_1"
convolution_param {
num_output: 512
pad: 1
kernel_size: 3
weight_filler {
type: "xavier"
}
bias_filler {
type: "constant"
value: 0
}
}
}
layer {
name: "relu4_1"
type: "ReLU"
bottom: "conv4_1"
top: "conv4_1"
}
layer {
name: "conv4_2"
type: "Convolution"
bottom: "conv4_1"
top: "conv4_2"
convolution_param {
num_output: 512
pad: 1
kernel_size: 3
weight_filler {
type: "xavier"
}
bias_filler {
type: "constant"
value: 0
}
}
}
layer {
name: "relu4_2"
type: "ReLU"
bottom: "conv4_2"
top: "conv4_2"
}
layer {
name: "conv4_3"
type: "Convolution"
bottom: "conv4_2"
top: "conv4_3"
convolution_param {
num_output: 512
pad: 1
kernel_size: 3
weight_filler {
type: "xavier"
}
bias_filler {
type: "constant"
value: 0
}
}
}
layer {
name: "relu4_3"
type: "ReLU"
bottom: "conv4_3"
top: "conv4_3"
}
layer {
name: "conv4_4"
type: "Convolution"
bottom: "conv4_3"
top: "conv4_4"
convolution_param {
num_output: 512
pad: 1
kernel_size: 3
weight_filler {
type: "xavier"
}
bias_filler {
type: "constant"
value: 0
}
}
}
layer {
name: "relu4_4"
type: "ReLU"
bottom: "conv4_4"
top: "conv4_4"
}
layer {
name: "pool4"
type: "Pooling"
bottom: "conv4_4"
top: "pool4"
pooling_param {
pool: MAX
kernel_size: 2
stride: 2
}
}
layer {
name: "conv5_1"
type: "Convolution"
bottom: "pool4"
top: "conv5_1"
convolution_param {
num_output: 512
pad: 1
kernel_size: 3
weight_filler {
type: "xavier"
}
bias_filler {
type: "constant"
value: 0
}
}
}
layer {
name: "relu5_1"
type: "ReLU"
bottom: "conv5_1"
top: "conv5_1"
}
layer {
name: "conv5_2"
type: "Convolution"
bottom: "conv5_1"
top: "conv5_2"
convolution_param {
num_output: 512
pad: 1
kernel_size: 3
weight_filler {
type: "xavier"
}
bias_filler {
type: "constant"
value: 0
}
}
}
layer {
name: "relu5_2"
type: "ReLU"
bottom: "conv5_2"
top: "conv5_2"
}
layer {
name: "conv5_3"
type: "Convolution"
bottom: "conv5_2"
top: "conv5_3"
convolution_param {
num_output: 512
pad: 1
kernel_size: 3
weight_filler {
type: "xavier"
}
bias_filler {
type: "constant"
value: 0
}
}
}
layer {
name: "relu5_3"
type: "ReLU"
bottom: "conv5_3"
top: "conv5_3"
}
layer {
name: "conv5_4"
type: "Convolution"
bottom: "conv5_3"
top: "conv5_4"
convolution_param {
num_output: 512
pad: 1
kernel_size: 3
weight_filler {
type: "xavier"
}
bias_filler {
type: "constant"
value: 0
}
}
}
layer {
name: "relu5_4"
type: "ReLU"
bottom: "conv5_4"
top: "conv5_4"
}
layer {
name: "pool5"
type: "Pooling"
bottom: "conv5_4"
top: "pool5"
pooling_param {
pool: MAX
kernel_size: 2
stride: 2
}
}
layer {
name: "fc6"
type: "InnerProduct"
bottom: "pool5"
top: "fc6"
inner_product_param {
num_output: 4096
weight_filler {
type: "xavier"
}
bias_filler {
type: "constant"
value: 0.1
}
}
}
layer {
name: "relu6"
type: "ReLU"
bottom: "fc6"
top: "fc6"
}
layer {
name: "drop6"
type: "Dropout"
bottom: "fc6"
top: "fc6"
dropout_param {
dropout_ratio: 0.5
}
}
layer {
name: "fc7"
type: "InnerProduct"
bottom: "fc6"
top: "fc7"
inner_product_param {
num_output: 4096
weight_filler {
type: "xavier"
}
bias_filler {
type: "constant"
value: 0.1
}
}
}
layer {
name: "relu7"
type: "ReLU"
bottom: "fc7"
top: "fc7"
}
layer {
name: "drop7"
type: "Dropout"
bottom: "fc7"
top: "fc7"
dropout_param {
dropout_ratio: 0.5
}
}
layer {
name: "fc8"
type: "InnerProduct"
bottom: "fc7"
top: "fc8"
inner_product_param {
num_output: 2
weight_filler {
type: "xavier"
}
bias_filler {
type: "constant"
value: 0.1
}
}
}
layer {
name: "loss"
type: "SoftmaxWithLoss"
bottom: "fc8"
bottom: "label"
top: "loss"
}
I1113 11:35:47.112180  2774 layer_factory.hpp:77] Creating layer train-data
I1113 11:35:47.118933  2774 net.cpp:94] Creating Layer train-data
I1113 11:35:47.119082  2774 net.cpp:409] train-data -> data
I1113 11:35:47.119112  2774 net.cpp:409] train-data -> label
I1113 11:35:47.127984  2774 data_transformer.cpp:25] Loading mean file from: /media/myuser/120Gb/DIGITS/digits/jobs/20160917-133511-8c62/mean.binaryproto
I1113 11:35:47.167568  2780 db_lmdb.cpp:35] Opened lmdb /media/myuser/120Gb/DIGITS/digits/jobs/20160917-133511-8c62/train_db
I1113 11:35:47.258394  2774 data_layer.cpp:76] output data size: 16,3,224,224
I1113 11:35:47.300472  2774 net.cpp:144] Setting up train-data
I1113 11:35:47.300526  2774 net.cpp:151] Top shape: 16 3 224 224 (2408448)
I1113 11:35:47.300539  2774 net.cpp:151] Top shape: 16 (16)
I1113 11:35:47.300545  2774 net.cpp:159] Memory required for data: 9633856
I1113 11:35:47.300561  2774 layer_factory.hpp:77] Creating layer conv1_1
I1113 11:35:47.300592  2774 net.cpp:94] Creating Layer conv1_1
I1113 11:35:47.300603  2774 net.cpp:435] conv1_1 <- data
I1113 11:35:47.300621  2774 net.cpp:409] conv1_1 -> conv1_1
I1113 11:35:47.309556  2783 blocking_queue.cpp:50] Waiting for data
I1113 11:35:47.447826  2774 net.cpp:144] Setting up conv1_1
I1113 11:35:47.447866  2774 net.cpp:151] Top shape: 16 64 224 224 (51380224)
I1113 11:35:47.447875  2774 net.cpp:159] Memory required for data: 215154752
I1113 11:35:47.447898  2774 layer_factory.hpp:77] Creating layer relu1_1
I1113 11:35:47.447916  2774 net.cpp:94] Creating Layer relu1_1
I1113 11:35:47.447924  2774 net.cpp:435] relu1_1 <- conv1_1
I1113 11:35:47.447934  2774 net.cpp:396] relu1_1 -> conv1_1 (in-place)
I1113 11:35:47.462776  2774 net.cpp:144] Setting up relu1_1
I1113 11:35:47.462817  2774 net.cpp:151] Top shape: 16 64 224 224 (51380224)
I1113 11:35:47.462826  2774 net.cpp:159] Memory required for data: 420675648
I1113 11:35:47.462836  2774 layer_factory.hpp:77] Creating layer conv1_2
I1113 11:35:47.462858  2774 net.cpp:94] Creating Layer conv1_2
I1113 11:35:47.462867  2774 net.cpp:435] conv1_2 <- conv1_1
I1113 11:35:47.462882  2774 net.cpp:409] conv1_2 -> conv1_2
I1113 11:35:47.707847  2774 net.cpp:144] Setting up conv1_2
I1113 11:35:47.707890  2774 net.cpp:151] Top shape: 16 64 224 224 (51380224)
I1113 11:35:47.707901  2774 net.cpp:159] Memory required for data: 626196544
I1113 11:35:47.707932  2774 layer_factory.hpp:77] Creating layer relu1_2
I1113 11:35:47.707949  2774 net.cpp:94] Creating Layer relu1_2
I1113 11:35:47.707958  2774 net.cpp:435] relu1_2 <- conv1_2
I1113 11:35:47.707968  2774 net.cpp:396] relu1_2 -> conv1_2 (in-place)
I1113 11:35:47.707985  2774 net.cpp:144] Setting up relu1_2
I1113 11:35:47.707994  2774 net.cpp:151] Top shape: 16 64 224 224 (51380224)
I1113 11:35:47.708001  2774 net.cpp:159] Memory required for data: 831717440
I1113 11:35:47.708009  2774 layer_factory.hpp:77] Creating layer pool1
I1113 11:35:47.708024  2774 net.cpp:94] Creating Layer pool1
I1113 11:35:47.708031  2774 net.cpp:435] pool1 <- conv1_2
I1113 11:35:47.708041  2774 net.cpp:409] pool1 -> pool1
I1113 11:35:47.709399  2774 net.cpp:144] Setting up pool1
I1113 11:35:47.709419  2774 net.cpp:151] Top shape: 16 64 112 112 (12845056)
I1113 11:35:47.709434  2774 net.cpp:159] Memory required for data: 883097664
I1113 11:35:47.709441  2774 layer_factory.hpp:77] Creating layer conv2_1
I1113 11:35:47.709457  2774 net.cpp:94] Creating Layer conv2_1
I1113 11:35:47.709465  2774 net.cpp:435] conv2_1 <- pool1
I1113 11:35:47.709475  2774 net.cpp:409] conv2_1 -> conv2_1
I1113 11:35:47.796676  2774 net.cpp:144] Setting up conv2_1
I1113 11:35:47.796705  2774 net.cpp:151] Top shape: 16 128 112 112 (25690112)
I1113 11:35:47.796717  2774 net.cpp:159] Memory required for data: 985858112
I1113 11:35:47.796742  2774 layer_factory.hpp:77] Creating layer relu2_1
I1113 11:35:47.796761  2774 net.cpp:94] Creating Layer relu2_1
I1113 11:35:47.796778  2774 net.cpp:435] relu2_1 <- conv2_1
I1113 11:35:47.796788  2774 net.cpp:396] relu2_1 -> conv2_1 (in-place)
I1113 11:35:47.796803  2774 net.cpp:144] Setting up relu2_1
I1113 11:35:47.796813  2774 net.cpp:151] Top shape: 16 128 112 112 (25690112)
I1113 11:35:47.796819  2774 net.cpp:159] Memory required for data: 1088618560
I1113 11:35:47.796826  2774 layer_factory.hpp:77] Creating layer conv2_2
I1113 11:35:47.796843  2774 net.cpp:94] Creating Layer conv2_2
I1113 11:35:47.796850  2774 net.cpp:435] conv2_2 <- conv2_1
I1113 11:35:47.796860  2774 net.cpp:409] conv2_2 -> conv2_2
I1113 11:35:47.961637  2774 net.cpp:144] Setting up conv2_2
I1113 11:35:47.961678  2774 net.cpp:151] Top shape: 16 128 112 112 (25690112)
I1113 11:35:47.961690  2774 net.cpp:159] Memory required for data: 1191379008
I1113 11:35:47.961712  2774 layer_factory.hpp:77] Creating layer relu2_2
I1113 11:35:47.961732  2774 net.cpp:94] Creating Layer relu2_2
I1113 11:35:47.961745  2774 net.cpp:435] relu2_2 <- conv2_2
I1113 11:35:47.961760  2774 net.cpp:396] relu2_2 -> conv2_2 (in-place)
I1113 11:35:47.961782  2774 net.cpp:144] Setting up relu2_2
I1113 11:35:47.961796  2774 net.cpp:151] Top shape: 16 128 112 112 (25690112)
I1113 11:35:47.961807  2774 net.cpp:159] Memory required for data: 1294139456
I1113 11:35:47.961818  2774 layer_factory.hpp:77] Creating layer pool2
I1113 11:35:47.961834  2774 net.cpp:94] Creating Layer pool2
I1113 11:35:47.961845  2774 net.cpp:435] pool2 <- conv2_2
I1113 11:35:47.961859  2774 net.cpp:409] pool2 -> pool2
I1113 11:35:47.961964  2774 net.cpp:144] Setting up pool2
I1113 11:35:47.961979  2774 net.cpp:151] Top shape: 16 128 56 56 (6422528)
I1113 11:35:47.961989  2774 net.cpp:159] Memory required for data: 1319829568
I1113 11:35:47.962000  2774 layer_factory.hpp:77] Creating layer conv3_1
I1113 11:35:47.962023  2774 net.cpp:94] Creating Layer conv3_1
I1113 11:35:47.962033  2774 net.cpp:435] conv3_1 <- pool2
I1113 11:35:47.962049  2774 net.cpp:409] conv3_1 -> conv3_1
I1113 11:35:48.044021  2774 net.cpp:144] Setting up conv3_1
I1113 11:35:48.044056  2774 net.cpp:151] Top shape: 16 256 56 56 (12845056)
I1113 11:35:48.044069  2774 net.cpp:159] Memory required for data: 1371209792
I1113 11:35:48.044095  2774 layer_factory.hpp:77] Creating layer relu3_1
I1113 11:35:48.044116  2774 net.cpp:94] Creating Layer relu3_1
I1113 11:35:48.044127  2774 net.cpp:435] relu3_1 <- conv3_1
I1113 11:35:48.044142  2774 net.cpp:396] relu3_1 -> conv3_1 (in-place)
I1113 11:35:48.044162  2774 net.cpp:144] Setting up relu3_1
I1113 11:35:48.044176  2774 net.cpp:151] Top shape: 16 256 56 56 (12845056)
I1113 11:35:48.044188  2774 net.cpp:159] Memory required for data: 1422590016
I1113 11:35:48.044198  2774 layer_factory.hpp:77] Creating layer conv3_2
I1113 11:35:48.044219  2774 net.cpp:94] Creating Layer conv3_2
I1113 11:35:48.044230  2774 net.cpp:435] conv3_2 <- conv3_1
I1113 11:35:48.044246  2774 net.cpp:409] conv3_2 -> conv3_2
I1113 11:35:48.204004  2774 net.cpp:144] Setting up conv3_2
I1113 11:35:48.204052  2774 net.cpp:151] Top shape: 16 256 56 56 (12845056)
I1113 11:35:48.204064  2774 net.cpp:159] Memory required for data: 1473970240
I1113 11:35:48.204088  2774 layer_factory.hpp:77] Creating layer relu3_2
I1113 11:35:48.204109  2774 net.cpp:94] Creating Layer relu3_2
I1113 11:35:48.204156  2774 net.cpp:435] relu3_2 <- conv3_2
I1113 11:35:48.204172  2774 net.cpp:396] relu3_2 -> conv3_2 (in-place)
I1113 11:35:48.204196  2774 net.cpp:144] Setting up relu3_2
I1113 11:35:48.204210  2774 net.cpp:151] Top shape: 16 256 56 56 (12845056)
I1113 11:35:48.204221  2774 net.cpp:159] Memory required for data: 1525350464
I1113 11:35:48.204231  2774 layer_factory.hpp:77] Creating layer conv3_3
I1113 11:35:48.204254  2774 net.cpp:94] Creating Layer conv3_3
I1113 11:35:48.204265  2774 net.cpp:435] conv3_3 <- conv3_2
I1113 11:35:48.204282  2774 net.cpp:409] conv3_3 -> conv3_3
I1113 11:35:48.364766  2774 net.cpp:144] Setting up conv3_3
I1113 11:35:48.364801  2774 net.cpp:151] Top shape: 16 256 56 56 (12845056)
I1113 11:35:48.364814  2774 net.cpp:159] Memory required for data: 1576730688
I1113 11:35:48.364836  2774 layer_factory.hpp:77] Creating layer relu3_3
I1113 11:35:48.364861  2774 net.cpp:94] Creating Layer relu3_3
I1113 11:35:48.364874  2774 net.cpp:435] relu3_3 <- conv3_3
I1113 11:35:48.364889  2774 net.cpp:396] relu3_3 -> conv3_3 (in-place)
I1113 11:35:48.364912  2774 net.cpp:144] Setting up relu3_3
I1113 11:35:48.364925  2774 net.cpp:151] Top shape: 16 256 56 56 (12845056)
I1113 11:35:48.364936  2774 net.cpp:159] Memory required for data: 1628110912
I1113 11:35:48.364948  2774 layer_factory.hpp:77] Creating layer conv3_4
I1113 11:35:48.364969  2774 net.cpp:94] Creating Layer conv3_4
I1113 11:35:48.364980  2774 net.cpp:435] conv3_4 <- conv3_3
I1113 11:35:48.364995  2774 net.cpp:409] conv3_4 -> conv3_4
I1113 11:35:48.521328  2774 net.cpp:144] Setting up conv3_4
I1113 11:35:48.521370  2774 net.cpp:151] Top shape: 16 256 56 56 (12845056)
I1113 11:35:48.521383  2774 net.cpp:159] Memory required for data: 1679491136
I1113 11:35:48.521405  2774 layer_factory.hpp:77] Creating layer relu3_4
I1113 11:35:48.521425  2774 net.cpp:94] Creating Layer relu3_4
I1113 11:35:48.521437  2774 net.cpp:435] relu3_4 <- conv3_4
I1113 11:35:48.521453  2774 net.cpp:396] relu3_4 -> conv3_4 (in-place)
I1113 11:35:48.521476  2774 net.cpp:144] Setting up relu3_4
I1113 11:35:48.521489  2774 net.cpp:151] Top shape: 16 256 56 56 (12845056)
I1113 11:35:48.521500  2774 net.cpp:159] Memory required for data: 1730871360
I1113 11:35:48.521512  2774 layer_factory.hpp:77] Creating layer pool3
I1113 11:35:48.521528  2774 net.cpp:94] Creating Layer pool3
I1113 11:35:48.521538  2774 net.cpp:435] pool3 <- conv3_4
I1113 11:35:48.521553  2774 net.cpp:409] pool3 -> pool3
I1113 11:35:48.521661  2774 net.cpp:144] Setting up pool3
I1113 11:35:48.521675  2774 net.cpp:151] Top shape: 16 256 28 28 (3211264)
I1113 11:35:48.521685  2774 net.cpp:159] Memory required for data: 1743716416
I1113 11:35:48.521697  2774 layer_factory.hpp:77] Creating layer conv4_1
I1113 11:35:48.521718  2774 net.cpp:94] Creating Layer conv4_1
I1113 11:35:48.521729  2774 net.cpp:435] conv4_1 <- pool3
I1113 11:35:48.521744  2774 net.cpp:409] conv4_1 -> conv4_1
I1113 11:35:48.618947  2774 net.cpp:144] Setting up conv4_1
I1113 11:35:48.618983  2774 net.cpp:151] Top shape: 16 512 28 28 (6422528)
I1113 11:35:48.618994  2774 net.cpp:159] Memory required for data: 1769406528
I1113 11:35:48.619024  2774 layer_factory.hpp:77] Creating layer relu4_1
I1113 11:35:48.619043  2774 net.cpp:94] Creating Layer relu4_1
I1113 11:35:48.619057  2774 net.cpp:435] relu4_1 <- conv4_1
I1113 11:35:48.619072  2774 net.cpp:396] relu4_1 -> conv4_1 (in-place)
I1113 11:35:48.619093  2774 net.cpp:144] Setting up relu4_1
I1113 11:35:48.619108  2774 net.cpp:151] Top shape: 16 512 28 28 (6422528)
I1113 11:35:48.619118  2774 net.cpp:159] Memory required for data: 1795096640
I1113 11:35:48.619129  2774 layer_factory.hpp:77] Creating layer conv4_2
I1113 11:35:48.619151  2774 net.cpp:94] Creating Layer conv4_2
I1113 11:35:48.619163  2774 net.cpp:435] conv4_2 <- conv4_1
I1113 11:35:48.619179  2774 net.cpp:409] conv4_2 -> conv4_2
I1113 11:35:48.791731  2774 net.cpp:144] Setting up conv4_2
I1113 11:35:48.791774  2774 net.cpp:151] Top shape: 16 512 28 28 (6422528)
I1113 11:35:48.791786  2774 net.cpp:159] Memory required for data: 1820786752
I1113 11:35:48.791843  2774 layer_factory.hpp:77] Creating layer relu4_2
I1113 11:35:48.791863  2774 net.cpp:94] Creating Layer relu4_2
I1113 11:35:48.791877  2774 net.cpp:435] relu4_2 <- conv4_2
I1113 11:35:48.791892  2774 net.cpp:396] relu4_2 -> conv4_2 (in-place)
I1113 11:35:48.791915  2774 net.cpp:144] Setting up relu4_2
I1113 11:35:48.791929  2774 net.cpp:151] Top shape: 16 512 28 28 (6422528)
I1113 11:35:48.791940  2774 net.cpp:159] Memory required for data: 1846476864
I1113 11:35:48.791951  2774 layer_factory.hpp:77] Creating layer conv4_3
I1113 11:35:48.791975  2774 net.cpp:94] Creating Layer conv4_3
I1113 11:35:48.791985  2774 net.cpp:435] conv4_3 <- conv4_2
I1113 11:35:48.792001  2774 net.cpp:409] conv4_3 -> conv4_3
I1113 11:35:48.968602  2774 net.cpp:144] Setting up conv4_3
I1113 11:35:48.968641  2774 net.cpp:151] Top shape: 16 512 28 28 (6422528)
I1113 11:35:48.968652  2774 net.cpp:159] Memory required for data: 1872166976
I1113 11:35:48.968675  2774 layer_factory.hpp:77] Creating layer relu4_3
I1113 11:35:48.968694  2774 net.cpp:94] Creating Layer relu4_3
I1113 11:35:48.968708  2774 net.cpp:435] relu4_3 <- conv4_3
I1113 11:35:48.968724  2774 net.cpp:396] relu4_3 -> conv4_3 (in-place)
I1113 11:35:48.968745  2774 net.cpp:144] Setting up relu4_3
I1113 11:35:48.968760  2774 net.cpp:151] Top shape: 16 512 28 28 (6422528)
I1113 11:35:48.968770  2774 net.cpp:159] Memory required for data: 1897857088
I1113 11:35:48.968781  2774 layer_factory.hpp:77] Creating layer conv4_4
I1113 11:35:48.968803  2774 net.cpp:94] Creating Layer conv4_4
I1113 11:35:48.968816  2774 net.cpp:435] conv4_4 <- conv4_3
I1113 11:35:48.968832  2774 net.cpp:409] conv4_4 -> conv4_4
I1113 11:35:49.150929  2774 net.cpp:144] Setting up conv4_4
I1113 11:35:49.150964  2774 net.cpp:151] Top shape: 16 512 28 28 (6422528)
I1113 11:35:49.150977  2774 net.cpp:159] Memory required for data: 1923547200
I1113 11:35:49.150998  2774 layer_factory.hpp:77] Creating layer relu4_4
I1113 11:35:49.151016  2774 net.cpp:94] Creating Layer relu4_4
I1113 11:35:49.151029  2774 net.cpp:435] relu4_4 <- conv4_4
I1113 11:35:49.151046  2774 net.cpp:396] relu4_4 -> conv4_4 (in-place)
I1113 11:35:49.151067  2774 net.cpp:144] Setting up relu4_4
I1113 11:35:49.151080  2774 net.cpp:151] Top shape: 16 512 28 28 (6422528)
I1113 11:35:49.151091  2774 net.cpp:159] Memory required for data: 1949237312
I1113 11:35:49.151103  2774 layer_factory.hpp:77] Creating layer pool4
I1113 11:35:49.151118  2774 net.cpp:94] Creating Layer pool4
I1113 11:35:49.151129  2774 net.cpp:435] pool4 <- conv4_4
I1113 11:35:49.151144  2774 net.cpp:409] pool4 -> pool4
I1113 11:35:49.151226  2774 net.cpp:144] Setting up pool4
I1113 11:35:49.151242  2774 net.cpp:151] Top shape: 16 512 14 14 (1605632)
I1113 11:35:49.151252  2774 net.cpp:159] Memory required for data: 1955659840
I1113 11:35:49.151263  2774 layer_factory.hpp:77] Creating layer conv5_1
I1113 11:35:49.151284  2774 net.cpp:94] Creating Layer conv5_1
I1113 11:35:49.151295  2774 net.cpp:435] conv5_1 <- pool4
I1113 11:35:49.151311  2774 net.cpp:409] conv5_1 -> conv5_1
I1113 11:35:49.236068  2774 net.cpp:144] Setting up conv5_1
I1113 11:35:49.236102  2774 net.cpp:151] Top shape: 16 512 14 14 (1605632)
I1113 11:35:49.236114  2774 net.cpp:159] Memory required for data: 1962082368
I1113 11:35:49.236135  2774 layer_factory.hpp:77] Creating layer relu5_1
I1113 11:35:49.236155  2774 net.cpp:94] Creating Layer relu5_1
I1113 11:35:49.236167  2774 net.cpp:435] relu5_1 <- conv5_1
I1113 11:35:49.236182  2774 net.cpp:396] relu5_1 -> conv5_1 (in-place)
I1113 11:35:49.236203  2774 net.cpp:144] Setting up relu5_1
I1113 11:35:49.236217  2774 net.cpp:151] Top shape: 16 512 14 14 (1605632)
I1113 11:35:49.236228  2774 net.cpp:159] Memory required for data: 1968504896
I1113 11:35:49.236239  2774 layer_factory.hpp:77] Creating layer conv5_2
I1113 11:35:49.236260  2774 net.cpp:94] Creating Layer conv5_2
I1113 11:35:49.236271  2774 net.cpp:435] conv5_2 <- conv5_1
I1113 11:35:49.236287  2774 net.cpp:409] conv5_2 -> conv5_2
I1113 11:35:49.315132  2774 net.cpp:144] Setting up conv5_2
I1113 11:35:49.315162  2774 net.cpp:151] Top shape: 16 512 14 14 (1605632)
I1113 11:35:49.315171  2774 net.cpp:159] Memory required for data: 1974927424
I1113 11:35:49.315187  2774 layer_factory.hpp:77] Creating layer relu5_2
I1113 11:35:49.315212  2774 net.cpp:94] Creating Layer relu5_2
I1113 11:35:49.315220  2774 net.cpp:435] relu5_2 <- conv5_2
I1113 11:35:49.315230  2774 net.cpp:396] relu5_2 -> conv5_2 (in-place)
I1113 11:35:49.315246  2774 net.cpp:144] Setting up relu5_2
I1113 11:35:49.315256  2774 net.cpp:151] Top shape: 16 512 14 14 (1605632)
I1113 11:35:49.315263  2774 net.cpp:159] Memory required for data: 1981349952
I1113 11:35:49.315270  2774 layer_factory.hpp:77] Creating layer conv5_3
I1113 11:35:49.315286  2774 net.cpp:94] Creating Layer conv5_3
I1113 11:35:49.315294  2774 net.cpp:435] conv5_3 <- conv5_2
I1113 11:35:49.315304  2774 net.cpp:409] conv5_3 -> conv5_3
I1113 11:35:49.382205  2774 net.cpp:144] Setting up conv5_3
I1113 11:35:49.382231  2774 net.cpp:151] Top shape: 16 512 14 14 (1605632)
I1113 11:35:49.382239  2774 net.cpp:159] Memory required for data: 1987772480
I1113 11:35:49.382254  2774 layer_factory.hpp:77] Creating layer relu5_3
I1113 11:35:49.382268  2774 net.cpp:94] Creating Layer relu5_3
I1113 11:35:49.382277  2774 net.cpp:435] relu5_3 <- conv5_3
I1113 11:35:49.382288  2774 net.cpp:396] relu5_3 -> conv5_3 (in-place)
I1113 11:35:49.382303  2774 net.cpp:144] Setting up relu5_3
I1113 11:35:49.382313  2774 net.cpp:151] Top shape: 16 512 14 14 (1605632)
I1113 11:35:49.382319  2774 net.cpp:159] Memory required for data: 1994195008
I1113 11:35:49.382326  2774 layer_factory.hpp:77] Creating layer conv5_4
I1113 11:35:49.382341  2774 net.cpp:94] Creating Layer conv5_4
I1113 11:35:49.382349  2774 net.cpp:435] conv5_4 <- conv5_3
I1113 11:35:49.382359  2774 net.cpp:409] conv5_4 -> conv5_4
I1113 11:35:49.450594  2774 net.cpp:144] Setting up conv5_4
I1113 11:35:49.450644  2774 net.cpp:151] Top shape: 16 512 14 14 (1605632)
I1113 11:35:49.450655  2774 net.cpp:159] Memory required for data: 2000617536
I1113 11:35:49.450678  2774 layer_factory.hpp:77] Creating layer relu5_4
I1113 11:35:49.450698  2774 net.cpp:94] Creating Layer relu5_4
I1113 11:35:49.450711  2774 net.cpp:435] relu5_4 <- conv5_4
I1113 11:35:49.450727  2774 net.cpp:396] relu5_4 -> conv5_4 (in-place)
I1113 11:35:49.450750  2774 net.cpp:144] Setting up relu5_4
I1113 11:35:49.450764  2774 net.cpp:151] Top shape: 16 512 14 14 (1605632)
I1113 11:35:49.450775  2774 net.cpp:159] Memory required for data: 2007040064
I1113 11:35:49.450786  2774 layer_factory.hpp:77] Creating layer pool5
I1113 11:35:49.450803  2774 net.cpp:94] Creating Layer pool5
I1113 11:35:49.450814  2774 net.cpp:435] pool5 <- conv5_4
I1113 11:35:49.450827  2774 net.cpp:409] pool5 -> pool5
I1113 11:35:49.450955  2774 net.cpp:144] Setting up pool5
I1113 11:35:49.450970  2774 net.cpp:151] Top shape: 16 512 7 7 (401408)
I1113 11:35:49.450981  2774 net.cpp:159] Memory required for data: 2008645696
I1113 11:35:49.450991  2774 layer_factory.hpp:77] Creating layer fc6
I1113 11:35:49.451009  2774 net.cpp:94] Creating Layer fc6
I1113 11:35:49.451020  2774 net.cpp:435] fc6 <- pool5
I1113 11:35:49.451033  2774 net.cpp:409] fc6 -> fc6
I1113 11:35:50.567502  2774 net.cpp:144] Setting up fc6
I1113 11:35:50.567555  2774 net.cpp:151] Top shape: 16 4096 (65536)
I1113 11:35:50.567564  2774 net.cpp:159] Memory required for data: 2008907840
I1113 11:35:50.567595  2774 layer_factory.hpp:77] Creating layer relu6
I1113 11:35:50.567611  2774 net.cpp:94] Creating Layer relu6
I1113 11:35:50.567620  2774 net.cpp:435] relu6 <- fc6
I1113 11:35:50.567632  2774 net.cpp:396] relu6 -> fc6 (in-place)
I1113 11:35:50.567651  2774 net.cpp:144] Setting up relu6
I1113 11:35:50.567659  2774 net.cpp:151] Top shape: 16 4096 (65536)
I1113 11:35:50.567665  2774 net.cpp:159] Memory required for data: 2009169984
I1113 11:35:50.567672  2774 layer_factory.hpp:77] Creating layer drop6
I1113 11:35:50.567684  2774 net.cpp:94] Creating Layer drop6
I1113 11:35:50.567692  2774 net.cpp:435] drop6 <- fc6
I1113 11:35:50.567749  2774 net.cpp:396] drop6 -> fc6 (in-place)
I1113 11:35:50.567788  2774 net.cpp:144] Setting up drop6
I1113 11:35:50.567798  2774 net.cpp:151] Top shape: 16 4096 (65536)
I1113 11:35:50.567806  2774 net.cpp:159] Memory required for data: 2009432128
I1113 11:35:50.567812  2774 layer_factory.hpp:77] Creating layer fc7
I1113 11:35:50.567826  2774 net.cpp:94] Creating Layer fc7
I1113 11:35:50.567832  2774 net.cpp:435] fc7 <- fc6
I1113 11:35:50.567842  2774 net.cpp:409] fc7 -> fc7
I1113 11:35:50.743933  2774 net.cpp:144] Setting up fc7
I1113 11:35:50.743978  2774 net.cpp:151] Top shape: 16 4096 (65536)
I1113 11:35:50.743988  2774 net.cpp:159] Memory required for data: 2009694272
I1113 11:35:50.744004  2774 layer_factory.hpp:77] Creating layer relu7
I1113 11:35:50.744019  2774 net.cpp:94] Creating Layer relu7
I1113 11:35:50.744029  2774 net.cpp:435] relu7 <- fc7
I1113 11:35:50.744040  2774 net.cpp:396] relu7 -> fc7 (in-place)
I1113 11:35:50.744057  2774 net.cpp:144] Setting up relu7
I1113 11:35:50.744066  2774 net.cpp:151] Top shape: 16 4096 (65536)
I1113 11:35:50.744073  2774 net.cpp:159] Memory required for data: 2009956416
I1113 11:35:50.744081  2774 layer_factory.hpp:77] Creating layer drop7
I1113 11:35:50.744092  2774 net.cpp:94] Creating Layer drop7
I1113 11:35:50.744099  2774 net.cpp:435] drop7 <- fc7
I1113 11:35:50.744109  2774 net.cpp:396] drop7 -> fc7 (in-place)
I1113 11:35:50.744143  2774 net.cpp:144] Setting up drop7
I1113 11:35:50.744153  2774 net.cpp:151] Top shape: 16 4096 (65536)
I1113 11:35:50.744159  2774 net.cpp:159] Memory required for data: 2010218560
I1113 11:35:50.744166  2774 layer_factory.hpp:77] Creating layer fc8
I1113 11:35:50.744179  2774 net.cpp:94] Creating Layer fc8
I1113 11:35:50.744185  2774 net.cpp:435] fc8 <- fc7
I1113 11:35:50.744195  2774 net.cpp:409] fc8 -> fc8
I1113 11:35:50.744395  2774 net.cpp:144] Setting up fc8
I1113 11:35:50.744405  2774 net.cpp:151] Top shape: 16 2 (32)
I1113 11:35:50.744412  2774 net.cpp:159] Memory required for data: 2010218688
I1113 11:35:50.744422  2774 layer_factory.hpp:77] Creating layer loss
I1113 11:35:50.755535  2774 net.cpp:94] Creating Layer loss
I1113 11:35:50.755553  2774 net.cpp:435] loss <- fc8
I1113 11:35:50.755565  2774 net.cpp:435] loss <- label
I1113 11:35:50.755584  2774 net.cpp:409] loss -> loss
I1113 11:35:50.755605  2774 layer_factory.hpp:77] Creating layer loss
…
I1113 11:35:50.757503  2774 net.cpp:323] The NetState phase (1) differed from the phase (0) specified by a rule in layer train-data
I1113 11:35:50.757783  2774 net.cpp:52] Initializing net from parameters:
state {
phase: TEST
}
layer {
name: "val-data"
type: "Data"
top: "data"
top: "label"
include {
phase: TEST
}
transform_param {
crop_size: 224
mean_file: "/media/myuser/120Gb/DIGITS/digits/jobs/20160917-133511-8c62/mean.binaryproto"
}
data_param {
source: "/media/myuser/120Gb/DIGITS/digits/jobs/20160917-133511-8c62/val_db"
batch_size: 16
backend: LMDB
}
}
layer {
name: "conv1_1"
type: "Convolution"
bottom: "data"
top: "conv1_1"
convolution_param {
num_output: 64
pad: 1
kernel_size: 3
weight_filler {
type: "xavier"
}
bias_filler {
type: "constant"
value: 0
}
}
}
layer {
name: "relu1_1"
type: "ReLU"
bottom: "conv1_1"
top: "conv1_1"
}
layer {
name: "conv1_2"
type: "Convolution"
bottom: "conv1_1"
top: "conv1_2"
convolution_param {
num_output: 64
pad: 1
kernel_size: 3
weight_filler {
type: "xavier"
}
bias_filler {
type: "constant"
value: 0
}
}
}
layer {
name: "relu1_2"
type: "ReLU"
bottom: "conv1_2"
top: "conv1_2"
}
layer {
name: "pool1"
type: "Pooling"
bottom: "conv1_2"
top: "pool1"
pooling_param {
pool: MAX
kernel_size: 2
stride: 2
}
}
layer {
name: "conv2_1"
type: "Convolution"
bottom: "pool1"
top: "conv2_1"
convolution_param {
num_output: 128
pad: 1
kernel_size: 3
weight_filler {
type: "xavier"
}
bias_filler {
type: "constant"
value: 0
}
}
}
layer {
name: "relu2_1"
type: "ReLU"
bottom: "conv2_1"
top: "conv2_1"
}
layer {
name: "conv2_2"
type: "Convolution"
bottom: "conv2_1"
top: "conv2_2"
convolution_param {
num_output: 128
pad: 1
kernel_size: 3
weight_filler {
type: "xavier"
}
bias_filler {
type: "constant"
value: 0
}
}
}
layer {
name: "relu2_2"
type: "ReLU"
bottom: "conv2_2"
top: "conv2_2"
}
layer {
name: "pool2"
type: "Pooling"
bottom: "conv2_2"
top: "pool2"
pooling_param {
pool: MAX
kernel_size: 2
stride: 2
}
}
layer {
name: "conv3_1"
type: "Convolution"
bottom: "pool2"
top: "conv3_1"
convolution_param {
num_output: 256
pad: 1
kernel_size: 3
weight_filler {
type: "xavier"
}
bias_filler {
type: "constant"
value: 0
}
}
}
layer {
name: "relu3_1"
type: "ReLU"
bottom: "conv3_1"
top: "conv3_1"
}
layer {
name: "conv3_2"
type: "Convolution"
bottom: "conv3_1"
top: "conv3_2"
convolution_param {
num_output: 256
pad: 1
kernel_size: 3
weight_filler {
type: "xavier"
}
bias_filler {
type: "constant"
value: 0
}
}
}
layer {
name: "relu3_2"
type: "ReLU"
bottom: "conv3_2"
top: "conv3_2"
}
layer {
name: "conv3_3"
type: "Convolution"
bottom: "conv3_2"
top: "conv3_3"
convolution_param {
num_output: 256
pad: 1
kernel_size: 3
weight_filler {
type: "xavier"
}
bias_filler {
type: "constant"
value: 0
}
}
}
layer {
name: "relu3_3"
type: "ReLU"
bottom: "conv3_3"
top: "conv3_3"
}
layer {
name: "conv3_4"
type: "Convolution"
bottom: "conv3_3"
top: "conv3_4"
convolution_param {
num_output: 256
pad: 1
kernel_size: 3
weight_filler {
type: "xavier"
}
bias_filler {
type: "constant"
value: 0
}
}
}
layer {
name: "relu3_4"
type: "ReLU"
bottom: "conv3_4"
top: "conv3_4"
}
layer {
name: "pool3"
type: "Pooling"
bottom: "conv3_4"
top: "pool3"
pooling_param {
pool: MAX
kernel_size: 2
stride: 2
}
}
layer {
name: "conv4_1"
type: "Convolution"
bottom: "pool3"
top: "conv4_1"
convolution_param {
num_output: 512
pad: 1
kernel_size: 3
weight_filler {
type: "xavier"
}
bias_filler {
type: "constant"
value: 0
}
}
}
layer {
name: "relu4_1"
type: "ReLU"
bottom: "conv4_1"
top: "conv4_1"
}
layer {
name: "conv4_2"
type: "Convolution"
bottom: "conv4_1"
top: "conv4_2"
convolution_param {
num_output: 512
pad: 1
kernel_size: 3
weight_filler {
type: "xavier"
}
bias_filler {
type: "constant"
value: 0
}
}
}
layer {
name: "relu4_2"
type: "ReLU"
bottom: "conv4_2"
top: "conv4_2"
}
layer {
name: "conv4_3"
type: "Convolution"
bottom: "conv4_2"
top: "conv4_3"
convolution_param {
num_output: 512
pad: 1
kernel_size: 3
weight_filler {
type: "xavier"
}
bias_filler {
type: "constant"
value: 0
}
}
}
layer {
name: "relu4_3"
type: "ReLU"
bottom: "conv4_3"
top: "conv4_3"
}
layer {
name: "conv4_4"
type: "Convolution"
bottom: "conv4_3"
top: "conv4_4"
convolution_param {
num_output: 512
pad: 1
kernel_size: 3
weight_filler {
type: "xavier"
}
bias_filler {
type: "constant"
value: 0
}
}
}
layer {
name: "relu4_4"
type: "ReLU"
bottom: "conv4_4"
top: "conv4_4"
}
layer {
name: "pool4"
type: "Pooling"
bottom: "conv4_4"
top: "pool4"
pooling_param {
pool: MAX
kernel_size: 2
stride: 2
}
}
layer {
name: "conv5_1"
type: "Convolution"
bottom: "pool4"
top: "conv5_1"
convolution_param {
num_output: 512
pad: 1
kernel_size: 3
weight_filler {
type: "xavier"
}
bias_filler {
type: "constant"
value: 0
}
}
}
layer {
name: "relu5_1"
type: "ReLU"
bottom: "conv5_1"
top: "conv5_1"
}
layer {
name: "conv5_2"
type: "Convolution"
bottom: "conv5_1"
top: "conv5_2"
convolution_param {
num_output: 512
pad: 1
kernel_size: 3
weight_filler {
type: "xavier"
}
bias_filler {
type: "constant"
value: 0
}
}
}
layer {
name: "relu5_2"
type: "ReLU"
bottom: "conv5_2"
top: "conv5_2"
}
layer {
name: "conv5_3"
type: "Convolution"
bottom: "conv5_2"
top: "conv5_3"
convolution_param {
num_output: 512
pad: 1
kernel_size: 3
weight_filler {
type: "xavier"
}
bias_filler {
type: "constant"
value: 0
}
}
}
layer {
name: "relu5_3"
type: "ReLU"
bottom: "conv5_3"
top: "conv5_3"
}
layer {
name: "conv5_4"
type: "Convolution"
bottom: "conv5_3"
top: "conv5_4"
convolution_param {
num_output: 512
pad: 1
kernel_size: 3
weight_filler {
type: "xavier"
}
bias_filler {
type: "constant"
value: 0
}
}
}
layer {
name: "relu5_4"
type: "ReLU"
bottom: "conv5_4"
top: "conv5_4"
}
layer {
name: "pool5"
type: "Pooling"
bottom: "conv5_4"
top: "pool5"
pooling_param {
pool: MAX
kernel_size: 2
stride: 2
}
}
layer {
name: "fc6"
type: "InnerProduct"
bottom: "pool5"
top: "fc6"
inner_product_param {
num_output: 4096
weight_filler {
type: "xavier"
}
bias_filler {
type: "constant"
value: 0.1
}
}
}
layer {
name: "relu6"
type: "ReLU"
bottom: "fc6"
top: "fc6"
}
layer {
name: "drop6"
type: "Dropout"
bottom: "fc6"
top: "fc6"
dropout_param {
dropout_ratio: 0.5
}
}
layer {
name: "fc7"
type: "InnerProduct"
bottom: "fc6"
top: "fc7"
inner_product_param {
num_output: 4096
weight_filler {
type: "xavier"
}
bias_filler {
type: "constant"
value: 0.1
}
}
}
layer {
name: "relu7"
type: "ReLU"
bottom: "fc7"
top: "fc7"
}
layer {
name: "drop7"
type: "Dropout"
bottom: "fc7"
top: "fc7"
dropout_param {
dropout_ratio: 0.5
}
}
layer {
name: "fc8"
type: "InnerProduct"
bottom: "fc7"
top: "fc8"
inner_product_param {
num_output: 2
weight_filler {
type: "xavier"
}
bias_filler {
type: "constant"
value: 0.1
}
}
}
layer {
name: "accuracy"
type: "Accuracy"
bottom: "fc8"
bottom: "label"
top: "accuracy"
include {
phase: TEST
}
}
layer {
name: "loss"
type: "SoftmaxWithLoss"
bottom: "fc8"
bottom: "label"
top: "loss"
}
I1113 11:35:50.757982  2774 layer_factory.hpp:77] Creating layer val-data
I1113 11:35:50.758157  2774 net.cpp:94] Creating Layer val-data
I1113 11:35:50.758169  2774 net.cpp:409] val-data -> data
I1113 11:35:50.758183  2774 net.cpp:409] val-data -> label
I1113 11:35:50.758198  2774 data_transformer.cpp:25] Loading mean file from: /media/myuser/120Gb/DIGITS/digits/jobs/20160917-133511-8c62/mean.binaryproto
I1113 11:35:50.785593  2784 db_lmdb.cpp:35] Opened lmdb /media/myuser/120Gb/DIGITS/digits/jobs/20160917-133511-8c62/val_db
I1113 11:35:50.808403  2774 data_layer.cpp:76] output data size: 16,3,224,224
I1113 11:35:50.841317  2774 net.cpp:144] Setting up val-data
I1113 11:35:50.841356  2774 net.cpp:151] Top shape: 16 3 224 224 (2408448)
I1113 11:35:50.841367  2774 net.cpp:151] Top shape: 16 (16)
I1113 11:35:50.841375  2774 net.cpp:159] Memory required for data: 9633856
I1113 11:35:50.841387  2774 layer_factory.hpp:77] Creating layer label_val-data_1_split
I1113 11:35:50.841404  2774 net.cpp:94] Creating Layer label_val-data_1_split
I1113 11:35:50.841413  2774 net.cpp:435] label_val-data_1_split <- label
I1113 11:35:50.841424  2774 net.cpp:409] label_val-data_1_split -> label_val-data_1_split_0
I1113 11:35:50.841439  2774 net.cpp:409] label_val-data_1_split -> label_val-data_1_split_1
I1113 11:35:50.841521  2774 net.cpp:144] Setting up label_val-data_1_split
I1113 11:35:50.841531  2774 net.cpp:151] Top shape: 16 (16)
I1113 11:35:50.841539  2774 net.cpp:151] Top shape: 16 (16)
I1113 11:35:50.841547  2774 net.cpp:159] Memory required for data: 9633984
I1113 11:35:50.841554  2774 layer_factory.hpp:77] Creating layer conv1_1
I1113 11:35:50.841599  2774 net.cpp:94] Creating Layer conv1_1
I1113 11:35:50.841609  2774 net.cpp:435] conv1_1 <- data
I1113 11:35:50.841619  2774 net.cpp:409] conv1_1 -> conv1_1
I1113 11:35:50.863678  2774 net.cpp:144] Setting up conv1_1
I1113 11:35:50.863711  2774 net.cpp:151] Top shape: 16 64 224 224 (51380224)
I1113 11:35:50.863719  2774 net.cpp:159] Memory required for data: 215154880
I1113 11:35:50.863739  2774 layer_factory.hpp:77] Creating layer relu1_1
I1113 11:35:50.863754  2774 net.cpp:94] Creating Layer relu1_1
I1113 11:35:50.863762  2774 net.cpp:435] relu1_1 <- conv1_1
I1113 11:35:50.863772  2774 net.cpp:396] relu1_1 -> conv1_1 (in-place)
I1113 11:35:50.863788  2774 net.cpp:144] Setting up relu1_1
I1113 11:35:50.863797  2774 net.cpp:151] Top shape: 16 64 224 224 (51380224)
I1113 11:35:50.863804  2774 net.cpp:159] Memory required for data: 420675776
I1113 11:35:50.863811  2774 layer_factory.hpp:77] Creating layer conv1_2
I1113 11:35:50.863829  2774 net.cpp:94] Creating Layer conv1_2
I1113 11:35:50.863837  2774 net.cpp:435] conv1_2 <- conv1_1
I1113 11:35:50.863847  2774 net.cpp:409] conv1_2 -> conv1_2
I1113 11:35:50.936328  2774 net.cpp:144] Setting up conv1_2
I1113 11:35:50.936378  2774 net.cpp:151] Top shape: 16 64 224 224 (51380224)
I1113 11:35:50.936388  2774 net.cpp:159] Memory required for data: 626196672
I1113 11:35:50.936410  2774 layer_factory.hpp:77] Creating layer relu1_2
I1113 11:35:50.936425  2774 net.cpp:94] Creating Layer relu1_2
I1113 11:35:50.936434  2774 net.cpp:435] relu1_2 <- conv1_2
I1113 11:35:50.936446  2774 net.cpp:396] relu1_2 -> conv1_2 (in-place)
I1113 11:35:50.936463  2774 net.cpp:144] Setting up relu1_2
I1113 11:35:50.936472  2774 net.cpp:151] Top shape: 16 64 224 224 (51380224)
I1113 11:35:50.936480  2774 net.cpp:159] Memory required for data: 831717568
I1113 11:35:50.936486  2774 layer_factory.hpp:77] Creating layer pool1
I1113 11:35:50.936498  2774 net.cpp:94] Creating Layer pool1
I1113 11:35:50.936506  2774 net.cpp:435] pool1 <- conv1_2
I1113 11:35:50.936516  2774 net.cpp:409] pool1 -> pool1
I1113 11:35:50.936627  2774 net.cpp:144] Setting up pool1
I1113 11:35:50.936637  2774 net.cpp:151] Top shape: 16 64 112 112 (12845056)
I1113 11:35:50.936645  2774 net.cpp:159] Memory required for data: 883097792
I1113 11:35:50.936651  2774 layer_factory.hpp:77] Creating layer conv2_1
I1113 11:35:50.936667  2774 net.cpp:94] Creating Layer conv2_1
I1113 11:35:50.936676  2774 net.cpp:435] conv2_1 <- pool1
I1113 11:35:50.936686  2774 net.cpp:409] conv2_1 -> conv2_1
I1113 11:35:50.970346  2774 net.cpp:144] Setting up conv2_1
I1113 11:35:50.970381  2774 net.cpp:151] Top shape: 16 128 112 112 (25690112)
I1113 11:35:50.970388  2774 net.cpp:159] Memory required for data: 985858240
I1113 11:35:50.970412  2774 layer_factory.hpp:77] Creating layer relu2_1
I1113 11:35:50.970432  2774 net.cpp:94] Creating Layer relu2_1
I1113 11:35:50.970440  2774 net.cpp:435] relu2_1 <- conv2_1
I1113 11:35:50.970451  2774 net.cpp:396] relu2_1 -> conv2_1 (in-place)
I1113 11:35:50.970468  2774 net.cpp:144] Setting up relu2_1
I1113 11:35:50.970476  2774 net.cpp:151] Top shape: 16 128 112 112 (25690112)
I1113 11:35:50.970484  2774 net.cpp:159] Memory required for data: 1088618688
I1113 11:35:50.970490  2774 layer_factory.hpp:77] Creating layer conv2_2
I1113 11:35:50.970507  2774 net.cpp:94] Creating Layer conv2_2
I1113 11:35:50.970515  2774 net.cpp:435] conv2_2 <- conv2_1
I1113 11:35:50.970525  2774 net.cpp:409] conv2_2 -> conv2_2
I1113 11:35:51.034396  2774 net.cpp:144] Setting up conv2_2
I1113 11:35:51.034435  2774 net.cpp:151] Top shape: 16 128 112 112 (25690112)
I1113 11:35:51.034447  2774 net.cpp:159] Memory required for data: 1191379136
I1113 11:35:51.034468  2774 layer_factory.hpp:77] Creating layer relu2_2
I1113 11:35:51.034489  2774 net.cpp:94] Creating Layer relu2_2
I1113 11:35:51.034497  2774 net.cpp:435] relu2_2 <- conv2_2
I1113 11:35:51.034508  2774 net.cpp:396] relu2_2 -> conv2_2 (in-place)
I1113 11:35:51.034525  2774 net.cpp:144] Setting up relu2_2
I1113 11:35:51.034534  2774 net.cpp:151] Top shape: 16 128 112 112 (25690112)
I1113 11:35:51.034561  2774 net.cpp:159] Memory required for data: 1294139584
I1113 11:35:51.034569  2774 layer_factory.hpp:77] Creating layer pool2
I1113 11:35:51.034581  2774 net.cpp:94] Creating Layer pool2
I1113 11:35:51.034590  2774 net.cpp:435] pool2 <- conv2_2
I1113 11:35:51.034598  2774 net.cpp:409] pool2 -> pool2
I1113 11:35:51.034703  2774 net.cpp:144] Setting up pool2
I1113 11:35:51.034713  2774 net.cpp:151] Top shape: 16 128 56 56 (6422528)
I1113 11:35:51.034719  2774 net.cpp:159] Memory required for data: 1319829696
I1113 11:35:51.034726  2774 layer_factory.hpp:77] Creating layer conv3_1
I1113 11:35:51.034742  2774 net.cpp:94] Creating Layer conv3_1
I1113 11:35:51.034750  2774 net.cpp:435] conv3_1 <- pool2
I1113 11:35:51.034760  2774 net.cpp:409] conv3_1 -> conv3_1
I1113 11:35:51.061749  2774 net.cpp:144] Setting up conv3_1
I1113 11:35:51.061777  2774 net.cpp:151] Top shape: 16 256 56 56 (12845056)
I1113 11:35:51.061789  2774 net.cpp:159] Memory required for data: 1371209920
I1113 11:35:51.061815  2774 layer_factory.hpp:77] Creating layer relu3_1
I1113 11:35:51.061833  2774 net.cpp:94] Creating Layer relu3_1
I1113 11:35:51.061851  2774 net.cpp:435] relu3_1 <- conv3_1
I1113 11:35:51.061861  2774 net.cpp:396] relu3_1 -> conv3_1 (in-place)
I1113 11:35:51.061873  2774 net.cpp:144] Setting up relu3_1
I1113 11:35:51.061882  2774 net.cpp:151] Top shape: 16 256 56 56 (12845056)
I1113 11:35:51.061889  2774 net.cpp:159] Memory required for data: 1422590144
I1113 11:35:51.061897  2774 layer_factory.hpp:77] Creating layer conv3_2
I1113 11:35:51.061911  2774 net.cpp:94] Creating Layer conv3_2
I1113 11:35:51.061918  2774 net.cpp:435] conv3_2 <- conv3_1
I1113 11:35:51.061929  2774 net.cpp:409] conv3_2 -> conv3_2
I1113 11:35:51.113344  2774 net.cpp:144] Setting up conv3_2
I1113 11:35:51.113373  2774 net.cpp:151] Top shape: 16 256 56 56 (12845056)
I1113 11:35:51.113384  2774 net.cpp:159] Memory required for data: 1473970368
I1113 11:35:51.113404  2774 layer_factory.hpp:77] Creating layer relu3_2
I1113 11:35:51.113422  2774 net.cpp:94] Creating Layer relu3_2
I1113 11:35:51.113438  2774 net.cpp:435] relu3_2 <- conv3_2
I1113 11:35:51.113448  2774 net.cpp:396] relu3_2 -> conv3_2 (in-place)
I1113 11:35:51.113462  2774 net.cpp:144] Setting up relu3_2
I1113 11:35:51.113472  2774 net.cpp:151] Top shape: 16 256 56 56 (12845056)
I1113 11:35:51.113479  2774 net.cpp:159] Memory required for data: 1525350592
I1113 11:35:51.113487  2774 layer_factory.hpp:77] Creating layer conv3_3
I1113 11:35:51.113505  2774 net.cpp:94] Creating Layer conv3_3
I1113 11:35:51.113512  2774 net.cpp:435] conv3_3 <- conv3_2
I1113 11:35:51.113523  2774 net.cpp:409] conv3_3 -> conv3_3
I1113 11:35:51.164309  2774 net.cpp:144] Setting up conv3_3
I1113 11:35:51.164338  2774 net.cpp:151] Top shape: 16 256 56 56 (12845056)
I1113 11:35:51.164350  2774 net.cpp:159] Memory required for data: 1576730816
I1113 11:35:51.164369  2774 layer_factory.hpp:77] Creating layer relu3_3
I1113 11:35:51.164387  2774 net.cpp:94] Creating Layer relu3_3
I1113 11:35:51.164403  2774 net.cpp:435] relu3_3 <- conv3_3
I1113 11:35:51.164413  2774 net.cpp:396] relu3_3 -> conv3_3 (in-place)
I1113 11:35:51.164427  2774 net.cpp:144] Setting up relu3_3
I1113 11:35:51.164435  2774 net.cpp:151] Top shape: 16 256 56 56 (12845056)
I1113 11:35:51.164443  2774 net.cpp:159] Memory required for data: 1628111040
I1113 11:35:51.164450  2774 layer_factory.hpp:77] Creating layer conv3_4
I1113 11:35:51.164464  2774 net.cpp:94] Creating Layer conv3_4
I1113 11:35:51.164472  2774 net.cpp:435] conv3_4 <- conv3_3
I1113 11:35:51.164482  2774 net.cpp:409] conv3_4 -> conv3_4
I1113 11:35:51.222362  2774 net.cpp:144] Setting up conv3_4
I1113 11:35:51.222404  2774 net.cpp:151] Top shape: 16 256 56 56 (12845056)
I1113 11:35:51.222416  2774 net.cpp:159] Memory required for data: 1679491264
I1113 11:35:51.222442  2774 layer_factory.hpp:77] Creating layer relu3_4
I1113 11:35:51.222457  2774 net.cpp:94] Creating Layer relu3_4
I1113 11:35:51.222467  2774 net.cpp:435] relu3_4 <- conv3_4
I1113 11:35:51.222478  2774 net.cpp:396] relu3_4 -> conv3_4 (in-place)
I1113 11:35:51.222522  2774 net.cpp:144] Setting up relu3_4
I1113 11:35:51.222532  2774 net.cpp:151] Top shape: 16 256 56 56 (12845056)
I1113 11:35:51.222539  2774 net.cpp:159] Memory required for data: 1730871488
I1113 11:35:51.222546  2774 layer_factory.hpp:77] Creating layer pool3
I1113 11:35:51.222558  2774 net.cpp:94] Creating Layer pool3
I1113 11:35:51.222566  2774 net.cpp:435] pool3 <- conv3_4
I1113 11:35:51.222576  2774 net.cpp:409] pool3 -> pool3
I1113 11:35:51.222682  2774 net.cpp:144] Setting up pool3
I1113 11:35:51.222692  2774 net.cpp:151] Top shape: 16 256 28 28 (3211264)
I1113 11:35:51.222699  2774 net.cpp:159] Memory required for data: 1743716544
I1113 11:35:51.222707  2774 layer_factory.hpp:77] Creating layer conv4_1
I1113 11:35:51.222723  2774 net.cpp:94] Creating Layer conv4_1
I1113 11:35:51.222729  2774 net.cpp:435] conv4_1 <- pool3
I1113 11:35:51.222740  2774 net.cpp:409] conv4_1 -> conv4_1
I1113 11:35:51.264560  2774 net.cpp:144] Setting up conv4_1
I1113 11:35:51.264593  2774 net.cpp:151] Top shape: 16 512 28 28 (6422528)
I1113 11:35:51.264605  2774 net.cpp:159] Memory required for data: 1769406656
I1113 11:35:51.264634  2774 layer_factory.hpp:77] Creating layer relu4_1
I1113 11:35:51.264653  2774 net.cpp:94] Creating Layer relu4_1
I1113 11:35:51.264667  2774 net.cpp:435] relu4_1 <- conv4_1
I1113 11:35:51.264683  2774 net.cpp:396] relu4_1 -> conv4_1 (in-place)
I1113 11:35:51.264703  2774 net.cpp:144] Setting up relu4_1
I1113 11:35:51.264717  2774 net.cpp:151] Top shape: 16 512 28 28 (6422528)
I1113 11:35:51.264727  2774 net.cpp:159] Memory required for data: 1795096768
I1113 11:35:51.264739  2774 layer_factory.hpp:77] Creating layer conv4_2
I1113 11:35:51.264760  2774 net.cpp:94] Creating Layer conv4_2
I1113 11:35:51.264771  2774 net.cpp:435] conv4_2 <- conv4_1
I1113 11:35:51.264786  2774 net.cpp:409] conv4_2 -> conv4_2
I1113 11:35:51.343781  2774 net.cpp:144] Setting up conv4_2
I1113 11:35:51.343816  2774 net.cpp:151] Top shape: 16 512 28 28 (6422528)
I1113 11:35:51.343827  2774 net.cpp:159] Memory required for data: 1820786880
I1113 11:35:51.343848  2774 layer_factory.hpp:77] Creating layer relu4_2
I1113 11:35:51.343868  2774 net.cpp:94] Creating Layer relu4_2
I1113 11:35:51.343880  2774 net.cpp:435] relu4_2 <- conv4_2
I1113 11:35:51.343895  2774 net.cpp:396] relu4_2 -> conv4_2 (in-place)
I1113 11:35:51.343916  2774 net.cpp:144] Setting up relu4_2
I1113 11:35:51.343930  2774 net.cpp:151] Top shape: 16 512 28 28 (6422528)
I1113 11:35:51.343940  2774 net.cpp:159] Memory required for data: 1846476992
I1113 11:35:51.343951  2774 layer_factory.hpp:77] Creating layer conv4_3
I1113 11:35:51.343972  2774 net.cpp:94] Creating Layer conv4_3
I1113 11:35:51.343983  2774 net.cpp:435] conv4_3 <- conv4_2
I1113 11:35:51.343998  2774 net.cpp:409] conv4_3 -> conv4_3
I1113 11:35:51.421964  2774 net.cpp:144] Setting up conv4_3
I1113 11:35:51.421999  2774 net.cpp:151] Top shape: 16 512 28 28 (6422528)
I1113 11:35:51.422011  2774 net.cpp:159] Memory required for data: 1872167104
I1113 11:35:51.422032  2774 layer_factory.hpp:77] Creating layer relu4_3
I1113 11:35:51.422051  2774 net.cpp:94] Creating Layer relu4_3
I1113 11:35:51.422065  2774 net.cpp:435] relu4_3 <- conv4_3
I1113 11:35:51.422080  2774 net.cpp:396] relu4_3 -> conv4_3 (in-place)
I1113 11:35:51.422101  2774 net.cpp:144] Setting up relu4_3
I1113 11:35:51.422114  2774 net.cpp:151] Top shape: 16 512 28 28 (6422528)
I1113 11:35:51.422125  2774 net.cpp:159] Memory required for data: 1897857216
I1113 11:35:51.422137  2774 layer_factory.hpp:77] Creating layer conv4_4
I1113 11:35:51.422158  2774 net.cpp:94] Creating Layer conv4_4
I1113 11:35:51.422169  2774 net.cpp:435] conv4_4 <- conv4_3
I1113 11:35:51.422185  2774 net.cpp:409] conv4_4 -> conv4_4
I1113 11:35:51.499809  2774 net.cpp:144] Setting up conv4_4
I1113 11:35:51.499840  2774 net.cpp:151] Top shape: 16 512 28 28 (6422528)
I1113 11:35:51.499852  2774 net.cpp:159] Memory required for data: 1923547328
I1113 11:35:51.499873  2774 layer_factory.hpp:77] Creating layer relu4_4
I1113 11:35:51.499917  2774 net.cpp:94] Creating Layer relu4_4
I1113 11:35:51.499932  2774 net.cpp:435] relu4_4 <- conv4_4
I1113 11:35:51.499946  2774 net.cpp:396] relu4_4 -> conv4_4 (in-place)
I1113 11:35:51.499968  2774 net.cpp:144] Setting up relu4_4
I1113 11:35:51.499981  2774 net.cpp:151] Top shape: 16 512 28 28 (6422528)
I1113 11:35:51.499992  2774 net.cpp:159] Memory required for data: 1949237440
I1113 11:35:51.500003  2774 layer_factory.hpp:77] Creating layer pool4
I1113 11:35:51.500020  2774 net.cpp:94] Creating Layer pool4
I1113 11:35:51.500030  2774 net.cpp:435] pool4 <- conv4_4
I1113 11:35:51.500044  2774 net.cpp:409] pool4 -> pool4
I1113 11:35:51.500139  2774 net.cpp:144] Setting up pool4
I1113 11:35:51.500154  2774 net.cpp:151] Top shape: 16 512 14 14 (1605632)
I1113 11:35:51.500165  2774 net.cpp:159] Memory required for data: 1955659968
I1113 11:35:51.500176  2774 layer_factory.hpp:77] Creating layer conv5_1
I1113 11:35:51.500196  2774 net.cpp:94] Creating Layer conv5_1
I1113 11:35:51.500208  2774 net.cpp:435] conv5_1 <- pool4
I1113 11:35:51.500223  2774 net.cpp:409] conv5_1 -> conv5_1
I1113 11:35:51.548225  2774 net.cpp:144] Setting up conv5_1
I1113 11:35:51.548255  2774 net.cpp:151] Top shape: 16 512 14 14 (1605632)
I1113 11:35:51.548262  2774 net.cpp:159] Memory required for data: 1962082496
I1113 11:35:51.548277  2774 layer_factory.hpp:77] Creating layer relu5_1
I1113 11:35:51.548291  2774 net.cpp:94] Creating Layer relu5_1
I1113 11:35:51.548301  2774 net.cpp:435] relu5_1 <- conv5_1
I1113 11:35:51.548311  2774 net.cpp:396] relu5_1 -> conv5_1 (in-place)
I1113 11:35:51.548326  2774 net.cpp:144] Setting up relu5_1
I1113 11:35:51.548336  2774 net.cpp:151] Top shape: 16 512 14 14 (1605632)
I1113 11:35:51.548342  2774 net.cpp:159] Memory required for data: 1968505024
I1113 11:35:51.548351  2774 layer_factory.hpp:77] Creating layer conv5_2
I1113 11:35:51.548373  2774 net.cpp:94] Creating Layer conv5_2
I1113 11:35:51.548380  2774 net.cpp:435] conv5_2 <- conv5_1
I1113 11:35:51.548391  2774 net.cpp:409] conv5_2 -> conv5_2
I1113 11:35:51.588330  2774 net.cpp:144] Setting up conv5_2
I1113 11:35:51.588356  2774 net.cpp:151] Top shape: 16 512 14 14 (1605632)
I1113 11:35:51.588363  2774 net.cpp:159] Memory required for data: 1974927552
I1113 11:35:51.588378  2774 layer_factory.hpp:77] Creating layer relu5_2
I1113 11:35:51.588392  2774 net.cpp:94] Creating Layer relu5_2
I1113 11:35:51.588402  2774 net.cpp:435] relu5_2 <- conv5_2
I1113 11:35:51.588412  2774 net.cpp:396] relu5_2 -> conv5_2 (in-place)
I1113 11:35:51.588428  2774 net.cpp:144] Setting up relu5_2
I1113 11:35:51.588436  2774 net.cpp:151] Top shape: 16 512 14 14 (1605632)
I1113 11:35:51.588443  2774 net.cpp:159] Memory required for data: 1981350080
I1113 11:35:51.588450  2774 layer_factory.hpp:77] Creating layer conv5_3
I1113 11:35:51.588465  2774 net.cpp:94] Creating Layer conv5_3
I1113 11:35:51.588474  2774 net.cpp:435] conv5_3 <- conv5_2
I1113 11:35:51.588484  2774 net.cpp:409] conv5_3 -> conv5_3
I1113 11:35:51.628264  2774 net.cpp:144] Setting up conv5_3
I1113 11:35:51.628289  2774 net.cpp:151] Top shape: 16 512 14 14 (1605632)
I1113 11:35:51.628298  2774 net.cpp:159] Memory required for data: 1987772608
I1113 11:35:51.628314  2774 layer_factory.hpp:77] Creating layer relu5_3
I1113 11:35:51.628326  2774 net.cpp:94] Creating Layer relu5_3
I1113 11:35:51.628336  2774 net.cpp:435] relu5_3 <- conv5_3
I1113 11:35:51.628346  2774 net.cpp:396] relu5_3 -> conv5_3 (in-place)
I1113 11:35:51.628361  2774 net.cpp:144] Setting up relu5_3
I1113 11:35:51.628371  2774 net.cpp:151] Top shape: 16 512 14 14 (1605632)
I1113 11:35:51.628378  2774 net.cpp:159] Memory required for data: 1994195136
I1113 11:35:51.628386  2774 layer_factory.hpp:77] Creating layer conv5_4
I1113 11:35:51.628401  2774 net.cpp:94] Creating Layer conv5_4
I1113 11:35:51.628407  2774 net.cpp:435] conv5_4 <- conv5_3
I1113 11:35:51.628417  2774 net.cpp:409] conv5_4 -> conv5_4
I1113 11:35:51.668330  2774 net.cpp:144] Setting up conv5_4
I1113 11:35:51.668359  2774 net.cpp:151] Top shape: 16 512 14 14 (1605632)
I1113 11:35:51.668393  2774 net.cpp:159] Memory required for data: 2000617664
I1113 11:35:51.668408  2774 layer_factory.hpp:77] Creating layer relu5_4
I1113 11:35:51.668423  2774 net.cpp:94] Creating Layer relu5_4
I1113 11:35:51.668432  2774 net.cpp:435] relu5_4 <- conv5_4
I1113 11:35:51.668443  2774 net.cpp:396] relu5_4 -> conv5_4 (in-place)
I1113 11:35:51.668459  2774 net.cpp:144] Setting up relu5_4
I1113 11:35:51.668468  2774 net.cpp:151] Top shape: 16 512 14 14 (1605632)
I1113 11:35:51.668475  2774 net.cpp:159] Memory required for data: 2007040192
I1113 11:35:51.668483  2774 layer_factory.hpp:77] Creating layer pool5
I1113 11:35:51.668494  2774 net.cpp:94] Creating Layer pool5
I1113 11:35:51.668501  2774 net.cpp:435] pool5 <- conv5_4
I1113 11:35:51.668511  2774 net.cpp:409] pool5 -> pool5
I1113 11:35:51.668576  2774 net.cpp:144] Setting up pool5
I1113 11:35:51.668586  2774 net.cpp:151] Top shape: 16 512 7 7 (401408)
I1113 11:35:51.668592  2774 net.cpp:159] Memory required for data: 2008645824
I1113 11:35:51.668599  2774 layer_factory.hpp:77] Creating layer fc6
I1113 11:35:51.668611  2774 net.cpp:94] Creating Layer fc6
I1113 11:35:51.668617  2774 net.cpp:435] fc6 <- pool5
I1113 11:35:51.668627  2774 net.cpp:409] fc6 -> fc6
I1113 11:35:53.193061  2774 net.cpp:144] Setting up fc6
I1113 11:35:53.193105  2774 net.cpp:151] Top shape: 16 4096 (65536)
I1113 11:35:53.193114  2774 net.cpp:159] Memory required for data: 2008907968
I1113 11:35:53.193143  2774 layer_factory.hpp:77] Creating layer relu6
I1113 11:35:53.193161  2774 net.cpp:94] Creating Layer relu6
I1113 11:35:53.193171  2774 net.cpp:435] relu6 <- fc6
I1113 11:35:53.193181  2774 net.cpp:396] relu6 -> fc6 (in-place)
I1113 11:35:53.193199  2774 net.cpp:144] Setting up relu6
I1113 11:35:53.193208  2774 net.cpp:151] Top shape: 16 4096 (65536)
I1113 11:35:53.193215  2774 net.cpp:159] Memory required for data: 2009170112
I1113 11:35:53.193222  2774 layer_factory.hpp:77] Creating layer drop6
I1113 11:35:53.193234  2774 net.cpp:94] Creating Layer drop6
I1113 11:35:53.193241  2774 net.cpp:435] drop6 <- fc6
I1113 11:35:53.193250  2774 net.cpp:396] drop6 -> fc6 (in-place)
I1113 11:35:53.193286  2774 net.cpp:144] Setting up drop6
I1113 11:35:53.193295  2774 net.cpp:151] Top shape: 16 4096 (65536)
I1113 11:35:53.193302  2774 net.cpp:159] Memory required for data: 2009432256
I1113 11:35:53.193321  2774 layer_factory.hpp:77] Creating layer fc7
I1113 11:35:53.193334  2774 net.cpp:94] Creating Layer fc7
I1113 11:35:53.193341  2774 net.cpp:435] fc7 <- fc6
I1113 11:35:53.193351  2774 net.cpp:409] fc7 -> fc7
I1113 11:35:53.372910  2774 net.cpp:144] Setting up fc7
I1113 11:35:53.372956  2774 net.cpp:151] Top shape: 16 4096 (65536)
I1113 11:35:53.372964  2774 net.cpp:159] Memory required for data: 2009694400
I1113 11:35:53.372982  2774 layer_factory.hpp:77] Creating layer relu7
I1113 11:35:53.372997  2774 net.cpp:94] Creating Layer relu7
I1113 11:35:53.373008  2774 net.cpp:435] relu7 <- fc7
I1113 11:35:53.373019  2774 net.cpp:396] relu7 -> fc7 (in-place)
I1113 11:35:53.373037  2774 net.cpp:144] Setting up relu7
I1113 11:35:53.373046  2774 net.cpp:151] Top shape: 16 4096 (65536)
I1113 11:35:53.373054  2774 net.cpp:159] Memory required for data: 2009956544
I1113 11:35:53.373060  2774 layer_factory.hpp:77] Creating layer drop7
I1113 11:35:53.373072  2774 net.cpp:94] Creating Layer drop7
I1113 11:35:53.373080  2774 net.cpp:435] drop7 <- fc7
I1113 11:35:53.373088  2774 net.cpp:396] drop7 -> fc7 (in-place)
I1113 11:35:53.373126  2774 net.cpp:144] Setting up drop7
I1113 11:35:53.373136  2774 net.cpp:151] Top shape: 16 4096 (65536)
I1113 11:35:53.373143  2774 net.cpp:159] Memory required for data: 2010218688
I1113 11:35:53.373150  2774 layer_factory.hpp:77] Creating layer fc8
I1113 11:35:53.373162  2774 net.cpp:94] Creating Layer fc8
I1113 11:35:53.373169  2774 net.cpp:435] fc8 <- fc7
I1113 11:35:53.373179  2774 net.cpp:409] fc8 -> fc8
I1113 11:35:53.373409  2774 net.cpp:144] Setting up fc8
I1113 11:35:53.373419  2774 net.cpp:151] Top shape: 16 2 (32)
I1113 11:35:53.373425  2774 net.cpp:159] Memory required for data: 2010218816
I1113 11:35:53.373481  2774 layer_factory.hpp:77] Creating layer fc8_fc8_0_split
I1113 11:35:53.373492  2774 net.cpp:94] Creating Layer fc8_fc8_0_split
I1113 11:35:53.373500  2774 net.cpp:435] fc8_fc8_0_split <- fc8
I1113 11:35:53.373509  2774 net.cpp:409] fc8_fc8_0_split -> fc8_fc8_0_split_0
I1113 11:35:53.373520  2774 net.cpp:409] fc8_fc8_0_split -> fc8_fc8_0_split_1
I1113 11:35:53.373571  2774 net.cpp:144] Setting up fc8_fc8_0_split
I1113 11:35:53.373580  2774 net.cpp:151] Top shape: 16 2 (32)
I1113 11:35:53.373589  2774 net.cpp:151] Top shape: 16 2 (32)
I1113 11:35:53.373595  2774 net.cpp:159] Memory required for data: 2010219072
I1113 11:35:53.373602  2774 layer_factory.hpp:77] Creating layer accuracy
I1113 11:35:53.373615  2774 net.cpp:94] Creating Layer accuracy
I1113 11:35:53.373621  2774 net.cpp:435] accuracy <- fc8_fc8_0_split_0
I1113 11:35:53.373630  2774 net.cpp:435] accuracy <- label_val-data_1_split_0
I1113 11:35:53.373639  2774 net.cpp:409] accuracy -> accuracy
…
