…
I0916 14:50:07.075501  4116 net.cpp:323] The NetState phase (0) differed from the phase (1) specified by a rule in layer accuracy
I0916 14:50:07.075727  4116 net.cpp:52] Initializing net from parameters:
state {
phase: TRAIN
}
layer {
name: "train-data"
type: "Data"
top: "data"
top: "label"
include {
phase: TRAIN
}
transform_param {
mirror: true
crop_size: 224
mean_file: "/media/myuser/120Gb/DIGITS/digits/jobs/20160904-002550-f9dd/mean.binaryproto"
}
data_param {
source: "/media/myuser/120Gb/DIGITS/digits/jobs/20160904-002550-f9dd/train_db"
batch_size: 24
backend: LMDB
}
}
layer {
name: "conv1_1"
type: "Convolution"
bottom: "data"
top: "conv1_1"
convolution_param {
num_output: 64
pad: 1
kernel_size: 3
weight_filler {
type: "xavier"
}
bias_filler {
type: "constant"
value: 0
}
}
}
layer {
name: "relu1_1"
type: "ReLU"
bottom: "conv1_1"
top: "conv1_1"
}
layer {
name: "conv1_2"
type: "Convolution"
bottom: "conv1_1"
top: "conv1_2"
convolution_param {
num_output: 64
pad: 1
kernel_size: 3
weight_filler {
type: "xavier"
}
bias_filler {
type: "constant"
value: 0
}
}
}
layer {
name: "relu1_2"
type: "ReLU"
bottom: "conv1_2"
top: "conv1_2"
}
layer {
name: "pool1"
type: "Pooling"
bottom: "conv1_2"
top: "pool1"
pooling_param {
pool: MAX
kernel_size: 2
stride: 2
}
}
layer {
name: "conv2_1"
type: "Convolution"
bottom: "pool1"
top: "conv2_1"
convolution_param {
num_output: 128
pad: 1
kernel_size: 3
weight_filler {
type: "xavier"
}
bias_filler {
type: "constant"
value: 0
}
}
}
layer {
name: "relu2_1"
type: "ReLU"
bottom: "conv2_1"
top: "conv2_1"
}
layer {
name: "conv2_2"
type: "Convolution"
bottom: "conv2_1"
top: "conv2_2"
convolution_param {
num_output: 128
pad: 1
kernel_size: 3
weight_filler {
type: "xavier"
}
bias_filler {
type: "constant"
value: 0
}
}
}
layer {
name: "relu2_2"
type: "ReLU"
bottom: "conv2_2"
top: "conv2_2"
}
layer {
name: "pool2"
type: "Pooling"
bottom: "conv2_2"
top: "pool2"
pooling_param {
pool: MAX
kernel_size: 2
stride: 2
}
}
layer {
name: "conv3_1"
type: "Convolution"
bottom: "pool2"
top: "conv3_1"
convolution_param {
num_output: 256
pad: 1
kernel_size: 3
weight_filler {
type: "xavier"
}
bias_filler {
type: "constant"
value: 0
}
}
}
layer {
name: "relu3_1"
type: "ReLU"
bottom: "conv3_1"
top: "conv3_1"
}
layer {
name: "conv3_2"
type: "Convolution"
bottom: "conv3_1"
top: "conv3_2"
convolution_param {
num_output: 256
pad: 1
kernel_size: 3
weight_filler {
type: "xavier"
}
bias_filler {
type: "constant"
value: 0
}
}
}
layer {
name: "relu3_2"
type: "ReLU"
bottom: "conv3_2"
top: "conv3_2"
}
layer {
name: "conv3_3"
type: "Convolution"
bottom: "conv3_2"
top: "conv3_3"
convolution_param {
num_output: 256
pad: 1
kernel_size: 3
weight_filler {
type: "xavier"
}
bias_filler {
type: "constant"
value: 0
}
}
}
layer {
name: "relu3_3"
type: "ReLU"
bottom: "conv3_3"
top: "conv3_3"
}
layer {
name: "pool3"
type: "Pooling"
bottom: "conv3_3"
top: "pool3"
pooling_param {
pool: MAX
kernel_size: 2
stride: 2
}
}
layer {
name: "conv4_1"
type: "Convolution"
bottom: "pool3"
top: "conv4_1"
convolution_param {
num_output: 512
pad: 1
kernel_size: 3
weight_filler {
type: "xavier"
}
bias_filler {
type: "constant"
value: 0
}
}
}
layer {
name: "relu4_1"
type: "ReLU"
bottom: "conv4_1"
top: "conv4_1"
}
layer {
name: "conv4_2"
type: "Convolution"
bottom: "conv4_1"
top: "conv4_2"
convolution_param {
num_output: 512
pad: 1
kernel_size: 3
weight_filler {
type: "xavier"
}
bias_filler {
type: "constant"
value: 0
}
}
}
layer {
name: "relu4_2"
type: "ReLU"
bottom: "conv4_2"
top: "conv4_2"
}
layer {
name: "conv4_3"
type: "Convolution"
bottom: "conv4_2"
top: "conv4_3"
convolution_param {
num_output: 512
pad: 1
kernel_size: 3
weight_filler {
type: "xavier"
}
bias_filler {
type: "constant"
value: 0
}
}
}
layer {
name: "relu4_3"
type: "ReLU"
bottom: "conv4_3"
top: "conv4_3"
}
layer {
name: "pool4"
type: "Pooling"
bottom: "conv4_3"
top: "pool4"
pooling_param {
pool: MAX
kernel_size: 2
stride: 2
}
}
layer {
name: "conv5_1"
type: "Convolution"
bottom: "pool4"
top: "conv5_1"
convolution_param {
num_output: 512
pad: 1
kernel_size: 3
weight_filler {
type: "xavier"
}
bias_filler {
type: "constant"
value: 0
}
}
}
layer {
name: "relu5_1"
type: "ReLU"
bottom: "conv5_1"
top: "conv5_1"
}
layer {
name: "conv5_2"
type: "Convolution"
bottom: "conv5_1"
top: "conv5_2"
convolution_param {
num_output: 512
pad: 1
kernel_size: 3
weight_filler {
type: "xavier"
}
bias_filler {
type: "constant"
value: 0
}
}
}
layer {
name: "relu5_2"
type: "ReLU"
bottom: "conv5_2"
top: "conv5_2"
}
layer {
name: "conv5_3"
type: "Convolution"
bottom: "conv5_2"
top: "conv5_3"
convolution_param {
num_output: 512
pad: 1
kernel_size: 3
weight_filler {
type: "xavier"
}
bias_filler {
type: "constant"
value: 0
}
}
}
layer {
name: "relu5_3"
type: "ReLU"
bottom: "conv5_3"
top: "conv5_3"
}
layer {
name: "pool5"
type: "Pooling"
bottom: "conv5_3"
top: "pool5"
pooling_param {
pool: MAX
kernel_size: 2
stride: 2
}
}
layer {
name: "fc6"
type: "InnerProduct"
bottom: "pool5"
top: "fc6"
inner_product_param {
num_output: 4096
weight_filler {
type: "xavier"
}
bias_filler {
type: "constant"
value: 0.1
}
}
}
layer {
name: "relu6"
type: "ReLU"
bottom: "fc6"
top: "fc6"
}
layer {
name: "drop6"
type: "Dropout"
bottom: "fc6"
top: "fc6"
dropout_param {
dropout_ratio: 0.5
}
}
layer {
name: "fc7"
type: "InnerProduct"
bottom: "fc6"
top: "fc7"
inner_product_param {
num_output: 4096
weight_filler {
type: "xavier"
}
bias_filler {
type: "constant"
value: 0.1
}
}
}
layer {
name: "relu7"
type: "ReLU"
bottom: "fc7"
top: "fc7"
}
layer {
name: "drop7"
type: "Dropout"
bottom: "fc7"
top: "fc7"
dropout_param {
dropout_ratio: 0.5
}
}
layer {
name: "fc8"
type: "InnerProduct"
bottom: "fc7"
top: "fc8"
inner_product_param {
num_output: 2
weight_filler {
type: "xavier"
}
bias_filler {
type: "constant"
value: 0.1
}
}
}
layer {
name: "loss"
type: "SoftmaxWithLoss"
bottom: "fc8"
bottom: "label"
top: "loss"
}
I0916 14:50:07.075899  4116 layer_factory.hpp:77] Creating layer train-data
I0916 14:50:07.076364  4116 net.cpp:94] Creating Layer train-data
I0916 14:50:07.076378  4116 net.cpp:409] train-data -> data
I0916 14:50:07.076411  4116 net.cpp:409] train-data -> label
I0916 14:50:07.076432  4116 data_transformer.cpp:25] Loading mean file from: /media/myuser/120Gb/DIGITS/digits/jobs/20160904-002550-f9dd/mean.binaryproto
I0916 14:50:07.077594  4122 db_lmdb.cpp:35] Opened lmdb /media/myuser/120Gb/DIGITS/digits/jobs/20160904-002550-f9dd/train_db
I0916 14:50:07.086109  4116 data_layer.cpp:76] output data size: 24,3,224,224
I0916 14:50:07.131697  4116 net.cpp:144] Setting up train-data
I0916 14:50:07.131738  4116 net.cpp:151] Top shape: 24 3 224 224 (3612672)
I0916 14:50:07.131750  4116 net.cpp:151] Top shape: 24 (24)
I0916 14:50:07.131757  4116 net.cpp:159] Memory required for data: 14450784
I0916 14:50:07.131772  4116 layer_factory.hpp:77] Creating layer conv1_1
I0916 14:50:07.131800  4116 net.cpp:94] Creating Layer conv1_1
I0916 14:50:07.131811  4116 net.cpp:435] conv1_1 <- data
I0916 14:50:07.131829  4116 net.cpp:409] conv1_1 -> conv1_1
I0916 14:50:07.219666  4116 net.cpp:144] Setting up conv1_1
I0916 14:50:07.219691  4116 net.cpp:151] Top shape: 24 64 224 224 (77070336)
I0916 14:50:07.219699  4116 net.cpp:159] Memory required for data: 322732128
I0916 14:50:07.219722  4116 layer_factory.hpp:77] Creating layer relu1_1
I0916 14:50:07.219736  4116 net.cpp:94] Creating Layer relu1_1
I0916 14:50:07.219745  4116 net.cpp:435] relu1_1 <- conv1_1
I0916 14:50:07.219755  4116 net.cpp:396] relu1_1 -> conv1_1 (in-place)
I0916 14:50:07.219786  4116 net.cpp:144] Setting up relu1_1
I0916 14:50:07.219795  4116 net.cpp:151] Top shape: 24 64 224 224 (77070336)
I0916 14:50:07.219802  4116 net.cpp:159] Memory required for data: 631013472
I0916 14:50:07.219810  4116 layer_factory.hpp:77] Creating layer conv1_2
I0916 14:50:07.219825  4116 net.cpp:94] Creating Layer conv1_2
I0916 14:50:07.219833  4116 net.cpp:435] conv1_2 <- conv1_1
I0916 14:50:07.219843  4116 net.cpp:409] conv1_2 -> conv1_2
I0916 14:50:07.578824  4116 net.cpp:144] Setting up conv1_2
I0916 14:50:07.578865  4116 net.cpp:151] Top shape: 24 64 224 224 (77070336)
I0916 14:50:07.578876  4116 net.cpp:159] Memory required for data: 939294816
I0916 14:50:07.578902  4116 layer_factory.hpp:77] Creating layer relu1_2
I0916 14:50:07.578924  4116 net.cpp:94] Creating Layer relu1_2
I0916 14:50:07.578938  4116 net.cpp:435] relu1_2 <- conv1_2
I0916 14:50:07.578953  4116 net.cpp:396] relu1_2 -> conv1_2 (in-place)
I0916 14:50:07.578974  4116 net.cpp:144] Setting up relu1_2
I0916 14:50:07.578989  4116 net.cpp:151] Top shape: 24 64 224 224 (77070336)
I0916 14:50:07.578999  4116 net.cpp:159] Memory required for data: 1247576160
I0916 14:50:07.579010  4116 layer_factory.hpp:77] Creating layer pool1
I0916 14:50:07.579030  4116 net.cpp:94] Creating Layer pool1
I0916 14:50:07.579041  4116 net.cpp:435] pool1 <- conv1_2
I0916 14:50:07.579056  4116 net.cpp:409] pool1 -> pool1
I0916 14:50:07.579188  4116 net.cpp:144] Setting up pool1
I0916 14:50:07.579205  4116 net.cpp:151] Top shape: 24 64 112 112 (19267584)
I0916 14:50:07.579215  4116 net.cpp:159] Memory required for data: 1324646496
I0916 14:50:07.579226  4116 layer_factory.hpp:77] Creating layer conv2_1
I0916 14:50:07.579246  4116 net.cpp:94] Creating Layer conv2_1
I0916 14:50:07.579257  4116 net.cpp:435] conv2_1 <- pool1
I0916 14:50:07.579273  4116 net.cpp:409] conv2_1 -> conv2_1
I0916 14:50:07.716243  4116 net.cpp:144] Setting up conv2_1
I0916 14:50:07.716277  4116 net.cpp:151] Top shape: 24 128 112 112 (38535168)
I0916 14:50:07.716289  4116 net.cpp:159] Memory required for data: 1478787168
I0916 14:50:07.716316  4116 layer_factory.hpp:77] Creating layer relu2_1
I0916 14:50:07.716334  4116 net.cpp:94] Creating Layer relu2_1
I0916 14:50:07.716346  4116 net.cpp:435] relu2_1 <- conv2_1
I0916 14:50:07.716361  4116 net.cpp:396] relu2_1 -> conv2_1 (in-place)
I0916 14:50:07.716382  4116 net.cpp:144] Setting up relu2_1
I0916 14:50:07.716397  4116 net.cpp:151] Top shape: 24 128 112 112 (38535168)
I0916 14:50:07.716406  4116 net.cpp:159] Memory required for data: 1632927840
I0916 14:50:07.716446  4116 layer_factory.hpp:77] Creating layer conv2_2
I0916 14:50:07.716471  4116 net.cpp:94] Creating Layer conv2_2
I0916 14:50:07.716482  4116 net.cpp:435] conv2_2 <- conv2_1
I0916 14:50:07.716500  4116 net.cpp:409] conv2_2 -> conv2_2
I0916 14:50:07.960583  4116 net.cpp:144] Setting up conv2_2
I0916 14:50:07.960610  4116 net.cpp:151] Top shape: 24 128 112 112 (38535168)
I0916 14:50:07.960621  4116 net.cpp:159] Memory required for data: 1787068512
I0916 14:50:07.960640  4116 layer_factory.hpp:77] Creating layer relu2_2
I0916 14:50:07.960655  4116 net.cpp:94] Creating Layer relu2_2
I0916 14:50:07.960667  4116 net.cpp:435] relu2_2 <- conv2_2
I0916 14:50:07.960682  4116 net.cpp:396] relu2_2 -> conv2_2 (in-place)
I0916 14:50:07.960700  4116 net.cpp:144] Setting up relu2_2
I0916 14:50:07.960714  4116 net.cpp:151] Top shape: 24 128 112 112 (38535168)
I0916 14:50:07.960724  4116 net.cpp:159] Memory required for data: 1941209184
I0916 14:50:07.960736  4116 layer_factory.hpp:77] Creating layer pool2
I0916 14:50:07.960752  4116 net.cpp:94] Creating Layer pool2
I0916 14:50:07.960762  4116 net.cpp:435] pool2 <- conv2_2
I0916 14:50:07.960777  4116 net.cpp:409] pool2 -> pool2
I0916 14:50:07.960850  4116 net.cpp:144] Setting up pool2
I0916 14:50:07.960865  4116 net.cpp:151] Top shape: 24 128 56 56 (9633792)
I0916 14:50:07.960875  4116 net.cpp:159] Memory required for data: 1979744352
I0916 14:50:07.960886  4116 layer_factory.hpp:77] Creating layer conv3_1
I0916 14:50:07.960906  4116 net.cpp:94] Creating Layer conv3_1
I0916 14:50:07.960916  4116 net.cpp:435] conv3_1 <- pool2
I0916 14:50:07.960932  4116 net.cpp:409] conv3_1 -> conv3_1
I0916 14:50:08.080157  4116 net.cpp:144] Setting up conv3_1
I0916 14:50:08.080189  4116 net.cpp:151] Top shape: 24 256 56 56 (19267584)
I0916 14:50:08.080201  4116 net.cpp:159] Memory required for data: 2056814688
I0916 14:50:08.080227  4116 layer_factory.hpp:77] Creating layer relu3_1
I0916 14:50:08.080245  4116 net.cpp:94] Creating Layer relu3_1
I0916 14:50:08.080256  4116 net.cpp:435] relu3_1 <- conv3_1
I0916 14:50:08.080271  4116 net.cpp:396] relu3_1 -> conv3_1 (in-place)
I0916 14:50:08.080291  4116 net.cpp:144] Setting up relu3_1
I0916 14:50:08.080303  4116 net.cpp:151] Top shape: 24 256 56 56 (19267584)
I0916 14:50:08.080314  4116 net.cpp:159] Memory required for data: 2133885024
I0916 14:50:08.080325  4116 layer_factory.hpp:77] Creating layer conv3_2
I0916 14:50:08.080344  4116 net.cpp:94] Creating Layer conv3_2
I0916 14:50:08.080356  4116 net.cpp:435] conv3_2 <- conv3_1
I0916 14:50:08.080371  4116 net.cpp:409] conv3_2 -> conv3_2
I0916 14:50:08.312156  4116 net.cpp:144] Setting up conv3_2
I0916 14:50:08.312188  4116 net.cpp:151] Top shape: 24 256 56 56 (19267584)
I0916 14:50:08.312199  4116 net.cpp:159] Memory required for data: 2210955360
I0916 14:50:08.312219  4116 layer_factory.hpp:77] Creating layer relu3_2
I0916 14:50:08.312237  4116 net.cpp:94] Creating Layer relu3_2
I0916 14:50:08.312249  4116 net.cpp:435] relu3_2 <- conv3_2
I0916 14:50:08.312263  4116 net.cpp:396] relu3_2 -> conv3_2 (in-place)
I0916 14:50:08.312284  4116 net.cpp:144] Setting up relu3_2
I0916 14:50:08.312297  4116 net.cpp:151] Top shape: 24 256 56 56 (19267584)
I0916 14:50:08.312309  4116 net.cpp:159] Memory required for data: 2288025696
I0916 14:50:08.312319  4116 layer_factory.hpp:77] Creating layer conv3_3
I0916 14:50:08.312338  4116 net.cpp:94] Creating Layer conv3_3
I0916 14:50:08.312350  4116 net.cpp:435] conv3_3 <- conv3_2
I0916 14:50:08.312366  4116 net.cpp:409] conv3_3 -> conv3_3
I0916 14:50:08.547468  4116 net.cpp:144] Setting up conv3_3
I0916 14:50:08.547504  4116 net.cpp:151] Top shape: 24 256 56 56 (19267584)
I0916 14:50:08.547516  4116 net.cpp:159] Memory required for data: 2365096032
I0916 14:50:08.547538  4116 layer_factory.hpp:77] Creating layer relu3_3
I0916 14:50:08.547562  4116 net.cpp:94] Creating Layer relu3_3
I0916 14:50:08.547575  4116 net.cpp:435] relu3_3 <- conv3_3
I0916 14:50:08.547590  4116 net.cpp:396] relu3_3 -> conv3_3 (in-place)
I0916 14:50:08.547638  4116 net.cpp:144] Setting up relu3_3
I0916 14:50:08.547652  4116 net.cpp:151] Top shape: 24 256 56 56 (19267584)
I0916 14:50:08.547663  4116 net.cpp:159] Memory required for data: 2442166368
I0916 14:50:08.547674  4116 layer_factory.hpp:77] Creating layer pool3
I0916 14:50:08.547690  4116 net.cpp:94] Creating Layer pool3
I0916 14:50:08.547701  4116 net.cpp:435] pool3 <- conv3_3
I0916 14:50:08.547715  4116 net.cpp:409] pool3 -> pool3
I0916 14:50:08.547808  4116 net.cpp:144] Setting up pool3
I0916 14:50:08.547823  4116 net.cpp:151] Top shape: 24 256 28 28 (4816896)
I0916 14:50:08.547834  4116 net.cpp:159] Memory required for data: 2461433952
I0916 14:50:08.547844  4116 layer_factory.hpp:77] Creating layer conv4_1
I0916 14:50:08.547865  4116 net.cpp:94] Creating Layer conv4_1
I0916 14:50:08.547876  4116 net.cpp:435] conv4_1 <- pool3
I0916 14:50:08.547893  4116 net.cpp:409] conv4_1 -> conv4_1
I0916 14:50:08.680110  4116 net.cpp:144] Setting up conv4_1
I0916 14:50:08.680145  4116 net.cpp:151] Top shape: 24 512 28 28 (9633792)
I0916 14:50:08.680156  4116 net.cpp:159] Memory required for data: 2499969120
I0916 14:50:08.680176  4116 layer_factory.hpp:77] Creating layer relu4_1
I0916 14:50:08.680196  4116 net.cpp:94] Creating Layer relu4_1
I0916 14:50:08.680208  4116 net.cpp:435] relu4_1 <- conv4_1
I0916 14:50:08.680223  4116 net.cpp:396] relu4_1 -> conv4_1 (in-place)
I0916 14:50:08.680245  4116 net.cpp:144] Setting up relu4_1
I0916 14:50:08.680259  4116 net.cpp:151] Top shape: 24 512 28 28 (9633792)
I0916 14:50:08.680269  4116 net.cpp:159] Memory required for data: 2538504288
I0916 14:50:08.680280  4116 layer_factory.hpp:77] Creating layer conv4_2
I0916 14:50:08.680301  4116 net.cpp:94] Creating Layer conv4_2
I0916 14:50:08.680312  4116 net.cpp:435] conv4_2 <- conv4_1
I0916 14:50:08.680328  4116 net.cpp:409] conv4_2 -> conv4_2
I0916 14:50:08.922592  4116 net.cpp:144] Setting up conv4_2
I0916 14:50:08.922631  4116 net.cpp:151] Top shape: 24 512 28 28 (9633792)
I0916 14:50:08.922643  4116 net.cpp:159] Memory required for data: 2577039456
I0916 14:50:08.922674  4116 layer_factory.hpp:77] Creating layer relu4_2
I0916 14:50:08.922693  4116 net.cpp:94] Creating Layer relu4_2
I0916 14:50:08.922706  4116 net.cpp:435] relu4_2 <- conv4_2
I0916 14:50:08.922721  4116 net.cpp:396] relu4_2 -> conv4_2 (in-place)
I0916 14:50:08.922744  4116 net.cpp:144] Setting up relu4_2
I0916 14:50:08.922757  4116 net.cpp:151] Top shape: 24 512 28 28 (9633792)
I0916 14:50:08.922767  4116 net.cpp:159] Memory required for data: 2615574624
I0916 14:50:08.922778  4116 layer_factory.hpp:77] Creating layer conv4_3
I0916 14:50:08.922799  4116 net.cpp:94] Creating Layer conv4_3
I0916 14:50:08.922811  4116 net.cpp:435] conv4_3 <- conv4_2
I0916 14:50:08.922827  4116 net.cpp:409] conv4_3 -> conv4_3
I0916 14:50:09.167254  4116 net.cpp:144] Setting up conv4_3
I0916 14:50:09.167291  4116 net.cpp:151] Top shape: 24 512 28 28 (9633792)
I0916 14:50:09.167304  4116 net.cpp:159] Memory required for data: 2654109792
I0916 14:50:09.167323  4116 layer_factory.hpp:77] Creating layer relu4_3
I0916 14:50:09.167341  4116 net.cpp:94] Creating Layer relu4_3
I0916 14:50:09.167354  4116 net.cpp:435] relu4_3 <- conv4_3
I0916 14:50:09.167369  4116 net.cpp:396] relu4_3 -> conv4_3 (in-place)
I0916 14:50:09.167390  4116 net.cpp:144] Setting up relu4_3
I0916 14:50:09.167403  4116 net.cpp:151] Top shape: 24 512 28 28 (9633792)
I0916 14:50:09.167414  4116 net.cpp:159] Memory required for data: 2692644960
I0916 14:50:09.167424  4116 layer_factory.hpp:77] Creating layer pool4
I0916 14:50:09.167440  4116 net.cpp:94] Creating Layer pool4
I0916 14:50:09.167453  4116 net.cpp:435] pool4 <- conv4_3
I0916 14:50:09.167466  4116 net.cpp:409] pool4 -> pool4
I0916 14:50:09.167547  4116 net.cpp:144] Setting up pool4
I0916 14:50:09.167562  4116 net.cpp:151] Top shape: 24 512 14 14 (2408448)
I0916 14:50:09.167573  4116 net.cpp:159] Memory required for data: 2702278752
I0916 14:50:09.167584  4116 layer_factory.hpp:77] Creating layer conv5_1
I0916 14:50:09.167604  4116 net.cpp:94] Creating Layer conv5_1
I0916 14:50:09.167644  4116 net.cpp:435] conv5_1 <- pool4
I0916 14:50:09.167661  4116 net.cpp:409] conv5_1 -> conv5_1
I0916 14:50:09.265787  4116 net.cpp:144] Setting up conv5_1
I0916 14:50:09.265825  4116 net.cpp:151] Top shape: 24 512 14 14 (2408448)
I0916 14:50:09.265836  4116 net.cpp:159] Memory required for data: 2711912544
I0916 14:50:09.265856  4116 layer_factory.hpp:77] Creating layer relu5_1
I0916 14:50:09.265874  4116 net.cpp:94] Creating Layer relu5_1
I0916 14:50:09.265887  4116 net.cpp:435] relu5_1 <- conv5_1
I0916 14:50:09.265902  4116 net.cpp:396] relu5_1 -> conv5_1 (in-place)
I0916 14:50:09.265923  4116 net.cpp:144] Setting up relu5_1
I0916 14:50:09.265938  4116 net.cpp:151] Top shape: 24 512 14 14 (2408448)
I0916 14:50:09.265947  4116 net.cpp:159] Memory required for data: 2721546336
I0916 14:50:09.265959  4116 layer_factory.hpp:77] Creating layer conv5_2
I0916 14:50:09.265979  4116 net.cpp:94] Creating Layer conv5_2
I0916 14:50:09.265990  4116 net.cpp:435] conv5_2 <- conv5_1
I0916 14:50:09.266005  4116 net.cpp:409] conv5_2 -> conv5_2
I0916 14:50:09.364883  4116 net.cpp:144] Setting up conv5_2
I0916 14:50:09.364922  4116 net.cpp:151] Top shape: 24 512 14 14 (2408448)
I0916 14:50:09.364933  4116 net.cpp:159] Memory required for data: 2731180128
I0916 14:50:09.364955  4116 layer_factory.hpp:77] Creating layer relu5_2
I0916 14:50:09.364974  4116 net.cpp:94] Creating Layer relu5_2
I0916 14:50:09.364987  4116 net.cpp:435] relu5_2 <- conv5_2
I0916 14:50:09.365002  4116 net.cpp:396] relu5_2 -> conv5_2 (in-place)
I0916 14:50:09.365025  4116 net.cpp:144] Setting up relu5_2
I0916 14:50:09.365038  4116 net.cpp:151] Top shape: 24 512 14 14 (2408448)
I0916 14:50:09.365049  4116 net.cpp:159] Memory required for data: 2740813920
I0916 14:50:09.365059  4116 layer_factory.hpp:77] Creating layer conv5_3
I0916 14:50:09.365082  4116 net.cpp:94] Creating Layer conv5_3
I0916 14:50:09.365092  4116 net.cpp:435] conv5_3 <- conv5_2
I0916 14:50:09.365108  4116 net.cpp:409] conv5_3 -> conv5_3
I0916 14:50:09.462102  4116 net.cpp:144] Setting up conv5_3
I0916 14:50:09.462133  4116 net.cpp:151] Top shape: 24 512 14 14 (2408448)
I0916 14:50:09.462141  4116 net.cpp:159] Memory required for data: 2750447712
I0916 14:50:09.462157  4116 layer_factory.hpp:77] Creating layer relu5_3
I0916 14:50:09.462172  4116 net.cpp:94] Creating Layer relu5_3
I0916 14:50:09.462182  4116 net.cpp:435] relu5_3 <- conv5_3
I0916 14:50:09.462191  4116 net.cpp:396] relu5_3 -> conv5_3 (in-place)
I0916 14:50:09.462208  4116 net.cpp:144] Setting up relu5_3
I0916 14:50:09.462218  4116 net.cpp:151] Top shape: 24 512 14 14 (2408448)
I0916 14:50:09.462224  4116 net.cpp:159] Memory required for data: 2760081504
I0916 14:50:09.462231  4116 layer_factory.hpp:77] Creating layer pool5
I0916 14:50:09.462244  4116 net.cpp:94] Creating Layer pool5
I0916 14:50:09.462250  4116 net.cpp:435] pool5 <- conv5_3
I0916 14:50:09.462260  4116 net.cpp:409] pool5 -> pool5
I0916 14:50:09.462337  4116 net.cpp:144] Setting up pool5
I0916 14:50:09.462347  4116 net.cpp:151] Top shape: 24 512 7 7 (602112)
I0916 14:50:09.462354  4116 net.cpp:159] Memory required for data: 2762489952
I0916 14:50:09.462362  4116 layer_factory.hpp:77] Creating layer fc6
I0916 14:50:09.462388  4116 net.cpp:94] Creating Layer fc6
I0916 14:50:09.462396  4116 net.cpp:435] fc6 <- pool5
I0916 14:50:09.462406  4116 net.cpp:409] fc6 -> fc6
I0916 14:50:10.544461  4116 net.cpp:144] Setting up fc6
I0916 14:50:10.544515  4116 net.cpp:151] Top shape: 24 4096 (98304)
I0916 14:50:10.544543  4116 net.cpp:159] Memory required for data: 2762883168
I0916 14:50:10.544559  4116 layer_factory.hpp:77] Creating layer relu6
I0916 14:50:10.544577  4116 net.cpp:94] Creating Layer relu6
I0916 14:50:10.544586  4116 net.cpp:435] relu6 <- fc6
I0916 14:50:10.544598  4116 net.cpp:396] relu6 -> fc6 (in-place)
I0916 14:50:10.544616  4116 net.cpp:144] Setting up relu6
I0916 14:50:10.544625  4116 net.cpp:151] Top shape: 24 4096 (98304)
I0916 14:50:10.544632  4116 net.cpp:159] Memory required for data: 2763276384
I0916 14:50:10.544639  4116 layer_factory.hpp:77] Creating layer drop6
I0916 14:50:10.544694  4116 net.cpp:94] Creating Layer drop6
I0916 14:50:10.544703  4116 net.cpp:435] drop6 <- fc6
I0916 14:50:10.544713  4116 net.cpp:396] drop6 -> fc6 (in-place)
I0916 14:50:10.544751  4116 net.cpp:144] Setting up drop6
I0916 14:50:10.544761  4116 net.cpp:151] Top shape: 24 4096 (98304)
I0916 14:50:10.544769  4116 net.cpp:159] Memory required for data: 2763669600
I0916 14:50:10.544775  4116 layer_factory.hpp:77] Creating layer fc7
I0916 14:50:10.544788  4116 net.cpp:94] Creating Layer fc7
I0916 14:50:10.544796  4116 net.cpp:435] fc7 <- fc6
I0916 14:50:10.544806  4116 net.cpp:409] fc7 -> fc7
I0916 14:50:10.725025  4116 net.cpp:144] Setting up fc7
I0916 14:50:10.725072  4116 net.cpp:151] Top shape: 24 4096 (98304)
I0916 14:50:10.725080  4116 net.cpp:159] Memory required for data: 2764062816
I0916 14:50:10.725097  4116 layer_factory.hpp:77] Creating layer relu7
I0916 14:50:10.725113  4116 net.cpp:94] Creating Layer relu7
I0916 14:50:10.725122  4116 net.cpp:435] relu7 <- fc7
I0916 14:50:10.725134  4116 net.cpp:396] relu7 -> fc7 (in-place)
I0916 14:50:10.725152  4116 net.cpp:144] Setting up relu7
I0916 14:50:10.725160  4116 net.cpp:151] Top shape: 24 4096 (98304)
I0916 14:50:10.725167  4116 net.cpp:159] Memory required for data: 2764456032
I0916 14:50:10.725174  4116 layer_factory.hpp:77] Creating layer drop7
I0916 14:50:10.725186  4116 net.cpp:94] Creating Layer drop7
I0916 14:50:10.725193  4116 net.cpp:435] drop7 <- fc7
I0916 14:50:10.725203  4116 net.cpp:396] drop7 -> fc7 (in-place)
I0916 14:50:10.725236  4116 net.cpp:144] Setting up drop7
I0916 14:50:10.725245  4116 net.cpp:151] Top shape: 24 4096 (98304)
I0916 14:50:10.725252  4116 net.cpp:159] Memory required for data: 2764849248
I0916 14:50:10.725260  4116 layer_factory.hpp:77] Creating layer fc8
I0916 14:50:10.725271  4116 net.cpp:94] Creating Layer fc8
I0916 14:50:10.725280  4116 net.cpp:435] fc8 <- fc7
I0916 14:50:10.725288  4116 net.cpp:409] fc8 -> fc8
I0916 14:50:10.725486  4116 net.cpp:144] Setting up fc8
I0916 14:50:10.725497  4116 net.cpp:151] Top shape: 24 2 (48)
I0916 14:50:10.725503  4116 net.cpp:159] Memory required for data: 2764849440
I0916 14:50:10.725513  4116 layer_factory.hpp:77] Creating layer loss
I0916 14:50:10.725538  4116 net.cpp:94] Creating Layer loss
I0916 14:50:10.725546  4116 net.cpp:435] loss <- fc8
I0916 14:50:10.725554  4116 net.cpp:435] loss <- label
I0916 14:50:10.725567  4116 net.cpp:409] loss -> loss
I0916 14:50:10.725585  4116 layer_factory.hpp:77] Creating layer loss
…
I0916 14:50:10.727260  4116 net.cpp:323] The NetState phase (1) differed from the phase (0) specified by a rule in layer train-data
I0916 14:50:10.727510  4116 net.cpp:52] Initializing net from parameters:
state {
phase: TEST
}
layer {
name: "val-data"
type: "Data"
top: "data"
top: "label"
include {
phase: TEST
}
transform_param {
crop_size: 224
mean_file: "/media/myuser/120Gb/DIGITS/digits/jobs/20160904-002550-f9dd/mean.binaryproto"
}
data_param {
source: "/media/myuser/120Gb/DIGITS/digits/jobs/20160904-002550-f9dd/val_db"
batch_size: 24
backend: LMDB
}
}
layer {
name: "conv1_1"
type: "Convolution"
bottom: "data"
top: "conv1_1"
convolution_param {
num_output: 64
pad: 1
kernel_size: 3
weight_filler {
type: "xavier"
}
bias_filler {
type: "constant"
value: 0
}
}
}
layer {
name: "relu1_1"
type: "ReLU"
bottom: "conv1_1"
top: "conv1_1"
}
layer {
name: "conv1_2"
type: "Convolution"
bottom: "conv1_1"
top: "conv1_2"
convolution_param {
num_output: 64
pad: 1
kernel_size: 3
weight_filler {
type: "xavier"
}
bias_filler {
type: "constant"
value: 0
}
}
}
layer {
name: "relu1_2"
type: "ReLU"
bottom: "conv1_2"
top: "conv1_2"
}
layer {
name: "pool1"
type: "Pooling"
bottom: "conv1_2"
top: "pool1"
pooling_param {
pool: MAX
kernel_size: 2
stride: 2
}
}
layer {
name: "conv2_1"
type: "Convolution"
bottom: "pool1"
top: "conv2_1"
convolution_param {
num_output: 128
pad: 1
kernel_size: 3
weight_filler {
type: "xavier"
}
bias_filler {
type: "constant"
value: 0
}
}
}
layer {
name: "relu2_1"
type: "ReLU"
bottom: "conv2_1"
top: "conv2_1"
}
layer {
name: "conv2_2"
type: "Convolution"
bottom: "conv2_1"
top: "conv2_2"
convolution_param {
num_output: 128
pad: 1
kernel_size: 3
weight_filler {
type: "xavier"
}
bias_filler {
type: "constant"
value: 0
}
}
}
layer {
name: "relu2_2"
type: "ReLU"
bottom: "conv2_2"
top: "conv2_2"
}
layer {
name: "pool2"
type: "Pooling"
bottom: "conv2_2"
top: "pool2"
pooling_param {
pool: MAX
kernel_size: 2
stride: 2
}
}
layer {
name: "conv3_1"
type: "Convolution"
bottom: "pool2"
top: "conv3_1"
convolution_param {
num_output: 256
pad: 1
kernel_size: 3
weight_filler {
type: "xavier"
}
bias_filler {
type: "constant"
value: 0
}
}
}
layer {
name: "relu3_1"
type: "ReLU"
bottom: "conv3_1"
top: "conv3_1"
}
layer {
name: "conv3_2"
type: "Convolution"
bottom: "conv3_1"
top: "conv3_2"
convolution_param {
num_output: 256
pad: 1
kernel_size: 3
weight_filler {
type: "xavier"
}
bias_filler {
type: "constant"
value: 0
}
}
}
layer {
name: "relu3_2"
type: "ReLU"
bottom: "conv3_2"
top: "conv3_2"
}
layer {
name: "conv3_3"
type: "Convolution"
bottom: "conv3_2"
top: "conv3_3"
convolution_param {
num_output: 256
pad: 1
kernel_size: 3
weight_filler {
type: "xavier"
}
bias_filler {
type: "constant"
value: 0
}
}
}
layer {
name: "relu3_3"
type: "ReLU"
bottom: "conv3_3"
top: "conv3_3"
}
layer {
name: "pool3"
type: "Pooling"
bottom: "conv3_3"
top: "pool3"
pooling_param {
pool: MAX
kernel_size: 2
stride: 2
}
}
layer {
name: "conv4_1"
type: "Convolution"
bottom: "pool3"
top: "conv4_1"
convolution_param {
num_output: 512
pad: 1
kernel_size: 3
weight_filler {
type: "xavier"
}
bias_filler {
type: "constant"
value: 0
}
}
}
layer {
name: "relu4_1"
type: "ReLU"
bottom: "conv4_1"
top: "conv4_1"
}
layer {
name: "conv4_2"
type: "Convolution"
bottom: "conv4_1"
top: "conv4_2"
convolution_param {
num_output: 512
pad: 1
kernel_size: 3
weight_filler {
type: "xavier"
}
bias_filler {
type: "constant"
value: 0
}
}
}
layer {
name: "relu4_2"
type: "ReLU"
bottom: "conv4_2"
top: "conv4_2"
}
layer {
name: "conv4_3"
type: "Convolution"
bottom: "conv4_2"
top: "conv4_3"
convolution_param {
num_output: 512
pad: 1
kernel_size: 3
weight_filler {
type: "xavier"
}
bias_filler {
type: "constant"
value: 0
}
}
}
layer {
name: "relu4_3"
type: "ReLU"
bottom: "conv4_3"
top: "conv4_3"
}
layer {
name: "pool4"
type: "Pooling"
bottom: "conv4_3"
top: "pool4"
pooling_param {
pool: MAX
kernel_size: 2
stride: 2
}
}
layer {
name: "conv5_1"
type: "Convolution"
bottom: "pool4"
top: "conv5_1"
convolution_param {
num_output: 512
pad: 1
kernel_size: 3
weight_filler {
type: "xavier"
}
bias_filler {
type: "constant"
value: 0
}
}
}
layer {
name: "relu5_1"
type: "ReLU"
bottom: "conv5_1"
top: "conv5_1"
}
layer {
name: "conv5_2"
type: "Convolution"
bottom: "conv5_1"
top: "conv5_2"
convolution_param {
num_output: 512
pad: 1
kernel_size: 3
weight_filler {
type: "xavier"
}
bias_filler {
type: "constant"
value: 0
}
}
}
layer {
name: "relu5_2"
type: "ReLU"
bottom: "conv5_2"
top: "conv5_2"
}
layer {
name: "conv5_3"
type: "Convolution"
bottom: "conv5_2"
top: "conv5_3"
convolution_param {
num_output: 512
pad: 1
kernel_size: 3
weight_filler {
type: "xavier"
}
bias_filler {
type: "constant"
value: 0
}
}
}
layer {
name: "relu5_3"
type: "ReLU"
bottom: "conv5_3"
top: "conv5_3"
}
layer {
name: "pool5"
type: "Pooling"
bottom: "conv5_3"
top: "pool5"
pooling_param {
pool: MAX
kernel_size: 2
stride: 2
}
}
layer {
name: "fc6"
type: "InnerProduct"
bottom: "pool5"
top: "fc6"
inner_product_param {
num_output: 4096
weight_filler {
type: "xavier"
}
bias_filler {
type: "constant"
value: 0.1
}
}
}
layer {
name: "relu6"
type: "ReLU"
bottom: "fc6"
top: "fc6"
}
layer {
name: "drop6"
type: "Dropout"
bottom: "fc6"
top: "fc6"
dropout_param {
dropout_ratio: 0.5
}
}
layer {
name: "fc7"
type: "InnerProduct"
bottom: "fc6"
top: "fc7"
inner_product_param {
num_output: 4096
weight_filler {
type: "xavier"
}
bias_filler {
type: "constant"
value: 0.1
}
}
}
layer {
name: "relu7"
type: "ReLU"
bottom: "fc7"
top: "fc7"
}
layer {
name: "drop7"
type: "Dropout"
bottom: "fc7"
top: "fc7"
dropout_param {
dropout_ratio: 0.5
}
}
layer {
name: "fc8"
type: "InnerProduct"
bottom: "fc7"
top: "fc8"
inner_product_param {
num_output: 2
weight_filler {
type: "xavier"
}
bias_filler {
type: "constant"
value: 0.1
}
}
}
layer {
name: "accuracy"
type: "Accuracy"
bottom: "fc8"
bottom: "label"
top: "accuracy"
include {
phase: TEST
}
}
layer {
name: "loss"
type: "SoftmaxWithLoss"
bottom: "fc8"
bottom: "label"
top: "loss"
}
I0916 14:50:10.727691  4116 layer_factory.hpp:77] Creating layer val-data
I0916 14:50:10.728596  4116 net.cpp:94] Creating Layer val-data
I0916 14:50:10.728615  4116 net.cpp:409] val-data -> data
I0916 14:50:10.728629  4116 net.cpp:409] val-data -> label
I0916 14:50:10.728643  4116 data_transformer.cpp:25] Loading mean file from: /media/myuser/120Gb/DIGITS/digits/jobs/20160904-002550-f9dd/mean.binaryproto
I0916 14:50:10.729199  4126 db_lmdb.cpp:35] Opened lmdb /media/myuser/120Gb/DIGITS/digits/jobs/20160904-002550-f9dd/val_db
I0916 14:50:10.735234  4116 data_layer.cpp:76] output data size: 24,3,224,224
I0916 14:50:10.780998  4116 net.cpp:144] Setting up val-data
I0916 14:50:10.781028  4116 net.cpp:151] Top shape: 24 3 224 224 (3612672)
I0916 14:50:10.781038  4116 net.cpp:151] Top shape: 24 (24)
I0916 14:50:10.781045  4116 net.cpp:159] Memory required for data: 14450784
I0916 14:50:10.781056  4116 layer_factory.hpp:77] Creating layer label_val-data_1_split
I0916 14:50:10.781080  4116 net.cpp:94] Creating Layer label_val-data_1_split
I0916 14:50:10.781088  4116 net.cpp:435] label_val-data_1_split <- label
I0916 14:50:10.781100  4116 net.cpp:409] label_val-data_1_split -> label_val-data_1_split_0
I0916 14:50:10.781114  4116 net.cpp:409] label_val-data_1_split -> label_val-data_1_split_1
I0916 14:50:10.781172  4116 net.cpp:144] Setting up label_val-data_1_split
I0916 14:50:10.781183  4116 net.cpp:151] Top shape: 24 (24)
I0916 14:50:10.781191  4116 net.cpp:151] Top shape: 24 (24)
I0916 14:50:10.781198  4116 net.cpp:159] Memory required for data: 14450976
I0916 14:50:10.781206  4116 layer_factory.hpp:77] Creating layer conv1_1
I0916 14:50:10.781224  4116 net.cpp:94] Creating Layer conv1_1
I0916 14:50:10.781231  4116 net.cpp:435] conv1_1 <- data
I0916 14:50:10.781241  4116 net.cpp:409] conv1_1 -> conv1_1
I0916 14:50:10.820562  4116 net.cpp:144] Setting up conv1_1
I0916 14:50:10.820605  4116 net.cpp:151] Top shape: 24 64 224 224 (77070336)
I0916 14:50:10.820612  4116 net.cpp:159] Memory required for data: 322732320
I0916 14:50:10.820633  4116 layer_factory.hpp:77] Creating layer relu1_1
I0916 14:50:10.820648  4116 net.cpp:94] Creating Layer relu1_1
I0916 14:50:10.820657  4116 net.cpp:435] relu1_1 <- conv1_1
I0916 14:50:10.820667  4116 net.cpp:396] relu1_1 -> conv1_1 (in-place)
I0916 14:50:10.820685  4116 net.cpp:144] Setting up relu1_1
I0916 14:50:10.820694  4116 net.cpp:151] Top shape: 24 64 224 224 (77070336)
I0916 14:50:10.820700  4116 net.cpp:159] Memory required for data: 631013664
I0916 14:50:10.820708  4116 layer_factory.hpp:77] Creating layer conv1_2
I0916 14:50:10.820725  4116 net.cpp:94] Creating Layer conv1_2
I0916 14:50:10.820734  4116 net.cpp:435] conv1_2 <- conv1_1
I0916 14:50:10.820744  4116 net.cpp:409] conv1_2 -> conv1_2
I0916 14:50:10.934772  4116 net.cpp:144] Setting up conv1_2
I0916 14:50:10.934799  4116 net.cpp:151] Top shape: 24 64 224 224 (77070336)
I0916 14:50:10.934808  4116 net.cpp:159] Memory required for data: 939295008
I0916 14:50:10.934826  4116 layer_factory.hpp:77] Creating layer relu1_2
I0916 14:50:10.934867  4116 net.cpp:94] Creating Layer relu1_2
I0916 14:50:10.934876  4116 net.cpp:435] relu1_2 <- conv1_2
I0916 14:50:10.934886  4116 net.cpp:396] relu1_2 -> conv1_2 (in-place)
I0916 14:50:10.934901  4116 net.cpp:144] Setting up relu1_2
I0916 14:50:10.934911  4116 net.cpp:151] Top shape: 24 64 224 224 (77070336)
I0916 14:50:10.934917  4116 net.cpp:159] Memory required for data: 1247576352
I0916 14:50:10.934924  4116 layer_factory.hpp:77] Creating layer pool1
I0916 14:50:10.934936  4116 net.cpp:94] Creating Layer pool1
I0916 14:50:10.934942  4116 net.cpp:435] pool1 <- conv1_2
I0916 14:50:10.934952  4116 net.cpp:409] pool1 -> pool1
I0916 14:50:10.935048  4116 net.cpp:144] Setting up pool1
I0916 14:50:10.935058  4116 net.cpp:151] Top shape: 24 64 112 112 (19267584)
I0916 14:50:10.935065  4116 net.cpp:159] Memory required for data: 1324646688
I0916 14:50:10.935072  4116 layer_factory.hpp:77] Creating layer conv2_1
I0916 14:50:10.935087  4116 net.cpp:94] Creating Layer conv2_1
I0916 14:50:10.935094  4116 net.cpp:435] conv2_1 <- pool1
I0916 14:50:10.935106  4116 net.cpp:409] conv2_1 -> conv2_1
I0916 14:50:11.002646  4116 net.cpp:144] Setting up conv2_1
I0916 14:50:11.002688  4116 net.cpp:151] Top shape: 24 128 112 112 (38535168)
I0916 14:50:11.002697  4116 net.cpp:159] Memory required for data: 1478787360
I0916 14:50:11.002723  4116 layer_factory.hpp:77] Creating layer relu2_1
I0916 14:50:11.002748  4116 net.cpp:94] Creating Layer relu2_1
I0916 14:50:11.002758  4116 net.cpp:435] relu2_1 <- conv2_1
I0916 14:50:11.002769  4116 net.cpp:396] relu2_1 -> conv2_1 (in-place)
I0916 14:50:11.002791  4116 net.cpp:144] Setting up relu2_1
I0916 14:50:11.002801  4116 net.cpp:151] Top shape: 24 128 112 112 (38535168)
I0916 14:50:11.002810  4116 net.cpp:159] Memory required for data: 1632928032
I0916 14:50:11.002816  4116 layer_factory.hpp:77] Creating layer conv2_2
I0916 14:50:11.002838  4116 net.cpp:94] Creating Layer conv2_2
I0916 14:50:11.002846  4116 net.cpp:435] conv2_2 <- conv2_1
I0916 14:50:11.002857  4116 net.cpp:409] conv2_2 -> conv2_2
I0916 14:50:11.093678  4116 net.cpp:144] Setting up conv2_2
I0916 14:50:11.093724  4116 net.cpp:151] Top shape: 24 128 112 112 (38535168)
I0916 14:50:11.093732  4116 net.cpp:159] Memory required for data: 1787068704
I0916 14:50:11.093750  4116 layer_factory.hpp:77] Creating layer relu2_2
I0916 14:50:11.093765  4116 net.cpp:94] Creating Layer relu2_2
I0916 14:50:11.093773  4116 net.cpp:435] relu2_2 <- conv2_2
I0916 14:50:11.093786  4116 net.cpp:396] relu2_2 -> conv2_2 (in-place)
I0916 14:50:11.093802  4116 net.cpp:144] Setting up relu2_2
I0916 14:50:11.093811  4116 net.cpp:151] Top shape: 24 128 112 112 (38535168)
I0916 14:50:11.093818  4116 net.cpp:159] Memory required for data: 1941209376
I0916 14:50:11.093825  4116 layer_factory.hpp:77] Creating layer pool2
I0916 14:50:11.093837  4116 net.cpp:94] Creating Layer pool2
I0916 14:50:11.093844  4116 net.cpp:435] pool2 <- conv2_2
I0916 14:50:11.093854  4116 net.cpp:409] pool2 -> pool2
I0916 14:50:11.093957  4116 net.cpp:144] Setting up pool2
I0916 14:50:11.093967  4116 net.cpp:151] Top shape: 24 128 56 56 (9633792)
I0916 14:50:11.093974  4116 net.cpp:159] Memory required for data: 1979744544
I0916 14:50:11.093981  4116 layer_factory.hpp:77] Creating layer conv3_1
I0916 14:50:11.093997  4116 net.cpp:94] Creating Layer conv3_1
I0916 14:50:11.094004  4116 net.cpp:435] conv3_1 <- pool2
I0916 14:50:11.094015  4116 net.cpp:409] conv3_1 -> conv3_1
I0916 14:50:11.134146  4116 net.cpp:144] Setting up conv3_1
I0916 14:50:11.134189  4116 net.cpp:151] Top shape: 24 256 56 56 (19267584)
I0916 14:50:11.134202  4116 net.cpp:159] Memory required for data: 2056814880
I0916 14:50:11.134232  4116 layer_factory.hpp:77] Creating layer relu3_1
I0916 14:50:11.134248  4116 net.cpp:94] Creating Layer relu3_1
I0916 14:50:11.134256  4116 net.cpp:435] relu3_1 <- conv3_1
I0916 14:50:11.134268  4116 net.cpp:396] relu3_1 -> conv3_1 (in-place)
I0916 14:50:11.134284  4116 net.cpp:144] Setting up relu3_1
I0916 14:50:11.134292  4116 net.cpp:151] Top shape: 24 256 56 56 (19267584)
I0916 14:50:11.134327  4116 net.cpp:159] Memory required for data: 2133885216
I0916 14:50:11.134335  4116 layer_factory.hpp:77] Creating layer conv3_2
I0916 14:50:11.134352  4116 net.cpp:94] Creating Layer conv3_2
I0916 14:50:11.134359  4116 net.cpp:435] conv3_2 <- conv3_1
I0916 14:50:11.134371  4116 net.cpp:409] conv3_2 -> conv3_2
I0916 14:50:11.210471  4116 net.cpp:144] Setting up conv3_2
I0916 14:50:11.210513  4116 net.cpp:151] Top shape: 24 256 56 56 (19267584)
I0916 14:50:11.210525  4116 net.cpp:159] Memory required for data: 2210955552
I0916 14:50:11.210551  4116 layer_factory.hpp:77] Creating layer relu3_2
I0916 14:50:11.210566  4116 net.cpp:94] Creating Layer relu3_2
I0916 14:50:11.210577  4116 net.cpp:435] relu3_2 <- conv3_2
I0916 14:50:11.210587  4116 net.cpp:396] relu3_2 -> conv3_2 (in-place)
I0916 14:50:11.210603  4116 net.cpp:144] Setting up relu3_2
I0916 14:50:11.210613  4116 net.cpp:151] Top shape: 24 256 56 56 (19267584)
I0916 14:50:11.210619  4116 net.cpp:159] Memory required for data: 2288025888
I0916 14:50:11.210626  4116 layer_factory.hpp:77] Creating layer conv3_3
I0916 14:50:11.210647  4116 net.cpp:94] Creating Layer conv3_3
I0916 14:50:11.210655  4116 net.cpp:435] conv3_3 <- conv3_2
I0916 14:50:11.210665  4116 net.cpp:409] conv3_3 -> conv3_3
I0916 14:50:11.286792  4116 net.cpp:144] Setting up conv3_3
I0916 14:50:11.286834  4116 net.cpp:151] Top shape: 24 256 56 56 (19267584)
I0916 14:50:11.286846  4116 net.cpp:159] Memory required for data: 2365096224
I0916 14:50:11.286873  4116 layer_factory.hpp:77] Creating layer relu3_3
I0916 14:50:11.286888  4116 net.cpp:94] Creating Layer relu3_3
I0916 14:50:11.286897  4116 net.cpp:435] relu3_3 <- conv3_3
I0916 14:50:11.286908  4116 net.cpp:396] relu3_3 -> conv3_3 (in-place)
I0916 14:50:11.286926  4116 net.cpp:144] Setting up relu3_3
I0916 14:50:11.286934  4116 net.cpp:151] Top shape: 24 256 56 56 (19267584)
I0916 14:50:11.286942  4116 net.cpp:159] Memory required for data: 2442166560
I0916 14:50:11.286948  4116 layer_factory.hpp:77] Creating layer pool3
I0916 14:50:11.286959  4116 net.cpp:94] Creating Layer pool3
I0916 14:50:11.286967  4116 net.cpp:435] pool3 <- conv3_3
I0916 14:50:11.286976  4116 net.cpp:409] pool3 -> pool3
I0916 14:50:11.287080  4116 net.cpp:144] Setting up pool3
I0916 14:50:11.287089  4116 net.cpp:151] Top shape: 24 256 28 28 (4816896)
I0916 14:50:11.287096  4116 net.cpp:159] Memory required for data: 2461434144
I0916 14:50:11.287102  4116 layer_factory.hpp:77] Creating layer conv4_1
I0916 14:50:11.287118  4116 net.cpp:94] Creating Layer conv4_1
I0916 14:50:11.287125  4116 net.cpp:435] conv4_1 <- pool3
I0916 14:50:11.287137  4116 net.cpp:409] conv4_1 -> conv4_1
I0916 14:50:11.334395  4116 net.cpp:144] Setting up conv4_1
I0916 14:50:11.334434  4116 net.cpp:151] Top shape: 24 512 28 28 (9633792)
I0916 14:50:11.334442  4116 net.cpp:159] Memory required for data: 2499969312
I0916 14:50:11.334460  4116 layer_factory.hpp:77] Creating layer relu4_1
I0916 14:50:11.334475  4116 net.cpp:94] Creating Layer relu4_1
I0916 14:50:11.334483  4116 net.cpp:435] relu4_1 <- conv4_1
I0916 14:50:11.334493  4116 net.cpp:396] relu4_1 -> conv4_1 (in-place)
I0916 14:50:11.334511  4116 net.cpp:144] Setting up relu4_1
I0916 14:50:11.334520  4116 net.cpp:151] Top shape: 24 512 28 28 (9633792)
I0916 14:50:11.334527  4116 net.cpp:159] Memory required for data: 2538504480
I0916 14:50:11.334534  4116 layer_factory.hpp:77] Creating layer conv4_2
I0916 14:50:11.334549  4116 net.cpp:94] Creating Layer conv4_2
I0916 14:50:11.334558  4116 net.cpp:435] conv4_2 <- conv4_1
I0916 14:50:11.334568  4116 net.cpp:409] conv4_2 -> conv4_2
I0916 14:50:11.419486  4116 net.cpp:144] Setting up conv4_2
I0916 14:50:11.419523  4116 net.cpp:151] Top shape: 24 512 28 28 (9633792)
I0916 14:50:11.419531  4116 net.cpp:159] Memory required for data: 2577039648
I0916 14:50:11.419556  4116 layer_factory.hpp:77] Creating layer relu4_2
I0916 14:50:11.419571  4116 net.cpp:94] Creating Layer relu4_2
I0916 14:50:11.419580  4116 net.cpp:435] relu4_2 <- conv4_2
I0916 14:50:11.419618  4116 net.cpp:396] relu4_2 -> conv4_2 (in-place)
I0916 14:50:11.419636  4116 net.cpp:144] Setting up relu4_2
I0916 14:50:11.419646  4116 net.cpp:151] Top shape: 24 512 28 28 (9633792)
I0916 14:50:11.419652  4116 net.cpp:159] Memory required for data: 2615574816
I0916 14:50:11.419659  4116 layer_factory.hpp:77] Creating layer conv4_3
I0916 14:50:11.419675  4116 net.cpp:94] Creating Layer conv4_3
I0916 14:50:11.419682  4116 net.cpp:435] conv4_3 <- conv4_2
I0916 14:50:11.419693  4116 net.cpp:409] conv4_3 -> conv4_3
I0916 14:50:11.504374  4116 net.cpp:144] Setting up conv4_3
I0916 14:50:11.504423  4116 net.cpp:151] Top shape: 24 512 28 28 (9633792)
I0916 14:50:11.504434  4116 net.cpp:159] Memory required for data: 2654109984
I0916 14:50:11.504457  4116 layer_factory.hpp:77] Creating layer relu4_3
I0916 14:50:11.504477  4116 net.cpp:94] Creating Layer relu4_3
I0916 14:50:11.504490  4116 net.cpp:435] relu4_3 <- conv4_3
I0916 14:50:11.504505  4116 net.cpp:396] relu4_3 -> conv4_3 (in-place)
I0916 14:50:11.504541  4116 net.cpp:144] Setting up relu4_3
I0916 14:50:11.504555  4116 net.cpp:151] Top shape: 24 512 28 28 (9633792)
I0916 14:50:11.504566  4116 net.cpp:159] Memory required for data: 2692645152
I0916 14:50:11.504576  4116 layer_factory.hpp:77] Creating layer pool4
I0916 14:50:11.504592  4116 net.cpp:94] Creating Layer pool4
I0916 14:50:11.504603  4116 net.cpp:435] pool4 <- conv4_3
I0916 14:50:11.504618  4116 net.cpp:409] pool4 -> pool4
I0916 14:50:11.504740  4116 net.cpp:144] Setting up pool4
I0916 14:50:11.504756  4116 net.cpp:151] Top shape: 24 512 14 14 (2408448)
I0916 14:50:11.504766  4116 net.cpp:159] Memory required for data: 2702278944
I0916 14:50:11.504777  4116 layer_factory.hpp:77] Creating layer conv5_1
I0916 14:50:11.504798  4116 net.cpp:94] Creating Layer conv5_1
I0916 14:50:11.504809  4116 net.cpp:435] conv5_1 <- pool4
I0916 14:50:11.504825  4116 net.cpp:409] conv5_1 -> conv5_1
I0916 14:50:11.574036  4116 net.cpp:144] Setting up conv5_1
I0916 14:50:11.574081  4116 net.cpp:151] Top shape: 24 512 14 14 (2408448)
I0916 14:50:11.574093  4116 net.cpp:159] Memory required for data: 2711912736
I0916 14:50:11.574115  4116 layer_factory.hpp:77] Creating layer relu5_1
I0916 14:50:11.574136  4116 net.cpp:94] Creating Layer relu5_1
I0916 14:50:11.574149  4116 net.cpp:435] relu5_1 <- conv5_1
I0916 14:50:11.574164  4116 net.cpp:396] relu5_1 -> conv5_1 (in-place)
I0916 14:50:11.574188  4116 net.cpp:144] Setting up relu5_1
I0916 14:50:11.574203  4116 net.cpp:151] Top shape: 24 512 14 14 (2408448)
I0916 14:50:11.574213  4116 net.cpp:159] Memory required for data: 2721546528
I0916 14:50:11.574224  4116 layer_factory.hpp:77] Creating layer conv5_2
I0916 14:50:11.574246  4116 net.cpp:94] Creating Layer conv5_2
I0916 14:50:11.574257  4116 net.cpp:435] conv5_2 <- conv5_1
I0916 14:50:11.574273  4116 net.cpp:409] conv5_2 -> conv5_2
I0916 14:50:11.631229  4116 net.cpp:144] Setting up conv5_2
I0916 14:50:11.631263  4116 net.cpp:151] Top shape: 24 512 14 14 (2408448)
I0916 14:50:11.631273  4116 net.cpp:159] Memory required for data: 2731180320
I0916 14:50:11.631294  4116 layer_factory.hpp:77] Creating layer relu5_2
I0916 14:50:11.631312  4116 net.cpp:94] Creating Layer relu5_2
I0916 14:50:11.631325  4116 net.cpp:435] relu5_2 <- conv5_2
I0916 14:50:11.631340  4116 net.cpp:396] relu5_2 -> conv5_2 (in-place)
I0916 14:50:11.631361  4116 net.cpp:144] Setting up relu5_2
I0916 14:50:11.631376  4116 net.cpp:151] Top shape: 24 512 14 14 (2408448)
I0916 14:50:11.631386  4116 net.cpp:159] Memory required for data: 2740814112
I0916 14:50:11.631397  4116 layer_factory.hpp:77] Creating layer conv5_3
I0916 14:50:11.631417  4116 net.cpp:94] Creating Layer conv5_3
I0916 14:50:11.631428  4116 net.cpp:435] conv5_3 <- conv5_2
I0916 14:50:11.631443  4116 net.cpp:409] conv5_3 -> conv5_3
I0916 14:50:11.679810  4116 net.cpp:144] Setting up conv5_3
I0916 14:50:11.679858  4116 net.cpp:151] Top shape: 24 512 14 14 (2408448)
I0916 14:50:11.679867  4116 net.cpp:159] Memory required for data: 2750447904
I0916 14:50:11.679886  4116 layer_factory.hpp:77] Creating layer relu5_3
I0916 14:50:11.679934  4116 net.cpp:94] Creating Layer relu5_3
I0916 14:50:11.679945  4116 net.cpp:435] relu5_3 <- conv5_3
I0916 14:50:11.679956  4116 net.cpp:396] relu5_3 -> conv5_3 (in-place)
I0916 14:50:11.679975  4116 net.cpp:144] Setting up relu5_3
I0916 14:50:11.679986  4116 net.cpp:151] Top shape: 24 512 14 14 (2408448)
I0916 14:50:11.679992  4116 net.cpp:159] Memory required for data: 2760081696
I0916 14:50:11.679999  4116 layer_factory.hpp:77] Creating layer pool5
I0916 14:50:11.680022  4116 net.cpp:94] Creating Layer pool5
I0916 14:50:11.680030  4116 net.cpp:435] pool5 <- conv5_3
I0916 14:50:11.680040  4116 net.cpp:409] pool5 -> pool5
I0916 14:50:11.680157  4116 net.cpp:144] Setting up pool5
I0916 14:50:11.680167  4116 net.cpp:151] Top shape: 24 512 7 7 (602112)
I0916 14:50:11.680176  4116 net.cpp:159] Memory required for data: 2762490144
I0916 14:50:11.680182  4116 layer_factory.hpp:77] Creating layer fc6
I0916 14:50:11.680196  4116 net.cpp:94] Creating Layer fc6
I0916 14:50:11.680202  4116 net.cpp:435] fc6 <- pool5
I0916 14:50:11.680212  4116 net.cpp:409] fc6 -> fc6
I0916 14:50:12.780231  4116 net.cpp:144] Setting up fc6
I0916 14:50:12.780280  4116 net.cpp:151] Top shape: 24 4096 (98304)
I0916 14:50:12.780288  4116 net.cpp:159] Memory required for data: 2762883360
I0916 14:50:12.780306  4116 layer_factory.hpp:77] Creating layer relu6
I0916 14:50:12.780323  4116 net.cpp:94] Creating Layer relu6
I0916 14:50:12.780333  4116 net.cpp:435] relu6 <- fc6
I0916 14:50:12.780344  4116 net.cpp:396] relu6 -> fc6 (in-place)
I0916 14:50:12.780362  4116 net.cpp:144] Setting up relu6
I0916 14:50:12.780371  4116 net.cpp:151] Top shape: 24 4096 (98304)
I0916 14:50:12.780378  4116 net.cpp:159] Memory required for data: 2763276576
I0916 14:50:12.780385  4116 layer_factory.hpp:77] Creating layer drop6
I0916 14:50:12.780397  4116 net.cpp:94] Creating Layer drop6
I0916 14:50:12.780405  4116 net.cpp:435] drop6 <- fc6
I0916 14:50:12.780413  4116 net.cpp:396] drop6 -> fc6 (in-place)
I0916 14:50:12.780449  4116 net.cpp:144] Setting up drop6
I0916 14:50:12.780459  4116 net.cpp:151] Top shape: 24 4096 (98304)
I0916 14:50:12.780465  4116 net.cpp:159] Memory required for data: 2763669792
I0916 14:50:12.780472  4116 layer_factory.hpp:77] Creating layer fc7
I0916 14:50:12.780484  4116 net.cpp:94] Creating Layer fc7
I0916 14:50:12.780493  4116 net.cpp:435] fc7 <- fc6
I0916 14:50:12.780501  4116 net.cpp:409] fc7 -> fc7
I0916 14:50:12.957023  4116 net.cpp:144] Setting up fc7
I0916 14:50:12.957072  4116 net.cpp:151] Top shape: 24 4096 (98304)
I0916 14:50:12.957079  4116 net.cpp:159] Memory required for data: 2764063008
I0916 14:50:12.957096  4116 layer_factory.hpp:77] Creating layer relu7
I0916 14:50:12.957113  4116 net.cpp:94] Creating Layer relu7
I0916 14:50:12.957123  4116 net.cpp:435] relu7 <- fc7
I0916 14:50:12.957134  4116 net.cpp:396] relu7 -> fc7 (in-place)
I0916 14:50:12.957151  4116 net.cpp:144] Setting up relu7
I0916 14:50:12.957160  4116 net.cpp:151] Top shape: 24 4096 (98304)
I0916 14:50:12.957167  4116 net.cpp:159] Memory required for data: 2764456224
I0916 14:50:12.957175  4116 layer_factory.hpp:77] Creating layer drop7
I0916 14:50:12.957185  4116 net.cpp:94] Creating Layer drop7
I0916 14:50:12.957193  4116 net.cpp:435] drop7 <- fc7
I0916 14:50:12.957202  4116 net.cpp:396] drop7 -> fc7 (in-place)
I0916 14:50:12.957239  4116 net.cpp:144] Setting up drop7
I0916 14:50:12.957248  4116 net.cpp:151] Top shape: 24 4096 (98304)
I0916 14:50:12.957255  4116 net.cpp:159] Memory required for data: 2764849440
I0916 14:50:12.957262  4116 layer_factory.hpp:77] Creating layer fc8
I0916 14:50:12.957274  4116 net.cpp:94] Creating Layer fc8
I0916 14:50:12.957281  4116 net.cpp:435] fc8 <- fc7
I0916 14:50:12.957291  4116 net.cpp:409] fc8 -> fc8
I0916 14:50:12.957504  4116 net.cpp:144] Setting up fc8
I0916 14:50:12.957515  4116 net.cpp:151] Top shape: 24 2 (48)
I0916 14:50:12.957521  4116 net.cpp:159] Memory required for data: 2764849632
I0916 14:50:12.957531  4116 layer_factory.hpp:77] Creating layer fc8_fc8_0_split
I0916 14:50:12.957541  4116 net.cpp:94] Creating Layer fc8_fc8_0_split
I0916 14:50:12.957587  4116 net.cpp:435] fc8_fc8_0_split <- fc8
I0916 14:50:12.957597  4116 net.cpp:409] fc8_fc8_0_split -> fc8_fc8_0_split_0
I0916 14:50:12.957607  4116 net.cpp:409] fc8_fc8_0_split -> fc8_fc8_0_split_1
I0916 14:50:12.957658  4116 net.cpp:144] Setting up fc8_fc8_0_split
I0916 14:50:12.957666  4116 net.cpp:151] Top shape: 24 2 (48)
I0916 14:50:12.957674  4116 net.cpp:151] Top shape: 24 2 (48)
I0916 14:50:12.957681  4116 net.cpp:159] Memory required for data: 2764850016
I0916 14:50:12.957689  4116 layer_factory.hpp:77] Creating layer accuracy
I0916 14:50:12.957700  4116 net.cpp:94] Creating Layer accuracy
I0916 14:50:12.957706  4116 net.cpp:435] accuracy <- fc8_fc8_0_split_0
I0916 14:50:12.957715  4116 net.cpp:435] accuracy <- label_val-data_1_split_0
I0916 14:50:12.957725  4116 net.cpp:409] accuracy -> accuracy
…
