…
I1129 22:09:36.449081  5621 net.cpp:323] The NetState phase (0) differed from the phase (1) specified by a rule in layer loss3/top-1
I1129 22:09:36.450367  5621 net.cpp:52] Initializing net from parameters:
state {
phase: TRAIN
}
layer {
name: "train-data"
type: "Data"
top: "data"
top: "label"
include {
phase: TRAIN
}
transform_param {
mirror: true
crop_size: 224
mean_file: "/media/myuser/120Gb/DIGITS/digits/jobs/20161129-185048-9470/mean.binaryproto"
}
data_param {
source: "/media/myuser/120Gb/DIGITS/digits/jobs/20161129-185048-9470/train_db"
batch_size: 32
backend: LMDB
}
}
layer {
name: "conv1/7x7_s2"
type: "Convolution"
bottom: "data"
top: "conv1/7x7_s2"
param {
lr_mult: 1
decay_mult: 1
}
param {
lr_mult: 2
decay_mult: 0
}
convolution_param {
num_output: 64
pad: 3
kernel_size: 7
stride: 2
weight_filler {
type: "xavier"
std: 0.1
}
bias_filler {
type: "constant"
value: 0.2
}
}
}
layer {
name: "conv1/relu_7x7"
type: "ReLU"
bottom: "conv1/7x7_s2"
top: "conv1/7x7_s2"
}
layer {
name: "pool1/3x3_s2"
type: "Pooling"
bottom: "conv1/7x7_s2"
top: "pool1/3x3_s2"
pooling_param {
pool: MAX
kernel_size: 3
stride: 2
}
}
layer {
name: "pool1/norm1"
type: "LRN"
bottom: "pool1/3x3_s2"
top: "pool1/norm1"
lrn_param {
local_size: 5
alpha: 0.0001
beta: 0.75
}
}
layer {
name: "conv2/3x3_reduce"
type: "Convolution"
bottom: "pool1/norm1"
top: "conv2/3x3_reduce"
param {
lr_mult: 1
decay_mult: 1
}
param {
lr_mult: 2
decay_mult: 0
}
convolution_param {
num_output: 64
kernel_size: 1
weight_filler {
type: "xavier"
std: 0.1
}
bias_filler {
type: "constant"
value: 0.2
}
}
}
layer {
name: "conv2/relu_3x3_reduce"
type: "ReLU"
bottom: "conv2/3x3_reduce"
top: "conv2/3x3_reduce"
}
layer {
name: "conv2/3x3"
type: "Convolution"
bottom: "conv2/3x3_reduce"
top: "conv2/3x3"
param {
lr_mult: 1
decay_mult: 1
}
param {
lr_mult: 2
decay_mult: 0
}
convolution_param {
num_output: 192
pad: 1
kernel_size: 3
weight_filler {
type: "xavier"
std: 0.03
}
bias_filler {
type: "constant"
value: 0.2
}
}
}
layer {
name: "conv2/relu_3x3"
type: "ReLU"
bottom: "conv2/3x3"
top: "conv2/3x3"
}
layer {
name: "conv2/norm2"
type: "LRN"
bottom: "conv2/3x3"
top: "conv2/norm2"
lrn_param {
local_size: 5
alpha: 0.0001
beta: 0.75
}
}
layer {
name: "pool2/3x3_s2"
type: "Pooling"
bottom: "conv2/norm2"
top: "pool2/3x3_s2"
pooling_param {
pool: MAX
kernel_size: 3
stride: 2
}
}
layer {
name: "inception_3a/1x1"
type: "Convolution"
bottom: "pool2/3x3_s2"
top: "inception_3a/1x1"
param {
lr_mult: 1
decay_mult: 1
}
param {
lr_mult: 2
decay_mult: 0
}
convolution_param {
num_output: 64
kernel_size: 1
weight_filler {
type: "xavier"
std: 0.03
}
bias_filler {
type: "constant"
value: 0.2
}
}
}
layer {
name: "inception_3a/relu_1x1"
type: "ReLU"
bottom: "inception_3a/1x1"
top: "inception_3a/1x1"
}
layer {
name: "inception_3a/3x3_reduce"
type: "Convolution"
bottom: "pool2/3x3_s2"
top: "inception_3a/3x3_reduce"
param {
lr_mult: 1
decay_mult: 1
}
param {
lr_mult: 2
decay_mult: 0
}
convolution_param {
num_output: 96
kernel_size: 1
weight_filler {
type: "xavier"
std: 0.09
}
bias_filler {
type: "constant"
value: 0.2
}
}
}
layer {
name: "inception_3a/relu_3x3_reduce"
type: "ReLU"
bottom: "inception_3a/3x3_reduce"
top: "inception_3a/3x3_reduce"
}
layer {
name: "inception_3a/3x3"
type: "Convolution"
bottom: "inception_3a/3x3_reduce"
top: "inception_3a/3x3"
param {
lr_mult: 1
decay_mult: 1
}
param {
lr_mult: 2
decay_mult: 0
}
convolution_param {
num_output: 128
pad: 1
kernel_size: 3
weight_filler {
type: "xavier"
std: 0.03
}
bias_filler {
type: "constant"
value: 0.2
}
}
}
layer {
name: "inception_3a/relu_3x3"
type: "ReLU"
bottom: "inception_3a/3x3"
top: "inception_3a/3x3"
}
layer {
name: "inception_3a/5x5_reduce"
type: "Convolution"
bottom: "pool2/3x3_s2"
top: "inception_3a/5x5_reduce"
param {
lr_mult: 1
decay_mult: 1
}
param {
lr_mult: 2
decay_mult: 0
}
convolution_param {
num_output: 16
kernel_size: 1
weight_filler {
type: "xavier"
std: 0.2
}
bias_filler {
type: "constant"
value: 0.2
}
}
}
layer {
name: "inception_3a/relu_5x5_reduce"
type: "ReLU"
bottom: "inception_3a/5x5_reduce"
top: "inception_3a/5x5_reduce"
}
layer {
name: "inception_3a/5x5"
type: "Convolution"
bottom: "inception_3a/5x5_reduce"
top: "inception_3a/5x5"
param {
lr_mult: 1
decay_mult: 1
}
param {
lr_mult: 2
decay_mult: 0
}
convolution_param {
num_output: 32
pad: 2
kernel_size: 5
weight_filler {
type: "xavier"
std: 0.03
}
bias_filler {
type: "constant"
value: 0.2
}
}
}
layer {
name: "inception_3a/relu_5x5"
type: "ReLU"
bottom: "inception_3a/5x5"
top: "inception_3a/5x5"
}
layer {
name: "inception_3a/pool"
type: "Pooling"
bottom: "pool2/3x3_s2"
top: "inception_3a/pool"
pooling_param {
pool: MAX
kernel_size: 3
stride: 1
pad: 1
}
}
layer {
name: "inception_3a/pool_proj"
type: "Convolution"
bottom: "inception_3a/pool"
top: "inception_3a/pool_proj"
param {
lr_mult: 1
decay_mult: 1
}
param {
lr_mult: 2
decay_mult: 0
}
convolution_param {
num_output: 32
kernel_size: 1
weight_filler {
type: "xavier"
std: 0.1
}
bias_filler {
type: "constant"
value: 0.2
}
}
}
layer {
name: "inception_3a/relu_pool_proj"
type: "ReLU"
bottom: "inception_3a/pool_proj"
top: "inception_3a/pool_proj"
}
layer {
name: "inception_3a/output"
type: "Concat"
bottom: "inception_3a/1x1"
bottom: "inception_3a/3x3"
bottom: "inception_3a/5x5"
bottom: "inception_3a/pool_proj"
top: "inception_3a/output"
}
layer {
name: "inception_3b/1x1"
type: "Convolution"
bottom: "inception_3a/output"
top: "inception_3b/1x1"
param {
lr_mult: 1
decay_mult: 1
}
param {
lr_mult: 2
decay_mult: 0
}
convolution_param {
num_output: 128
kernel_size: 1
weight_filler {
type: "xavier"
std: 0.03
}
bias_filler {
type: "constant"
value: 0.2
}
}
}
layer {
name: "inception_3b/relu_1x1"
type: "ReLU"
bottom: "inception_3b/1x1"
top: "inception_3b/1x1"
}
layer {
name: "inception_3b/3x3_reduce"
type: "Convolution"
bottom: "inception_3a/output"
top: "inception_3b/3x3_reduce"
param {
lr_mult: 1
decay_mult: 1
}
param {
lr_mult: 2
decay_mult: 0
}
convolution_param {
num_output: 128
kernel_size: 1
weight_filler {
type: "xavier"
std: 0.09
}
bias_filler {
type: "constant"
value: 0.2
}
}
}
layer {
name: "inception_3b/relu_3x3_reduce"
type: "ReLU"
bottom: "inception_3b/3x3_reduce"
top: "inception_3b/3x3_reduce"
}
layer {
name: "inception_3b/3x3"
type: "Convolution"
bottom: "inception_3b/3x3_reduce"
top: "inception_3b/3x3"
param {
lr_mult: 1
decay_mult: 1
}
param {
lr_mult: 2
decay_mult: 0
}
convolution_param {
num_output: 192
pad: 1
kernel_size: 3
weight_filler {
type: "xavier"
std: 0.03
}
bias_filler {
type: "constant"
value: 0.2
}
}
}
layer {
name: "inception_3b/relu_3x3"
type: "ReLU"
bottom: "inception_3b/3x3"
top: "inception_3b/3x3"
}
layer {
name: "inception_3b/5x5_reduce"
type: "Convolution"
bottom: "inception_3a/output"
top: "inception_3b/5x5_reduce"
param {
lr_mult: 1
decay_mult: 1
}
param {
lr_mult: 2
decay_mult: 0
}
convolution_param {
num_output: 32
kernel_size: 1
weight_filler {
type: "xavier"
std: 0.2
}
bias_filler {
type: "constant"
value: 0.2
}
}
}
layer {
name: "inception_3b/relu_5x5_reduce"
type: "ReLU"
bottom: "inception_3b/5x5_reduce"
top: "inception_3b/5x5_reduce"
}
layer {
name: "inception_3b/5x5"
type: "Convolution"
bottom: "inception_3b/5x5_reduce"
top: "inception_3b/5x5"
param {
lr_mult: 1
decay_mult: 1
}
param {
lr_mult: 2
decay_mult: 0
}
convolution_param {
num_output: 96
pad: 2
kernel_size: 5
weight_filler {
type: "xavier"
std: 0.03
}
bias_filler {
type: "constant"
value: 0.2
}
}
}
layer {
name: "inception_3b/relu_5x5"
type: "ReLU"
bottom: "inception_3b/5x5"
top: "inception_3b/5x5"
}
layer {
name: "inception_3b/pool"
type: "Pooling"
bottom: "inception_3a/output"
top: "inception_3b/pool"
pooling_param {
pool: MAX
kernel_size: 3
stride: 1
pad: 1
}
}
layer {
name: "inception_3b/pool_proj"
type: "Convolution"
bottom: "inception_3b/pool"
top: "inception_3b/pool_proj"
param {
lr_mult: 1
decay_mult: 1
}
param {
lr_mult: 2
decay_mult: 0
}
convolution_param {
num_output: 64
kernel_size: 1
weight_filler {
type: "xavier"
std: 0.1
}
bias_filler {
type: "constant"
value: 0.2
}
}
}
layer {
name: "inception_3b/relu_pool_proj"
type: "ReLU"
bottom: "inception_3b/pool_proj"
top: "inception_3b/pool_proj"
}
layer {
name: "inception_3b/output"
type: "Concat"
bottom: "inception_3b/1x1"
bottom: "inception_3b/3x3"
bottom: "inception_3b/5x5"
bottom: "inception_3b/pool_proj"
top: "inception_3b/output"
}
layer {
name: "pool3/3x3_s2"
type: "Pooling"
bottom: "inception_3b/output"
top: "pool3/3x3_s2"
pooling_param {
pool: MAX
kernel_size: 3
stride: 2
}
}
layer {
name: "inception_4a/1x1"
type: "Convolution"
bottom: "pool3/3x3_s2"
top: "inception_4a/1x1"
param {
lr_mult: 1
decay_mult: 1
}
param {
lr_mult: 2
decay_mult: 0
}
convolution_param {
num_output: 192
kernel_size: 1
weight_filler {
type: "xavier"
std: 0.03
}
bias_filler {
type: "constant"
value: 0.2
}
}
}
layer {
name: "inception_4a/relu_1x1"
type: "ReLU"
bottom: "inception_4a/1x1"
top: "inception_4a/1x1"
}
layer {
name: "inception_4a/3x3_reduce"
type: "Convolution"
bottom: "pool3/3x3_s2"
top: "inception_4a/3x3_reduce"
param {
lr_mult: 1
decay_mult: 1
}
param {
lr_mult: 2
decay_mult: 0
}
convolution_param {
num_output: 96
kernel_size: 1
weight_filler {
type: "xavier"
std: 0.09
}
bias_filler {
type: "constant"
value: 0.2
}
}
}
layer {
name: "inception_4a/relu_3x3_reduce"
type: "ReLU"
bottom: "inception_4a/3x3_reduce"
top: "inception_4a/3x3_reduce"
}
layer {
name: "inception_4a/3x3"
type: "Convolution"
bottom: "inception_4a/3x3_reduce"
top: "inception_4a/3x3"
param {
lr_mult: 1
decay_mult: 1
}
param {
lr_mult: 2
decay_mult: 0
}
convolution_param {
num_output: 208
pad: 1
kernel_size: 3
weight_filler {
type: "xavier"
std: 0.03
}
bias_filler {
type: "constant"
value: 0.2
}
}
}
layer {
name: "inception_4a/relu_3x3"
type: "ReLU"
bottom: "inception_4a/3x3"
top: "inception_4a/3x3"
}
layer {
name: "inception_4a/5x5_reduce"
type: "Convolution"
bottom: "pool3/3x3_s2"
top: "inception_4a/5x5_reduce"
param {
lr_mult: 1
decay_mult: 1
}
param {
lr_mult: 2
decay_mult: 0
}
convolution_param {
num_output: 16
kernel_size: 1
weight_filler {
type: "xavier"
std: 0.2
}
bias_filler {
type: "constant"
value: 0.2
}
}
}
layer {
name: "inception_4a/relu_5x5_reduce"
type: "ReLU"
bottom: "inception_4a/5x5_reduce"
top: "inception_4a/5x5_reduce"
}
layer {
name: "inception_4a/5x5"
type: "Convolution"
bottom: "inception_4a/5x5_reduce"
top: "inception_4a/5x5"
param {
lr_mult: 1
decay_mult: 1
}
param {
lr_mult: 2
decay_mult: 0
}
convolution_param {
num_output: 48
pad: 2
kernel_size: 5
weight_filler {
type: "xavier"
std: 0.03
}
bias_filler {
type: "constant"
value: 0.2
}
}
}
layer {
name: "inception_4a/relu_5x5"
type: "ReLU"
bottom: "inception_4a/5x5"
top: "inception_4a/5x5"
}
layer {
name: "inception_4a/pool"
type: "Pooling"
bottom: "pool3/3x3_s2"
top: "inception_4a/pool"
pooling_param {
pool: MAX
kernel_size: 3
stride: 1
pad: 1
}
}
layer {
name: "inception_4a/pool_proj"
type: "Convolution"
bottom: "inception_4a/pool"
top: "inception_4a/pool_proj"
param {
lr_mult: 1
decay_mult: 1
}
param {
lr_mult: 2
decay_mult: 0
}
convolution_param {
num_output: 64
kernel_size: 1
weight_filler {
type: "xavier"
std: 0.1
}
bias_filler {
type: "constant"
value: 0.2
}
}
}
layer {
name: "inception_4a/relu_pool_proj"
type: "ReLU"
bottom: "inception_4a/pool_proj"
top: "inception_4a/pool_proj"
}
layer {
name: "inception_4a/output"
type: "Concat"
bottom: "inception_4a/1x1"
bottom: "inception_4a/3x3"
bottom: "inception_4a/5x5"
bottom: "inception_4a/pool_proj"
top: "inception_4a/output"
}
layer {
name: "loss1/ave_pool"
type: "Pooling"
bottom: "inception_4a/output"
top: "loss1/ave_pool"
pooling_param {
pool: AVE
kernel_size: 5
stride: 3
}
}
layer {
name: "loss1/conv"
type: "Convolution"
bottom: "loss1/ave_pool"
top: "loss1/conv"
param {
lr_mult: 1
decay_mult: 1
}
param {
lr_mult: 2
decay_mult: 0
}
convolution_param {
num_output: 128
kernel_size: 1
weight_filler {
type: "xavier"
std: 0.08
}
bias_filler {
type: "constant"
value: 0.2
}
}
}
layer {
name: "loss1/relu_conv"
type: "ReLU"
bottom: "loss1/conv"
top: "loss1/conv"
}
layer {
name: "loss1/fc"
type: "InnerProduct"
bottom: "loss1/conv"
top: "loss1/fc"
param {
lr_mult: 1
decay_mult: 1
}
param {
lr_mult: 2
decay_mult: 0
}
inner_product_param {
num_output: 1024
weight_filler {
type: "xavier"
std: 0.02
}
bias_filler {
type: "constant"
value: 0.2
}
}
}
layer {
name: "loss1/relu_fc"
type: "ReLU"
bottom: "loss1/fc"
top: "loss1/fc"
}
layer {
name: "loss1/drop_fc"
type: "Dropout"
bottom: "loss1/fc"
top: "loss1/fc"
dropout_param {
dropout_ratio: 0.7
}
}
layer {
name: "loss1/classifier_output"
type: "InnerProduct"
bottom: "loss1/fc"
top: "loss1/classifier_output"
param {
lr_mult: 1
decay_mult: 1
}
param {
lr_mult: 2
decay_mult: 0
}
inner_product_param {
num_output: 2
weight_filler {
type: "xavier"
std: 0.0009765625
}
bias_filler {
type: "constant"
value: 0
}
}
}
layer {
name: "loss1/loss"
type: "SoftmaxWithLoss"
bottom: "loss1/classifier_output"
bottom: "label"
top: "loss1/loss"
loss_weight: 0.3
}
layer {
name: "inception_4b/1x1"
type: "Convolution"
bottom: "inception_4a/output"
top: "inception_4b/1x1"
param {
lr_mult: 1
decay_mult: 1
}
param {
lr_mult: 2
decay_mult: 0
}
convolution_param {
num_output: 160
kernel_size: 1
weight_filler {
type: "xavier"
std: 0.03
}
bias_filler {
type: "constant"
value: 0.2
}
}
}
layer {
name: "inception_4b/relu_1x1"
type: "ReLU"
bottom: "inception_4b/1x1"
top: "inception_4b/1x1"
}
layer {
name: "inception_4b/3x3_reduce"
type: "Convolution"
bottom: "inception_4a/output"
top: "inception_4b/3x3_reduce"
param {
lr_mult: 1
decay_mult: 1
}
param {
lr_mult: 2
decay_mult: 0
}
convolution_param {
num_output: 112
kernel_size: 1
weight_filler {
type: "xavier"
std: 0.09
}
bias_filler {
type: "constant"
value: 0.2
}
}
}
layer {
name: "inception_4b/relu_3x3_reduce"
type: "ReLU"
bottom: "inception_4b/3x3_reduce"
top: "inception_4b/3x3_reduce"
}
layer {
name: "inception_4b/3x3"
type: "Convolution"
bottom: "inception_4b/3x3_reduce"
top: "inception_4b/3x3"
param {
lr_mult: 1
decay_mult: 1
}
param {
lr_mult: 2
decay_mult: 0
}
convolution_param {
num_output: 224
pad: 1
kernel_size: 3
weight_filler {
type: "xavier"
std: 0.03
}
bias_filler {
type: "constant"
value: 0.2
}
}
}
layer {
name: "inception_4b/relu_3x3"
type: "ReLU"
bottom: "inception_4b/3x3"
top: "inception_4b/3x3"
}
layer {
name: "inception_4b/5x5_reduce"
type: "Convolution"
bottom: "inception_4a/output"
top: "inception_4b/5x5_reduce"
param {
lr_mult: 1
decay_mult: 1
}
param {
lr_mult: 2
decay_mult: 0
}
convolution_param {
num_output: 24
kernel_size: 1
weight_filler {
type: "xavier"
std: 0.2
}
bias_filler {
type: "constant"
value: 0.2
}
}
}
layer {
name: "inception_4b/relu_5x5_reduce"
type: "ReLU"
bottom: "inception_4b/5x5_reduce"
top: "inception_4b/5x5_reduce"
}
layer {
name: "inception_4b/5x5"
type: "Convolution"
bottom: "inception_4b/5x5_reduce"
top: "inception_4b/5x5"
param {
lr_mult: 1
decay_mult: 1
}
param {
lr_mult: 2
decay_mult: 0
}
convolution_param {
num_output: 64
pad: 2
kernel_size: 5
weight_filler {
type: "xavier"
std: 0.03
}
bias_filler {
type: "constant"
value: 0.2
}
}
}
layer {
name: "inception_4b/relu_5x5"
type: "ReLU"
bottom: "inception_4b/5x5"
top: "inception_4b/5x5"
}
layer {
name: "inception_4b/pool"
type: "Pooling"
bottom: "inception_4a/output"
top: "inception_4b/pool"
pooling_param {
pool: MAX
kernel_size: 3
stride: 1
pad: 1
}
}
layer {
name: "inception_4b/pool_proj"
type: "Convolution"
bottom: "inception_4b/pool"
top: "inception_4b/pool_proj"
param {
lr_mult: 1
decay_mult: 1
}
param {
lr_mult: 2
decay_mult: 0
}
convolution_param {
num_output: 64
kernel_size: 1
weight_filler {
type: "xavier"
std: 0.1
}
bias_filler {
type: "constant"
value: 0.2
}
}
}
layer {
name: "inception_4b/relu_pool_proj"
type: "ReLU"
bottom: "inception_4b/pool_proj"
top: "inception_4b/pool_proj"
}
layer {
name: "inception_4b/output"
type: "Concat"
bottom: "inception_4b/1x1"
bottom: "inception_4b/3x3"
bottom: "inception_4b/5x5"
bottom: "inception_4b/pool_proj"
top: "inception_4b/output"
}
layer {
name: "inception_4c/1x1"
type: "Convolution"
bottom: "inception_4b/output"
top: "inception_4c/1x1"
param {
lr_mult: 1
decay_mult: 1
}
param {
lr_mult: 2
decay_mult: 0
}
convolution_param {
num_output: 128
kernel_size: 1
weight_filler {
type: "xavier"
std: 0.03
}
bias_filler {
type: "constant"
value: 0.2
}
}
}
layer {
name: "inception_4c/relu_1x1"
type: "ReLU"
bottom: "inception_4c/1x1"
top: "inception_4c/1x1"
}
layer {
name: "inception_4c/3x3_reduce"
type: "Convolution"
bottom: "inception_4b/output"
top: "inception_4c/3x3_reduce"
param {
lr_mult: 1
decay_mult: 1
}
param {
lr_mult: 2
decay_mult: 0
}
convolution_param {
num_output: 128
kernel_size: 1
weight_filler {
type: "xavier"
std: 0.09
}
bias_filler {
type: "constant"
value: 0.2
}
}
}
layer {
name: "inception_4c/relu_3x3_reduce"
type: "ReLU"
bottom: "inception_4c/3x3_reduce"
top: "inception_4c/3x3_reduce"
}
layer {
name: "inception_4c/3x3"
type: "Convolution"
bottom: "inception_4c/3x3_reduce"
top: "inception_4c/3x3"
param {
lr_mult: 1
decay_mult: 1
}
param {
lr_mult: 2
decay_mult: 0
}
convolution_param {
num_output: 256
pad: 1
kernel_size: 3
weight_filler {
type: "xavier"
std: 0.03
}
bias_filler {
type: "constant"
value: 0.2
}
}
}
layer {
name: "inception_4c/relu_3x3"
type: "ReLU"
bottom: "inception_4c/3x3"
top: "inception_4c/3x3"
}
layer {
name: "inception_4c/5x5_reduce"
type: "Convolution"
bottom: "inception_4b/output"
top: "inception_4c/5x5_reduce"
param {
lr_mult: 1
decay_mult: 1
}
param {
lr_mult: 2
decay_mult: 0
}
convolution_param {
num_output: 24
kernel_size: 1
weight_filler {
type: "xavier"
std: 0.2
}
bias_filler {
type: "constant"
value: 0.2
}
}
}
layer {
name: "inception_4c/relu_5x5_reduce"
type: "ReLU"
bottom: "inception_4c/5x5_reduce"
top: "inception_4c/5x5_reduce"
}
layer {
name: "inception_4c/5x5"
type: "Convolution"
bottom: "inception_4c/5x5_reduce"
top: "inception_4c/5x5"
param {
lr_mult: 1
decay_mult: 1
}
param {
lr_mult: 2
decay_mult: 0
}
convolution_param {
num_output: 64
pad: 2
kernel_size: 5
weight_filler {
type: "xavier"
std: 0.03
}
bias_filler {
type: "constant"
value: 0.2
}
}
}
layer {
name: "inception_4c/relu_5x5"
type: "ReLU"
bottom: "inception_4c/5x5"
top: "inception_4c/5x5"
}
layer {
name: "inception_4c/pool"
type: "Pooling"
bottom: "inception_4b/output"
top: "inception_4c/pool"
pooling_param {
pool: MAX
kernel_size: 3
stride: 1
pad: 1
}
}
layer {
name: "inception_4c/pool_proj"
type: "Convolution"
bottom: "inception_4c/pool"
top: "inception_4c/pool_proj"
param {
lr_mult: 1
decay_mult: 1
}
param {
lr_mult: 2
decay_mult: 0
}
convolution_param {
num_output: 64
kernel_size: 1
weight_filler {
type: "xavier"
std: 0.1
}
bias_filler {
type: "constant"
value: 0.2
}
}
}
layer {
name: "inception_4c/relu_pool_proj"
type: "ReLU"
bottom: "inception_4c/pool_proj"
top: "inception_4c/pool_proj"
}
layer {
name: "inception_4c/output"
type: "Concat"
bottom: "inception_4c/1x1"
bottom: "inception_4c/3x3"
bottom: "inception_4c/5x5"
bottom: "inception_4c/pool_proj"
top: "inception_4c/output"
}
layer {
name: "inception_4d/1x1"
type: "Convolution"
bottom: "inception_4c/output"
top: "inception_4d/1x1"
param {
lr_mult: 1
decay_mult: 1
}
param {
lr_mult: 2
decay_mult: 0
}
convolution_param {
num_output: 112
kernel_size: 1
weight_filler {
type: "xavier"
std: 0.03
}
bias_filler {
type: "constant"
value: 0.2
}
}
}
layer {
name: "inception_4d/relu_1x1"
type: "ReLU"
bottom: "inception_4d/1x1"
top: "inception_4d/1x1"
}
layer {
name: "inception_4d/3x3_reduce"
type: "Convolution"
bottom: "inception_4c/output"
top: "inception_4d/3x3_reduce"
param {
lr_mult: 1
decay_mult: 1
}
param {
lr_mult: 2
decay_mult: 0
}
convolution_param {
num_output: 144
kernel_size: 1
weight_filler {
type: "xavier"
std: 0.09
}
bias_filler {
type: "constant"
value: 0.2
}
}
}
layer {
name: "inception_4d/relu_3x3_reduce"
type: "ReLU"
bottom: "inception_4d/3x3_reduce"
top: "inception_4d/3x3_reduce"
}
layer {
name: "inception_4d/3x3"
type: "Convolution"
bottom: "inception_4d/3x3_reduce"
top: "inception_4d/3x3"
param {
lr_mult: 1
decay_mult: 1
}
param {
lr_mult: 2
decay_mult: 0
}
convolution_param {
num_output: 288
pad: 1
kernel_size: 3
weight_filler {
type: "xavier"
std: 0.03
}
bias_filler {
type: "constant"
value: 0.2
}
}
}
layer {
name: "inception_4d/relu_3x3"
type: "ReLU"
bottom: "inception_4d/3x3"
top: "inception_4d/3x3"
}
layer {
name: "inception_4d/5x5_reduce"
type: "Convolution"
bottom: "inception_4c/output"
top: "inception_4d/5x5_reduce"
param {
lr_mult: 1
decay_mult: 1
}
param {
lr_mult: 2
decay_mult: 0
}
convolution_param {
num_output: 32
kernel_size: 1
weight_filler {
type: "xavier"
std: 0.2
}
bias_filler {
type: "constant"
value: 0.2
}
}
}
layer {
name: "inception_4d/relu_5x5_reduce"
type: "ReLU"
bottom: "inception_4d/5x5_reduce"
top: "inception_4d/5x5_reduce"
}
layer {
name: "inception_4d/5x5"
type: "Convolution"
bottom: "inception_4d/5x5_reduce"
top: "inception_4d/5x5"
param {
lr_mult: 1
decay_mult: 1
}
param {
lr_mult: 2
decay_mult: 0
}
convolution_param {
num_output: 64
pad: 2
kernel_size: 5
weight_filler {
type: "xavier"
std: 0.03
}
bias_filler {
type: "constant"
value: 0.2
}
}
}
layer {
name: "inception_4d/relu_5x5"
type: "ReLU"
bottom: "inception_4d/5x5"
top: "inception_4d/5x5"
}
layer {
name: "inception_4d/pool"
type: "Pooling"
bottom: "inception_4c/output"
top: "inception_4d/pool"
pooling_param {
pool: MAX
kernel_size: 3
stride: 1
pad: 1
}
}
layer {
name: "inception_4d/pool_proj"
type: "Convolution"
bottom: "inception_4d/pool"
top: "inception_4d/pool_proj"
param {
lr_mult: 1
decay_mult: 1
}
param {
lr_mult: 2
decay_mult: 0
}
convolution_param {
num_output: 64
kernel_size: 1
weight_filler {
type: "xavier"
std: 0.1
}
bias_filler {
type: "constant"
value: 0.2
}
}
}
layer {
name: "inception_4d/relu_pool_proj"
type: "ReLU"
bottom: "inception_4d/pool_proj"
top: "inception_4d/pool_proj"
}
layer {
name: "inception_4d/output"
type: "Concat"
bottom: "inception_4d/1x1"
bottom: "inception_4d/3x3"
bottom: "inception_4d/5x5"
bottom: "inception_4d/pool_proj"
top: "inception_4d/output"
}
layer {
name: "loss2/ave_pool"
type: "Pooling"
bottom: "inception_4d/output"
top: "loss2/ave_pool"
pooling_param {
pool: AVE
kernel_size: 5
stride: 3
}
}
layer {
name: "loss2/conv"
type: "Convolution"
bottom: "loss2/ave_pool"
top: "loss2/conv"
param {
lr_mult: 1
decay_mult: 1
}
param {
lr_mult: 2
decay_mult: 0
}
convolution_param {
num_output: 128
kernel_size: 1
weight_filler {
type: "xavier"
std: 0.08
}
bias_filler {
type: "constant"
value: 0.2
}
}
}
layer {
name: "loss2/relu_conv"
type: "ReLU"
bottom: "loss2/conv"
top: "loss2/conv"
}
layer {
name: "loss2/fc"
type: "InnerProduct"
bottom: "loss2/conv"
top: "loss2/fc"
param {
lr_mult: 1
decay_mult: 1
}
param {
lr_mult: 2
decay_mult: 0
}
inner_product_param {
num_output: 1024
weight_filler {
type: "xavier"
std: 0.02
}
bias_filler {
type: "constant"
value: 0.2
}
}
}
layer {
name: "loss2/relu_fc"
type: "ReLU"
bottom: "loss2/fc"
top: "loss2/fc"
}
layer {
name: "loss2/drop_fc"
type: "Dropout"
bottom: "loss2/fc"
top: "loss2/fc"
dropout_param {
dropout_ratio: 0.7
}
}
layer {
name: "loss2/classifier_output"
type: "InnerProduct"
bottom: "loss2/fc"
top: "loss2/classifier_output"
param {
lr_mult: 1
decay_mult: 1
}
param {
lr_mult: 2
decay_mult: 0
}
inner_product_param {
num_output: 2
weight_filler {
type: "xavier"
std: 0.0009765625
}
bias_filler {
type: "constant"
value: 0
}
}
}
layer {
name: "loss2/loss"
type: "SoftmaxWithLoss"
bottom: "loss2/classifier_output"
bottom: "label"
top: "loss2/loss"
loss_weight: 0.3
}
layer {
name: "inception_4e/1x1"
type: "Convolution"
bottom: "inception_4d/output"
top: "inception_4e/1x1"
param {
lr_mult: 1
decay_mult: 1
}
param {
lr_mult: 2
decay_mult: 0
}
convolution_param {
num_output: 256
kernel_size: 1
weight_filler {
type: "xavier"
std: 0.03
}
bias_filler {
type: "constant"
value: 0.2
}
}
}
layer {
name: "inception_4e/relu_1x1"
type: "ReLU"
bottom: "inception_4e/1x1"
top: "inception_4e/1x1"
}
layer {
name: "inception_4e/3x3_reduce"
type: "Convolution"
bottom: "inception_4d/output"
top: "inception_4e/3x3_reduce"
param {
lr_mult: 1
decay_mult: 1
}
param {
lr_mult: 2
decay_mult: 0
}
convolution_param {
num_output: 160
kernel_size: 1
weight_filler {
type: "xavier"
std: 0.09
}
bias_filler {
type: "constant"
value: 0.2
}
}
}
layer {
name: "inception_4e/relu_3x3_reduce"
type: "ReLU"
bottom: "inception_4e/3x3_reduce"
top: "inception_4e/3x3_reduce"
}
layer {
name: "inception_4e/3x3"
type: "Convolution"
bottom: "inception_4e/3x3_reduce"
top: "inception_4e/3x3"
param {
lr_mult: 1
decay_mult: 1
}
param {
lr_mult: 2
decay_mult: 0
}
convolution_param {
num_output: 320
pad: 1
kernel_size: 3
weight_filler {
type: "xavier"
std: 0.03
}
bias_filler {
type: "constant"
value: 0.2
}
}
}
layer {
name: "inception_4e/relu_3x3"
type: "ReLU"
bottom: "inception_4e/3x3"
top: "inception_4e/3x3"
}
layer {
name: "inception_4e/5x5_reduce"
type: "Convolution"
bottom: "inception_4d/output"
top: "inception_4e/5x5_reduce"
param {
lr_mult: 1
decay_mult: 1
}
param {
lr_mult: 2
decay_mult: 0
}
convolution_param {
num_output: 32
kernel_size: 1
weight_filler {
type: "xavier"
std: 0.2
}
bias_filler {
I1129 22:09:36.451217  5621 layer_factory.hpp:77] Creating layer train-data
I1129 22:09:36.452154  5621 net.cpp:94] Creating Layer train-data
I1129 22:09:36.452175  5621 net.cpp:409] train-data -> data
I1129 22:09:36.452205  5621 net.cpp:409] train-data -> label
I1129 22:09:36.452232  5621 data_transformer.cpp:25] Loading mean file from: /media/myuser/120Gb/DIGITS/digits/jobs/20161129-185048-9470/mean.binaryproto
I1129 22:09:36.453081  5627 db_lmdb.cpp:35] Opened lmdb /media/myuser/120Gb/DIGITS/digits/jobs/20161129-185048-9470/train_db
I1129 22:09:36.462095  5621 data_layer.cpp:76] output data size: 32,3,224,224
I1129 22:09:36.528098  5621 net.cpp:144] Setting up train-data
I1129 22:09:36.528136  5621 net.cpp:151] Top shape: 32 3 224 224 (4816896)
I1129 22:09:36.528146  5621 net.cpp:151] Top shape: 32 (32)
I1129 22:09:36.528153  5621 net.cpp:159] Memory required for data: 19267712
I1129 22:09:36.528169  5621 layer_factory.hpp:77] Creating layer label_train-data_1_split
I1129 22:09:36.528192  5621 net.cpp:94] Creating Layer label_train-data_1_split
I1129 22:09:36.528203  5621 net.cpp:435] label_train-data_1_split <- label
I1129 22:09:36.528220  5621 net.cpp:409] label_train-data_1_split -> label_train-data_1_split_0
I1129 22:09:36.528235  5621 net.cpp:409] label_train-data_1_split -> label_train-data_1_split_1
I1129 22:09:36.528246  5621 net.cpp:409] label_train-data_1_split -> label_train-data_1_split_2
I1129 22:09:36.528337  5621 net.cpp:144] Setting up label_train-data_1_split
I1129 22:09:36.528348  5621 net.cpp:151] Top shape: 32 (32)
I1129 22:09:36.528357  5621 net.cpp:151] Top shape: 32 (32)
I1129 22:09:36.528367  5621 net.cpp:151] Top shape: 32 (32)
I1129 22:09:36.528373  5621 net.cpp:159] Memory required for data: 19268096
I1129 22:09:36.528380  5621 layer_factory.hpp:77] Creating layer conv1/7x7_s2
I1129 22:09:36.528403  5621 net.cpp:94] Creating Layer conv1/7x7_s2
I1129 22:09:36.528410  5621 net.cpp:435] conv1/7x7_s2 <- data
I1129 22:09:36.528421  5621 net.cpp:409] conv1/7x7_s2 -> conv1/7x7_s2
I1129 22:09:36.963951  5621 net.cpp:144] Setting up conv1/7x7_s2
I1129 22:09:36.963980  5621 net.cpp:151] Top shape: 32 64 112 112 (25690112)
I1129 22:09:36.963989  5621 net.cpp:159] Memory required for data: 122028544
I1129 22:09:36.964010  5621 layer_factory.hpp:77] Creating layer conv1/relu_7x7
I1129 22:09:36.964025  5621 net.cpp:94] Creating Layer conv1/relu_7x7
I1129 22:09:36.964035  5621 net.cpp:435] conv1/relu_7x7 <- conv1/7x7_s2
I1129 22:09:36.964045  5621 net.cpp:396] conv1/relu_7x7 -> conv1/7x7_s2 (in-place)
I1129 22:09:36.964064  5621 net.cpp:144] Setting up conv1/relu_7x7
I1129 22:09:36.964074  5621 net.cpp:151] Top shape: 32 64 112 112 (25690112)
I1129 22:09:36.964081  5621 net.cpp:159] Memory required for data: 224788992
I1129 22:09:36.964087  5621 layer_factory.hpp:77] Creating layer pool1/3x3_s2
I1129 22:09:36.964102  5621 net.cpp:94] Creating Layer pool1/3x3_s2
I1129 22:09:36.964109  5621 net.cpp:435] pool1/3x3_s2 <- conv1/7x7_s2
I1129 22:09:36.964119  5621 net.cpp:409] pool1/3x3_s2 -> pool1/3x3_s2
I1129 22:09:36.964216  5621 net.cpp:144] Setting up pool1/3x3_s2
I1129 22:09:36.964227  5621 net.cpp:151] Top shape: 32 64 56 56 (6422528)
I1129 22:09:36.964234  5621 net.cpp:159] Memory required for data: 250479104
I1129 22:09:36.964241  5621 layer_factory.hpp:77] Creating layer pool1/norm1
I1129 22:09:36.964256  5621 net.cpp:94] Creating Layer pool1/norm1
I1129 22:09:36.964262  5621 net.cpp:435] pool1/norm1 <- pool1/3x3_s2
I1129 22:09:36.964272  5621 net.cpp:409] pool1/norm1 -> pool1/norm1
I1129 22:09:36.964320  5621 net.cpp:144] Setting up pool1/norm1
I1129 22:09:36.964330  5621 net.cpp:151] Top shape: 32 64 56 56 (6422528)
I1129 22:09:36.964337  5621 net.cpp:159] Memory required for data: 276169216
I1129 22:09:36.964344  5621 layer_factory.hpp:77] Creating layer conv2/3x3_reduce
I1129 22:09:36.964359  5621 net.cpp:94] Creating Layer conv2/3x3_reduce
I1129 22:09:36.964367  5621 net.cpp:435] conv2/3x3_reduce <- pool1/norm1
I1129 22:09:36.964377  5621 net.cpp:409] conv2/3x3_reduce -> conv2/3x3_reduce
I1129 22:09:36.982225  5621 net.cpp:144] Setting up conv2/3x3_reduce
I1129 22:09:36.982260  5621 net.cpp:151] Top shape: 32 64 56 56 (6422528)
I1129 22:09:36.982267  5621 net.cpp:159] Memory required for data: 301859328
I1129 22:09:36.982287  5621 layer_factory.hpp:77] Creating layer conv2/relu_3x3_reduce
I1129 22:09:36.982300  5621 net.cpp:94] Creating Layer conv2/relu_3x3_reduce
I1129 22:09:36.982308  5621 net.cpp:435] conv2/relu_3x3_reduce <- conv2/3x3_reduce
I1129 22:09:36.982319  5621 net.cpp:396] conv2/relu_3x3_reduce -> conv2/3x3_reduce (in-place)
I1129 22:09:36.982334  5621 net.cpp:144] Setting up conv2/relu_3x3_reduce
I1129 22:09:36.982343  5621 net.cpp:151] Top shape: 32 64 56 56 (6422528)
I1129 22:09:36.982350  5621 net.cpp:159] Memory required for data: 327549440
I1129 22:09:36.982357  5621 layer_factory.hpp:77] Creating layer conv2/3x3
I1129 22:09:36.982376  5621 net.cpp:94] Creating Layer conv2/3x3
I1129 22:09:36.982384  5621 net.cpp:435] conv2/3x3 <- conv2/3x3_reduce
I1129 22:09:36.982395  5621 net.cpp:409] conv2/3x3 -> conv2/3x3
I1129 22:09:37.063516  5621 net.cpp:144] Setting up conv2/3x3
I1129 22:09:37.063545  5621 net.cpp:151] Top shape: 32 192 56 56 (19267584)
I1129 22:09:37.063552  5621 net.cpp:159] Memory required for data: 404619776
I1129 22:09:37.063573  5621 layer_factory.hpp:77] Creating layer conv2/relu_3x3
I1129 22:09:37.063587  5621 net.cpp:94] Creating Layer conv2/relu_3x3
I1129 22:09:37.063622  5621 net.cpp:435] conv2/relu_3x3 <- conv2/3x3
I1129 22:09:37.063633  5621 net.cpp:396] conv2/relu_3x3 -> conv2/3x3 (in-place)
I1129 22:09:37.063649  5621 net.cpp:144] Setting up conv2/relu_3x3
I1129 22:09:37.063658  5621 net.cpp:151] Top shape: 32 192 56 56 (19267584)
I1129 22:09:37.063665  5621 net.cpp:159] Memory required for data: 481690112
I1129 22:09:37.063673  5621 layer_factory.hpp:77] Creating layer conv2/norm2
I1129 22:09:37.063684  5621 net.cpp:94] Creating Layer conv2/norm2
I1129 22:09:37.063691  5621 net.cpp:435] conv2/norm2 <- conv2/3x3
I1129 22:09:37.063701  5621 net.cpp:409] conv2/norm2 -> conv2/norm2
I1129 22:09:37.063779  5621 net.cpp:144] Setting up conv2/norm2
I1129 22:09:37.063789  5621 net.cpp:151] Top shape: 32 192 56 56 (19267584)
I1129 22:09:37.063796  5621 net.cpp:159] Memory required for data: 558760448
I1129 22:09:37.063803  5621 layer_factory.hpp:77] Creating layer pool2/3x3_s2
I1129 22:09:37.063814  5621 net.cpp:94] Creating Layer pool2/3x3_s2
I1129 22:09:37.063822  5621 net.cpp:435] pool2/3x3_s2 <- conv2/norm2
I1129 22:09:37.063832  5621 net.cpp:409] pool2/3x3_s2 -> pool2/3x3_s2
I1129 22:09:37.063872  5621 net.cpp:144] Setting up pool2/3x3_s2
I1129 22:09:37.063881  5621 net.cpp:151] Top shape: 32 192 28 28 (4816896)
I1129 22:09:37.063889  5621 net.cpp:159] Memory required for data: 578028032
I1129 22:09:37.063895  5621 layer_factory.hpp:77] Creating layer pool2/3x3_s2_pool2/3x3_s2_0_split
I1129 22:09:37.063905  5621 net.cpp:94] Creating Layer pool2/3x3_s2_pool2/3x3_s2_0_split
I1129 22:09:37.063912  5621 net.cpp:435] pool2/3x3_s2_pool2/3x3_s2_0_split <- pool2/3x3_s2
I1129 22:09:37.063922  5621 net.cpp:409] pool2/3x3_s2_pool2/3x3_s2_0_split -> pool2/3x3_s2_pool2/3x3_s2_0_split_0
I1129 22:09:37.063932  5621 net.cpp:409] pool2/3x3_s2_pool2/3x3_s2_0_split -> pool2/3x3_s2_pool2/3x3_s2_0_split_1
I1129 22:09:37.063943  5621 net.cpp:409] pool2/3x3_s2_pool2/3x3_s2_0_split -> pool2/3x3_s2_pool2/3x3_s2_0_split_2
I1129 22:09:37.063954  5621 net.cpp:409] pool2/3x3_s2_pool2/3x3_s2_0_split -> pool2/3x3_s2_pool2/3x3_s2_0_split_3
I1129 22:09:37.064018  5621 net.cpp:144] Setting up pool2/3x3_s2_pool2/3x3_s2_0_split
I1129 22:09:37.064028  5621 net.cpp:151] Top shape: 32 192 28 28 (4816896)
I1129 22:09:37.064035  5621 net.cpp:151] Top shape: 32 192 28 28 (4816896)
I1129 22:09:37.064043  5621 net.cpp:151] Top shape: 32 192 28 28 (4816896)
I1129 22:09:37.064052  5621 net.cpp:151] Top shape: 32 192 28 28 (4816896)
I1129 22:09:37.064059  5621 net.cpp:159] Memory required for data: 655098368
I1129 22:09:37.064066  5621 layer_factory.hpp:77] Creating layer inception_3a/1x1
I1129 22:09:37.064081  5621 net.cpp:94] Creating Layer inception_3a/1x1
I1129 22:09:37.064088  5621 net.cpp:435] inception_3a/1x1 <- pool2/3x3_s2_pool2/3x3_s2_0_split_0
I1129 22:09:37.064100  5621 net.cpp:409] inception_3a/1x1 -> inception_3a/1x1
I1129 22:09:37.075399  5621 net.cpp:144] Setting up inception_3a/1x1
I1129 22:09:37.075433  5621 net.cpp:151] Top shape: 32 64 28 28 (1605632)
I1129 22:09:37.075443  5621 net.cpp:159] Memory required for data: 661520896
I1129 22:09:37.075460  5621 layer_factory.hpp:77] Creating layer inception_3a/relu_1x1
I1129 22:09:37.075476  5621 net.cpp:94] Creating Layer inception_3a/relu_1x1
I1129 22:09:37.075486  5621 net.cpp:435] inception_3a/relu_1x1 <- inception_3a/1x1
I1129 22:09:37.075498  5621 net.cpp:396] inception_3a/relu_1x1 -> inception_3a/1x1 (in-place)
I1129 22:09:37.075517  5621 net.cpp:144] Setting up inception_3a/relu_1x1
I1129 22:09:37.075526  5621 net.cpp:151] Top shape: 32 64 28 28 (1605632)
I1129 22:09:37.075533  5621 net.cpp:159] Memory required for data: 667943424
I1129 22:09:37.075541  5621 layer_factory.hpp:77] Creating layer inception_3a/3x3_reduce
I1129 22:09:37.075559  5621 net.cpp:94] Creating Layer inception_3a/3x3_reduce
I1129 22:09:37.075568  5621 net.cpp:435] inception_3a/3x3_reduce <- pool2/3x3_s2_pool2/3x3_s2_0_split_1
I1129 22:09:37.075582  5621 net.cpp:409] inception_3a/3x3_reduce -> inception_3a/3x3_reduce
I1129 22:09:37.087978  5621 net.cpp:144] Setting up inception_3a/3x3_reduce
I1129 22:09:37.088035  5621 net.cpp:151] Top shape: 32 96 28 28 (2408448)
I1129 22:09:37.088044  5621 net.cpp:159] Memory required for data: 677577216
I1129 22:09:37.088064  5621 layer_factory.hpp:77] Creating layer inception_3a/relu_3x3_reduce
I1129 22:09:37.088083  5621 net.cpp:94] Creating Layer inception_3a/relu_3x3_reduce
I1129 22:09:37.088093  5621 net.cpp:435] inception_3a/relu_3x3_reduce <- inception_3a/3x3_reduce
I1129 22:09:37.088102  5621 net.cpp:396] inception_3a/relu_3x3_reduce -> inception_3a/3x3_reduce (in-place)
I1129 22:09:37.088119  5621 net.cpp:144] Setting up inception_3a/relu_3x3_reduce
I1129 22:09:37.088127  5621 net.cpp:151] Top shape: 32 96 28 28 (2408448)
I1129 22:09:37.088135  5621 net.cpp:159] Memory required for data: 687211008
I1129 22:09:37.088141  5621 layer_factory.hpp:77] Creating layer inception_3a/3x3
I1129 22:09:37.088157  5621 net.cpp:94] Creating Layer inception_3a/3x3
I1129 22:09:37.088165  5621 net.cpp:435] inception_3a/3x3 <- inception_3a/3x3_reduce
I1129 22:09:37.088176  5621 net.cpp:409] inception_3a/3x3 -> inception_3a/3x3
I1129 22:09:37.110951  5621 net.cpp:144] Setting up inception_3a/3x3
I1129 22:09:37.110994  5621 net.cpp:151] Top shape: 32 128 28 28 (3211264)
I1129 22:09:37.111002  5621 net.cpp:159] Memory required for data: 700056064
I1129 22:09:37.111018  5621 layer_factory.hpp:77] Creating layer inception_3a/relu_3x3
I1129 22:09:37.111033  5621 net.cpp:94] Creating Layer inception_3a/relu_3x3
I1129 22:09:37.111042  5621 net.cpp:435] inception_3a/relu_3x3 <- inception_3a/3x3
I1129 22:09:37.111054  5621 net.cpp:396] inception_3a/relu_3x3 -> inception_3a/3x3 (in-place)
I1129 22:09:37.111071  5621 net.cpp:144] Setting up inception_3a/relu_3x3
I1129 22:09:37.111080  5621 net.cpp:151] Top shape: 32 128 28 28 (3211264)
I1129 22:09:37.111088  5621 net.cpp:159] Memory required for data: 712901120
I1129 22:09:37.111094  5621 layer_factory.hpp:77] Creating layer inception_3a/5x5_reduce
I1129 22:09:37.111112  5621 net.cpp:94] Creating Layer inception_3a/5x5_reduce
I1129 22:09:37.111121  5621 net.cpp:435] inception_3a/5x5_reduce <- pool2/3x3_s2_pool2/3x3_s2_0_split_2
I1129 22:09:37.111133  5621 net.cpp:409] inception_3a/5x5_reduce -> inception_3a/5x5_reduce
I1129 22:09:37.116439  5621 net.cpp:144] Setting up inception_3a/5x5_reduce
I1129 22:09:37.116461  5621 net.cpp:151] Top shape: 32 16 28 28 (401408)
I1129 22:09:37.116468  5621 net.cpp:159] Memory required for data: 714506752
I1129 22:09:37.116482  5621 layer_factory.hpp:77] Creating layer inception_3a/relu_5x5_reduce
I1129 22:09:37.116493  5621 net.cpp:94] Creating Layer inception_3a/relu_5x5_reduce
I1129 22:09:37.116503  5621 net.cpp:435] inception_3a/relu_5x5_reduce <- inception_3a/5x5_reduce
I1129 22:09:37.116513  5621 net.cpp:396] inception_3a/relu_5x5_reduce -> inception_3a/5x5_reduce (in-place)
I1129 22:09:37.116525  5621 net.cpp:144] Setting up inception_3a/relu_5x5_reduce
I1129 22:09:37.116535  5621 net.cpp:151] Top shape: 32 16 28 28 (401408)
I1129 22:09:37.116542  5621 net.cpp:159] Memory required for data: 716112384
I1129 22:09:37.116549  5621 layer_factory.hpp:77] Creating layer inception_3a/5x5
I1129 22:09:37.116564  5621 net.cpp:94] Creating Layer inception_3a/5x5
I1129 22:09:37.116571  5621 net.cpp:435] inception_3a/5x5 <- inception_3a/5x5_reduce
I1129 22:09:37.116582  5621 net.cpp:409] inception_3a/5x5 -> inception_3a/5x5
I1129 22:09:37.122516  5621 net.cpp:144] Setting up inception_3a/5x5
I1129 22:09:37.122544  5621 net.cpp:151] Top shape: 32 32 28 28 (802816)
I1129 22:09:37.122551  5621 net.cpp:159] Memory required for data: 719323648
I1129 22:09:37.122566  5621 layer_factory.hpp:77] Creating layer inception_3a/relu_5x5
I1129 22:09:37.122580  5621 net.cpp:94] Creating Layer inception_3a/relu_5x5
I1129 22:09:37.122588  5621 net.cpp:435] inception_3a/relu_5x5 <- inception_3a/5x5
I1129 22:09:37.122599  5621 net.cpp:396] inception_3a/relu_5x5 -> inception_3a/5x5 (in-place)
I1129 22:09:37.122614  5621 net.cpp:144] Setting up inception_3a/relu_5x5
I1129 22:09:37.122653  5621 net.cpp:151] Top shape: 32 32 28 28 (802816)
I1129 22:09:37.122659  5621 net.cpp:159] Memory required for data: 722534912
I1129 22:09:37.122666  5621 layer_factory.hpp:77] Creating layer inception_3a/pool
I1129 22:09:37.122678  5621 net.cpp:94] Creating Layer inception_3a/pool
I1129 22:09:37.122687  5621 net.cpp:435] inception_3a/pool <- pool2/3x3_s2_pool2/3x3_s2_0_split_3
I1129 22:09:37.122697  5621 net.cpp:409] inception_3a/pool -> inception_3a/pool
I1129 22:09:37.122762  5621 net.cpp:144] Setting up inception_3a/pool
I1129 22:09:37.122772  5621 net.cpp:151] Top shape: 32 192 28 28 (4816896)
I1129 22:09:37.122778  5621 net.cpp:159] Memory required for data: 741802496
I1129 22:09:37.122786  5621 layer_factory.hpp:77] Creating layer inception_3a/pool_proj
I1129 22:09:37.122802  5621 net.cpp:94] Creating Layer inception_3a/pool_proj
I1129 22:09:37.122809  5621 net.cpp:435] inception_3a/pool_proj <- inception_3a/pool
I1129 22:09:37.122819  5621 net.cpp:409] inception_3a/pool_proj -> inception_3a/pool_proj
I1129 22:09:37.128298  5621 net.cpp:144] Setting up inception_3a/pool_proj
I1129 22:09:37.128319  5621 net.cpp:151] Top shape: 32 32 28 28 (802816)
I1129 22:09:37.128327  5621 net.cpp:159] Memory required for data: 745013760
I1129 22:09:37.128348  5621 layer_factory.hpp:77] Creating layer inception_3a/relu_pool_proj
I1129 22:09:37.128360  5621 net.cpp:94] Creating Layer inception_3a/relu_pool_proj
I1129 22:09:37.128370  5621 net.cpp:435] inception_3a/relu_pool_proj <- inception_3a/pool_proj
I1129 22:09:37.128379  5621 net.cpp:396] inception_3a/relu_pool_proj -> inception_3a/pool_proj (in-place)
I1129 22:09:37.128394  5621 net.cpp:144] Setting up inception_3a/relu_pool_proj
I1129 22:09:37.128403  5621 net.cpp:151] Top shape: 32 32 28 28 (802816)
I1129 22:09:37.128409  5621 net.cpp:159] Memory required for data: 748225024
I1129 22:09:37.128417  5621 layer_factory.hpp:77] Creating layer inception_3a/output
I1129 22:09:37.128427  5621 net.cpp:94] Creating Layer inception_3a/output
I1129 22:09:37.128434  5621 net.cpp:435] inception_3a/output <- inception_3a/1x1
I1129 22:09:37.128443  5621 net.cpp:435] inception_3a/output <- inception_3a/3x3
I1129 22:09:37.128451  5621 net.cpp:435] inception_3a/output <- inception_3a/5x5
I1129 22:09:37.128459  5621 net.cpp:435] inception_3a/output <- inception_3a/pool_proj
I1129 22:09:37.128468  5621 net.cpp:409] inception_3a/output -> inception_3a/output
I1129 22:09:37.128509  5621 net.cpp:144] Setting up inception_3a/output
I1129 22:09:37.128518  5621 net.cpp:151] Top shape: 32 256 28 28 (6422528)
I1129 22:09:37.128525  5621 net.cpp:159] Memory required for data: 773915136
I1129 22:09:37.128532  5621 layer_factory.hpp:77] Creating layer inception_3a/output_inception_3a/output_0_split
I1129 22:09:37.128542  5621 net.cpp:94] Creating Layer inception_3a/output_inception_3a/output_0_split
I1129 22:09:37.128551  5621 net.cpp:435] inception_3a/output_inception_3a/output_0_split <- inception_3a/output
I1129 22:09:37.128561  5621 net.cpp:409] inception_3a/output_inception_3a/output_0_split -> inception_3a/output_inception_3a/output_0_split_0
I1129 22:09:37.128571  5621 net.cpp:409] inception_3a/output_inception_3a/output_0_split -> inception_3a/output_inception_3a/output_0_split_1
I1129 22:09:37.128582  5621 net.cpp:409] inception_3a/output_inception_3a/output_0_split -> inception_3a/output_inception_3a/output_0_split_2
I1129 22:09:37.128593  5621 net.cpp:409] inception_3a/output_inception_3a/output_0_split -> inception_3a/output_inception_3a/output_0_split_3
I1129 22:09:37.128665  5621 net.cpp:144] Setting up inception_3a/output_inception_3a/output_0_split
I1129 22:09:37.128675  5621 net.cpp:151] Top shape: 32 256 28 28 (6422528)
I1129 22:09:37.128684  5621 net.cpp:151] Top shape: 32 256 28 28 (6422528)
I1129 22:09:37.128692  5621 net.cpp:151] Top shape: 32 256 28 28 (6422528)
I1129 22:09:37.128710  5621 net.cpp:151] Top shape: 32 256 28 28 (6422528)
I1129 22:09:37.128722  5621 net.cpp:159] Memory required for data: 876675584
I1129 22:09:37.128729  5621 layer_factory.hpp:77] Creating layer inception_3b/1x1
I1129 22:09:37.128758  5621 net.cpp:94] Creating Layer inception_3b/1x1
I1129 22:09:37.128767  5621 net.cpp:435] inception_3b/1x1 <- inception_3a/output_inception_3a/output_0_split_0
I1129 22:09:37.128778  5621 net.cpp:409] inception_3b/1x1 -> inception_3b/1x1
I1129 22:09:37.137382  5621 net.cpp:144] Setting up inception_3b/1x1
I1129 22:09:37.137411  5621 net.cpp:151] Top shape: 32 128 28 28 (3211264)
I1129 22:09:37.137419  5621 net.cpp:159] Memory required for data: 889520640
I1129 22:09:37.137435  5621 layer_factory.hpp:77] Creating layer inception_3b/relu_1x1
I1129 22:09:37.137449  5621 net.cpp:94] Creating Layer inception_3b/relu_1x1
I1129 22:09:37.137459  5621 net.cpp:435] inception_3b/relu_1x1 <- inception_3b/1x1
I1129 22:09:37.137470  5621 net.cpp:396] inception_3b/relu_1x1 -> inception_3b/1x1 (in-place)
I1129 22:09:37.137485  5621 net.cpp:144] Setting up inception_3b/relu_1x1
I1129 22:09:37.137495  5621 net.cpp:151] Top shape: 32 128 28 28 (3211264)
I1129 22:09:37.137501  5621 net.cpp:159] Memory required for data: 902365696
I1129 22:09:37.137508  5621 layer_factory.hpp:77] Creating layer inception_3b/3x3_reduce
I1129 22:09:37.137526  5621 net.cpp:94] Creating Layer inception_3b/3x3_reduce
I1129 22:09:37.137533  5621 net.cpp:435] inception_3b/3x3_reduce <- inception_3a/output_inception_3a/output_0_split_1
I1129 22:09:37.137544  5621 net.cpp:409] inception_3b/3x3_reduce -> inception_3b/3x3_reduce
I1129 22:09:37.146781  5621 net.cpp:144] Setting up inception_3b/3x3_reduce
I1129 22:09:37.146812  5621 net.cpp:151] Top shape: 32 128 28 28 (3211264)
I1129 22:09:37.146819  5621 net.cpp:159] Memory required for data: 915210752
I1129 22:09:37.146836  5621 layer_factory.hpp:77] Creating layer inception_3b/relu_3x3_reduce
I1129 22:09:37.146849  5621 net.cpp:94] Creating Layer inception_3b/relu_3x3_reduce
I1129 22:09:37.146859  5621 net.cpp:435] inception_3b/relu_3x3_reduce <- inception_3b/3x3_reduce
I1129 22:09:37.146870  5621 net.cpp:396] inception_3b/relu_3x3_reduce -> inception_3b/3x3_reduce (in-place)
I1129 22:09:37.146886  5621 net.cpp:144] Setting up inception_3b/relu_3x3_reduce
I1129 22:09:37.146895  5621 net.cpp:151] Top shape: 32 128 28 28 (3211264)
I1129 22:09:37.146901  5621 net.cpp:159] Memory required for data: 928055808
I1129 22:09:37.146909  5621 layer_factory.hpp:77] Creating layer inception_3b/3x3
I1129 22:09:37.146934  5621 net.cpp:94] Creating Layer inception_3b/3x3
I1129 22:09:37.146941  5621 net.cpp:435] inception_3b/3x3 <- inception_3b/3x3_reduce
I1129 22:09:37.146953  5621 net.cpp:409] inception_3b/3x3 -> inception_3b/3x3
I1129 22:09:37.188325  5621 net.cpp:144] Setting up inception_3b/3x3
I1129 22:09:37.188356  5621 net.cpp:151] Top shape: 32 192 28 28 (4816896)
I1129 22:09:37.188369  5621 net.cpp:159] Memory required for data: 947323392
I1129 22:09:37.188388  5621 layer_factory.hpp:77] Creating layer inception_3b/relu_3x3
I1129 22:09:37.188407  5621 net.cpp:94] Creating Layer inception_3b/relu_3x3
I1129 22:09:37.188426  5621 net.cpp:435] inception_3b/relu_3x3 <- inception_3b/3x3
I1129 22:09:37.188436  5621 net.cpp:396] inception_3b/relu_3x3 -> inception_3b/3x3 (in-place)
I1129 22:09:37.188452  5621 net.cpp:144] Setting up inception_3b/relu_3x3
I1129 22:09:37.188460  5621 net.cpp:151] Top shape: 32 192 28 28 (4816896)
I1129 22:09:37.188467  5621 net.cpp:159] Memory required for data: 966590976
I1129 22:09:37.188474  5621 layer_factory.hpp:77] Creating layer inception_3b/5x5_reduce
I1129 22:09:37.188490  5621 net.cpp:94] Creating Layer inception_3b/5x5_reduce
I1129 22:09:37.188498  5621 net.cpp:435] inception_3b/5x5_reduce <- inception_3a/output_inception_3a/output_0_split_2
I1129 22:09:37.188509  5621 net.cpp:409] inception_3b/5x5_reduce -> inception_3b/5x5_reduce
I1129 22:09:37.195266  5621 net.cpp:144] Setting up inception_3b/5x5_reduce
I1129 22:09:37.195287  5621 net.cpp:151] Top shape: 32 32 28 28 (802816)
I1129 22:09:37.195298  5621 net.cpp:159] Memory required for data: 969802240
I1129 22:09:37.195315  5621 layer_factory.hpp:77] Creating layer inception_3b/relu_5x5_reduce
I1129 22:09:37.195351  5621 net.cpp:94] Creating Layer inception_3b/relu_5x5_reduce
I1129 22:09:37.195364  5621 net.cpp:435] inception_3b/relu_5x5_reduce <- inception_3b/5x5_reduce
I1129 22:09:37.195379  5621 net.cpp:396] inception_3b/relu_5x5_reduce -> inception_3b/5x5_reduce (in-place)
I1129 22:09:37.195401  5621 net.cpp:144] Setting up inception_3b/relu_5x5_reduce
I1129 22:09:37.195410  5621 net.cpp:151] Top shape: 32 32 28 28 (802816)
I1129 22:09:37.195417  5621 net.cpp:159] Memory required for data: 973013504
I1129 22:09:37.195425  5621 layer_factory.hpp:77] Creating layer inception_3b/5x5
I1129 22:09:37.195438  5621 net.cpp:94] Creating Layer inception_3b/5x5
I1129 22:09:37.195446  5621 net.cpp:435] inception_3b/5x5 <- inception_3b/5x5_reduce
I1129 22:09:37.195456  5621 net.cpp:409] inception_3b/5x5 -> inception_3b/5x5
I1129 22:09:37.211026  5621 net.cpp:144] Setting up inception_3b/5x5
I1129 22:09:37.211058  5621 net.cpp:151] Top shape: 32 96 28 28 (2408448)
I1129 22:09:37.211066  5621 net.cpp:159] Memory required for data: 982647296
I1129 22:09:37.211081  5621 layer_factory.hpp:77] Creating layer inception_3b/relu_5x5
I1129 22:09:37.211094  5621 net.cpp:94] Creating Layer inception_3b/relu_5x5
I1129 22:09:37.211103  5621 net.cpp:435] inception_3b/relu_5x5 <- inception_3b/5x5
I1129 22:09:37.211114  5621 net.cpp:396] inception_3b/relu_5x5 -> inception_3b/5x5 (in-place)
I1129 22:09:37.211130  5621 net.cpp:144] Setting up inception_3b/relu_5x5
I1129 22:09:37.211139  5621 net.cpp:151] Top shape: 32 96 28 28 (2408448)
I1129 22:09:37.211146  5621 net.cpp:159] Memory required for data: 992281088
I1129 22:09:37.211153  5621 layer_factory.hpp:77] Creating layer inception_3b/pool
I1129 22:09:37.211165  5621 net.cpp:94] Creating Layer inception_3b/pool
I1129 22:09:37.211174  5621 net.cpp:435] inception_3b/pool <- inception_3a/output_inception_3a/output_0_split_3
I1129 22:09:37.211184  5621 net.cpp:409] inception_3b/pool -> inception_3b/pool
I1129 22:09:37.211262  5621 net.cpp:144] Setting up inception_3b/pool
I1129 22:09:37.211272  5621 net.cpp:151] Top shape: 32 256 28 28 (6422528)
I1129 22:09:37.211279  5621 net.cpp:159] Memory required for data: 1017971200
I1129 22:09:37.211287  5621 layer_factory.hpp:77] Creating layer inception_3b/pool_proj
I1129 22:09:37.211302  5621 net.cpp:94] Creating Layer inception_3b/pool_proj
I1129 22:09:37.211309  5621 net.cpp:435] inception_3b/pool_proj <- inception_3b/pool
I1129 22:09:37.211320  5621 net.cpp:409] inception_3b/pool_proj -> inception_3b/pool_proj
I1129 22:09:37.219396  5621 net.cpp:144] Setting up inception_3b/pool_proj
I1129 22:09:37.219429  5621 net.cpp:151] Top shape: 32 64 28 28 (1605632)
I1129 22:09:37.219441  5621 net.cpp:159] Memory required for data: 1024393728
I1129 22:09:37.219462  5621 layer_factory.hpp:77] Creating layer inception_3b/relu_pool_proj
I1129 22:09:37.219480  5621 net.cpp:94] Creating Layer inception_3b/relu_pool_proj
I1129 22:09:37.219498  5621 net.cpp:435] inception_3b/relu_pool_proj <- inception_3b/pool_proj
I1129 22:09:37.219509  5621 net.cpp:396] inception_3b/relu_pool_proj -> inception_3b/pool_proj (in-place)
I1129 22:09:37.219524  5621 net.cpp:144] Setting up inception_3b/relu_pool_proj
I1129 22:09:37.219533  5621 net.cpp:151] Top shape: 32 64 28 28 (1605632)
I1129 22:09:37.219540  5621 net.cpp:159] Memory required for data: 1030816256
I1129 22:09:37.219547  5621 layer_factory.hpp:77] Creating layer inception_3b/output
I1129 22:09:37.219558  5621 net.cpp:94] Creating Layer inception_3b/output
I1129 22:09:37.219565  5621 net.cpp:435] inception_3b/output <- inception_3b/1x1
I1129 22:09:37.219574  5621 net.cpp:435] inception_3b/output <- inception_3b/3x3
I1129 22:09:37.219583  5621 net.cpp:435] inception_3b/output <- inception_3b/5x5
I1129 22:09:37.219590  5621 net.cpp:435] inception_3b/output <- inception_3b/pool_proj
I1129 22:09:37.219600  5621 net.cpp:409] inception_3b/output -> inception_3b/output
I1129 22:09:37.219642  5621 net.cpp:144] Setting up inception_3b/output
I1129 22:09:37.219652  5621 net.cpp:151] Top shape: 32 480 28 28 (12042240)
I1129 22:09:37.219683  5621 net.cpp:159] Memory required for data: 1078985216
I1129 22:09:37.219691  5621 layer_factory.hpp:77] Creating layer pool3/3x3_s2
I1129 22:09:37.219702  5621 net.cpp:94] Creating Layer pool3/3x3_s2
I1129 22:09:37.219709  5621 net.cpp:435] pool3/3x3_s2 <- inception_3b/output
I1129 22:09:37.219719  5621 net.cpp:409] pool3/3x3_s2 -> pool3/3x3_s2
I1129 22:09:37.219768  5621 net.cpp:144] Setting up pool3/3x3_s2
I1129 22:09:37.219777  5621 net.cpp:151] Top shape: 32 480 14 14 (3010560)
I1129 22:09:37.219784  5621 net.cpp:159] Memory required for data: 1091027456
I1129 22:09:37.219791  5621 layer_factory.hpp:77] Creating layer pool3/3x3_s2_pool3/3x3_s2_0_split
I1129 22:09:37.219801  5621 net.cpp:94] Creating Layer pool3/3x3_s2_pool3/3x3_s2_0_split
I1129 22:09:37.219810  5621 net.cpp:435] pool3/3x3_s2_pool3/3x3_s2_0_split <- pool3/3x3_s2
I1129 22:09:37.219818  5621 net.cpp:409] pool3/3x3_s2_pool3/3x3_s2_0_split -> pool3/3x3_s2_pool3/3x3_s2_0_split_0
I1129 22:09:37.219830  5621 net.cpp:409] pool3/3x3_s2_pool3/3x3_s2_0_split -> pool3/3x3_s2_pool3/3x3_s2_0_split_1
I1129 22:09:37.219841  5621 net.cpp:409] pool3/3x3_s2_pool3/3x3_s2_0_split -> pool3/3x3_s2_pool3/3x3_s2_0_split_2
I1129 22:09:37.219851  5621 net.cpp:409] pool3/3x3_s2_pool3/3x3_s2_0_split -> pool3/3x3_s2_pool3/3x3_s2_0_split_3
I1129 22:09:37.219923  5621 net.cpp:144] Setting up pool3/3x3_s2_pool3/3x3_s2_0_split
I1129 22:09:37.219933  5621 net.cpp:151] Top shape: 32 480 14 14 (3010560)
I1129 22:09:37.219940  5621 net.cpp:151] Top shape: 32 480 14 14 (3010560)
I1129 22:09:37.219949  5621 net.cpp:151] Top shape: 32 480 14 14 (3010560)
I1129 22:09:37.219957  5621 net.cpp:151] Top shape: 32 480 14 14 (3010560)
I1129 22:09:37.219964  5621 net.cpp:159] Memory required for data: 1139196416
I1129 22:09:37.219971  5621 layer_factory.hpp:77] Creating layer inception_4a/1x1
I1129 22:09:37.219985  5621 net.cpp:94] Creating Layer inception_4a/1x1
I1129 22:09:37.219993  5621 net.cpp:435] inception_4a/1x1 <- pool3/3x3_s2_pool3/3x3_s2_0_split_0
I1129 22:09:37.220005  5621 net.cpp:409] inception_4a/1x1 -> inception_4a/1x1
I1129 22:09:37.228224  5621 net.cpp:144] Setting up inception_4a/1x1
I1129 22:09:37.228587  5621 net.cpp:151] Top shape: 32 192 14 14 (1204224)
I1129 22:09:37.228622  5621 net.cpp:159] Memory required for data: 1144013312
I1129 22:09:37.229094  5621 layer_factory.hpp:77] Creating layer inception_4a/relu_1x1
I1129 22:09:37.229110  5621 net.cpp:94] Creating Layer inception_4a/relu_1x1
I1129 22:09:37.229120  5621 net.cpp:435] inception_4a/relu_1x1 <- inception_4a/1x1
I1129 22:09:37.229130  5621 net.cpp:396] inception_4a/relu_1x1 -> inception_4a/1x1 (in-place)
I1129 22:09:37.229145  5621 net.cpp:144] Setting up inception_4a/relu_1x1
I1129 22:09:37.229154  5621 net.cpp:151] Top shape: 32 192 14 14 (1204224)
I1129 22:09:37.229161  5621 net.cpp:159] Memory required for data: 1148830208
I1129 22:09:37.229168  5621 layer_factory.hpp:77] Creating layer inception_4a/3x3_reduce
I1129 22:09:37.229183  5621 net.cpp:94] Creating Layer inception_4a/3x3_reduce
I1129 22:09:37.229192  5621 net.cpp:435] inception_4a/3x3_reduce <- pool3/3x3_s2_pool3/3x3_s2_0_split_1
I1129 22:09:37.229202  5621 net.cpp:409] inception_4a/3x3_reduce -> inception_4a/3x3_reduce
I1129 22:09:37.235417  5621 net.cpp:144] Setting up inception_4a/3x3_reduce
I1129 22:09:37.235437  5621 net.cpp:151] Top shape: 32 96 14 14 (602112)
I1129 22:09:37.235448  5621 net.cpp:159] Memory required for data: 1151238656
I1129 22:09:37.235477  5621 layer_factory.hpp:77] Creating layer inception_4a/relu_3x3_reduce
I1129 22:09:37.235493  5621 net.cpp:94] Creating Layer inception_4a/relu_3x3_reduce
I1129 22:09:37.235504  5621 net.cpp:435] inception_4a/relu_3x3_reduce <- inception_4a/3x3_reduce
I1129 22:09:37.235519  5621 net.cpp:396] inception_4a/relu_3x3_reduce -> inception_4a/3x3_reduce (in-place)
I1129 22:09:37.235538  5621 net.cpp:144] Setting up inception_4a/relu_3x3_reduce
I1129 22:09:37.235551  5621 net.cpp:151] Top shape: 32 96 14 14 (602112)
I1129 22:09:37.235564  5621 net.cpp:159] Memory required for data: 1153647104
I1129 22:09:37.235592  5621 layer_factory.hpp:77] Creating layer inception_4a/3x3
I1129 22:09:37.235606  5621 net.cpp:94] Creating Layer inception_4a/3x3
I1129 22:09:37.235613  5621 net.cpp:435] inception_4a/3x3 <- inception_4a/3x3_reduce
I1129 22:09:37.235625  5621 net.cpp:409] inception_4a/3x3 -> inception_4a/3x3
I1129 22:09:37.250571  5621 net.cpp:144] Setting up inception_4a/3x3
I1129 22:09:37.250609  5621 net.cpp:151] Top shape: 32 208 14 14 (1304576)
I1129 22:09:37.250622  5621 net.cpp:159] Memory required for data: 1158865408
I1129 22:09:37.250643  5621 layer_factory.hpp:77] Creating layer inception_4a/relu_3x3
I1129 22:09:37.250668  5621 net.cpp:94] Creating Layer inception_4a/relu_3x3
I1129 22:09:37.250677  5621 net.cpp:435] inception_4a/relu_3x3 <- inception_4a/3x3
I1129 22:09:37.250689  5621 net.cpp:396] inception_4a/relu_3x3 -> inception_4a/3x3 (in-place)
I1129 22:09:37.250705  5621 net.cpp:144] Setting up inception_4a/relu_3x3
I1129 22:09:37.250713  5621 net.cpp:151] Top shape: 32 208 14 14 (1304576)
I1129 22:09:37.250720  5621 net.cpp:159] Memory required for data: 1164083712
I1129 22:09:37.250727  5621 layer_factory.hpp:77] Creating layer inception_4a/5x5_reduce
I1129 22:09:37.250744  5621 net.cpp:94] Creating Layer inception_4a/5x5_reduce
I1129 22:09:37.250753  5621 net.cpp:435] inception_4a/5x5_reduce <- pool3/3x3_s2_pool3/3x3_s2_0_split_2
I1129 22:09:37.250764  5621 net.cpp:409] inception_4a/5x5_reduce -> inception_4a/5x5_reduce
I1129 22:09:37.254919  5621 net.cpp:144] Setting up inception_4a/5x5_reduce
I1129 22:09:37.254938  5621 net.cpp:151] Top shape: 32 16 14 14 (100352)
I1129 22:09:37.254950  5621 net.cpp:159] Memory required for data: 1164485120
I1129 22:09:37.254966  5621 layer_factory.hpp:77] Creating layer inception_4a/relu_5x5_reduce
I1129 22:09:37.254981  5621 net.cpp:94] Creating Layer inception_4a/relu_5x5_reduce
I1129 22:09:37.254993  5621 net.cpp:435] inception_4a/relu_5x5_reduce <- inception_4a/5x5_reduce
I1129 22:09:37.255008  5621 net.cpp:396] inception_4a/relu_5x5_reduce -> inception_4a/5x5_reduce (in-place)
I1129 22:09:37.255026  5621 net.cpp:144] Setting up inception_4a/relu_5x5_reduce
I1129 22:09:37.255039  5621 net.cpp:151] Top shape: 32 16 14 14 (100352)
I1129 22:09:37.255050  5621 net.cpp:159] Memory required for data: 1164886528
I1129 22:09:37.255061  5621 layer_factory.hpp:77] Creating layer inception_4a/5x5
I1129 22:09:37.255080  5621 net.cpp:94] Creating Layer inception_4a/5x5
I1129 22:09:37.255092  5621 net.cpp:435] inception_4a/5x5 <- inception_4a/5x5_reduce
I1129 22:09:37.255107  5621 net.cpp:409] inception_4a/5x5 -> inception_4a/5x5
I1129 22:09:37.263778  5621 net.cpp:144] Setting up inception_4a/5x5
I1129 22:09:37.263816  5621 net.cpp:151] Top shape: 32 48 14 14 (301056)
I1129 22:09:37.263828  5621 net.cpp:159] Memory required for data: 1166090752
I1129 22:09:37.263849  5621 layer_factory.hpp:77] Creating layer inception_4a/relu_5x5
I1129 22:09:37.263869  5621 net.cpp:94] Creating Layer inception_4a/relu_5x5
I1129 22:09:37.263883  5621 net.cpp:435] inception_4a/relu_5x5 <- inception_4a/5x5
I1129 22:09:37.263898  5621 net.cpp:396] inception_4a/relu_5x5 -> inception_4a/5x5 (in-place)
I1129 22:09:37.263921  5621 net.cpp:144] Setting up inception_4a/relu_5x5
I1129 22:09:37.263934  5621 net.cpp:151] Top shape: 32 48 14 14 (301056)
I1129 22:09:37.263945  5621 net.cpp:159] Memory required for data: 1167294976
I1129 22:09:37.263957  5621 layer_factory.hpp:77] Creating layer inception_4a/pool
I1129 22:09:37.263972  5621 net.cpp:94] Creating Layer inception_4a/pool
I1129 22:09:37.263985  5621 net.cpp:435] inception_4a/pool <- pool3/3x3_s2_pool3/3x3_s2_0_split_3
I1129 22:09:37.264005  5621 net.cpp:409] inception_4a/pool -> inception_4a/pool
I1129 22:09:37.264091  5621 net.cpp:144] Setting up inception_4a/pool
I1129 22:09:37.264101  5621 net.cpp:151] Top shape: 32 480 14 14 (3010560)
I1129 22:09:37.264107  5621 net.cpp:159] Memory required for data: 1179337216
I1129 22:09:37.264114  5621 layer_factory.hpp:77] Creating layer inception_4a/pool_proj
I1129 22:09:37.264129  5621 net.cpp:94] Creating Layer inception_4a/pool_proj
I1129 22:09:37.264165  5621 net.cpp:435] inception_4a/pool_proj <- inception_4a/pool
I1129 22:09:37.264178  5621 net.cpp:409] inception_4a/pool_proj -> inception_4a/pool_proj
I1129 22:09:37.271021  5621 net.cpp:144] Setting up inception_4a/pool_proj
I1129 22:09:37.271065  5621 net.cpp:151] Top shape: 32 64 14 14 (401408)
I1129 22:09:37.271077  5621 net.cpp:159] Memory required for data: 1180942848
I1129 22:09:37.271100  5621 layer_factory.hpp:77] Creating layer inception_4a/relu_pool_proj
I1129 22:09:37.271121  5621 net.cpp:94] Creating Layer inception_4a/relu_pool_proj
I1129 22:09:37.271136  5621 net.cpp:435] inception_4a/relu_pool_proj <- inception_4a/pool_proj
I1129 22:09:37.271152  5621 net.cpp:396] inception_4a/relu_pool_proj -> inception_4a/pool_proj (in-place)
I1129 22:09:37.271174  5621 net.cpp:144] Setting up inception_4a/relu_pool_proj
I1129 22:09:37.271193  5621 net.cpp:151] Top shape: 32 64 14 14 (401408)
I1129 22:09:37.271200  5621 net.cpp:159] Memory required for data: 1182548480
I1129 22:09:37.271208  5621 layer_factory.hpp:77] Creating layer inception_4a/output
I1129 22:09:37.271219  5621 net.cpp:94] Creating Layer inception_4a/output
I1129 22:09:37.271226  5621 net.cpp:435] inception_4a/output <- inception_4a/1x1
I1129 22:09:37.271235  5621 net.cpp:435] inception_4a/output <- inception_4a/3x3
I1129 22:09:37.271244  5621 net.cpp:435] inception_4a/output <- inception_4a/5x5
I1129 22:09:37.271251  5621 net.cpp:435] inception_4a/output <- inception_4a/pool_proj
I1129 22:09:37.271261  5621 net.cpp:409] inception_4a/output -> inception_4a/output
I1129 22:09:37.271337  5621 net.cpp:144] Setting up inception_4a/output
I1129 22:09:37.271347  5621 net.cpp:151] Top shape: 32 512 14 14 (3211264)
I1129 22:09:37.271353  5621 net.cpp:159] Memory required for data: 1195393536
I1129 22:09:37.271360  5621 layer_factory.hpp:77] Creating layer inception_4a/output_inception_4a/output_0_split
I1129 22:09:37.271370  5621 net.cpp:94] Creating Layer inception_4a/output_inception_4a/output_0_split
I1129 22:09:37.271378  5621 net.cpp:435] inception_4a/output_inception_4a/output_0_split <- inception_4a/output
I1129 22:09:37.271389  5621 net.cpp:409] inception_4a/output_inception_4a/output_0_split -> inception_4a/output_inception_4a/output_0_split_0
I1129 22:09:37.271399  5621 net.cpp:409] inception_4a/output_inception_4a/output_0_split -> inception_4a/output_inception_4a/output_0_split_1
I1129 22:09:37.271410  5621 net.cpp:409] inception_4a/output_inception_4a/output_0_split -> inception_4a/output_inception_4a/output_0_split_2
I1129 22:09:37.271422  5621 net.cpp:409] inception_4a/output_inception_4a/output_0_split -> inception_4a/output_inception_4a/output_0_split_3
I1129 22:09:37.271432  5621 net.cpp:409] inception_4a/output_inception_4a/output_0_split -> inception_4a/output_inception_4a/output_0_split_4
I1129 22:09:37.271528  5621 net.cpp:144] Setting up inception_4a/output_inception_4a/output_0_split
I1129 22:09:37.271538  5621 net.cpp:151] Top shape: 32 512 14 14 (3211264)
I1129 22:09:37.271548  5621 net.cpp:151] Top shape: 32 512 14 14 (3211264)
I1129 22:09:37.271556  5621 net.cpp:151] Top shape: 32 512 14 14 (3211264)
I1129 22:09:37.271564  5621 net.cpp:151] Top shape: 32 512 14 14 (3211264)
I1129 22:09:37.271572  5621 net.cpp:151] Top shape: 32 512 14 14 (3211264)
I1129 22:09:37.271579  5621 net.cpp:159] Memory required for data: 1259618816
I1129 22:09:37.271586  5621 layer_factory.hpp:77] Creating layer loss1/ave_pool
I1129 22:09:37.271597  5621 net.cpp:94] Creating Layer loss1/ave_pool
I1129 22:09:37.271605  5621 net.cpp:435] loss1/ave_pool <- inception_4a/output_inception_4a/output_0_split_0
I1129 22:09:37.271615  5621 net.cpp:409] loss1/ave_pool -> loss1/ave_pool
I1129 22:09:37.271659  5621 net.cpp:144] Setting up loss1/ave_pool
I1129 22:09:37.271669  5621 net.cpp:151] Top shape: 32 512 4 4 (262144)
I1129 22:09:37.271677  5621 net.cpp:159] Memory required for data: 1260667392
I1129 22:09:37.271683  5621 layer_factory.hpp:77] Creating layer loss1/conv
I1129 22:09:37.271725  5621 net.cpp:94] Creating Layer loss1/conv
I1129 22:09:37.271734  5621 net.cpp:435] loss1/conv <- loss1/ave_pool
I1129 22:09:37.271744  5621 net.cpp:409] loss1/conv -> loss1/conv
I1129 22:09:37.274817  5621 net.cpp:144] Setting up loss1/conv
I1129 22:09:37.274837  5621 net.cpp:151] Top shape: 32 128 4 4 (65536)
I1129 22:09:37.274849  5621 net.cpp:159] Memory required for data: 1260929536
I1129 22:09:37.274865  5621 layer_factory.hpp:77] Creating layer loss1/relu_conv
I1129 22:09:37.274880  5621 net.cpp:94] Creating Layer loss1/relu_conv
I1129 22:09:37.274893  5621 net.cpp:435] loss1/relu_conv <- loss1/conv
I1129 22:09:37.274906  5621 net.cpp:396] loss1/relu_conv -> loss1/conv (in-place)
I1129 22:09:37.274924  5621 net.cpp:144] Setting up loss1/relu_conv
I1129 22:09:37.274937  5621 net.cpp:151] Top shape: 32 128 4 4 (65536)
I1129 22:09:37.274947  5621 net.cpp:159] Memory required for data: 1261191680
I1129 22:09:37.274958  5621 layer_factory.hpp:77] Creating layer loss1/fc
I1129 22:09:37.289054  5621 net.cpp:94] Creating Layer loss1/fc
I1129 22:09:37.289080  5621 net.cpp:435] loss1/fc <- loss1/conv
I1129 22:09:37.289098  5621 net.cpp:409] loss1/fc -> loss1/fc
I1129 22:09:37.315599  5621 net.cpp:144] Setting up loss1/fc
I1129 22:09:37.315639  5621 net.cpp:151] Top shape: 32 1024 (32768)
I1129 22:09:37.315647  5621 net.cpp:159] Memory required for data: 1261322752
I1129 22:09:37.315665  5621 layer_factory.hpp:77] Creating layer loss1/relu_fc
I1129 22:09:37.315680  5621 net.cpp:94] Creating Layer loss1/relu_fc
I1129 22:09:37.315690  5621 net.cpp:435] loss1/relu_fc <- loss1/fc
I1129 22:09:37.315701  5621 net.cpp:396] loss1/relu_fc -> loss1/fc (in-place)
I1129 22:09:37.315717  5621 net.cpp:144] Setting up loss1/relu_fc
I1129 22:09:37.315726  5621 net.cpp:151] Top shape: 32 1024 (32768)
I1129 22:09:37.315733  5621 net.cpp:159] Memory required for data: 1261453824
I1129 22:09:37.315740  5621 layer_factory.hpp:77] Creating layer loss1/drop_fc
I1129 22:09:37.315769  5621 net.cpp:94] Creating Layer loss1/drop_fc
I1129 22:09:37.315778  5621 net.cpp:435] loss1/drop_fc <- loss1/fc
I1129 22:09:37.315788  5621 net.cpp:396] loss1/drop_fc -> loss1/fc (in-place)
I1129 22:09:37.315825  5621 net.cpp:144] Setting up loss1/drop_fc
I1129 22:09:37.315836  5621 net.cpp:151] Top shape: 32 1024 (32768)
I1129 22:09:37.315843  5621 net.cpp:159] Memory required for data: 1261584896
I1129 22:09:37.315851  5621 layer_factory.hpp:77] Creating layer loss1/classifier_output
I1129 22:09:37.315865  5621 net.cpp:94] Creating Layer loss1/classifier_output
I1129 22:09:37.315871  5621 net.cpp:435] loss1/classifier_output <- loss1/fc
I1129 22:09:37.315882  5621 net.cpp:409] loss1/classifier_output -> loss1/classifier_output
I1129 22:09:37.316031  5621 net.cpp:144] Setting up loss1/classifier_output
I1129 22:09:37.316041  5621 net.cpp:151] Top shape: 32 2 (64)
I1129 22:09:37.316048  5621 net.cpp:159] Memory required for data: 1261585152
I1129 22:09:37.316059  5621 layer_factory.hpp:77] Creating layer loss1/loss
I1129 22:09:37.316082  5621 net.cpp:94] Creating Layer loss1/loss
I1129 22:09:37.316089  5621 net.cpp:435] loss1/loss <- loss1/classifier_output
I1129 22:09:37.316097  5621 net.cpp:435] loss1/loss <- label_train-data_1_split_0
I1129 22:09:37.316107  5621 net.cpp:409] loss1/loss -> loss1/loss
I1129 22:09:37.316121  5621 layer_factory.hpp:77] Creating layer loss1/loss
I1129 22:09:37.316244  5621 net.cpp:144] Setting up loss1/loss
I1129 22:09:37.316254  5621 net.cpp:151] Top shape: (1)
I1129 22:09:37.316262  5621 net.cpp:154]     with loss weight 0.3
I1129 22:09:37.316290  5621 net.cpp:159] Memory required for data: 1261585156
I1129 22:09:37.316298  5621 layer_factory.hpp:77] Creating layer inception_4b/1x1
I1129 22:09:37.316311  5621 net.cpp:94] Creating Layer inception_4b/1x1
I1129 22:09:37.316320  5621 net.cpp:435] inception_4b/1x1 <- inception_4a/output_inception_4a/output_0_split_1
I1129 22:09:37.316331  5621 net.cpp:409] inception_4b/1x1 -> inception_4b/1x1
I1129 22:09:37.325788  5621 net.cpp:144] Setting up inception_4b/1x1
I1129 22:09:37.325826  5621 net.cpp:151] Top shape: 32 160 14 14 (1003520)
I1129 22:09:37.325867  5621 net.cpp:159] Memory required for data: 1265599236
I1129 22:09:37.325884  5621 layer_factory.hpp:77] Creating layer inception_4b/relu_1x1
I1129 22:09:37.325899  5621 net.cpp:94] Creating Layer inception_4b/relu_1x1
I1129 22:09:37.325911  5621 net.cpp:435] inception_4b/relu_1x1 <- inception_4b/1x1
I1129 22:09:37.325922  5621 net.cpp:396] inception_4b/relu_1x1 -> inception_4b/1x1 (in-place)
I1129 22:09:37.325937  5621 net.cpp:144] Setting up inception_4b/relu_1x1
I1129 22:09:37.325947  5621 net.cpp:151] Top shape: 32 160 14 14 (1003520)
I1129 22:09:37.325954  5621 net.cpp:159] Memory required for data: 1269613316
I1129 22:09:37.325961  5621 layer_factory.hpp:77] Creating layer inception_4b/3x3_reduce
I1129 22:09:37.325978  5621 net.cpp:94] Creating Layer inception_4b/3x3_reduce
I1129 22:09:37.325987  5621 net.cpp:435] inception_4b/3x3_reduce <- inception_4a/output_inception_4a/output_0_split_2
I1129 22:09:37.325999  5621 net.cpp:409] inception_4b/3x3_reduce -> inception_4b/3x3_reduce
I1129 22:09:37.333683  5621 net.cpp:144] Setting up inception_4b/3x3_reduce
I1129 22:09:37.333717  5621 net.cpp:151] Top shape: 32 112 14 14 (702464)
I1129 22:09:37.333730  5621 net.cpp:159] Memory required for data: 1272423172
I1129 22:09:37.333751  5621 layer_factory.hpp:77] Creating layer inception_4b/relu_3x3_reduce
I1129 22:09:37.333770  5621 net.cpp:94] Creating Layer inception_4b/relu_3x3_reduce
I1129 22:09:37.333783  5621 net.cpp:435] inception_4b/relu_3x3_reduce <- inception_4b/3x3_reduce
I1129 22:09:37.333798  5621 net.cpp:396] inception_4b/relu_3x3_reduce -> inception_4b/3x3_reduce (in-place)
I1129 22:09:37.333822  5621 net.cpp:144] Setting up inception_4b/relu_3x3_reduce
I1129 22:09:37.333832  5621 net.cpp:151] Top shape: 32 112 14 14 (702464)
I1129 22:09:37.333838  5621 net.cpp:159] Memory required for data: 1275233028
I1129 22:09:37.333845  5621 layer_factory.hpp:77] Creating layer inception_4b/3x3
I1129 22:09:37.333861  5621 net.cpp:94] Creating Layer inception_4b/3x3
I1129 22:09:37.333868  5621 net.cpp:435] inception_4b/3x3 <- inception_4b/3x3_reduce
I1129 22:09:37.333879  5621 net.cpp:409] inception_4b/3x3 -> inception_4b/3x3
I1129 22:09:37.347451  5621 net.cpp:144] Setting up inception_4b/3x3
I1129 22:09:37.347476  5621 net.cpp:151] Top shape: 32 224 14 14 (1404928)
I1129 22:09:37.347488  5621 net.cpp:159] Memory required for data: 1280852740
I1129 22:09:37.347506  5621 layer_factory.hpp:77] Creating layer inception_4b/relu_3x3
I1129 22:09:37.347522  5621 net.cpp:94] Creating Layer inception_4b/relu_3x3
I1129 22:09:37.347534  5621 net.cpp:435] inception_4b/relu_3x3 <- inception_4b/3x3
I1129 22:09:37.347549  5621 net.cpp:396] inception_4b/relu_3x3 -> inception_4b/3x3 (in-place)
I1129 22:09:37.347569  5621 net.cpp:144] Setting up inception_4b/relu_3x3
I1129 22:09:37.347579  5621 net.cpp:151] Top shape: 32 224 14 14 (1404928)
I1129 22:09:37.347585  5621 net.cpp:159] Memory required for data: 1286472452
I1129 22:09:37.347592  5621 layer_factory.hpp:77] Creating layer inception_4b/5x5_reduce
I1129 22:09:37.347606  5621 net.cpp:94] Creating Layer inception_4b/5x5_reduce
I1129 22:09:37.347615  5621 net.cpp:435] inception_4b/5x5_reduce <- inception_4a/output_inception_4a/output_0_split_3
I1129 22:09:37.347625  5621 net.cpp:409] inception_4b/5x5_reduce -> inception_4b/5x5_reduce
I1129 22:09:37.352401  5621 net.cpp:144] Setting up inception_4b/5x5_reduce
I1129 22:09:37.352427  5621 net.cpp:151] Top shape: 32 24 14 14 (150528)
I1129 22:09:37.352439  5621 net.cpp:159] Memory required for data: 1287074564
I1129 22:09:37.352458  5621 layer_factory.hpp:77] Creating layer inception_4b/relu_5x5_reduce
I1129 22:09:37.352475  5621 net.cpp:94] Creating Layer inception_4b/relu_5x5_reduce
I1129 22:09:37.352488  5621 net.cpp:435] inception_4b/relu_5x5_reduce <- inception_4b/5x5_reduce
I1129 22:09:37.352504  5621 net.cpp:396] inception_4b/relu_5x5_reduce -> inception_4b/5x5_reduce (in-place)
I1129 22:09:37.352524  5621 net.cpp:144] Setting up inception_4b/relu_5x5_reduce
I1129 22:09:37.352565  5621 net.cpp:151] Top shape: 32 24 14 14 (150528)
I1129 22:09:37.352576  5621 net.cpp:159] Memory required for data: 1287676676
I1129 22:09:37.352586  5621 layer_factory.hpp:77] Creating layer inception_4b/5x5
I1129 22:09:37.352613  5621 net.cpp:94] Creating Layer inception_4b/5x5
I1129 22:09:37.352622  5621 net.cpp:435] inception_4b/5x5 <- inception_4b/5x5_reduce
I1129 22:09:37.352632  5621 net.cpp:409] inception_4b/5x5 -> inception_4b/5x5
I1129 22:09:37.357139  5621 net.cpp:144] Setting up inception_4b/5x5
I1129 22:09:37.357152  5621 net.cpp:151] Top shape: 32 64 14 14 (401408)
I1129 22:09:37.357161  5621 net.cpp:159] Memory required for data: 1289282308
I1129 22:09:37.357172  5621 layer_factory.hpp:77] Creating layer inception_4b/relu_5x5
I1129 22:09:37.357182  5621 net.cpp:94] Creating Layer inception_4b/relu_5x5
I1129 22:09:37.357190  5621 net.cpp:435] inception_4b/relu_5x5 <- inception_4b/5x5
I1129 22:09:37.357199  5621 net.cpp:396] inception_4b/relu_5x5 -> inception_4b/5x5 (in-place)
I1129 22:09:37.357211  5621 net.cpp:144] Setting up inception_4b/relu_5x5
I1129 22:09:37.357220  5621 net.cpp:151] Top shape: 32 64 14 14 (401408)
I1129 22:09:37.357228  5621 net.cpp:159] Memory required for data: 1290887940
I1129 22:09:37.357234  5621 layer_factory.hpp:77] Creating layer inception_4b/pool
I1129 22:09:37.357246  5621 net.cpp:94] Creating Layer inception_4b/pool
I1129 22:09:37.357254  5621 net.cpp:435] inception_4b/pool <- inception_4a/output_inception_4a/output_0_split_4
I1129 22:09:37.357264  5621 net.cpp:409] inception_4b/pool -> inception_4b/pool
I1129 22:09:37.357332  5621 net.cpp:144] Setting up inception_4b/pool
I1129 22:09:37.357343  5621 net.cpp:151] Top shape: 32 512 14 14 (3211264)
I1129 22:09:37.357350  5621 net.cpp:159] Memory required for data: 1303732996
I1129 22:09:37.357357  5621 layer_factory.hpp:77] Creating layer inception_4b/pool_proj
I1129 22:09:37.357372  5621 net.cpp:94] Creating Layer inception_4b/pool_proj
I1129 22:09:37.357379  5621 net.cpp:435] inception_4b/pool_proj <- inception_4b/pool
I1129 22:09:37.357390  5621 net.cpp:409] inception_4b/pool_proj -> inception_4b/pool_proj
I1129 22:09:37.363004  5621 net.cpp:144] Setting up inception_4b/pool_proj
I1129 22:09:37.363029  5621 net.cpp:151] Top shape: 32 64 14 14 (401408)
I1129 22:09:37.363041  5621 net.cpp:159] Memory required for data: 1305338628
I1129 22:09:37.363060  5621 layer_factory.hpp:77] Creating layer inception_4b/relu_pool_proj
I1129 22:09:37.363076  5621 net.cpp:94] Creating Layer inception_4b/relu_pool_proj
I1129 22:09:37.363090  5621 net.cpp:435] inception_4b/relu_pool_proj <- inception_4b/pool_proj
I1129 22:09:37.363104  5621 net.cpp:396] inception_4b/relu_pool_proj -> inception_4b/pool_proj (in-place)
I1129 22:09:37.363124  5621 net.cpp:144] Setting up inception_4b/relu_pool_proj
I1129 22:09:37.363137  5621 net.cpp:151] Top shape: 32 64 14 14 (401408)
I1129 22:09:37.363148  5621 net.cpp:159] Memory required for data: 1306944260
I1129 22:09:37.363159  5621 layer_factory.hpp:77] Creating layer inception_4b/output
I1129 22:09:37.363174  5621 net.cpp:94] Creating Layer inception_4b/output
I1129 22:09:37.363189  5621 net.cpp:435] inception_4b/output <- inception_4b/1x1
I1129 22:09:37.363198  5621 net.cpp:435] inception_4b/output <- inception_4b/3x3
I1129 22:09:37.363206  5621 net.cpp:435] inception_4b/output <- inception_4b/5x5
I1129 22:09:37.363214  5621 net.cpp:435] inception_4b/output <- inception_4b/pool_proj
I1129 22:09:37.363224  5621 net.cpp:409] inception_4b/output -> inception_4b/output
I1129 22:09:37.363265  5621 net.cpp:144] Setting up inception_4b/output
I1129 22:09:37.363276  5621 net.cpp:151] Top shape: 32 512 14 14 (3211264)
I1129 22:09:37.363282  5621 net.cpp:159] Memory required for data: 1319789316
I1129 22:09:37.363289  5621 layer_factory.hpp:77] Creating layer inception_4b/output_inception_4b/output_0_split
I1129 22:09:37.363299  5621 net.cpp:94] Creating Layer inception_4b/output_inception_4b/output_0_split
I1129 22:09:37.363307  5621 net.cpp:435] inception_4b/output_inception_4b/output_0_split <- inception_4b/output
I1129 22:09:37.363332  5621 net.cpp:409] inception_4b/output_inception_4b/output_0_split -> inception_4b/output_inception_4b/output_0_split_0
I1129 22:09:37.363343  5621 net.cpp:409] inception_4b/output_inception_4b/output_0_split -> inception_4b/output_inception_4b/output_0_split_1
I1129 22:09:37.363354  5621 net.cpp:409] inception_4b/output_inception_4b/output_0_split -> inception_4b/output_inception_4b/output_0_split_2
I1129 22:09:37.363366  5621 net.cpp:409] inception_4b/output_inception_4b/output_0_split -> inception_4b/output_inception_4b/output_0_split_3
I1129 22:09:37.363447  5621 net.cpp:144] Setting up inception_4b/output_inception_4b/output_0_split
I1129 22:09:37.363457  5621 net.cpp:151] Top shape: 32 512 14 14 (3211264)
I1129 22:09:37.363466  5621 net.cpp:151] Top shape: 32 512 14 14 (3211264)
I1129 22:09:37.363474  5621 net.cpp:151] Top shape: 32 512 14 14 (3211264)
I1129 22:09:37.363483  5621 net.cpp:151] Top shape: 32 512 14 14 (3211264)
I1129 22:09:37.363490  5621 net.cpp:159] Memory required for data: 1371169540
I1129 22:09:37.363497  5621 layer_factory.hpp:77] Creating layer inception_4c/1x1
I1129 22:09:37.363512  5621 net.cpp:94] Creating Layer inception_4c/1x1
I1129 22:09:37.363518  5621 net.cpp:435] inception_4c/1x1 <- inception_4b/output_inception_4b/output_0_split_0
I1129 22:09:37.363529  5621 net.cpp:409] inception_4c/1x1 -> inception_4c/1x1
I1129 22:09:37.370378  5621 net.cpp:144] Setting up inception_4c/1x1
I1129 22:09:37.370403  5621 net.cpp:151] Top shape: 32 128 14 14 (802816)
I1129 22:09:37.370414  5621 net.cpp:159] Memory required for data: 1374380804
I1129 22:09:37.370432  5621 layer_factory.hpp:77] Creating layer inception_4c/relu_1x1
I1129 22:09:37.370447  5621 net.cpp:94] Creating Layer inception_4c/relu_1x1
I1129 22:09:37.370460  5621 net.cpp:435] inception_4c/relu_1x1 <- inception_4c/1x1
I1129 22:09:37.370474  5621 net.cpp:396] inception_4c/relu_1x1 -> inception_4c/1x1 (in-place)
I1129 22:09:37.370493  5621 net.cpp:144] Setting up inception_4c/relu_1x1
I1129 22:09:37.370508  5621 net.cpp:151] Top shape: 32 128 14 14 (802816)
I1129 22:09:37.370515  5621 net.cpp:159] Memory required for data: 1377592068
I1129 22:09:37.370523  5621 layer_factory.hpp:77] Creating layer inception_4c/3x3_reduce
I1129 22:09:37.370537  5621 net.cpp:94] Creating Layer inception_4c/3x3_reduce
I1129 22:09:37.370544  5621 net.cpp:435] inception_4c/3x3_reduce <- inception_4b/output_inception_4b/output_0_split_1
I1129 22:09:37.370555  5621 net.cpp:409] inception_4c/3x3_reduce -> inception_4c/3x3_reduce
I1129 22:09:37.377185  5621 net.cpp:144] Setting up inception_4c/3x3_reduce
I1129 22:09:37.377209  5621 net.cpp:151] Top shape: 32 128 14 14 (802816)
I1129 22:09:37.377220  5621 net.cpp:159] Memory required for data: 1380803332
I1129 22:09:37.377238  5621 layer_factory.hpp:77] Creating layer inception_4c/relu_3x3_reduce
I1129 22:09:37.377254  5621 net.cpp:94] Creating Layer inception_4c/relu_3x3_reduce
I1129 22:09:37.377267  5621 net.cpp:435] inception_4c/relu_3x3_reduce <- inception_4c/3x3_reduce
I1129 22:09:37.377281  5621 net.cpp:396] inception_4c/relu_3x3_reduce -> inception_4c/3x3_reduce (in-place)
I1129 22:09:37.377303  5621 net.cpp:144] Setting up inception_4c/relu_3x3_reduce
I1129 22:09:37.377312  5621 net.cpp:151] Top shape: 32 128 14 14 (802816)
I1129 22:09:37.377320  5621 net.cpp:159] Memory required for data: 1384014596
I1129 22:09:37.377326  5621 layer_factory.hpp:77] Creating layer inception_4c/3x3
I1129 22:09:37.377339  5621 net.cpp:94] Creating Layer inception_4c/3x3
I1129 22:09:37.377347  5621 net.cpp:435] inception_4c/3x3 <- inception_4c/3x3_reduce
I1129 22:09:37.377358  5621 net.cpp:409] inception_4c/3x3 -> inception_4c/3x3
I1129 22:09:37.394713  5621 net.cpp:144] Setting up inception_4c/3x3
I1129 22:09:37.394748  5621 net.cpp:151] Top shape: 32 256 14 14 (1605632)
I1129 22:09:37.394760  5621 net.cpp:159] Memory required for data: 1390437124
I1129 22:09:37.394810  5621 layer_factory.hpp:77] Creating layer inception_4c/relu_3x3
I1129 22:09:37.394832  5621 net.cpp:94] Creating Layer inception_4c/relu_3x3
I1129 22:09:37.394866  5621 net.cpp:435] inception_4c/relu_3x3 <- inception_4c/3x3
I1129 22:09:37.394877  5621 net.cpp:396] inception_4c/relu_3x3 -> inception_4c/3x3 (in-place)
I1129 22:09:37.394893  5621 net.cpp:144] Setting up inception_4c/relu_3x3
I1129 22:09:37.394902  5621 net.cpp:151] Top shape: 32 256 14 14 (1605632)
I1129 22:09:37.394909  5621 net.cpp:159] Memory required for data: 1396859652
I1129 22:09:37.394917  5621 layer_factory.hpp:77] Creating layer inception_4c/5x5_reduce
I1129 22:09:37.394932  5621 net.cpp:94] Creating Layer inception_4c/5x5_reduce
I1129 22:09:37.394939  5621 net.cpp:435] inception_4c/5x5_reduce <- inception_4b/output_inception_4b/output_0_split_2
I1129 22:09:37.394953  5621 net.cpp:409] inception_4c/5x5_reduce -> inception_4c/5x5_reduce
I1129 22:09:37.399703  5621 net.cpp:144] Setting up inception_4c/5x5_reduce
I1129 22:09:37.399729  5621 net.cpp:151] Top shape: 32 24 14 14 (150528)
I1129 22:09:37.399739  5621 net.cpp:159] Memory required for data: 1397461764
I1129 22:09:37.399757  5621 layer_factory.hpp:77] Creating layer inception_4c/relu_5x5_reduce
I1129 22:09:37.399773  5621 net.cpp:94] Creating Layer inception_4c/relu_5x5_reduce
I1129 22:09:37.399785  5621 net.cpp:435] inception_4c/relu_5x5_reduce <- inception_4c/5x5_reduce
I1129 22:09:37.399801  5621 net.cpp:396] inception_4c/relu_5x5_reduce -> inception_4c/5x5_reduce (in-place)
I1129 22:09:37.399818  5621 net.cpp:144] Setting up inception_4c/relu_5x5_reduce
I1129 22:09:37.399832  5621 net.cpp:151] Top shape: 32 24 14 14 (150528)
I1129 22:09:37.399843  5621 net.cpp:159] Memory required for data: 1398063876
I1129 22:09:37.399854  5621 layer_factory.hpp:77] Creating layer inception_4c/5x5
I1129 22:09:37.399878  5621 net.cpp:94] Creating Layer inception_4c/5x5
I1129 22:09:37.399890  5621 net.cpp:435] inception_4c/5x5 <- inception_4c/5x5_reduce
I1129 22:09:37.399906  5621 net.cpp:409] inception_4c/5x5 -> inception_4c/5x5
I1129 22:09:37.405493  5621 net.cpp:144] Setting up inception_4c/5x5
I1129 22:09:37.405517  5621 net.cpp:151] Top shape: 32 64 14 14 (401408)
I1129 22:09:37.405529  5621 net.cpp:159] Memory required for data: 1399669508
I1129 22:09:37.405547  5621 layer_factory.hpp:77] Creating layer inception_4c/relu_5x5
I1129 22:09:37.405563  5621 net.cpp:94] Creating Layer inception_4c/relu_5x5
I1129 22:09:37.405575  5621 net.cpp:435] inception_4c/relu_5x5 <- inception_4c/5x5
I1129 22:09:37.405591  5621 net.cpp:396] inception_4c/relu_5x5 -> inception_4c/5x5 (in-place)
I1129 22:09:37.405609  5621 net.cpp:144] Setting up inception_4c/relu_5x5
I1129 22:09:37.405622  5621 net.cpp:151] Top shape: 32 64 14 14 (401408)
I1129 22:09:37.405633  5621 net.cpp:159] Memory required for data: 1401275140
I1129 22:09:37.405644  5621 layer_factory.hpp:77] Creating layer inception_4c/pool
I1129 22:09:37.405668  5621 net.cpp:94] Creating Layer inception_4c/pool
I1129 22:09:37.405676  5621 net.cpp:435] inception_4c/pool <- inception_4b/output_inception_4b/output_0_split_3
I1129 22:09:37.405686  5621 net.cpp:409] inception_4c/pool -> inception_4c/pool
I1129 22:09:37.405745  5621 net.cpp:144] Setting up inception_4c/pool
I1129 22:09:37.405755  5621 net.cpp:151] Top shape: 32 512 14 14 (3211264)
I1129 22:09:37.405762  5621 net.cpp:159] Memory required for data: 1414120196
I1129 22:09:37.405769  5621 layer_factory.hpp:77] Creating layer inception_4c/pool_proj
I1129 22:09:37.405783  5621 net.cpp:94] Creating Layer inception_4c/pool_proj
I1129 22:09:37.405791  5621 net.cpp:435] inception_4c/pool_proj <- inception_4c/pool
I1129 22:09:37.405802  5621 net.cpp:409] inception_4c/pool_proj -> inception_4c/pool_proj
I1129 22:09:37.411794  5621 net.cpp:144] Setting up inception_4c/pool_proj
I1129 22:09:37.411813  5621 net.cpp:151] Top shape: 32 64 14 14 (401408)
I1129 22:09:37.411821  5621 net.cpp:159] Memory required for data: 1415725828
I1129 22:09:37.411834  5621 layer_factory.hpp:77] Creating layer inception_4c/relu_pool_proj
I1129 22:09:37.411846  5621 net.cpp:94] Creating Layer inception_4c/relu_pool_proj
I1129 22:09:37.411854  5621 net.cpp:435] inception_4c/relu_pool_proj <- inception_4c/pool_proj
I1129 22:09:37.411885  5621 net.cpp:396] inception_4c/relu_pool_proj -> inception_4c/pool_proj (in-place)
I1129 22:09:37.411900  5621 net.cpp:144] Setting up inception_4c/relu_pool_proj
I1129 22:09:37.411908  5621 net.cpp:151] Top shape: 32 64 14 14 (401408)
I1129 22:09:37.411916  5621 net.cpp:159] Memory required for data: 1417331460
I1129 22:09:37.411922  5621 layer_factory.hpp:77] Creating layer inception_4c/output
I1129 22:09:37.411932  5621 net.cpp:94] Creating Layer inception_4c/output
I1129 22:09:37.411941  5621 net.cpp:435] inception_4c/output <- inception_4c/1x1
I1129 22:09:37.411949  5621 net.cpp:435] inception_4c/output <- inception_4c/3x3
I1129 22:09:37.411957  5621 net.cpp:435] inception_4c/output <- inception_4c/5x5
I1129 22:09:37.411965  5621 net.cpp:435] inception_4c/output <- inception_4c/pool_proj
I1129 22:09:37.411976  5621 net.cpp:409] inception_4c/output -> inception_4c/output
I1129 22:09:37.412025  5621 net.cpp:144] Setting up inception_4c/output
I1129 22:09:37.412037  5621 net.cpp:151] Top shape: 32 512 14 14 (3211264)
I1129 22:09:37.412045  5621 net.cpp:159] Memory required for data: 1430176516
I1129 22:09:37.412052  5621 layer_factory.hpp:77] Creating layer inception_4c/output_inception_4c/output_0_split
I1129 22:09:37.412062  5621 net.cpp:94] Creating Layer inception_4c/output_inception_4c/output_0_split
I1129 22:09:37.412070  5621 net.cpp:435] inception_4c/output_inception_4c/output_0_split <- inception_4c/output
I1129 22:09:37.412078  5621 net.cpp:409] inception_4c/output_inception_4c/output_0_split -> inception_4c/output_inception_4c/output_0_split_0
I1129 22:09:37.412091  5621 net.cpp:409] inception_4c/output_inception_4c/output_0_split -> inception_4c/output_inception_4c/output_0_split_1
I1129 22:09:37.412101  5621 net.cpp:409] inception_4c/output_inception_4c/output_0_split -> inception_4c/output_inception_4c/output_0_split_2
I1129 22:09:37.412114  5621 net.cpp:409] inception_4c/output_inception_4c/output_0_split -> inception_4c/output_inception_4c/output_0_split_3
I1129 22:09:37.412205  5621 net.cpp:144] Setting up inception_4c/output_inception_4c/output_0_split
I1129 22:09:37.412215  5621 net.cpp:151] Top shape: 32 512 14 14 (3211264)
I1129 22:09:37.412225  5621 net.cpp:151] Top shape: 32 512 14 14 (3211264)
I1129 22:09:37.412232  5621 net.cpp:151] Top shape: 32 512 14 14 (3211264)
I1129 22:09:37.412241  5621 net.cpp:151] Top shape: 32 512 14 14 (3211264)
I1129 22:09:37.412248  5621 net.cpp:159] Memory required for data: 1481556740
I1129 22:09:37.412256  5621 layer_factory.hpp:77] Creating layer inception_4d/1x1
I1129 22:09:37.412271  5621 net.cpp:94] Creating Layer inception_4d/1x1
I1129 22:09:37.412281  5621 net.cpp:435] inception_4d/1x1 <- inception_4c/output_inception_4c/output_0_split_0
I1129 22:09:37.412292  5621 net.cpp:409] inception_4d/1x1 -> inception_4d/1x1
I1129 22:09:37.419742  5621 net.cpp:144] Setting up inception_4d/1x1
I1129 22:09:37.419762  5621 net.cpp:151] Top shape: 32 112 14 14 (702464)
I1129 22:09:37.419770  5621 net.cpp:159] Memory required for data: 1484366596
I1129 22:09:37.419786  5621 layer_factory.hpp:77] Creating layer inception_4d/relu_1x1
I1129 22:09:37.419800  5621 net.cpp:94] Creating Layer inception_4d/relu_1x1
I1129 22:09:37.419808  5621 net.cpp:435] inception_4d/relu_1x1 <- inception_4d/1x1
I1129 22:09:37.419818  5621 net.cpp:396] inception_4d/relu_1x1 -> inception_4d/1x1 (in-place)
I1129 22:09:37.419832  5621 net.cpp:144] Setting up inception_4d/relu_1x1
I1129 22:09:37.419842  5621 net.cpp:151] Top shape: 32 112 14 14 (702464)
I1129 22:09:37.419848  5621 net.cpp:159] Memory required for data: 1487176452
I1129 22:09:37.419855  5621 layer_factory.hpp:77] Creating layer inception_4d/3x3_reduce
I1129 22:09:37.419872  5621 net.cpp:94] Creating Layer inception_4d/3x3_reduce
I1129 22:09:37.419879  5621 net.cpp:435] inception_4d/3x3_reduce <- inception_4c/output_inception_4c/output_0_split_1
I1129 22:09:37.419890  5621 net.cpp:409] inception_4d/3x3_reduce -> inception_4d/3x3_reduce
I1129 22:09:37.428282  5621 net.cpp:144] Setting up inception_4d/3x3_reduce
I1129 22:09:37.428313  5621 net.cpp:151] Top shape: 32 144 14 14 (903168)
I1129 22:09:37.428319  5621 net.cpp:159] Memory required for data: 1490789124
I1129 22:09:37.428335  5621 layer_factory.hpp:77] Creating layer inception_4d/relu_3x3_reduce
I1129 22:09:37.428350  5621 net.cpp:94] Creating Layer inception_4d/relu_3x3_reduce
I1129 22:09:37.428361  5621 net.cpp:435] inception_4d/relu_3x3_reduce <- inception_4d/3x3_reduce
I1129 22:09:37.428375  5621 net.cpp:396] inception_4d/relu_3x3_reduce -> inception_4d/3x3_reduce (in-place)
I1129 22:09:37.428390  5621 net.cpp:144] Setting up inception_4d/relu_3x3_reduce
I1129 22:09:37.428400  5621 net.cpp:151] Top shape: 32 144 14 14 (903168)
I1129 22:09:37.428406  5621 net.cpp:159] Memory required for data: 1494401796
I1129 22:09:37.428413  5621 layer_factory.hpp:77] Creating layer inception_4d/3x3
I1129 22:09:37.428431  5621 net.cpp:94] Creating Layer inception_4d/3x3
I1129 22:09:37.428439  5621 net.cpp:435] inception_4d/3x3 <- inception_4d/3x3_reduce
I1129 22:09:37.428449  5621 net.cpp:409] inception_4d/3x3 -> inception_4d/3x3
I1129 22:09:37.452661  5621 net.cpp:144] Setting up inception_4d/3x3
I1129 22:09:37.452709  5621 net.cpp:151] Top shape: 32 288 14 14 (1806336)
I1129 22:09:37.452723  5621 net.cpp:159] Memory required for data: 1501627140
I1129 22:09:37.452744  5621 layer_factory.hpp:77] Creating layer inception_4d/relu_3x3
I1129 22:09:37.452765  5621 net.cpp:94] Creating Layer inception_4d/relu_3x3
I1129 22:09:37.452775  5621 net.cpp:435] inception_4d/relu_3x3 <- inception_4d/3x3
I1129 22:09:37.452786  5621 net.cpp:396] inception_4d/relu_3x3 -> inception_4d/3x3 (in-place)
I1129 22:09:37.452801  5621 net.cpp:144] Setting up inception_4d/relu_3x3
I1129 22:09:37.452811  5621 net.cpp:151] Top shape: 32 288 14 14 (1806336)
I1129 22:09:37.452817  5621 net.cpp:159] Memory required for data: 1508852484
I1129 22:09:37.452824  5621 layer_factory.hpp:77] Creating layer inception_4d/5x5_reduce
I1129 22:09:37.452843  5621 net.cpp:94] Creating Layer inception_4d/5x5_reduce
I1129 22:09:37.452852  5621 net.cpp:435] inception_4d/5x5_reduce <- inception_4c/output_inception_4c/output_0_split_2
I1129 22:09:37.452862  5621 net.cpp:409] inception_4d/5x5_reduce -> inception_4d/5x5_reduce
I1129 22:09:37.457628  5621 net.cpp:144] Setting up inception_4d/5x5_reduce
I1129 22:09:37.457646  5621 net.cpp:151] Top shape: 32 32 14 14 (200704)
I1129 22:09:37.457657  5621 net.cpp:159] Memory required for data: 1509655300
I1129 22:09:37.457674  5621 layer_factory.hpp:77] Creating layer inception_4d/relu_5x5_reduce
I1129 22:09:37.457689  5621 net.cpp:94] Creating Layer inception_4d/relu_5x5_reduce
I1129 22:09:37.457701  5621 net.cpp:435] inception_4d/relu_5x5_reduce <- inception_4d/5x5_reduce
I1129 22:09:37.457715  5621 net.cpp:396] inception_4d/relu_5x5_reduce -> inception_4d/5x5_reduce (in-place)
I1129 22:09:37.457732  5621 net.cpp:144] Setting up inception_4d/relu_5x5_reduce
I1129 22:09:37.457746  5621 net.cpp:151] Top shape: 32 32 14 14 (200704)
I1129 22:09:37.457756  5621 net.cpp:159] Memory required for data: 1510458116
I1129 22:09:37.457767  5621 layer_factory.hpp:77] Creating layer inception_4d/5x5
I1129 22:09:37.457788  5621 net.cpp:94] Creating Layer inception_4d/5x5
I1129 22:09:37.457800  5621 net.cpp:435] inception_4d/5x5 <- inception_4d/5x5_reduce
I1129 22:09:37.457820  5621 net.cpp:409] inception_4d/5x5 -> inception_4d/5x5
I1129 22:09:37.462852  5621 net.cpp:144] Setting up inception_4d/5x5
I1129 22:09:37.462873  5621 net.cpp:151] Top shape: 32 64 14 14 (401408)
I1129 22:09:37.462884  5621 net.cpp:159] Memory required for data: 1512063748
I1129 22:09:37.462901  5621 layer_factory.hpp:77] Creating layer inception_4d/relu_5x5
I1129 22:09:37.462916  5621 net.cpp:94] Creating Layer inception_4d/relu_5x5
I1129 22:09:37.462929  5621 net.cpp:435] inception_4d/relu_5x5 <- inception_4d/5x5
I1129 22:09:37.462942  5621 net.cpp:396] inception_4d/relu_5x5 -> inception_4d/5x5 (in-place)
I1129 22:09:37.462960  5621 net.cpp:144] Setting up inception_4d/relu_5x5
I1129 22:09:37.463006  5621 net.cpp:151] Top shape: 32 64 14 14 (401408)
I1129 22:09:37.463013  5621 net.cpp:159] Memory required for data: 1513669380
I1129 22:09:37.463021  5621 layer_factory.hpp:77] Creating layer inception_4d/pool
I1129 22:09:37.463032  5621 net.cpp:94] Creating Layer inception_4d/pool
I1129 22:09:37.463039  5621 net.cpp:435] inception_4d/pool <- inception_4c/output_inception_4c/output_0_split_3
I1129 22:09:37.463052  5621 net.cpp:409] inception_4d/pool -> inception_4d/pool
I1129 22:09:37.463110  5621 net.cpp:144] Setting up inception_4d/pool
I1129 22:09:37.463120  5621 net.cpp:151] Top shape: 32 512 14 14 (3211264)
I1129 22:09:37.463127  5621 net.cpp:159] Memory required for data: 1526514436
I1129 22:09:37.463135  5621 layer_factory.hpp:77] Creating layer inception_4d/pool_proj
I1129 22:09:37.463150  5621 net.cpp:94] Creating Layer inception_4d/pool_proj
I1129 22:09:37.463158  5621 net.cpp:435] inception_4d/pool_proj <- inception_4d/pool
I1129 22:09:37.463168  5621 net.cpp:409] inception_4d/pool_proj -> inception_4d/pool_proj
I1129 22:09:37.468999  5621 net.cpp:144] Setting up inception_4d/pool_proj
I1129 22:09:37.469013  5621 net.cpp:151] Top shape: 32 64 14 14 (401408)
I1129 22:09:37.469022  5621 net.cpp:159] Memory required for data: 1528120068
I1129 22:09:37.469033  5621 layer_factory.hpp:77] Creating layer inception_4d/relu_pool_proj
I1129 22:09:37.469043  5621 net.cpp:94] Creating Layer inception_4d/relu_pool_proj
I1129 22:09:37.469050  5621 net.cpp:435] inception_4d/relu_pool_proj <- inception_4d/pool_proj
I1129 22:09:37.469061  5621 net.cpp:396] inception_4d/relu_pool_proj -> inception_4d/pool_proj (in-place)
I1129 22:09:37.469074  5621 net.cpp:144] Setting up inception_4d/relu_pool_proj
I1129 22:09:37.469082  5621 net.cpp:151] Top shape: 32 64 14 14 (401408)
I1129 22:09:37.469089  5621 net.cpp:159] Memory required for data: 1529725700
I1129 22:09:37.469096  5621 layer_factory.hpp:77] Creating layer inception_4d/output
I1129 22:09:37.469106  5621 net.cpp:94] Creating Layer inception_4d/output
I1129 22:09:37.469113  5621 net.cpp:435] inception_4d/output <- inception_4d/1x1
I1129 22:09:37.469122  5621 net.cpp:435] inception_4d/output <- inception_4d/3x3
I1129 22:09:37.469130  5621 net.cpp:435] inception_4d/output <- inception_4d/5x5
I1129 22:09:37.469138  5621 net.cpp:435] inception_4d/output <- inception_4d/pool_proj
I1129 22:09:37.469149  5621 net.cpp:409] inception_4d/output -> inception_4d/output
I1129 22:09:37.469187  5621 net.cpp:144] Setting up inception_4d/output
I1129 22:09:37.469197  5621 net.cpp:151] Top shape: 32 528 14 14 (3311616)
I1129 22:09:37.469203  5621 net.cpp:159] Memory required for data: 1542972164
I1129 22:09:37.469210  5621 layer_factory.hpp:77] Creating layer inception_4d/output_inception_4d/output_0_split
I1129 22:09:37.469223  5621 net.cpp:94] Creating Layer inception_4d/output_inception_4d/output_0_split
I1129 22:09:37.469230  5621 net.cpp:435] inception_4d/output_inception_4d/output_0_split <- inception_4d/output
I1129 22:09:37.469239  5621 net.cpp:409] inception_4d/output_inception_4d/output_0_split -> inception_4d/output_inception_4d/output_0_split_0
I1129 22:09:37.469250  5621 net.cpp:409] inception_4d/output_inception_4d/output_0_split -> inception_4d/output_inception_4d/output_0_split_1
I1129 22:09:37.469264  5621 net.cpp:409] inception_4d/output_inception_4d/output_0_split -> inception_4d/output_inception_4d/output_0_split_2
I1129 22:09:37.469275  5621 net.cpp:409] inception_4d/output_inception_4d/output_0_split -> inception_4d/output_inception_4d/output_0_split_3
I1129 22:09:37.469286  5621 net.cpp:409] inception_4d/output_inception_4d/output_0_split -> inception_4d/output_inception_4d/output_0_split_4
I1129 22:09:37.469396  5621 net.cpp:144] Setting up inception_4d/output_inception_4d/output_0_split
I1129 22:09:37.469406  5621 net.cpp:151] Top shape: 32 528 14 14 (3311616)
I1129 22:09:37.469415  5621 net.cpp:151] Top shape: 32 528 14 14 (3311616)
I1129 22:09:37.469424  5621 net.cpp:151] Top shape: 32 528 14 14 (3311616)
I1129 22:09:37.469445  5621 net.cpp:151] Top shape: 32 528 14 14 (3311616)
I1129 22:09:37.469455  5621 net.cpp:151] Top shape: 32 528 14 14 (3311616)
I1129 22:09:37.469461  5621 net.cpp:159] Memory required for data: 1609204484
I1129 22:09:37.469468  5621 layer_factory.hpp:77] Creating layer loss2/ave_pool
I1129 22:09:37.469480  5621 net.cpp:94] Creating Layer loss2/ave_pool
I1129 22:09:37.469487  5621 net.cpp:435] loss2/ave_pool <- inception_4d/output_inception_4d/output_0_split_0
I1129 22:09:37.469497  5621 net.cpp:409] loss2/ave_pool -> loss2/ave_pool
I1129 22:09:37.469534  5621 net.cpp:144] Setting up loss2/ave_pool
I1129 22:09:37.469544  5621 net.cpp:151] Top shape: 32 528 4 4 (270336)
I1129 22:09:37.469552  5621 net.cpp:159] Memory required for data: 1610285828
I1129 22:09:37.469558  5621 layer_factory.hpp:77] Creating layer loss2/conv
I1129 22:09:37.469571  5621 net.cpp:94] Creating Layer loss2/conv
I1129 22:09:37.469579  5621 net.cpp:435] loss2/conv <- loss2/ave_pool
I1129 22:09:37.469591  5621 net.cpp:409] loss2/conv -> loss2/conv
I1129 22:09:37.476773  5621 net.cpp:144] Setting up loss2/conv
I1129 22:09:37.476790  5621 net.cpp:151] Top shape: 32 128 4 4 (65536)
I1129 22:09:37.476797  5621 net.cpp:159] Memory required for data: 1610547972
I1129 22:09:37.476809  5621 layer_factory.hpp:77] Creating layer loss2/relu_conv
I1129 22:09:37.476820  5621 net.cpp:94] Creating Layer loss2/relu_conv
I1129 22:09:37.476830  5621 net.cpp:435] loss2/relu_conv <- loss2/conv
I1129 22:09:37.476838  5621 net.cpp:396] loss2/relu_conv -> loss2/conv (in-place)
I1129 22:09:37.476852  5621 net.cpp:144] Setting up loss2/relu_conv
I1129 22:09:37.476861  5621 net.cpp:151] Top shape: 32 128 4 4 (65536)
I1129 22:09:37.476868  5621 net.cpp:159] Memory required for data: 1610810116
I1129 22:09:37.476876  5621 layer_factory.hpp:77] Creating layer loss2/fc
I1129 22:09:37.476889  5621 net.cpp:94] Creating Layer loss2/fc
I1129 22:09:37.476897  5621 net.cpp:435] loss2/fc <- loss2/conv
I1129 22:09:37.476908  5621 net.cpp:409] loss2/fc -> loss2/fc
I1129 22:09:37.499198  5621 net.cpp:144] Setting up loss2/fc
I1129 22:09:37.499243  5621 net.cpp:151] Top shape: 32 1024 (32768)
I1129 22:09:37.499250  5621 net.cpp:159] Memory required for data: 1610941188
I1129 22:09:37.499266  5621 layer_factory.hpp:77] Creating layer loss2/relu_fc
I1129 22:09:37.499282  5621 net.cpp:94] Creating Layer loss2/relu_fc
I1129 22:09:37.499294  5621 net.cpp:435] loss2/relu_fc <- loss2/fc
I1129 22:09:37.499306  5621 net.cpp:396] loss2/relu_fc -> loss2/fc (in-place)
I1129 22:09:37.499325  5621 net.cpp:144] Setting up loss2/relu_fc
I1129 22:09:37.499333  5621 net.cpp:151] Top shape: 32 1024 (32768)
I1129 22:09:37.499341  5621 net.cpp:159] Memory required for data: 1611072260
I1129 22:09:37.499347  5621 layer_factory.hpp:77] Creating layer loss2/drop_fc
I1129 22:09:37.499358  5621 net.cpp:94] Creating Layer loss2/drop_fc
I1129 22:09:37.499366  5621 net.cpp:435] loss2/drop_fc <- loss2/fc
I1129 22:09:37.499377  5621 net.cpp:396] loss2/drop_fc -> loss2/fc (in-place)
I1129 22:09:37.499411  5621 net.cpp:144] Setting up loss2/drop_fc
I1129 22:09:37.499421  5621 net.cpp:151] Top shape: 32 1024 (32768)
I1129 22:09:37.499428  5621 net.cpp:159] Memory required for data: 1611203332
I1129 22:09:37.499434  5621 layer_factory.hpp:77] Creating layer loss2/classifier_output
I1129 22:09:37.499449  5621 net.cpp:94] Creating Layer loss2/classifier_output
I1129 22:09:37.499457  5621 net.cpp:435] loss2/classifier_output <- loss2/fc
I1129 22:09:37.499469  5621 net.cpp:409] loss2/classifier_output -> loss2/classifier_output
I1129 22:09:37.499641  5621 net.cpp:144] Setting up loss2/classifier_output
I1129 22:09:37.499653  5621 net.cpp:151] Top shape: 32 2 (64)
I1129 22:09:37.499660  5621 net.cpp:159] Memory required for data: 1611203588
I1129 22:09:37.499671  5621 layer_factory.hpp:77] Creating layer loss2/loss
I1129 22:09:37.499681  5621 net.cpp:94] Creating Layer loss2/loss
I1129 22:09:37.499689  5621 net.cpp:435] loss2/loss <- loss2/classifier_output
I1129 22:09:37.499698  5621 net.cpp:435] loss2/loss <- label_train-data_1_split_1
I1129 22:09:37.499747  5621 net.cpp:409] loss2/loss -> loss2/loss
I1129 22:09:37.499760  5621 layer_factory.hpp:77] Creating layer loss2/loss
I1129 22:09:37.499897  5621 net.cpp:144] Setting up loss2/loss
I1129 22:09:37.499907  5621 net.cpp:151] Top shape: (1)
I1129 22:09:37.499914  5621 net.cpp:154]     with loss weight 0.3
I1129 22:09:37.499933  5621 net.cpp:159] Memory required for data: 1611203592
I1129 22:09:37.499939  5621 layer_factory.hpp:77] Creating layer inception_4e/1x1
I1129 22:09:37.499956  5621 net.cpp:94] Creating Layer inception_4e/1x1
I1129 22:09:37.499964  5621 net.cpp:435] inception_4e/1x1 <- inception_4d/output_inception_4d/output_0_split_1
I1129 22:09:37.499975  5621 net.cpp:409] inception_4e/1x1 -> inception_4e/1x1
I1129 22:09:37.510161  5621 net.cpp:144] Setting up inception_4e/1x1
I1129 22:09:37.510191  5621 net.cpp:151] Top shape: 32 256 14 14 (1605632)
I1129 22:09:37.510203  5621 net.cpp:159] Memory required for data: 1617626120
I1129 22:09:37.510221  5621 layer_factory.hpp:77] Creating layer inception_4e/relu_1x1
I1129 22:09:37.510239  5621 net.cpp:94] Creating Layer inception_4e/relu_1x1
I1129 22:09:37.510257  5621 net.cpp:435] inception_4e/relu_1x1 <- inception_4e/1x1
I1129 22:09:37.510267  5621 net.cpp:396] inception_4e/relu_1x1 -> inception_4e/1x1 (in-place)
I1129 22:09:37.510282  5621 net.cpp:144] Setting up inception_4e/relu_1x1
I1129 22:09:37.510291  5621 net.cpp:151] Top shape: 32 256 14 14 (1605632)
I1129 22:09:37.510298  5621 net.cpp:159] Memory required for data: 1624048648
I1129 22:09:37.510305  5621 layer_factory.hpp:77] Creating layer inception_4e/3x3_reduce
I1129 22:09:37.510321  5621 net.cpp:94] Creating Layer inception_4e/3x3_reduce
I1129 22:09:37.510329  5621 net.cpp:435] inception_4e/3x3_reduce <- inception_4d/output_inception_4d/output_0_split_2
I1129 22:09:37.510342  5621 net.cpp:409] inception_4e/3x3_reduce -> inception_4e/3x3_reduce
I1129 22:09:37.518790  5621 net.cpp:144] Setting up inception_4e/3x3_reduce
I1129 22:09:37.518820  5621 net.cpp:151] Top shape: 32 160 14 14 (1003520)
I1129 22:09:37.518831  5621 net.cpp:159] Memory required for data: 1628062728
I1129 22:09:37.518851  5621 layer_factory.hpp:77] Creating layer inception_4e/relu_3x3_reduce
I1129 22:09:37.518869  5621 net.cpp:94] Creating Layer inception_4e/relu_3x3_reduce
I1129 22:09:37.518887  5621 net.cpp:435] inception_4e/relu_3x3_reduce <- inception_4e/3x3_reduce
I1129 22:09:37.518898  5621 net.cpp:396] inception_4e/relu_3x3_reduce -> inception_4e/3x3_reduce (in-place)
I1129 22:09:37.518910  5621 net.cpp:144] Setting up inception_4e/relu_3x3_reduce
I1129 22:09:37.518919  5621 net.cpp:151] Top shape: 32 160 14 14 (1003520)
I1129 22:09:37.518928  5621 net.cpp:159] Memory required for data: 1632076808
I1129 22:09:37.518934  5621 layer_factory.hpp:77] Creating layer inception_4e/3x3
I1129 22:09:37.518950  5621 net.cpp:94] Creating Layer inception_4e/3x3
I1129 22:09:37.518959  5621 net.cpp:435] inception_4e/3x3 <- inception_4e/3x3_reduce
I1129 22:09:37.518970  5621 net.cpp:409] inception_4e/3x3 -> inception_4e/3x3
I1129 22:09:37.545280  5621 net.cpp:144] Setting up inception_4e/3x3
I1129 22:09:37.545310  5621 net.cpp:151] Top shape: 32 320 14 14 (2007040)
I1129 22:09:37.545321  5621 net.cpp:159] Memory required for data: 1640104968
I1129 22:09:37.545342  5621 layer_factory.hpp:77] Creating layer inception_4e/relu_3x3
I1129 22:09:37.545362  5621 net.cpp:94] Creating Layer inception_4e/relu_3x3
I1129 22:09:37.545382  5621 net.cpp:435] inception_4e/relu_3x3 <- inception_4e/3x3
I1129 22:09:37.545392  5621 net.cpp:396] inception_4e/relu_3x3 -> inception_4e/3x3 (in-place)
I1129 22:09:37.545405  5621 net.cpp:144] Setting up inception_4e/relu_3x3
I1129 22:09:37.545414  5621 net.cpp:151] Top shape: 32 320 14 14 (2007040)
I1129 22:09:37.545421  5621 net.cpp:159] Memory required for data: 1648133128
I1129 22:09:37.545428  5621 layer_factory.hpp:77] Creating layer inception_4e/5x5_reduce
I1129 22:09:37.545445  5621 net.cpp:94] Creating Layer inception_4e/5x5_reduce
I1129 22:09:37.545454  5621 net.cpp:435] inception_4e/5x5_reduce <- inception_4d/output_inception_4d/output_0_split_3
I1129 22:09:37.545482  5621 net.cpp:409] inception_4e/5x5_reduce -> inception_4e/5x5_reduce
I1129 22:09:37.550278  5621 net.cpp:144] Setting up inception_4e/5x5_reduce
I1129 22:09:37.550298  5621 net.cpp:151] Top shape: 32 32 14 14 (200704)
I1129 22:09:37.550309  5621 net.cpp:159] Memory required for data: 1648935944
I1129 22:09:37.550326  5621 layer_factory.hpp:77] Creating layer inception_4e/relu_5x5_reduce
I1129 22:09:37.550340  5621 net.cpp:94] Creating Layer inception_4e/relu_5x5_reduce
I1129 22:09:37.550353  5621 net.cpp:435] inception_4e/relu_5x5_reduce <- inception_4e/5x5_reduce
I1129 22:09:37.550366  5621 net.cpp:396] inception_4e/relu_5x5_reduce -> inception_4e/5x5_reduce (in-place)
I1129 22:09:37.550384  5621 net.cpp:144] Setting up inception_4e/relu_5x5_reduce
I1129 22:09:37.550398  5621 net.cpp:151] Top shape: 32 32 14 14 (200704)
I1129 22:09:37.550408  5621 net.cpp:159] Memory required for data: 1649738760
I1129 22:09:37.550420  5621 layer_factory.hpp:77] Creating layer inception_4e/5x5
I1129 22:09:37.550483  5621 net.cpp:94] Creating Layer inception_4e/5x5
I1129 22:09:37.550492  5621 net.cpp:435] inception_4e/5x5 <- inception_4e/5x5_reduce
I1129 22:09:37.550503  5621 net.cpp:409] inception_4e/5x5 -> inception_4e/5x5
I1129 22:09:37.557826  5621 net.cpp:144] Setting up inception_4e/5x5
I1129 22:09:37.557847  5621 net.cpp:151] Top shape: 32 128 14 14 (802816)
I1129 22:09:37.557857  5621 net.cpp:159] Memory required for data: 1652950024
I1129 22:09:37.557874  5621 layer_factory.hpp:77] Creating layer inception_4e/relu_5x5
I1129 22:09:37.557888  5621 net.cpp:94] Creating Layer inception_4e/relu_5x5
I1129 22:09:37.557900  5621 net.cpp:435] inception_4e/relu_5x5 <- inception_4e/5x5
I1129 22:09:37.557916  5621 net.cpp:396] inception_4e/relu_5x5 -> inception_4e/5x5 (in-place)
I1129 22:09:37.557936  5621 net.cpp:144] Setting up inception_4e/relu_5x5
I1129 22:09:37.557945  5621 net.cpp:151] Top shape: 32 128 14 14 (802816)
I1129 22:09:37.557952  5621 net.cpp:159] Memory required for data: 1656161288
I1129 22:09:37.557960  5621 layer_factory.hpp:77] Creating layer inception_4e/pool
I1129 22:09:37.557971  5621 net.cpp:94] Creating Layer inception_4e/pool
I1129 22:09:37.557978  5621 net.cpp:435] inception_4e/pool <- inception_4d/output_inception_4d/output_0_split_4
I1129 22:09:37.557991  5621 net.cpp:409] inception_4e/pool -> inception_4e/pool
I1129 22:09:37.558049  5621 net.cpp:144] Setting up inception_4e/pool
I1129 22:09:37.558059  5621 net.cpp:151] Top shape: 32 528 14 14 (3311616)
I1129 22:09:37.558066  5621 net.cpp:159] Memory required for data: 1669407752
I1129 22:09:37.558073  5621 layer_factory.hpp:77] Creating layer inception_4e/pool_proj
I1129 22:09:37.558087  5621 net.cpp:94] Creating Layer inception_4e/pool_proj
I1129 22:09:37.558095  5621 net.cpp:435] inception_4e/pool_proj <- inception_4e/pool
I1129 22:09:37.558105  5621 net.cpp:409] inception_4e/pool_proj -> inception_4e/pool_proj
I1129 22:09:37.565043  5621 net.cpp:144] Setting up inception_4e/pool_proj
I1129 22:09:37.565065  5621 net.cpp:151] Top shape: 32 128 14 14 (802816)
I1129 22:09:37.565076  5621 net.cpp:159] Memory required for data: 1672619016
I1129 22:09:37.565093  5621 layer_factory.hpp:77] Creating layer inception_4e/relu_pool_proj
I1129 22:09:37.565107  5621 net.cpp:94] Creating Layer inception_4e/relu_pool_proj
I1129 22:09:37.565119  5621 net.cpp:435] inception_4e/relu_pool_proj <- inception_4e/pool_proj
I1129 22:09:37.565134  5621 net.cpp:396] inception_4e/relu_pool_proj -> inception_4e/pool_proj (in-place)
I1129 22:09:37.565155  5621 net.cpp:144] Setting up inception_4e/relu_pool_proj
I1129 22:09:37.565163  5621 net.cpp:151] Top shape: 32 128 14 14 (802816)
I1129 22:09:37.565171  5621 net.cpp:159] Memory required for data: 1675830280
I1129 22:09:37.565177  5621 layer_factory.hpp:77] Creating layer inception_4e/output
I1129 22:09:37.565189  5621 net.cpp:94] Creating Layer inception_4e/output
I1129 22:09:37.565196  5621 net.cpp:435] inception_4e/output <- inception_4e/1x1
I1129 22:09:37.565220  5621 net.cpp:435] inception_4e/output <- inception_4e/3x3
I1129 22:09:37.565228  5621 net.cpp:435] inception_4e/output <- inception_4e/5x5
I1129 22:09:37.565237  5621 net.cpp:435] inception_4e/output <- inception_4e/pool_proj
I1129 22:09:37.565246  5621 net.cpp:409] inception_4e/output -> inception_4e/output
I1129 22:09:37.565286  5621 net.cpp:144] Setting up inception_4e/output
I1129 22:09:37.565296  5621 net.cpp:151] Top shape: 32 832 14 14 (5218304)
I1129 22:09:37.565304  5621 net.cpp:159] Memory required for data: 1696703496
I1129 22:09:37.565310  5621 layer_factory.hpp:77] Creating layer pool4/3x3_s2
I1129 22:09:37.565320  5621 net.cpp:94] Creating Layer pool4/3x3_s2
I1129 22:09:37.565327  5621 net.cpp:435] pool4/3x3_s2 <- inception_4e/output
I1129 22:09:37.565340  5621 net.cpp:409] pool4/3x3_s2 -> pool4/3x3_s2
I1129 22:09:37.565397  5621 net.cpp:144] Setting up pool4/3x3_s2
I1129 22:09:37.565407  5621 net.cpp:151] Top shape: 32 832 7 7 (1304576)
I1129 22:09:37.565413  5621 net.cpp:159] Memory required for data: 1701921800
I1129 22:09:37.565420  5621 layer_factory.hpp:77] Creating layer pool4/3x3_s2_pool4/3x3_s2_0_split
I1129 22:09:37.565431  5621 net.cpp:94] Creating Layer pool4/3x3_s2_pool4/3x3_s2_0_split
I1129 22:09:37.565439  5621 net.cpp:435] pool4/3x3_s2_pool4/3x3_s2_0_split <- pool4/3x3_s2
I1129 22:09:37.565450  5621 net.cpp:409] pool4/3x3_s2_pool4/3x3_s2_0_split -> pool4/3x3_s2_pool4/3x3_s2_0_split_0
I1129 22:09:37.565461  5621 net.cpp:409] pool4/3x3_s2_pool4/3x3_s2_0_split -> pool4/3x3_s2_pool4/3x3_s2_0_split_1
I1129 22:09:37.565474  5621 net.cpp:409] pool4/3x3_s2_pool4/3x3_s2_0_split -> pool4/3x3_s2_pool4/3x3_s2_0_split_2
I1129 22:09:37.565485  5621 net.cpp:409] pool4/3x3_s2_pool4/3x3_s2_0_split -> pool4/3x3_s2_pool4/3x3_s2_0_split_3
I1129 22:09:37.565577  5621 net.cpp:144] Setting up pool4/3x3_s2_pool4/3x3_s2_0_split
I1129 22:09:37.565588  5621 net.cpp:151] Top shape: 32 832 7 7 (1304576)
I1129 22:09:37.565598  5621 net.cpp:151] Top shape: 32 832 7 7 (1304576)
I1129 22:09:37.565606  5621 net.cpp:151] Top shape: 32 832 7 7 (1304576)
I1129 22:09:37.565614  5621 net.cpp:151] Top shape: 32 832 7 7 (1304576)
I1129 22:09:37.565621  5621 net.cpp:159] Memory required for data: 1722795016
I1129 22:09:37.565629  5621 layer_factory.hpp:77] Creating layer inception_5a/1x1
I1129 22:09:37.565640  5621 net.cpp:94] Creating Layer inception_5a/1x1
I1129 22:09:37.565649  5621 net.cpp:435] inception_5a/1x1 <- pool4/3x3_s2_pool4/3x3_s2_0_split_0
I1129 22:09:37.565660  5621 net.cpp:409] inception_5a/1x1 -> inception_5a/1x1
I1129 22:09:37.573842  5621 net.cpp:144] Setting up inception_5a/1x1
I1129 22:09:37.573865  5621 net.cpp:151] Top shape: 32 256 7 7 (401408)
I1129 22:09:37.573876  5621 net.cpp:159] Memory required for data: 1724400648
I1129 22:09:37.573894  5621 layer_factory.hpp:77] Creating layer inception_5a/relu_1x1
I1129 22:09:37.573909  5621 net.cpp:94] Creating Layer inception_5a/relu_1x1
I1129 22:09:37.573921  5621 net.cpp:435] inception_5a/relu_1x1 <- inception_5a/1x1
I1129 22:09:37.573940  5621 net.cpp:396] inception_5a/relu_1x1 -> inception_5a/1x1 (in-place)
I1129 22:09:37.573957  5621 net.cpp:144] Setting up inception_5a/relu_1x1
I1129 22:09:37.573971  5621 net.cpp:151] Top shape: 32 256 7 7 (401408)
I1129 22:09:37.573982  5621 net.cpp:159] Memory required for data: 1726006280
I1129 22:09:37.573992  5621 layer_factory.hpp:77] Creating layer inception_5a/3x3_reduce
I1129 22:09:37.574018  5621 net.cpp:94] Creating Layer inception_5a/3x3_reduce
I1129 22:09:37.574026  5621 net.cpp:435] inception_5a/3x3_reduce <- pool4/3x3_s2_pool4/3x3_s2_0_split_1
I1129 22:09:37.574036  5621 net.cpp:409] inception_5a/3x3_reduce -> inception_5a/3x3_reduce
I1129 22:09:37.580852  5621 net.cpp:144] Setting up inception_5a/3x3_reduce
I1129 22:09:37.580890  5621 net.cpp:151] Top shape: 32 160 7 7 (250880)
I1129 22:09:37.580902  5621 net.cpp:159] Memory required for data: 1727009800
I1129 22:09:37.580925  5621 layer_factory.hpp:77] Creating layer inception_5a/relu_3x3_reduce
I1129 22:09:37.580945  5621 net.cpp:94] Creating Layer inception_5a/relu_3x3_reduce
I1129 22:09:37.580989  5621 net.cpp:435] inception_5a/relu_3x3_reduce <- inception_5a/3x3_reduce
I1129 22:09:37.581007  5621 net.cpp:396] inception_5a/relu_3x3_reduce -> inception_5a/3x3_reduce (in-place)
I1129 22:09:37.581029  5621 net.cpp:144] Setting up inception_5a/relu_3x3_reduce
I1129 22:09:37.581044  5621 net.cpp:151] Top shape: 32 160 7 7 (250880)
I1129 22:09:37.581054  5621 net.cpp:159] Memory required for data: 1728013320
I1129 22:09:37.581065  5621 layer_factory.hpp:77] Creating layer inception_5a/3x3
I1129 22:09:37.581092  5621 net.cpp:94] Creating Layer inception_5a/3x3
I1129 22:09:37.581100  5621 net.cpp:435] inception_5a/3x3 <- inception_5a/3x3_reduce
I1129 22:09:37.581112  5621 net.cpp:409] inception_5a/3x3 -> inception_5a/3x3
I1129 22:09:37.599153  5621 net.cpp:144] Setting up inception_5a/3x3
I1129 22:09:37.599189  5621 net.cpp:151] Top shape: 32 320 7 7 (501760)
I1129 22:09:37.599200  5621 net.cpp:159] Memory required for data: 1730020360
I1129 22:09:37.599222  5621 layer_factory.hpp:77] Creating layer inception_5a/relu_3x3
I1129 22:09:37.599246  5621 net.cpp:94] Creating Layer inception_5a/relu_3x3
I1129 22:09:37.599256  5621 net.cpp:435] inception_5a/relu_3x3 <- inception_5a/3x3
I1129 22:09:37.599267  5621 net.cpp:396] inception_5a/relu_3x3 -> inception_5a/3x3 (in-place)
I1129 22:09:37.599283  5621 net.cpp:144] Setting up inception_5a/relu_3x3
I1129 22:09:37.599292  5621 net.cpp:151] Top shape: 32 320 7 7 (501760)
I1129 22:09:37.599299  5621 net.cpp:159] Memory required for data: 1732027400
I1129 22:09:37.599306  5621 layer_factory.hpp:77] Creating layer inception_5a/5x5_reduce
I1129 22:09:37.599323  5621 net.cpp:94] Creating Layer inception_5a/5x5_reduce
I1129 22:09:37.599334  5621 net.cpp:435] inception_5a/5x5_reduce <- pool4/3x3_s2_pool4/3x3_s2_0_split_2
I1129 22:09:37.599345  5621 net.cpp:409] inception_5a/5x5_reduce -> inception_5a/5x5_reduce
I1129 22:09:37.603173  5621 net.cpp:144] Setting up inception_5a/5x5_reduce
I1129 22:09:37.603185  5621 net.cpp:151] Top shape: 32 32 7 7 (50176)
I1129 22:09:37.603193  5621 net.cpp:159] Memory required for data: 1732228104
I1129 22:09:37.603204  5621 layer_factory.hpp:77] Creating layer inception_5a/relu_5x5_reduce
I1129 22:09:37.603214  5621 net.cpp:94] Creating Layer inception_5a/relu_5x5_reduce
I1129 22:09:37.603221  5621 net.cpp:435] inception_5a/relu_5x5_reduce <- inception_5a/5x5_reduce
I1129 22:09:37.603232  5621 net.cpp:396] inception_5a/relu_5x5_reduce -> inception_5a/5x5_reduce (in-place)
I1129 22:09:37.603245  5621 net.cpp:144] Setting up inception_5a/relu_5x5_reduce
I1129 22:09:37.603253  5621 net.cpp:151] Top shape: 32 32 7 7 (50176)
I1129 22:09:37.603260  5621 net.cpp:159] Memory required for data: 1732428808
I1129 22:09:37.603267  5621 layer_factory.hpp:77] Creating layer inception_5a/5x5
I1129 22:09:37.603279  5621 net.cpp:94] Creating Layer inception_5a/5x5
I1129 22:09:37.603287  5621 net.cpp:435] inception_5a/5x5 <- inception_5a/5x5_reduce
I1129 22:09:37.603299  5621 net.cpp:409] inception_5a/5x5 -> inception_5a/5x5
I1129 22:09:37.607208  5621 net.cpp:144] Setting up inception_5a/5x5
I1129 22:09:37.607228  5621 net.cpp:151] Top shape: 32 128 7 7 (200704)
I1129 22:09:37.607239  5621 net.cpp:159] Memory required for data: 1733231624
I1129 22:09:37.607254  5621 layer_factory.hpp:77] Creating layer inception_5a/relu_5x5
I1129 22:09:37.607269  5621 net.cpp:94] Creating Layer inception_5a/relu_5x5
I1129 22:09:37.607280  5621 net.cpp:435] inception_5a/relu_5x5 <- inception_5a/5x5
I1129 22:09:37.607295  5621 net.cpp:396] inception_5a/relu_5x5 -> inception_5a/5x5 (in-place)
I1129 22:09:37.607312  5621 net.cpp:144] Setting up inception_5a/relu_5x5
I1129 22:09:37.607326  5621 net.cpp:151] Top shape: 32 128 7 7 (200704)
I1129 22:09:37.607337  5621 net.cpp:159] Memory required for data: 1734034440
I1129 22:09:37.607348  5621 layer_factory.hpp:77] Creating layer inception_5a/pool
I1129 22:09:37.607363  5621 net.cpp:94] Creating Layer inception_5a/pool
I1129 22:09:37.607375  5621 net.cpp:435] inception_5a/pool <- pool4/3x3_s2_pool4/3x3_s2_0_split_3
I1129 22:09:37.607415  5621 net.cpp:409] inception_5a/pool -> inception_5a/pool
I1129 22:09:37.607476  5621 net.cpp:144] Setting up inception_5a/pool
I1129 22:09:37.607486  5621 net.cpp:151] Top shape: 32 832 7 7 (1304576)
I1129 22:09:37.607493  5621 net.cpp:159] Memory required for data: 1739252744
I1129 22:09:37.607501  5621 layer_factory.hpp:77] Creating layer inception_5a/pool_proj
I1129 22:09:37.607517  5621 net.cpp:94] Creating Layer inception_5a/pool_proj
I1129 22:09:37.607524  5621 net.cpp:435] inception_5a/pool_proj <- inception_5a/pool
I1129 22:09:37.607535  5621 net.cpp:409] inception_5a/pool_proj -> inception_5a/pool_proj
I1129 22:09:37.613831  5621 net.cpp:144] Setting up inception_5a/pool_proj
I1129 22:09:37.613857  5621 net.cpp:151] Top shape: 32 128 7 7 (200704)
I1129 22:09:37.613864  5621 net.cpp:159] Memory required for data: 1740055560
I1129 22:09:37.613879  5621 layer_factory.hpp:77] Creating layer inception_5a/relu_pool_proj
I1129 22:09:37.613893  5621 net.cpp:94] Creating Layer inception_5a/relu_pool_proj
I1129 22:09:37.613903  5621 net.cpp:435] inception_5a/relu_pool_proj <- inception_5a/pool_proj
I1129 22:09:37.613914  5621 net.cpp:396] inception_5a/relu_pool_proj -> inception_5a/pool_proj (in-place)
I1129 22:09:37.613929  5621 net.cpp:144] Setting up inception_5a/relu_pool_proj
I1129 22:09:37.613939  5621 net.cpp:151] Top shape: 32 128 7 7 (200704)
I1129 22:09:37.613945  5621 net.cpp:159] Memory required for data: 1740858376
I1129 22:09:37.613952  5621 layer_factory.hpp:77] Creating layer inception_5a/output
I1129 22:09:37.613962  5621 net.cpp:94] Creating Layer inception_5a/output
I1129 22:09:37.613970  5621 net.cpp:435] inception_5a/output <- inception_5a/1x1
I1129 22:09:37.613979  5621 net.cpp:435] inception_5a/output <- inception_5a/3x3
I1129 22:09:37.613987  5621 net.cpp:435] inception_5a/output <- inception_5a/5x5
I1129 22:09:37.613996  5621 net.cpp:435] inception_5a/output <- inception_5a/pool_proj
I1129 22:09:37.614006  5621 net.cpp:409] inception_5a/output -> inception_5a/output
I1129 22:09:37.614050  5621 net.cpp:144] Setting up inception_5a/output
I1129 22:09:37.614060  5621 net.cpp:151] Top shape: 32 832 7 7 (1304576)
I1129 22:09:37.614068  5621 net.cpp:159] Memory required for data: 1746076680
I1129 22:09:37.614074  5621 layer_factory.hpp:77] Creating layer inception_5a/output_inception_5a/output_0_split
I1129 22:09:37.614086  5621 net.cpp:94] Creating Layer inception_5a/output_inception_5a/output_0_split
I1129 22:09:37.614094  5621 net.cpp:435] inception_5a/output_inception_5a/output_0_split <- inception_5a/output
I1129 22:09:37.614104  5621 net.cpp:409] inception_5a/output_inception_5a/output_0_split -> inception_5a/output_inception_5a/output_0_split_0
I1129 22:09:37.614116  5621 net.cpp:409] inception_5a/output_inception_5a/output_0_split -> inception_5a/output_inception_5a/output_0_split_1
I1129 22:09:37.614128  5621 net.cpp:409] inception_5a/output_inception_5a/output_0_split -> inception_5a/output_inception_5a/output_0_split_2
I1129 22:09:37.614140  5621 net.cpp:409] inception_5a/output_inception_5a/output_0_split -> inception_5a/output_inception_5a/output_0_split_3
I1129 22:09:37.614238  5621 net.cpp:144] Setting up inception_5a/output_inception_5a/output_0_split
I1129 22:09:37.614248  5621 net.cpp:151] Top shape: 32 832 7 7 (1304576)
I1129 22:09:37.614259  5621 net.cpp:151] Top shape: 32 832 7 7 (1304576)
I1129 22:09:37.614267  5621 net.cpp:151] Top shape: 32 832 7 7 (1304576)
I1129 22:09:37.614275  5621 net.cpp:151] Top shape: 32 832 7 7 (1304576)
I1129 22:09:37.614282  5621 net.cpp:159] Memory required for data: 1766949896
I1129 22:09:37.614289  5621 layer_factory.hpp:77] Creating layer inception_5b/1x1
I1129 22:09:37.614303  5621 net.cpp:94] Creating Layer inception_5b/1x1
I1129 22:09:37.614311  5621 net.cpp:435] inception_5b/1x1 <- inception_5a/output_inception_5a/output_0_split_0
I1129 22:09:37.614323  5621 net.cpp:409] inception_5b/1x1 -> inception_5b/1x1
I1129 22:09:37.624261  5621 net.cpp:144] Setting up inception_5b/1x1
I1129 22:09:37.624308  5621 net.cpp:151] Top shape: 32 384 7 7 (602112)
I1129 22:09:37.624320  5621 net.cpp:159] Memory required for data: 1769358344
I1129 22:09:37.624337  5621 layer_factory.hpp:77] Creating layer inception_5b/relu_1x1
I1129 22:09:37.624352  5621 net.cpp:94] Creating Layer inception_5b/relu_1x1
I1129 22:09:37.624367  5621 net.cpp:435] inception_5b/relu_1x1 <- inception_5b/1x1
I1129 22:09:37.624377  5621 net.cpp:396] inception_5b/relu_1x1 -> inception_5b/1x1 (in-place)
I1129 22:09:37.624388  5621 net.cpp:144] Setting up inception_5b/relu_1x1
I1129 22:09:37.624397  5621 net.cpp:151] Top shape: 32 384 7 7 (602112)
I1129 22:09:37.624404  5621 net.cpp:159] Memory required for data: 1771766792
I1129 22:09:37.624411  5621 layer_factory.hpp:77] Creating layer inception_5b/3x3_reduce
I1129 22:09:37.624425  5621 net.cpp:94] Creating Layer inception_5b/3x3_reduce
I1129 22:09:37.624434  5621 net.cpp:435] inception_5b/3x3_reduce <- inception_5a/output_inception_5a/output_0_split_1
I1129 22:09:37.624444  5621 net.cpp:409] inception_5b/3x3_reduce -> inception_5b/3x3_reduce
I1129 22:09:37.631964  5621 net.cpp:144] Setting up inception_5b/3x3_reduce
I1129 22:09:37.631994  5621 net.cpp:151] Top shape: 32 192 7 7 (301056)
I1129 22:09:37.632005  5621 net.cpp:159] Memory required for data: 1772971016
I1129 22:09:37.632024  5621 layer_factory.hpp:77] Creating layer inception_5b/relu_3x3_reduce
I1129 22:09:37.632042  5621 net.cpp:94] Creating Layer inception_5b/relu_3x3_reduce
I1129 22:09:37.632057  5621 net.cpp:435] inception_5b/relu_3x3_reduce <- inception_5b/3x3_reduce
I1129 22:09:37.632071  5621 net.cpp:396] inception_5b/relu_3x3_reduce -> inception_5b/3x3_reduce (in-place)
I1129 22:09:37.632091  5621 net.cpp:144] Setting up inception_5b/relu_3x3_reduce
I1129 22:09:37.632104  5621 net.cpp:151] Top shape: 32 192 7 7 (301056)
I1129 22:09:37.632115  5621 net.cpp:159] Memory required for data: 1774175240
I1129 22:09:37.632125  5621 layer_factory.hpp:77] Creating layer inception_5b/3x3
I1129 22:09:37.632145  5621 net.cpp:94] Creating Layer inception_5b/3x3
I1129 22:09:37.632158  5621 net.cpp:435] inception_5b/3x3 <- inception_5b/3x3_reduce
I1129 22:09:37.632177  5621 net.cpp:409] inception_5b/3x3 -> inception_5b/3x3
I1129 22:09:37.649292  5621 net.cpp:144] Setting up inception_5b/3x3
I1129 22:09:37.649317  5621 net.cpp:151] Top shape: 32 384 7 7 (602112)
I1129 22:09:37.649325  5621 net.cpp:159] Memory required for data: 1776583688
I1129 22:09:37.649338  5621 layer_factory.hpp:77] Creating layer inception_5b/relu_3x3
I1129 22:09:37.649353  5621 net.cpp:94] Creating Layer inception_5b/relu_3x3
I1129 22:09:37.649363  5621 net.cpp:435] inception_5b/relu_3x3 <- inception_5b/3x3
I1129 22:09:37.649372  5621 net.cpp:396] inception_5b/relu_3x3 -> inception_5b/3x3 (in-place)
I1129 22:09:37.649387  5621 net.cpp:144] Setting up inception_5b/relu_3x3
I1129 22:09:37.649396  5621 net.cpp:151] Top shape: 32 384 7 7 (602112)
I1129 22:09:37.649404  5621 net.cpp:159] Memory required for data: 1778992136
I1129 22:09:37.649410  5621 layer_factory.hpp:77] Creating layer inception_5b/5x5_reduce
I1129 22:09:37.649426  5621 net.cpp:94] Creating Layer inception_5b/5x5_reduce
I1129 22:09:37.649435  5621 net.cpp:435] inception_5b/5x5_reduce <- inception_5a/output_inception_5a/output_0_split_2
I1129 22:09:37.649448  5621 net.cpp:409] inception_5b/5x5_reduce -> inception_5b/5x5_reduce
I1129 22:09:37.652987  5621 net.cpp:144] Setting up inception_5b/5x5_reduce
I1129 22:09:37.653000  5621 net.cpp:151] Top shape: 32 48 7 7 (75264)
I1129 22:09:37.653007  5621 net.cpp:159] Memory required for data: 1779293192
I1129 22:09:37.653019  5621 layer_factory.hpp:77] Creating layer inception_5b/relu_5x5_reduce
I1129 22:09:37.653031  5621 net.cpp:94] Creating Layer inception_5b/relu_5x5_reduce
I1129 22:09:37.653039  5621 net.cpp:435] inception_5b/relu_5x5_reduce <- inception_5b/5x5_reduce
I1129 22:09:37.653049  5621 net.cpp:396] inception_5b/relu_5x5_reduce -> inception_5b/5x5_reduce (in-place)
I1129 22:09:37.653061  5621 net.cpp:144] Setting up inception_5b/relu_5x5_reduce
I1129 22:09:37.653087  5621 net.cpp:151] Top shape: 32 48 7 7 (75264)
I1129 22:09:37.653095  5621 net.cpp:159] Memory required for data: 1779594248
I1129 22:09:37.653102  5621 layer_factory.hpp:77] Creating layer inception_5b/5x5
I1129 22:09:37.653115  5621 net.cpp:94] Creating Layer inception_5b/5x5
I1129 22:09:37.653123  5621 net.cpp:435] inception_5b/5x5 <- inception_5b/5x5_reduce
I1129 22:09:37.653136  5621 net.cpp:409] inception_5b/5x5 -> inception_5b/5x5
I1129 22:09:37.657863  5621 net.cpp:144] Setting up inception_5b/5x5
I1129 22:09:37.657883  5621 net.cpp:151] Top shape: 32 128 7 7 (200704)
I1129 22:09:37.657894  5621 net.cpp:159] Memory required for data: 1780397064
I1129 22:09:37.657912  5621 layer_factory.hpp:77] Creating layer inception_5b/relu_5x5
I1129 22:09:37.657927  5621 net.cpp:94] Creating Layer inception_5b/relu_5x5
I1129 22:09:37.657938  5621 net.cpp:435] inception_5b/relu_5x5 <- inception_5b/5x5
I1129 22:09:37.657955  5621 net.cpp:396] inception_5b/relu_5x5 -> inception_5b/5x5 (in-place)
I1129 22:09:37.657974  5621 net.cpp:144] Setting up inception_5b/relu_5x5
I1129 22:09:37.657991  5621 net.cpp:151] Top shape: 32 128 7 7 (200704)
I1129 22:09:37.657999  5621 net.cpp:159] Memory required for data: 1781199880
I1129 22:09:37.658005  5621 layer_factory.hpp:77] Creating layer inception_5b/pool
I1129 22:09:37.658016  5621 net.cpp:94] Creating Layer inception_5b/pool
I1129 22:09:37.658025  5621 net.cpp:435] inception_5b/pool <- inception_5a/output_inception_5a/output_0_split_3
I1129 22:09:37.658036  5621 net.cpp:409] inception_5b/pool -> inception_5b/pool
I1129 22:09:37.658102  5621 net.cpp:144] Setting up inception_5b/pool
I1129 22:09:37.658113  5621 net.cpp:151] Top shape: 32 832 7 7 (1304576)
I1129 22:09:37.658119  5621 net.cpp:159] Memory required for data: 1786418184
I1129 22:09:37.658125  5621 layer_factory.hpp:77] Creating layer inception_5b/pool_proj
I1129 22:09:37.658139  5621 net.cpp:94] Creating Layer inception_5b/pool_proj
I1129 22:09:37.658148  5621 net.cpp:435] inception_5b/pool_proj <- inception_5b/pool
I1129 22:09:37.658159  5621 net.cpp:409] inception_5b/pool_proj -> inception_5b/pool_proj
I1129 22:09:37.663079  5621 net.cpp:144] Setting up inception_5b/pool_proj
I1129 22:09:37.663101  5621 net.cpp:151] Top shape: 32 128 7 7 (200704)
I1129 22:09:37.663112  5621 net.cpp:159] Memory required for data: 1787221000
I1129 22:09:37.663130  5621 layer_factory.hpp:77] Creating layer inception_5b/relu_pool_proj
I1129 22:09:37.663143  5621 net.cpp:94] Creating Layer inception_5b/relu_pool_proj
I1129 22:09:37.663156  5621 net.cpp:435] inception_5b/relu_pool_proj <- inception_5b/pool_proj
I1129 22:09:37.663172  5621 net.cpp:396] inception_5b/relu_pool_proj -> inception_5b/pool_proj (in-place)
I1129 22:09:37.663192  5621 net.cpp:144] Setting up inception_5b/relu_pool_proj
I1129 22:09:37.663205  5621 net.cpp:151] Top shape: 32 128 7 7 (200704)
I1129 22:09:37.663215  5621 net.cpp:159] Memory required for data: 1788023816
I1129 22:09:37.663226  5621 layer_factory.hpp:77] Creating layer inception_5b/output
I1129 22:09:37.663240  5621 net.cpp:94] Creating Layer inception_5b/output
I1129 22:09:37.663252  5621 net.cpp:435] inception_5b/output <- inception_5b/1x1
I1129 22:09:37.663265  5621 net.cpp:435] inception_5b/output <- inception_5b/3x3
I1129 22:09:37.663277  5621 net.cpp:435] inception_5b/output <- inception_5b/5x5
I1129 22:09:37.663290  5621 net.cpp:435] inception_5b/output <- inception_5b/pool_proj
I1129 22:09:37.663308  5621 net.cpp:409] inception_5b/output -> inception_5b/output
I1129 22:09:37.663353  5621 net.cpp:144] Setting up inception_5b/output
I1129 22:09:37.663363  5621 net.cpp:151] Top shape: 32 1024 7 7 (1605632)
I1129 22:09:37.663370  5621 net.cpp:159] Memory required for data: 1794446344
I1129 22:09:37.663378  5621 layer_factory.hpp:77] Creating layer pool5/7x7_s1
I1129 22:09:37.663389  5621 net.cpp:94] Creating Layer pool5/7x7_s1
I1129 22:09:37.663398  5621 net.cpp:435] pool5/7x7_s1 <- inception_5b/output
I1129 22:09:37.663408  5621 net.cpp:409] pool5/7x7_s1 -> pool5/7x7_s1
I1129 22:09:37.663462  5621 net.cpp:144] Setting up pool5/7x7_s1
I1129 22:09:37.663472  5621 net.cpp:151] Top shape: 32 1024 1 1 (32768)
I1129 22:09:37.663480  5621 net.cpp:159] Memory required for data: 1794577416
I1129 22:09:37.663486  5621 layer_factory.hpp:77] Creating layer pool5/drop_7x7_s1
I1129 22:09:37.663498  5621 net.cpp:94] Creating Layer pool5/drop_7x7_s1
I1129 22:09:37.663506  5621 net.cpp:435] pool5/drop_7x7_s1 <- pool5/7x7_s1
I1129 22:09:37.663516  5621 net.cpp:396] pool5/drop_7x7_s1 -> pool5/7x7_s1 (in-place)
I1129 22:09:37.663552  5621 net.cpp:144] Setting up pool5/drop_7x7_s1
I1129 22:09:37.663561  5621 net.cpp:151] Top shape: 32 1024 1 1 (32768)
I1129 22:09:37.663568  5621 net.cpp:159] Memory required for data: 1794708488
I1129 22:09:37.663575  5621 layer_factory.hpp:77] Creating layer loss3/classifier_output
I1129 22:09:37.663586  5621 net.cpp:94] Creating Layer loss3/classifier_output
I1129 22:09:37.663594  5621 net.cpp:435] loss3/classifier_output <- pool5/7x7_s1
I1129 22:09:37.663605  5621 net.cpp:409] loss3/classifier_output -> loss3/classifier_output
I1129 22:09:37.663801  5621 net.cpp:144] Setting up loss3/classifier_output
I1129 22:09:37.663811  5621 net.cpp:151] Top shape: 32 2 (64)
I1129 22:09:37.663818  5621 net.cpp:159] Memory required for data: 1794708744
I1129 22:09:37.663828  5621 layer_factory.hpp:77] Creating layer loss3/loss
I1129 22:09:37.663839  5621 net.cpp:94] Creating Layer loss3/loss
I1129 22:09:37.663846  5621 net.cpp:435] loss3/loss <- loss3/classifier_output
I1129 22:09:37.663856  5621 net.cpp:435] loss3/loss <- label_train-data_1_split_2
I1129 22:09:37.663864  5621 net.cpp:409] loss3/loss -> loss
…
I1129 22:09:37.670563  5621 net.cpp:323] The NetState phase (1) differed from the phase (0) specified by a rule in layer train-data
I1129 22:09:37.671901  5621 net.cpp:52] Initializing net from parameters:
state {
phase: TEST
}
layer {
name: "val-data"
type: "Data"
top: "data"
top: "label"
include {
phase: TEST
}
transform_param {
mirror: false
crop_size: 224
mean_file: "/media/myuser/120Gb/DIGITS/digits/jobs/20161129-185048-9470/mean.binaryproto"
}
data_param {
source: "/media/myuser/120Gb/DIGITS/digits/jobs/20161129-185048-9470/val_db"
batch_size: 16
backend: LMDB
}
}
layer {
name: "conv1/7x7_s2"
type: "Convolution"
bottom: "data"
top: "conv1/7x7_s2"
param {
lr_mult: 1
decay_mult: 1
}
param {
lr_mult: 2
decay_mult: 0
}
convolution_param {
num_output: 64
pad: 3
kernel_size: 7
stride: 2
weight_filler {
type: "xavier"
std: 0.1
}
bias_filler {
type: "constant"
value: 0.2
}
}
}
layer {
name: "conv1/relu_7x7"
type: "ReLU"
bottom: "conv1/7x7_s2"
top: "conv1/7x7_s2"
}
layer {
name: "pool1/3x3_s2"
type: "Pooling"
bottom: "conv1/7x7_s2"
top: "pool1/3x3_s2"
pooling_param {
pool: MAX
kernel_size: 3
stride: 2
}
}
layer {
name: "pool1/norm1"
type: "LRN"
bottom: "pool1/3x3_s2"
top: "pool1/norm1"
lrn_param {
local_size: 5
alpha: 0.0001
beta: 0.75
}
}
layer {
name: "conv2/3x3_reduce"
type: "Convolution"
bottom: "pool1/norm1"
top: "conv2/3x3_reduce"
param {
lr_mult: 1
decay_mult: 1
}
param {
lr_mult: 2
decay_mult: 0
}
convolution_param {
num_output: 64
kernel_size: 1
weight_filler {
type: "xavier"
std: 0.1
}
bias_filler {
type: "constant"
value: 0.2
}
}
}
layer {
name: "conv2/relu_3x3_reduce"
type: "ReLU"
bottom: "conv2/3x3_reduce"
top: "conv2/3x3_reduce"
}
layer {
name: "conv2/3x3"
type: "Convolution"
bottom: "conv2/3x3_reduce"
top: "conv2/3x3"
param {
lr_mult: 1
decay_mult: 1
}
param {
lr_mult: 2
decay_mult: 0
}
convolution_param {
num_output: 192
pad: 1
kernel_size: 3
weight_filler {
type: "xavier"
std: 0.03
}
bias_filler {
type: "constant"
value: 0.2
}
}
}
layer {
name: "conv2/relu_3x3"
type: "ReLU"
bottom: "conv2/3x3"
top: "conv2/3x3"
}
layer {
name: "conv2/norm2"
type: "LRN"
bottom: "conv2/3x3"
top: "conv2/norm2"
lrn_param {
local_size: 5
alpha: 0.0001
beta: 0.75
}
}
layer {
name: "pool2/3x3_s2"
type: "Pooling"
bottom: "conv2/norm2"
top: "pool2/3x3_s2"
pooling_param {
pool: MAX
kernel_size: 3
stride: 2
}
}
layer {
name: "inception_3a/1x1"
type: "Convolution"
bottom: "pool2/3x3_s2"
top: "inception_3a/1x1"
param {
lr_mult: 1
decay_mult: 1
}
param {
lr_mult: 2
decay_mult: 0
}
convolution_param {
num_output: 64
kernel_size: 1
weight_filler {
type: "xavier"
std: 0.03
}
bias_filler {
type: "constant"
value: 0.2
}
}
}
layer {
name: "inception_3a/relu_1x1"
type: "ReLU"
bottom: "inception_3a/1x1"
top: "inception_3a/1x1"
}
layer {
name: "inception_3a/3x3_reduce"
type: "Convolution"
bottom: "pool2/3x3_s2"
top: "inception_3a/3x3_reduce"
param {
lr_mult: 1
decay_mult: 1
}
param {
lr_mult: 2
decay_mult: 0
}
convolution_param {
num_output: 96
kernel_size: 1
weight_filler {
type: "xavier"
std: 0.09
}
bias_filler {
type: "constant"
value: 0.2
}
}
}
layer {
name: "inception_3a/relu_3x3_reduce"
type: "ReLU"
bottom: "inception_3a/3x3_reduce"
top: "inception_3a/3x3_reduce"
}
layer {
name: "inception_3a/3x3"
type: "Convolution"
bottom: "inception_3a/3x3_reduce"
top: "inception_3a/3x3"
param {
lr_mult: 1
decay_mult: 1
}
param {
lr_mult: 2
decay_mult: 0
}
convolution_param {
num_output: 128
pad: 1
kernel_size: 3
weight_filler {
type: "xavier"
std: 0.03
}
bias_filler {
type: "constant"
value: 0.2
}
}
}
layer {
name: "inception_3a/relu_3x3"
type: "ReLU"
bottom: "inception_3a/3x3"
top: "inception_3a/3x3"
}
layer {
name: "inception_3a/5x5_reduce"
type: "Convolution"
bottom: "pool2/3x3_s2"
top: "inception_3a/5x5_reduce"
param {
lr_mult: 1
decay_mult: 1
}
param {
lr_mult: 2
decay_mult: 0
}
convolution_param {
num_output: 16
kernel_size: 1
weight_filler {
type: "xavier"
std: 0.2
}
bias_filler {
type: "constant"
value: 0.2
}
}
}
layer {
name: "inception_3a/relu_5x5_reduce"
type: "ReLU"
bottom: "inception_3a/5x5_reduce"
top: "inception_3a/5x5_reduce"
}
layer {
name: "inception_3a/5x5"
type: "Convolution"
bottom: "inception_3a/5x5_reduce"
top: "inception_3a/5x5"
param {
lr_mult: 1
decay_mult: 1
}
param {
lr_mult: 2
decay_mult: 0
}
convolution_param {
num_output: 32
pad: 2
kernel_size: 5
weight_filler {
type: "xavier"
std: 0.03
}
bias_filler {
type: "constant"
value: 0.2
}
}
}
layer {
name: "inception_3a/relu_5x5"
type: "ReLU"
bottom: "inception_3a/5x5"
top: "inception_3a/5x5"
}
layer {
name: "inception_3a/pool"
type: "Pooling"
bottom: "pool2/3x3_s2"
top: "inception_3a/pool"
pooling_param {
pool: MAX
kernel_size: 3
stride: 1
pad: 1
}
}
layer {
name: "inception_3a/pool_proj"
type: "Convolution"
bottom: "inception_3a/pool"
top: "inception_3a/pool_proj"
param {
lr_mult: 1
decay_mult: 1
}
param {
lr_mult: 2
decay_mult: 0
}
convolution_param {
num_output: 32
kernel_size: 1
weight_filler {
type: "xavier"
std: 0.1
}
bias_filler {
type: "constant"
value: 0.2
}
}
}
layer {
name: "inception_3a/relu_pool_proj"
type: "ReLU"
bottom: "inception_3a/pool_proj"
top: "inception_3a/pool_proj"
}
layer {
name: "inception_3a/output"
type: "Concat"
bottom: "inception_3a/1x1"
bottom: "inception_3a/3x3"
bottom: "inception_3a/5x5"
bottom: "inception_3a/pool_proj"
top: "inception_3a/output"
}
layer {
name: "inception_3b/1x1"
type: "Convolution"
bottom: "inception_3a/output"
top: "inception_3b/1x1"
param {
lr_mult: 1
decay_mult: 1
}
param {
lr_mult: 2
decay_mult: 0
}
convolution_param {
num_output: 128
kernel_size: 1
weight_filler {
type: "xavier"
std: 0.03
}
bias_filler {
type: "constant"
value: 0.2
}
}
}
layer {
name: "inception_3b/relu_1x1"
type: "ReLU"
bottom: "inception_3b/1x1"
top: "inception_3b/1x1"
}
layer {
name: "inception_3b/3x3_reduce"
type: "Convolution"
bottom: "inception_3a/output"
top: "inception_3b/3x3_reduce"
param {
lr_mult: 1
decay_mult: 1
}
param {
lr_mult: 2
decay_mult: 0
}
convolution_param {
num_output: 128
kernel_size: 1
weight_filler {
type: "xavier"
std: 0.09
}
bias_filler {
type: "constant"
value: 0.2
}
}
}
layer {
name: "inception_3b/relu_3x3_reduce"
type: "ReLU"
bottom: "inception_3b/3x3_reduce"
top: "inception_3b/3x3_reduce"
}
layer {
name: "inception_3b/3x3"
type: "Convolution"
bottom: "inception_3b/3x3_reduce"
top: "inception_3b/3x3"
param {
lr_mult: 1
decay_mult: 1
}
param {
lr_mult: 2
decay_mult: 0
}
convolution_param {
num_output: 192
pad: 1
kernel_size: 3
weight_filler {
type: "xavier"
std: 0.03
}
bias_filler {
type: "constant"
value: 0.2
}
}
}
layer {
name: "inception_3b/relu_3x3"
type: "ReLU"
bottom: "inception_3b/3x3"
top: "inception_3b/3x3"
}
layer {
name: "inception_3b/5x5_reduce"
type: "Convolution"
bottom: "inception_3a/output"
top: "inception_3b/5x5_reduce"
param {
lr_mult: 1
decay_mult: 1
}
param {
lr_mult: 2
decay_mult: 0
}
convolution_param {
num_output: 32
kernel_size: 1
weight_filler {
type: "xavier"
std: 0.2
}
bias_filler {
type: "constant"
value: 0.2
}
}
}
layer {
name: "inception_3b/relu_5x5_reduce"
type: "ReLU"
bottom: "inception_3b/5x5_reduce"
top: "inception_3b/5x5_reduce"
}
layer {
name: "inception_3b/5x5"
type: "Convolution"
bottom: "inception_3b/5x5_reduce"
top: "inception_3b/5x5"
param {
lr_mult: 1
decay_mult: 1
}
param {
lr_mult: 2
decay_mult: 0
}
convolution_param {
num_output: 96
pad: 2
kernel_size: 5
weight_filler {
type: "xavier"
std: 0.03
}
bias_filler {
type: "constant"
value: 0.2
}
}
}
layer {
name: "inception_3b/relu_5x5"
type: "ReLU"
bottom: "inception_3b/5x5"
top: "inception_3b/5x5"
}
layer {
name: "inception_3b/pool"
type: "Pooling"
bottom: "inception_3a/output"
top: "inception_3b/pool"
pooling_param {
pool: MAX
kernel_size: 3
stride: 1
pad: 1
}
}
layer {
name: "inception_3b/pool_proj"
type: "Convolution"
bottom: "inception_3b/pool"
top: "inception_3b/pool_proj"
param {
lr_mult: 1
decay_mult: 1
}
param {
lr_mult: 2
decay_mult: 0
}
convolution_param {
num_output: 64
kernel_size: 1
weight_filler {
type: "xavier"
std: 0.1
}
bias_filler {
type: "constant"
value: 0.2
}
}
}
layer {
name: "inception_3b/relu_pool_proj"
type: "ReLU"
bottom: "inception_3b/pool_proj"
top: "inception_3b/pool_proj"
}
layer {
name: "inception_3b/output"
type: "Concat"
bottom: "inception_3b/1x1"
bottom: "inception_3b/3x3"
bottom: "inception_3b/5x5"
bottom: "inception_3b/pool_proj"
top: "inception_3b/output"
}
layer {
name: "pool3/3x3_s2"
type: "Pooling"
bottom: "inception_3b/output"
top: "pool3/3x3_s2"
pooling_param {
pool: MAX
kernel_size: 3
stride: 2
}
}
layer {
name: "inception_4a/1x1"
type: "Convolution"
bottom: "pool3/3x3_s2"
top: "inception_4a/1x1"
param {
lr_mult: 1
decay_mult: 1
}
param {
lr_mult: 2
decay_mult: 0
}
convolution_param {
num_output: 192
kernel_size: 1
weight_filler {
type: "xavier"
std: 0.03
}
bias_filler {
type: "constant"
value: 0.2
}
}
}
layer {
name: "inception_4a/relu_1x1"
type: "ReLU"
bottom: "inception_4a/1x1"
top: "inception_4a/1x1"
}
layer {
name: "inception_4a/3x3_reduce"
type: "Convolution"
bottom: "pool3/3x3_s2"
top: "inception_4a/3x3_reduce"
param {
lr_mult: 1
decay_mult: 1
}
param {
lr_mult: 2
decay_mult: 0
}
convolution_param {
num_output: 96
kernel_size: 1
weight_filler {
type: "xavier"
std: 0.09
}
bias_filler {
type: "constant"
value: 0.2
}
}
}
layer {
name: "inception_4a/relu_3x3_reduce"
type: "ReLU"
bottom: "inception_4a/3x3_reduce"
top: "inception_4a/3x3_reduce"
}
layer {
name: "inception_4a/3x3"
type: "Convolution"
bottom: "inception_4a/3x3_reduce"
top: "inception_4a/3x3"
param {
lr_mult: 1
decay_mult: 1
}
param {
lr_mult: 2
decay_mult: 0
}
convolution_param {
num_output: 208
pad: 1
kernel_size: 3
weight_filler {
type: "xavier"
std: 0.03
}
bias_filler {
type: "constant"
value: 0.2
}
}
}
layer {
name: "inception_4a/relu_3x3"
type: "ReLU"
bottom: "inception_4a/3x3"
top: "inception_4a/3x3"
}
layer {
name: "inception_4a/5x5_reduce"
type: "Convolution"
bottom: "pool3/3x3_s2"
top: "inception_4a/5x5_reduce"
param {
lr_mult: 1
decay_mult: 1
}
param {
lr_mult: 2
decay_mult: 0
}
convolution_param {
num_output: 16
kernel_size: 1
weight_filler {
type: "xavier"
std: 0.2
}
bias_filler {
type: "constant"
value: 0.2
}
}
}
layer {
name: "inception_4a/relu_5x5_reduce"
type: "ReLU"
bottom: "inception_4a/5x5_reduce"
top: "inception_4a/5x5_reduce"
}
layer {
name: "inception_4a/5x5"
type: "Convolution"
bottom: "inception_4a/5x5_reduce"
top: "inception_4a/5x5"
param {
lr_mult: 1
decay_mult: 1
}
param {
lr_mult: 2
decay_mult: 0
}
convolution_param {
num_output: 48
pad: 2
kernel_size: 5
weight_filler {
type: "xavier"
std: 0.03
}
bias_filler {
type: "constant"
value: 0.2
}
}
}
layer {
name: "inception_4a/relu_5x5"
type: "ReLU"
bottom: "inception_4a/5x5"
top: "inception_4a/5x5"
}
layer {
name: "inception_4a/pool"
type: "Pooling"
bottom: "pool3/3x3_s2"
top: "inception_4a/pool"
pooling_param {
pool: MAX
kernel_size: 3
stride: 1
pad: 1
}
}
layer {
name: "inception_4a/pool_proj"
type: "Convolution"
bottom: "inception_4a/pool"
top: "inception_4a/pool_proj"
param {
lr_mult: 1
decay_mult: 1
}
param {
lr_mult: 2
decay_mult: 0
}
convolution_param {
num_output: 64
kernel_size: 1
weight_filler {
type: "xavier"
std: 0.1
}
bias_filler {
type: "constant"
value: 0.2
}
}
}
layer {
name: "inception_4a/relu_pool_proj"
type: "ReLU"
bottom: "inception_4a/pool_proj"
top: "inception_4a/pool_proj"
}
layer {
name: "inception_4a/output"
type: "Concat"
bottom: "inception_4a/1x1"
bottom: "inception_4a/3x3"
bottom: "inception_4a/5x5"
bottom: "inception_4a/pool_proj"
top: "inception_4a/output"
}
layer {
name: "loss1/ave_pool"
type: "Pooling"
bottom: "inception_4a/output"
top: "loss1/ave_pool"
pooling_param {
pool: AVE
kernel_size: 5
stride: 3
}
}
layer {
name: "loss1/conv"
type: "Convolution"
bottom: "loss1/ave_pool"
top: "loss1/conv"
param {
lr_mult: 1
decay_mult: 1
}
param {
lr_mult: 2
decay_mult: 0
}
convolution_param {
num_output: 128
kernel_size: 1
weight_filler {
type: "xavier"
std: 0.08
}
bias_filler {
type: "constant"
value: 0.2
}
}
}
layer {
name: "loss1/relu_conv"
type: "ReLU"
bottom: "loss1/conv"
top: "loss1/conv"
}
layer {
name: "loss1/fc"
type: "InnerProduct"
bottom: "loss1/conv"
top: "loss1/fc"
param {
lr_mult: 1
decay_mult: 1
}
param {
lr_mult: 2
decay_mult: 0
}
inner_product_param {
num_output: 1024
weight_filler {
type: "xavier"
std: 0.02
}
bias_filler {
type: "constant"
value: 0.2
}
}
}
layer {
name: "loss1/relu_fc"
type: "ReLU"
bottom: "loss1/fc"
top: "loss1/fc"
}
layer {
name: "loss1/drop_fc"
type: "Dropout"
bottom: "loss1/fc"
top: "loss1/fc"
dropout_param {
dropout_ratio: 0.7
}
}
layer {
name: "loss1/classifier_output"
type: "InnerProduct"
bottom: "loss1/fc"
top: "loss1/classifier_output"
param {
lr_mult: 1
decay_mult: 1
}
param {
lr_mult: 2
decay_mult: 0
}
inner_product_param {
num_output: 2
weight_filler {
type: "xavier"
std: 0.0009765625
}
bias_filler {
type: "constant"
value: 0
}
}
}
layer {
name: "loss1/loss"
type: "SoftmaxWithLoss"
bottom: "loss1/classifier_output"
bottom: "label"
top: "loss1/loss"
loss_weight: 0.3
}
layer {
name: "loss1/top-1"
type: "Accuracy"
bottom: "loss1/classifier_output"
bottom: "label"
top: "loss1/accuracy"
include {
phase: TEST
}
}
layer {
name: "inception_4b/1x1"
type: "Convolution"
bottom: "inception_4a/output"
top: "inception_4b/1x1"
param {
lr_mult: 1
decay_mult: 1
}
param {
lr_mult: 2
decay_mult: 0
}
convolution_param {
num_output: 160
kernel_size: 1
weight_filler {
type: "xavier"
std: 0.03
}
bias_filler {
type: "constant"
value: 0.2
}
}
}
layer {
name: "inception_4b/relu_1x1"
type: "ReLU"
bottom: "inception_4b/1x1"
top: "inception_4b/1x1"
}
layer {
name: "inception_4b/3x3_reduce"
type: "Convolution"
bottom: "inception_4a/output"
top: "inception_4b/3x3_reduce"
param {
lr_mult: 1
decay_mult: 1
}
param {
lr_mult: 2
decay_mult: 0
}
convolution_param {
num_output: 112
kernel_size: 1
weight_filler {
type: "xavier"
std: 0.09
}
bias_filler {
type: "constant"
value: 0.2
}
}
}
layer {
name: "inception_4b/relu_3x3_reduce"
type: "ReLU"
bottom: "inception_4b/3x3_reduce"
top: "inception_4b/3x3_reduce"
}
layer {
name: "inception_4b/3x3"
type: "Convolution"
bottom: "inception_4b/3x3_reduce"
top: "inception_4b/3x3"
param {
lr_mult: 1
decay_mult: 1
}
param {
lr_mult: 2
decay_mult: 0
}
convolution_param {
num_output: 224
pad: 1
kernel_size: 3
weight_filler {
type: "xavier"
std: 0.03
}
bias_filler {
type: "constant"
value: 0.2
}
}
}
layer {
name: "inception_4b/relu_3x3"
type: "ReLU"
bottom: "inception_4b/3x3"
top: "inception_4b/3x3"
}
layer {
name: "inception_4b/5x5_reduce"
type: "Convolution"
bottom: "inception_4a/output"
top: "inception_4b/5x5_reduce"
param {
lr_mult: 1
decay_mult: 1
}
param {
lr_mult: 2
decay_mult: 0
}
convolution_param {
num_output: 24
kernel_size: 1
weight_filler {
type: "xavier"
std: 0.2
}
bias_filler {
type: "constant"
value: 0.2
}
}
}
layer {
name: "inception_4b/relu_5x5_reduce"
type: "ReLU"
bottom: "inception_4b/5x5_reduce"
top: "inception_4b/5x5_reduce"
}
layer {
name: "inception_4b/5x5"
type: "Convolution"
bottom: "inception_4b/5x5_reduce"
top: "inception_4b/5x5"
param {
lr_mult: 1
decay_mult: 1
}
param {
lr_mult: 2
decay_mult: 0
}
convolution_param {
num_output: 64
pad: 2
kernel_size: 5
weight_filler {
type: "xavier"
std: 0.03
}
bias_filler {
type: "constant"
value: 0.2
}
}
}
layer {
name: "inception_4b/relu_5x5"
type: "ReLU"
bottom: "inception_4b/5x5"
top: "inception_4b/5x5"
}
layer {
name: "inception_4b/pool"
type: "Pooling"
bottom: "inception_4a/output"
top: "inception_4b/pool"
pooling_param {
pool: MAX
kernel_size: 3
stride: 1
pad: 1
}
}
layer {
name: "inception_4b/pool_proj"
type: "Convolution"
bottom: "inception_4b/pool"
top: "inception_4b/pool_proj"
param {
lr_mult: 1
decay_mult: 1
}
param {
lr_mult: 2
decay_mult: 0
}
convolution_param {
num_output: 64
kernel_size: 1
weight_filler {
type: "xavier"
std: 0.1
}
bias_filler {
type: "constant"
value: 0.2
}
}
}
layer {
name: "inception_4b/relu_pool_proj"
type: "ReLU"
bottom: "inception_4b/pool_proj"
top: "inception_4b/pool_proj"
}
layer {
name: "inception_4b/output"
type: "Concat"
bottom: "inception_4b/1x1"
bottom: "inception_4b/3x3"
bottom: "inception_4b/5x5"
bottom: "inception_4b/pool_proj"
top: "inception_4b/output"
}
layer {
name: "inception_4c/1x1"
type: "Convolution"
bottom: "inception_4b/output"
top: "inception_4c/1x1"
param {
lr_mult: 1
decay_mult: 1
}
param {
lr_mult: 2
decay_mult: 0
}
convolution_param {
num_output: 128
kernel_size: 1
weight_filler {
type: "xavier"
std: 0.03
}
bias_filler {
type: "constant"
value: 0.2
}
}
}
layer {
name: "inception_4c/relu_1x1"
type: "ReLU"
bottom: "inception_4c/1x1"
top: "inception_4c/1x1"
}
layer {
name: "inception_4c/3x3_reduce"
type: "Convolution"
bottom: "inception_4b/output"
top: "inception_4c/3x3_reduce"
param {
lr_mult: 1
decay_mult: 1
}
param {
lr_mult: 2
decay_mult: 0
}
convolution_param {
num_output: 128
kernel_size: 1
weight_filler {
type: "xavier"
std: 0.09
}
bias_filler {
type: "constant"
value: 0.2
}
}
}
layer {
name: "inception_4c/relu_3x3_reduce"
type: "ReLU"
bottom: "inception_4c/3x3_reduce"
top: "inception_4c/3x3_reduce"
}
layer {
name: "inception_4c/3x3"
type: "Convolution"
bottom: "inception_4c/3x3_reduce"
top: "inception_4c/3x3"
param {
lr_mult: 1
decay_mult: 1
}
param {
lr_mult: 2
decay_mult: 0
}
convolution_param {
num_output: 256
pad: 1
kernel_size: 3
weight_filler {
type: "xavier"
std: 0.03
}
bias_filler {
type: "constant"
value: 0.2
}
}
}
layer {
name: "inception_4c/relu_3x3"
type: "ReLU"
bottom: "inception_4c/3x3"
top: "inception_4c/3x3"
}
layer {
name: "inception_4c/5x5_reduce"
type: "Convolution"
bottom: "inception_4b/output"
top: "inception_4c/5x5_reduce"
param {
lr_mult: 1
decay_mult: 1
}
param {
lr_mult: 2
decay_mult: 0
}
convolution_param {
num_output: 24
kernel_size: 1
weight_filler {
type: "xavier"
std: 0.2
}
bias_filler {
type: "constant"
value: 0.2
}
}
}
layer {
name: "inception_4c/relu_5x5_reduce"
type: "ReLU"
bottom: "inception_4c/5x5_reduce"
top: "inception_4c/5x5_reduce"
}
layer {
name: "inception_4c/5x5"
type: "Convolution"
bottom: "inception_4c/5x5_reduce"
top: "inception_4c/5x5"
param {
lr_mult: 1
decay_mult: 1
}
param {
lr_mult: 2
decay_mult: 0
}
convolution_param {
num_output: 64
pad: 2
kernel_size: 5
weight_filler {
type: "xavier"
std: 0.03
}
bias_filler {
type: "constant"
value: 0.2
}
}
}
layer {
name: "inception_4c/relu_5x5"
type: "ReLU"
bottom: "inception_4c/5x5"
top: "inception_4c/5x5"
}
layer {
name: "inception_4c/pool"
type: "Pooling"
bottom: "inception_4b/output"
top: "inception_4c/pool"
pooling_param {
pool: MAX
kernel_size: 3
stride: 1
pad: 1
}
}
layer {
name: "inception_4c/pool_proj"
type: "Convolution"
bottom: "inception_4c/pool"
top: "inception_4c/pool_proj"
param {
lr_mult: 1
decay_mult: 1
}
param {
lr_mult: 2
decay_mult: 0
}
convolution_param {
num_output: 64
kernel_size: 1
weight_filler {
type: "xavier"
std: 0.1
}
bias_filler {
type: "constant"
value: 0.2
}
}
}
layer {
name: "inception_4c/relu_pool_proj"
type: "ReLU"
bottom: "inception_4c/pool_proj"
top: "inception_4c/pool_proj"
}
layer {
name: "inception_4c/output"
type: "Concat"
bottom: "inception_4c/1x1"
bottom: "inception_4c/3x3"
bottom: "inception_4c/5x5"
bottom: "inception_4c/pool_proj"
top: "inception_4c/output"
}
layer {
name: "inception_4d/1x1"
type: "Convolution"
bottom: "inception_4c/output"
top: "inception_4d/1x1"
param {
lr_mult: 1
decay_mult: 1
}
param {
lr_mult: 2
decay_mult: 0
}
convolution_param {
num_output: 112
kernel_size: 1
weight_filler {
type: "xavier"
std: 0.03
}
bias_filler {
type: "constant"
value: 0.2
}
}
}
layer {
…
I1129 22:09:37.943866  5621 net.cpp:396] inception_4c/relu_5x5 -> inception_4c/5x5 (in-place)
I1129 22:09:37.943883  5621 net.cpp:144] Setting up inception_4c/relu_5x5
I1129 22:09:37.943897  5621 net.cpp:151] Top shape: 16 64 14 14 (200704)
I1129 22:09:37.943908  5621 net.cpp:159] Memory required for data: 700638024
I1129 22:09:37.943918  5621 layer_factory.hpp:77] Creating layer inception_4c/pool
I1129 22:09:37.943934  5621 net.cpp:94] Creating Layer inception_4c/pool
I1129 22:09:37.943946  5621 net.cpp:435] inception_4c/pool <- inception_4b/output_inception_4b/output_0_split_3
I1129 22:09:37.943961  5621 net.cpp:409] inception_4c/pool -> inception_4c/pool
I1129 22:09:37.944046  5621 net.cpp:144] Setting up inception_4c/pool
I1129 22:09:37.944056  5621 net.cpp:151] Top shape: 16 512 14 14 (1605632)
I1129 22:09:37.944063  5621 net.cpp:159] Memory required for data: 707060552
I1129 22:09:37.944070  5621 layer_factory.hpp:77] Creating layer inception_4c/pool_proj
I1129 22:09:37.944082  5621 net.cpp:94] Creating Layer inception_4c/pool_proj
I1129 22:09:37.944090  5621 net.cpp:435] inception_4c/pool_proj <- inception_4c/pool
I1129 22:09:37.944102  5621 net.cpp:409] inception_4c/pool_proj -> inception_4c/pool_proj
I1129 22:09:37.945875  5621 net.cpp:144] Setting up inception_4c/pool_proj
I1129 22:09:37.945894  5621 net.cpp:151] Top shape: 16 64 14 14 (200704)
I1129 22:09:37.945909  5621 net.cpp:159] Memory required for data: 707863368
I1129 22:09:37.945925  5621 layer_factory.hpp:77] Creating layer inception_4c/relu_pool_proj
I1129 22:09:37.945940  5621 net.cpp:94] Creating Layer inception_4c/relu_pool_proj
I1129 22:09:37.945952  5621 net.cpp:435] inception_4c/relu_pool_proj <- inception_4c/pool_proj
I1129 22:09:37.945966  5621 net.cpp:396] inception_4c/relu_pool_proj -> inception_4c/pool_proj (in-place)
I1129 22:09:37.945984  5621 net.cpp:144] Setting up inception_4c/relu_pool_proj
I1129 22:09:37.945998  5621 net.cpp:151] Top shape: 16 64 14 14 (200704)
I1129 22:09:37.946008  5621 net.cpp:159] Memory required for data: 708666184
I1129 22:09:37.946019  5621 layer_factory.hpp:77] Creating layer inception_4c/output
I1129 22:09:37.946034  5621 net.cpp:94] Creating Layer inception_4c/output
I1129 22:09:37.946045  5621 net.cpp:435] inception_4c/output <- inception_4c/1x1
I1129 22:09:37.946058  5621 net.cpp:435] inception_4c/output <- inception_4c/3x3
I1129 22:09:37.946070  5621 net.cpp:435] inception_4c/output <- inception_4c/5x5
I1129 22:09:37.946084  5621 net.cpp:435] inception_4c/output <- inception_4c/pool_proj
I1129 22:09:37.946099  5621 net.cpp:409] inception_4c/output -> inception_4c/output
I1129 22:09:37.946138  5621 net.cpp:144] Setting up inception_4c/output
I1129 22:09:37.946148  5621 net.cpp:151] Top shape: 16 512 14 14 (1605632)
I1129 22:09:37.946156  5621 net.cpp:159] Memory required for data: 715088712
I1129 22:09:37.946162  5621 layer_factory.hpp:77] Creating layer inception_4c/output_inception_4c/output_0_split
I1129 22:09:37.946173  5621 net.cpp:94] Creating Layer inception_4c/output_inception_4c/output_0_split
I1129 22:09:37.946180  5621 net.cpp:435] inception_4c/output_inception_4c/output_0_split <- inception_4c/output
I1129 22:09:37.946189  5621 net.cpp:409] inception_4c/output_inception_4c/output_0_split -> inception_4c/output_inception_4c/output_0_split_0
I1129 22:09:37.946202  5621 net.cpp:409] inception_4c/output_inception_4c/output_0_split -> inception_4c/output_inception_4c/output_0_split_1
I1129 22:09:37.946213  5621 net.cpp:409] inception_4c/output_inception_4c/output_0_split -> inception_4c/output_inception_4c/output_0_split_2
I1129 22:09:37.946236  5621 net.cpp:409] inception_4c/output_inception_4c/output_0_split -> inception_4c/output_inception_4c/output_0_split_3
I1129 22:09:37.946346  5621 net.cpp:144] Setting up inception_4c/output_inception_4c/output_0_split
I1129 22:09:37.946355  5621 net.cpp:151] Top shape: 16 512 14 14 (1605632)
I1129 22:09:37.946364  5621 net.cpp:151] Top shape: 16 512 14 14 (1605632)
I1129 22:09:37.946372  5621 net.cpp:151] Top shape: 16 512 14 14 (1605632)
I1129 22:09:37.946380  5621 net.cpp:151] Top shape: 16 512 14 14 (1605632)
I1129 22:09:37.946388  5621 net.cpp:159] Memory required for data: 740778824
I1129 22:09:37.946394  5621 layer_factory.hpp:77] Creating layer inception_4d/1x1
I1129 22:09:37.946408  5621 net.cpp:94] Creating Layer inception_4d/1x1
I1129 22:09:37.946415  5621 net.cpp:435] inception_4d/1x1 <- inception_4c/output_inception_4c/output_0_split_0
I1129 22:09:37.946425  5621 net.cpp:409] inception_4d/1x1 -> inception_4d/1x1
I1129 22:09:37.948546  5621 net.cpp:144] Setting up inception_4d/1x1
I1129 22:09:37.948559  5621 net.cpp:151] Top shape: 16 112 14 14 (351232)
I1129 22:09:37.948566  5621 net.cpp:159] Memory required for data: 742183752
I1129 22:09:37.948576  5621 layer_factory.hpp:77] Creating layer inception_4d/relu_1x1
I1129 22:09:37.948586  5621 net.cpp:94] Creating Layer inception_4d/relu_1x1
I1129 22:09:37.948595  5621 net.cpp:435] inception_4d/relu_1x1 <- inception_4d/1x1
I1129 22:09:37.948603  5621 net.cpp:396] inception_4d/relu_1x1 -> inception_4d/1x1 (in-place)
I1129 22:09:37.948616  5621 net.cpp:144] Setting up inception_4d/relu_1x1
I1129 22:09:37.948623  5621 net.cpp:151] Top shape: 16 112 14 14 (351232)
I1129 22:09:37.948632  5621 net.cpp:159] Memory required for data: 743588680
I1129 22:09:37.948637  5621 layer_factory.hpp:77] Creating layer inception_4d/3x3_reduce
I1129 22:09:37.948652  5621 net.cpp:94] Creating Layer inception_4d/3x3_reduce
I1129 22:09:37.948659  5621 net.cpp:435] inception_4d/3x3_reduce <- inception_4c/output_inception_4c/output_0_split_1
I1129 22:09:37.948669  5621 net.cpp:409] inception_4d/3x3_reduce -> inception_4d/3x3_reduce
I1129 22:09:37.951498  5621 net.cpp:144] Setting up inception_4d/3x3_reduce
I1129 22:09:37.951516  5621 net.cpp:151] Top shape: 16 144 14 14 (451584)
I1129 22:09:37.951527  5621 net.cpp:159] Memory required for data: 745395016
I1129 22:09:37.951545  5621 layer_factory.hpp:77] Creating layer inception_4d/relu_3x3_reduce
I1129 22:09:37.951561  5621 net.cpp:94] Creating Layer inception_4d/relu_3x3_reduce
I1129 22:09:37.951575  5621 net.cpp:435] inception_4d/relu_3x3_reduce <- inception_4d/3x3_reduce
I1129 22:09:37.951588  5621 net.cpp:396] inception_4d/relu_3x3_reduce -> inception_4d/3x3_reduce (in-place)
I1129 22:09:37.951606  5621 net.cpp:144] Setting up inception_4d/relu_3x3_reduce
I1129 22:09:37.951619  5621 net.cpp:151] Top shape: 16 144 14 14 (451584)
I1129 22:09:37.951630  5621 net.cpp:159] Memory required for data: 747201352
I1129 22:09:37.951642  5621 layer_factory.hpp:77] Creating layer inception_4d/3x3
I1129 22:09:37.951664  5621 net.cpp:94] Creating Layer inception_4d/3x3
I1129 22:09:37.951673  5621 net.cpp:435] inception_4d/3x3 <- inception_4d/3x3_reduce
I1129 22:09:37.951684  5621 net.cpp:409] inception_4d/3x3 -> inception_4d/3x3
I1129 22:09:37.960834  5621 net.cpp:144] Setting up inception_4d/3x3
I1129 22:09:37.960862  5621 net.cpp:151] Top shape: 16 288 14 14 (903168)
I1129 22:09:37.960873  5621 net.cpp:159] Memory required for data: 750814024
I1129 22:09:37.960896  5621 layer_factory.hpp:77] Creating layer inception_4d/relu_3x3
I1129 22:09:37.960909  5621 net.cpp:94] Creating Layer inception_4d/relu_3x3
I1129 22:09:37.960919  5621 net.cpp:435] inception_4d/relu_3x3 <- inception_4d/3x3
I1129 22:09:37.960929  5621 net.cpp:396] inception_4d/relu_3x3 -> inception_4d/3x3 (in-place)
I1129 22:09:37.960942  5621 net.cpp:144] Setting up inception_4d/relu_3x3
I1129 22:09:37.960952  5621 net.cpp:151] Top shape: 16 288 14 14 (903168)
I1129 22:09:37.960958  5621 net.cpp:159] Memory required for data: 754426696
I1129 22:09:37.960965  5621 layer_factory.hpp:77] Creating layer inception_4d/5x5_reduce
I1129 22:09:37.961000  5621 net.cpp:94] Creating Layer inception_4d/5x5_reduce
I1129 22:09:37.961009  5621 net.cpp:435] inception_4d/5x5_reduce <- inception_4c/output_inception_4c/output_0_split_2
I1129 22:09:37.961021  5621 net.cpp:409] inception_4d/5x5_reduce -> inception_4d/5x5_reduce
I1129 22:09:37.962678  5621 net.cpp:144] Setting up inception_4d/5x5_reduce
I1129 22:09:37.962697  5621 net.cpp:151] Top shape: 16 32 14 14 (100352)
I1129 22:09:37.962708  5621 net.cpp:159] Memory required for data: 754828104
I1129 22:09:37.962724  5621 layer_factory.hpp:77] Creating layer inception_4d/relu_5x5_reduce
I1129 22:09:37.962743  5621 net.cpp:94] Creating Layer inception_4d/relu_5x5_reduce
I1129 22:09:37.962754  5621 net.cpp:435] inception_4d/relu_5x5_reduce <- inception_4d/5x5_reduce
I1129 22:09:37.962769  5621 net.cpp:396] inception_4d/relu_5x5_reduce -> inception_4d/5x5_reduce (in-place)
I1129 22:09:37.962786  5621 net.cpp:144] Setting up inception_4d/relu_5x5_reduce
I1129 22:09:37.962800  5621 net.cpp:151] Top shape: 16 32 14 14 (100352)
I1129 22:09:37.962810  5621 net.cpp:159] Memory required for data: 755229512
I1129 22:09:37.962821  5621 layer_factory.hpp:77] Creating layer inception_4d/5x5
I1129 22:09:37.962841  5621 net.cpp:94] Creating Layer inception_4d/5x5
I1129 22:09:37.962852  5621 net.cpp:435] inception_4d/5x5 <- inception_4d/5x5_reduce
I1129 22:09:37.962870  5621 net.cpp:409] inception_4d/5x5 -> inception_4d/5x5
I1129 22:09:37.964633  5621 net.cpp:144] Setting up inception_4d/5x5
I1129 22:09:37.964645  5621 net.cpp:151] Top shape: 16 64 14 14 (200704)
I1129 22:09:37.964653  5621 net.cpp:159] Memory required for data: 756032328
I1129 22:09:37.964663  5621 layer_factory.hpp:77] Creating layer inception_4d/relu_5x5
I1129 22:09:37.964673  5621 net.cpp:94] Creating Layer inception_4d/relu_5x5
I1129 22:09:37.964681  5621 net.cpp:435] inception_4d/relu_5x5 <- inception_4d/5x5
I1129 22:09:37.964690  5621 net.cpp:396] inception_4d/relu_5x5 -> inception_4d/5x5 (in-place)
I1129 22:09:37.964712  5621 net.cpp:144] Setting up inception_4d/relu_5x5
I1129 22:09:37.964721  5621 net.cpp:151] Top shape: 16 64 14 14 (200704)
I1129 22:09:37.964728  5621 net.cpp:159] Memory required for data: 756835144
I1129 22:09:37.964736  5621 layer_factory.hpp:77] Creating layer inception_4d/pool
I1129 22:09:37.964748  5621 net.cpp:94] Creating Layer inception_4d/pool
I1129 22:09:37.964756  5621 net.cpp:435] inception_4d/pool <- inception_4c/output_inception_4c/output_0_split_3
I1129 22:09:37.964766  5621 net.cpp:409] inception_4d/pool -> inception_4d/pool
I1129 22:09:37.964835  5621 net.cpp:144] Setting up inception_4d/pool
I1129 22:09:37.964845  5621 net.cpp:151] Top shape: 16 512 14 14 (1605632)
I1129 22:09:37.964853  5621 net.cpp:159] Memory required for data: 763257672
I1129 22:09:37.964859  5621 layer_factory.hpp:77] Creating layer inception_4d/pool_proj
I1129 22:09:37.964874  5621 net.cpp:94] Creating Layer inception_4d/pool_proj
I1129 22:09:37.964881  5621 net.cpp:435] inception_4d/pool_proj <- inception_4d/pool
I1129 22:09:37.964893  5621 net.cpp:409] inception_4d/pool_proj -> inception_4d/pool_proj
I1129 22:09:37.966676  5621 net.cpp:144] Setting up inception_4d/pool_proj
I1129 22:09:37.966696  5621 net.cpp:151] Top shape: 16 64 14 14 (200704)
I1129 22:09:37.966706  5621 net.cpp:159] Memory required for data: 764060488
I1129 22:09:37.966723  5621 layer_factory.hpp:77] Creating layer inception_4d/relu_pool_proj
I1129 22:09:37.966737  5621 net.cpp:94] Creating Layer inception_4d/relu_pool_proj
I1129 22:09:37.966749  5621 net.cpp:435] inception_4d/relu_pool_proj <- inception_4d/pool_proj
I1129 22:09:37.966763  5621 net.cpp:396] inception_4d/relu_pool_proj -> inception_4d/pool_proj (in-place)
I1129 22:09:37.966781  5621 net.cpp:144] Setting up inception_4d/relu_pool_proj
I1129 22:09:37.966795  5621 net.cpp:151] Top shape: 16 64 14 14 (200704)
I1129 22:09:37.966806  5621 net.cpp:159] Memory required for data: 764863304
I1129 22:09:37.966816  5621 layer_factory.hpp:77] Creating layer inception_4d/output
I1129 22:09:37.966848  5621 net.cpp:94] Creating Layer inception_4d/output
I1129 22:09:37.966861  5621 net.cpp:435] inception_4d/output <- inception_4d/1x1
I1129 22:09:37.966876  5621 net.cpp:435] inception_4d/output <- inception_4d/3x3
I1129 22:09:37.966892  5621 net.cpp:435] inception_4d/output <- inception_4d/5x5
I1129 22:09:37.966900  5621 net.cpp:435] inception_4d/output <- inception_4d/pool_proj
I1129 22:09:37.966910  5621 net.cpp:409] inception_4d/output -> inception_4d/output
I1129 22:09:37.966951  5621 net.cpp:144] Setting up inception_4d/output
I1129 22:09:37.966961  5621 net.cpp:151] Top shape: 16 528 14 14 (1655808)
I1129 22:09:37.966969  5621 net.cpp:159] Memory required for data: 771486536
I1129 22:09:37.966975  5621 layer_factory.hpp:77] Creating layer inception_4d/output_inception_4d/output_0_split
I1129 22:09:37.966985  5621 net.cpp:94] Creating Layer inception_4d/output_inception_4d/output_0_split
I1129 22:09:37.966994  5621 net.cpp:435] inception_4d/output_inception_4d/output_0_split <- inception_4d/output
I1129 22:09:37.967005  5621 net.cpp:409] inception_4d/output_inception_4d/output_0_split -> inception_4d/output_inception_4d/output_0_split_0
I1129 22:09:37.967015  5621 net.cpp:409] inception_4d/output_inception_4d/output_0_split -> inception_4d/output_inception_4d/output_0_split_1
I1129 22:09:37.967027  5621 net.cpp:409] inception_4d/output_inception_4d/output_0_split -> inception_4d/output_inception_4d/output_0_split_2
I1129 22:09:37.967038  5621 net.cpp:409] inception_4d/output_inception_4d/output_0_split -> inception_4d/output_inception_4d/output_0_split_3
I1129 22:09:37.967049  5621 net.cpp:409] inception_4d/output_inception_4d/output_0_split -> inception_4d/output_inception_4d/output_0_split_4
I1129 22:09:37.967190  5621 net.cpp:144] Setting up inception_4d/output_inception_4d/output_0_split
I1129 22:09:37.967200  5621 net.cpp:151] Top shape: 16 528 14 14 (1655808)
I1129 22:09:37.967208  5621 net.cpp:151] Top shape: 16 528 14 14 (1655808)
I1129 22:09:37.967216  5621 net.cpp:151] Top shape: 16 528 14 14 (1655808)
I1129 22:09:37.967224  5621 net.cpp:151] Top shape: 16 528 14 14 (1655808)
I1129 22:09:37.967233  5621 net.cpp:151] Top shape: 16 528 14 14 (1655808)
I1129 22:09:37.967239  5621 net.cpp:159] Memory required for data: 804602696
I1129 22:09:37.967247  5621 layer_factory.hpp:77] Creating layer loss2/ave_pool
I1129 22:09:37.967257  5621 net.cpp:94] Creating Layer loss2/ave_pool
I1129 22:09:37.967264  5621 net.cpp:435] loss2/ave_pool <- inception_4d/output_inception_4d/output_0_split_0
I1129 22:09:37.967274  5621 net.cpp:409] loss2/ave_pool -> loss2/ave_pool
I1129 22:09:37.967316  5621 net.cpp:144] Setting up loss2/ave_pool
I1129 22:09:37.967326  5621 net.cpp:151] Top shape: 16 528 4 4 (135168)
I1129 22:09:37.967334  5621 net.cpp:159] Memory required for data: 805143368
I1129 22:09:37.967340  5621 layer_factory.hpp:77] Creating layer loss2/conv
I1129 22:09:37.967353  5621 net.cpp:94] Creating Layer loss2/conv
I1129 22:09:37.967361  5621 net.cpp:435] loss2/conv <- loss2/ave_pool
I1129 22:09:37.967372  5621 net.cpp:409] loss2/conv -> loss2/conv
I1129 22:09:37.969234  5621 net.cpp:144] Setting up loss2/conv
I1129 22:09:37.969254  5621 net.cpp:151] Top shape: 16 128 4 4 (32768)
I1129 22:09:37.969265  5621 net.cpp:159] Memory required for data: 805274440
I1129 22:09:37.969282  5621 layer_factory.hpp:77] Creating layer loss2/relu_conv
I1129 22:09:37.969295  5621 net.cpp:94] Creating Layer loss2/relu_conv
I1129 22:09:37.969302  5621 net.cpp:435] loss2/relu_conv <- loss2/conv
I1129 22:09:37.969310  5621 net.cpp:396] loss2/relu_conv -> loss2/conv (in-place)
I1129 22:09:37.969322  5621 net.cpp:144] Setting up loss2/relu_conv
I1129 22:09:37.969331  5621 net.cpp:151] Top shape: 16 128 4 4 (32768)
I1129 22:09:37.969338  5621 net.cpp:159] Memory required for data: 805405512
I1129 22:09:37.969346  5621 layer_factory.hpp:77] Creating layer loss2/fc
I1129 22:09:37.969357  5621 net.cpp:94] Creating Layer loss2/fc
I1129 22:09:37.969364  5621 net.cpp:435] loss2/fc <- loss2/conv
I1129 22:09:37.969373  5621 net.cpp:409] loss2/fc -> loss2/fc
I1129 22:09:37.991528  5621 net.cpp:144] Setting up loss2/fc
I1129 22:09:37.991562  5621 net.cpp:151] Top shape: 16 1024 (16384)
I1129 22:09:37.991569  5621 net.cpp:159] Memory required for data: 805471048
I1129 22:09:37.991587  5621 layer_factory.hpp:77] Creating layer loss2/relu_fc
I1129 22:09:37.991605  5621 net.cpp:94] Creating Layer loss2/relu_fc
I1129 22:09:37.991616  5621 net.cpp:435] loss2/relu_fc <- loss2/fc
I1129 22:09:37.991628  5621 net.cpp:396] loss2/relu_fc -> loss2/fc (in-place)
I1129 22:09:37.991646  5621 net.cpp:144] Setting up loss2/relu_fc
I1129 22:09:37.991654  5621 net.cpp:151] Top shape: 16 1024 (16384)
I1129 22:09:37.991662  5621 net.cpp:159] Memory required for data: 805536584
I1129 22:09:37.991668  5621 layer_factory.hpp:77] Creating layer loss2/drop_fc
I1129 22:09:37.991680  5621 net.cpp:94] Creating Layer loss2/drop_fc
I1129 22:09:37.991688  5621 net.cpp:435] loss2/drop_fc <- loss2/fc
I1129 22:09:37.991699  5621 net.cpp:396] loss2/drop_fc -> loss2/fc (in-place)
I1129 22:09:37.991741  5621 net.cpp:144] Setting up loss2/drop_fc
I1129 22:09:37.991753  5621 net.cpp:151] Top shape: 16 1024 (16384)
I1129 22:09:37.991760  5621 net.cpp:159] Memory required for data: 805602120
I1129 22:09:37.991767  5621 layer_factory.hpp:77] Creating layer loss2/classifier_output
I1129 22:09:37.991780  5621 net.cpp:94] Creating Layer loss2/classifier_output
I1129 22:09:37.991788  5621 net.cpp:435] loss2/classifier_output <- loss2/fc
I1129 22:09:37.991801  5621 net.cpp:409] loss2/classifier_output -> loss2/classifier_output
I1129 22:09:37.992017  5621 net.cpp:144] Setting up loss2/classifier_output
I1129 22:09:37.992027  5621 net.cpp:151] Top shape: 16 2 (32)
I1129 22:09:37.992033  5621 net.cpp:159] Memory required for data: 805602248
I1129 22:09:37.992044  5621 layer_factory.hpp:77] Creating layer loss2/classifier_output_loss2/classifier_output_0_split
I1129 22:09:37.992058  5621 net.cpp:94] Creating Layer loss2/classifier_output_loss2/classifier_output_0_split
I1129 22:09:37.992065  5621 net.cpp:435] loss2/classifier_output_loss2/classifier_output_0_split <- loss2/classifier_output
I1129 22:09:37.992074  5621 net.cpp:409] loss2/classifier_output_loss2/classifier_output_0_split -> loss2/classifier_output_loss2/classifier_output_0_split_0
I1129 22:09:37.992085  5621 net.cpp:409] loss2/classifier_output_loss2/classifier_output_0_split -> loss2/classifier_output_loss2/classifier_output_0_split_1
I1129 22:09:37.992154  5621 net.cpp:144] Setting up loss2/classifier_output_loss2/classifier_output_0_split
I1129 22:09:37.992164  5621 net.cpp:151] Top shape: 16 2 (32)
I1129 22:09:37.992172  5621 net.cpp:151] Top shape: 16 2 (32)
I1129 22:09:37.992179  5621 net.cpp:159] Memory required for data: 805602504
I1129 22:09:37.992187  5621 layer_factory.hpp:77] Creating layer loss2/loss
I1129 22:09:37.992198  5621 net.cpp:94] Creating Layer loss2/loss
I1129 22:09:37.992207  5621 net.cpp:435] loss2/loss <- loss2/classifier_output_loss2/classifier_output_0_split_0
I1129 22:09:37.992214  5621 net.cpp:435] loss2/loss <- label_val-data_1_split_2
…
I1129 22:09:37.992553  5621 net.cpp:144] Setting up loss2/top-1
I1129 22:09:37.992563  5621 net.cpp:151] Top shape: (1)
I1129 22:09:37.992570  5621 net.cpp:159] Memory required for data: 805602512
I1129 22:09:37.992609  5621 layer_factory.hpp:77] Creating layer inception_4e/1x1
I1129 22:09:37.992630  5621 net.cpp:94] Creating Layer inception_4e/1x1
I1129 22:09:37.992640  5621 net.cpp:435] inception_4e/1x1 <- inception_4d/output_inception_4d/output_0_split_1
I1129 22:09:37.992651  5621 net.cpp:409] inception_4e/1x1 -> inception_4e/1x1
I1129 22:09:37.996677  5621 net.cpp:144] Setting up inception_4e/1x1
I1129 22:09:37.996697  5621 net.cpp:151] Top shape: 16 256 14 14 (802816)
I1129 22:09:37.996716  5621 net.cpp:159] Memory required for data: 808813776
I1129 22:09:37.996728  5621 layer_factory.hpp:77] Creating layer inception_4e/relu_1x1
I1129 22:09:37.996740  5621 net.cpp:94] Creating Layer inception_4e/relu_1x1
I1129 22:09:37.996749  5621 net.cpp:435] inception_4e/relu_1x1 <- inception_4e/1x1
I1129 22:09:37.996762  5621 net.cpp:396] inception_4e/relu_1x1 -> inception_4e/1x1 (in-place)
I1129 22:09:37.996775  5621 net.cpp:144] Setting up inception_4e/relu_1x1
I1129 22:09:37.996784  5621 net.cpp:151] Top shape: 16 256 14 14 (802816)
I1129 22:09:37.996791  5621 net.cpp:159] Memory required for data: 812025040
I1129 22:09:37.996798  5621 layer_factory.hpp:77] Creating layer inception_4e/3x3_reduce
I1129 22:09:37.996814  5621 net.cpp:94] Creating Layer inception_4e/3x3_reduce
I1129 22:09:37.996822  5621 net.cpp:435] inception_4e/3x3_reduce <- inception_4d/output_inception_4d/output_0_split_2
I1129 22:09:37.996835  5621 net.cpp:409] inception_4e/3x3_reduce -> inception_4e/3x3_reduce
I1129 22:09:37.999604  5621 net.cpp:144] Setting up inception_4e/3x3_reduce
I1129 22:09:37.999619  5621 net.cpp:151] Top shape: 16 160 14 14 (501760)
I1129 22:09:37.999626  5621 net.cpp:159] Memory required for data: 814032080
I1129 22:09:37.999639  5621 layer_factory.hpp:77] Creating layer inception_4e/relu_3x3_reduce
I1129 22:09:37.999650  5621 net.cpp:94] Creating Layer inception_4e/relu_3x3_reduce
I1129 22:09:37.999658  5621 net.cpp:435] inception_4e/relu_3x3_reduce <- inception_4e/3x3_reduce
I1129 22:09:37.999667  5621 net.cpp:396] inception_4e/relu_3x3_reduce -> inception_4e/3x3_reduce (in-place)
I1129 22:09:37.999680  5621 net.cpp:144] Setting up inception_4e/relu_3x3_reduce
I1129 22:09:37.999688  5621 net.cpp:151] Top shape: 16 160 14 14 (501760)
I1129 22:09:37.999696  5621 net.cpp:159] Memory required for data: 816039120
I1129 22:09:37.999702  5621 layer_factory.hpp:77] Creating layer inception_4e/3x3
I1129 22:09:37.999750  5621 net.cpp:94] Creating Layer inception_4e/3x3
I1129 22:09:37.999759  5621 net.cpp:435] inception_4e/3x3 <- inception_4e/3x3_reduce
I1129 22:09:37.999770  5621 net.cpp:409] inception_4e/3x3 -> inception_4e/3x3
I1129 22:09:38.010625  5621 net.cpp:144] Setting up inception_4e/3x3
I1129 22:09:38.010656  5621 net.cpp:151] Top shape: 16 320 14 14 (1003520)
I1129 22:09:38.010668  5621 net.cpp:159] Memory required for data: 820053200
I1129 22:09:38.010689  5621 layer_factory.hpp:77] Creating layer inception_4e/relu_3x3
I1129 22:09:38.010707  5621 net.cpp:94] Creating Layer inception_4e/relu_3x3
I1129 22:09:38.010721  5621 net.cpp:435] inception_4e/relu_3x3 <- inception_4e/3x3
I1129 22:09:38.010737  5621 net.cpp:396] inception_4e/relu_3x3 -> inception_4e/3x3 (in-place)
I1129 22:09:38.010752  5621 net.cpp:144] Setting up inception_4e/relu_3x3
I1129 22:09:38.010761  5621 net.cpp:151] Top shape: 16 320 14 14 (1003520)
I1129 22:09:38.010768  5621 net.cpp:159] Memory required for data: 824067280
I1129 22:09:38.010776  5621 layer_factory.hpp:77] Creating layer inception_4e/5x5_reduce
I1129 22:09:38.010793  5621 net.cpp:94] Creating Layer inception_4e/5x5_reduce
I1129 22:09:38.010802  5621 net.cpp:435] inception_4e/5x5_reduce <- inception_4d/output_inception_4d/output_0_split_3
I1129 22:09:38.010812  5621 net.cpp:409] inception_4e/5x5_reduce -> inception_4e/5x5_reduce
I1129 22:09:38.012462  5621 net.cpp:144] Setting up inception_4e/5x5_reduce
I1129 22:09:38.012481  5621 net.cpp:151] Top shape: 16 32 14 14 (100352)
I1129 22:09:38.012492  5621 net.cpp:159] Memory required for data: 824468688
I1129 22:09:38.012531  5621 layer_factory.hpp:77] Creating layer inception_4e/relu_5x5_reduce
I1129 22:09:38.012549  5621 net.cpp:94] Creating Layer inception_4e/relu_5x5_reduce
I1129 22:09:38.012562  5621 net.cpp:435] inception_4e/relu_5x5_reduce <- inception_4e/5x5_reduce
I1129 22:09:38.012575  5621 net.cpp:396] inception_4e/relu_5x5_reduce -> inception_4e/5x5_reduce (in-place)
I1129 22:09:38.012594  5621 net.cpp:144] Setting up inception_4e/relu_5x5_reduce
I1129 22:09:38.012609  5621 net.cpp:151] Top shape: 16 32 14 14 (100352)
I1129 22:09:38.012619  5621 net.cpp:159] Memory required for data: 824870096
I1129 22:09:38.012629  5621 layer_factory.hpp:77] Creating layer inception_4e/5x5
I1129 22:09:38.012648  5621 net.cpp:94] Creating Layer inception_4e/5x5
I1129 22:09:38.012660  5621 net.cpp:435] inception_4e/5x5 <- inception_4e/5x5_reduce
I1129 22:09:38.012678  5621 net.cpp:409] inception_4e/5x5 -> inception_4e/5x5
I1129 22:09:38.015172  5621 net.cpp:144] Setting up inception_4e/5x5
I1129 22:09:38.015190  5621 net.cpp:151] Top shape: 16 128 14 14 (401408)
I1129 22:09:38.015202  5621 net.cpp:159] Memory required for data: 826475728
I1129 22:09:38.015218  5621 layer_factory.hpp:77] Creating layer inception_4e/relu_5x5
I1129 22:09:38.015233  5621 net.cpp:94] Creating Layer inception_4e/relu_5x5
I1129 22:09:38.015244  5621 net.cpp:435] inception_4e/relu_5x5 <- inception_4e/5x5
I1129 22:09:38.015259  5621 net.cpp:396] inception_4e/relu_5x5 -> inception_4e/5x5 (in-place)
I1129 22:09:38.015276  5621 net.cpp:144] Setting up inception_4e/relu_5x5
I1129 22:09:38.015290  5621 net.cpp:151] Top shape: 16 128 14 14 (401408)
I1129 22:09:38.015300  5621 net.cpp:159] Memory required for data: 828081360
I1129 22:09:38.015311  5621 layer_factory.hpp:77] Creating layer inception_4e/pool
I1129 22:09:38.015329  5621 net.cpp:94] Creating Layer inception_4e/pool
I1129 22:09:38.015341  5621 net.cpp:435] inception_4e/pool <- inception_4d/output_inception_4d/output_0_split_4
I1129 22:09:38.015357  5621 net.cpp:409] inception_4e/pool -> inception_4e/pool
I1129 22:09:38.015436  5621 net.cpp:144] Setting up inception_4e/pool
I1129 22:09:38.015446  5621 net.cpp:151] Top shape: 16 528 14 14 (1655808)
I1129 22:09:38.015453  5621 net.cpp:159] Memory required for data: 834704592
I1129 22:09:38.015460  5621 layer_factory.hpp:77] Creating layer inception_4e/pool_proj
I1129 22:09:38.015475  5621 net.cpp:94] Creating Layer inception_4e/pool_proj
I1129 22:09:38.015482  5621 net.cpp:435] inception_4e/pool_proj <- inception_4e/pool
I1129 22:09:38.015494  5621 net.cpp:409] inception_4e/pool_proj -> inception_4e/pool_proj
I1129 22:09:38.018147  5621 net.cpp:144] Setting up inception_4e/pool_proj
I1129 22:09:38.018160  5621 net.cpp:151] Top shape: 16 128 14 14 (401408)
I1129 22:09:38.018168  5621 net.cpp:159] Memory required for data: 836310224
I1129 22:09:38.018179  5621 layer_factory.hpp:77] Creating layer inception_4e/relu_pool_proj
I1129 22:09:38.018189  5621 net.cpp:94] Creating Layer inception_4e/relu_pool_proj
I1129 22:09:38.018198  5621 net.cpp:435] inception_4e/relu_pool_proj <- inception_4e/pool_proj
I1129 22:09:38.018206  5621 net.cpp:396] inception_4e/relu_pool_proj -> inception_4e/pool_proj (in-place)
I1129 22:09:38.018218  5621 net.cpp:144] Setting up inception_4e/relu_pool_proj
I1129 22:09:38.018226  5621 net.cpp:151] Top shape: 16 128 14 14 (401408)
I1129 22:09:38.018234  5621 net.cpp:159] Memory required for data: 837915856
I1129 22:09:38.018240  5621 layer_factory.hpp:77] Creating layer inception_4e/output
I1129 22:09:38.018252  5621 net.cpp:94] Creating Layer inception_4e/output
I1129 22:09:38.018260  5621 net.cpp:435] inception_4e/output <- inception_4e/1x1
I1129 22:09:38.018270  5621 net.cpp:435] inception_4e/output <- inception_4e/3x3
I1129 22:09:38.018277  5621 net.cpp:435] inception_4e/output <- inception_4e/5x5
I1129 22:09:38.018285  5621 net.cpp:435] inception_4e/output <- inception_4e/pool_proj
I1129 22:09:38.018295  5621 net.cpp:409] inception_4e/output -> inception_4e/output
I1129 22:09:38.018337  5621 net.cpp:144] Setting up inception_4e/output
I1129 22:09:38.018358  5621 net.cpp:151] Top shape: 16 832 14 14 (2609152)
I1129 22:09:38.018367  5621 net.cpp:159] Memory required for data: 848352464
I1129 22:09:38.018373  5621 layer_factory.hpp:77] Creating layer pool4/3x3_s2
I1129 22:09:38.018383  5621 net.cpp:94] Creating Layer pool4/3x3_s2
I1129 22:09:38.018390  5621 net.cpp:435] pool4/3x3_s2 <- inception_4e/output
I1129 22:09:38.018402  5621 net.cpp:409] pool4/3x3_s2 -> pool4/3x3_s2
I1129 22:09:38.018471  5621 net.cpp:144] Setting up pool4/3x3_s2
I1129 22:09:38.018481  5621 net.cpp:151] Top shape: 16 832 7 7 (652288)
I1129 22:09:38.018486  5621 net.cpp:159] Memory required for data: 850961616
I1129 22:09:38.018493  5621 layer_factory.hpp:77] Creating layer pool4/3x3_s2_pool4/3x3_s2_0_split
I1129 22:09:38.018503  5621 net.cpp:94] Creating Layer pool4/3x3_s2_pool4/3x3_s2_0_split
I1129 22:09:38.018510  5621 net.cpp:435] pool4/3x3_s2_pool4/3x3_s2_0_split <- pool4/3x3_s2
I1129 22:09:38.018522  5621 net.cpp:409] pool4/3x3_s2_pool4/3x3_s2_0_split -> pool4/3x3_s2_pool4/3x3_s2_0_split_0
I1129 22:09:38.018533  5621 net.cpp:409] pool4/3x3_s2_pool4/3x3_s2_0_split -> pool4/3x3_s2_pool4/3x3_s2_0_split_1
I1129 22:09:38.018544  5621 net.cpp:409] pool4/3x3_s2_pool4/3x3_s2_0_split -> pool4/3x3_s2_pool4/3x3_s2_0_split_2
I1129 22:09:38.018555  5621 net.cpp:409] pool4/3x3_s2_pool4/3x3_s2_0_split -> pool4/3x3_s2_pool4/3x3_s2_0_split_3
I1129 22:09:38.018668  5621 net.cpp:144] Setting up pool4/3x3_s2_pool4/3x3_s2_0_split
I1129 22:09:38.018681  5621 net.cpp:151] Top shape: 16 832 7 7 (652288)
I1129 22:09:38.018688  5621 net.cpp:151] Top shape: 16 832 7 7 (652288)
I1129 22:09:38.018697  5621 net.cpp:151] Top shape: 16 832 7 7 (652288)
I1129 22:09:38.018705  5621 net.cpp:151] Top shape: 16 832 7 7 (652288)
I1129 22:09:38.018712  5621 net.cpp:159] Memory required for data: 861398224
I1129 22:09:38.018719  5621 layer_factory.hpp:77] Creating layer inception_5a/1x1
I1129 22:09:38.018733  5621 net.cpp:94] Creating Layer inception_5a/1x1
I1129 22:09:38.018741  5621 net.cpp:435] inception_5a/1x1 <- pool4/3x3_s2_pool4/3x3_s2_0_split_0
I1129 22:09:38.018753  5621 net.cpp:409] inception_5a/1x1 -> inception_5a/1x1
I1129 22:09:38.023692  5621 net.cpp:144] Setting up inception_5a/1x1
I1129 22:09:38.023716  5621 net.cpp:151] Top shape: 16 256 7 7 (200704)
I1129 22:09:38.023728  5621 net.cpp:159] Memory required for data: 862201040
I1129 22:09:38.023748  5621 layer_factory.hpp:77] Creating layer inception_5a/relu_1x1
I1129 22:09:38.023766  5621 net.cpp:94] Creating Layer inception_5a/relu_1x1
I1129 22:09:38.023778  5621 net.cpp:435] inception_5a/relu_1x1 <- inception_5a/1x1
I1129 22:09:38.023792  5621 net.cpp:396] inception_5a/relu_1x1 -> inception_5a/1x1 (in-place)
I1129 22:09:38.023811  5621 net.cpp:144] Setting up inception_5a/relu_1x1
I1129 22:09:38.023820  5621 net.cpp:151] Top shape: 16 256 7 7 (200704)
I1129 22:09:38.023828  5621 net.cpp:159] Memory required for data: 863003856
I1129 22:09:38.023834  5621 layer_factory.hpp:77] Creating layer inception_5a/3x3_reduce
I1129 22:09:38.023850  5621 net.cpp:94] Creating Layer inception_5a/3x3_reduce
I1129 22:09:38.023859  5621 net.cpp:435] inception_5a/3x3_reduce <- pool4/3x3_s2_pool4/3x3_s2_0_split_1
I1129 22:09:38.023869  5621 net.cpp:409] inception_5a/3x3_reduce -> inception_5a/3x3_reduce
I1129 22:09:38.026954  5621 net.cpp:144] Setting up inception_5a/3x3_reduce
I1129 22:09:38.026978  5621 net.cpp:151] Top shape: 16 160 7 7 (125440)
I1129 22:09:38.026988  5621 net.cpp:159] Memory required for data: 863505616
I1129 22:09:38.027005  5621 layer_factory.hpp:77] Creating layer inception_5a/relu_3x3_reduce
I1129 22:09:38.027020  5621 net.cpp:94] Creating Layer inception_5a/relu_3x3_reduce
I1129 22:09:38.027032  5621 net.cpp:435] inception_5a/relu_3x3_reduce <- inception_5a/3x3_reduce
I1129 22:09:38.027046  5621 net.cpp:396] inception_5a/relu_3x3_reduce -> inception_5a/3x3_reduce (in-place)
I1129 22:09:38.027065  5621 net.cpp:144] Setting up inception_5a/relu_3x3_reduce
I1129 22:09:38.027078  5621 net.cpp:151] Top shape: 16 160 7 7 (125440)
I1129 22:09:38.027112  5621 net.cpp:159] Memory required for data: 864007376
I1129 22:09:38.027124  5621 layer_factory.hpp:77] Creating layer inception_5a/3x3
I1129 22:09:38.027146  5621 net.cpp:94] Creating Layer inception_5a/3x3
I1129 22:09:38.027158  5621 net.cpp:435] inception_5a/3x3 <- inception_5a/3x3_reduce
I1129 22:09:38.027175  5621 net.cpp:409] inception_5a/3x3 -> inception_5a/3x3
I1129 22:09:38.035189  5621 net.cpp:144] Setting up inception_5a/3x3
I1129 22:09:38.035215  5621 net.cpp:151] Top shape: 16 320 7 7 (250880)
I1129 22:09:38.035226  5621 net.cpp:159] Memory required for data: 865010896
I1129 22:09:38.035244  5621 layer_factory.hpp:77] Creating layer inception_5a/relu_3x3
I1129 22:09:38.035260  5621 net.cpp:94] Creating Layer inception_5a/relu_3x3
I1129 22:09:38.035274  5621 net.cpp:435] inception_5a/relu_3x3 <- inception_5a/3x3
I1129 22:09:38.035287  5621 net.cpp:396] inception_5a/relu_3x3 -> inception_5a/3x3 (in-place)
I1129 22:09:38.035306  5621 net.cpp:144] Setting up inception_5a/relu_3x3
I1129 22:09:38.035320  5621 net.cpp:151] Top shape: 16 320 7 7 (250880)
I1129 22:09:38.035331  5621 net.cpp:159] Memory required for data: 866014416
I1129 22:09:38.035341  5621 layer_factory.hpp:77] Creating layer inception_5a/5x5_reduce
I1129 22:09:38.035363  5621 net.cpp:94] Creating Layer inception_5a/5x5_reduce
I1129 22:09:38.035372  5621 net.cpp:435] inception_5a/5x5_reduce <- pool4/3x3_s2_pool4/3x3_s2_0_split_2
I1129 22:09:38.035384  5621 net.cpp:409] inception_5a/5x5_reduce -> inception_5a/5x5_reduce
I1129 22:09:38.038561  5621 net.cpp:144] Setting up inception_5a/5x5_reduce
I1129 22:09:38.038579  5621 net.cpp:151] Top shape: 16 32 7 7 (25088)
I1129 22:09:38.038588  5621 net.cpp:159] Memory required for data: 866114768
I1129 22:09:38.038599  5621 layer_factory.hpp:77] Creating layer inception_5a/relu_5x5_reduce
I1129 22:09:38.038609  5621 net.cpp:94] Creating Layer inception_5a/relu_5x5_reduce
I1129 22:09:38.038619  5621 net.cpp:435] inception_5a/relu_5x5_reduce <- inception_5a/5x5_reduce
I1129 22:09:38.038628  5621 net.cpp:396] inception_5a/relu_5x5_reduce -> inception_5a/5x5_reduce (in-place)
I1129 22:09:38.038641  5621 net.cpp:144] Setting up inception_5a/relu_5x5_reduce
I1129 22:09:38.038650  5621 net.cpp:151] Top shape: 16 32 7 7 (25088)
I1129 22:09:38.038657  5621 net.cpp:159] Memory required for data: 866215120
I1129 22:09:38.038664  5621 layer_factory.hpp:77] Creating layer inception_5a/5x5
I1129 22:09:38.038679  5621 net.cpp:94] Creating Layer inception_5a/5x5
I1129 22:09:38.038687  5621 net.cpp:435] inception_5a/5x5 <- inception_5a/5x5_reduce
I1129 22:09:38.038699  5621 net.cpp:409] inception_5a/5x5 -> inception_5a/5x5
I1129 22:09:38.041399  5621 net.cpp:144] Setting up inception_5a/5x5
I1129 22:09:38.041427  5621 net.cpp:151] Top shape: 16 128 7 7 (100352)
I1129 22:09:38.041438  5621 net.cpp:159] Memory required for data: 866616528
I1129 22:09:38.041456  5621 layer_factory.hpp:77] Creating layer inception_5a/relu_5x5
I1129 22:09:38.041481  5621 net.cpp:94] Creating Layer inception_5a/relu_5x5
I1129 22:09:38.041494  5621 net.cpp:435] inception_5a/relu_5x5 <- inception_5a/5x5
I1129 22:09:38.041512  5621 net.cpp:396] inception_5a/relu_5x5 -> inception_5a/5x5 (in-place)
I1129 22:09:38.041532  5621 net.cpp:144] Setting up inception_5a/relu_5x5
I1129 22:09:38.041545  5621 net.cpp:151] Top shape: 16 128 7 7 (100352)
I1129 22:09:38.041555  5621 net.cpp:159] Memory required for data: 867017936
I1129 22:09:38.041566  5621 layer_factory.hpp:77] Creating layer inception_5a/pool
I1129 22:09:38.041584  5621 net.cpp:94] Creating Layer inception_5a/pool
I1129 22:09:38.041596  5621 net.cpp:435] inception_5a/pool <- pool4/3x3_s2_pool4/3x3_s2_0_split_3
I1129 22:09:38.041613  5621 net.cpp:409] inception_5a/pool -> inception_5a/pool
I1129 22:09:38.041733  5621 net.cpp:144] Setting up inception_5a/pool
I1129 22:09:38.041743  5621 net.cpp:151] Top shape: 16 832 7 7 (652288)
I1129 22:09:38.041750  5621 net.cpp:159] Memory required for data: 869627088
I1129 22:09:38.041757  5621 layer_factory.hpp:77] Creating layer inception_5a/pool_proj
I1129 22:09:38.041800  5621 net.cpp:94] Creating Layer inception_5a/pool_proj
I1129 22:09:38.041807  5621 net.cpp:435] inception_5a/pool_proj <- inception_5a/pool
I1129 22:09:38.041821  5621 net.cpp:409] inception_5a/pool_proj -> inception_5a/pool_proj
I1129 22:09:38.045961  5621 net.cpp:144] Setting up inception_5a/pool_proj
I1129 22:09:38.045991  5621 net.cpp:151] Top shape: 16 128 7 7 (100352)
I1129 22:09:38.046002  5621 net.cpp:159] Memory required for data: 870028496
I1129 22:09:38.046021  5621 layer_factory.hpp:77] Creating layer inception_5a/relu_pool_proj
I1129 22:09:38.046038  5621 net.cpp:94] Creating Layer inception_5a/relu_pool_proj
I1129 22:09:38.046052  5621 net.cpp:435] inception_5a/relu_pool_proj <- inception_5a/pool_proj
I1129 22:09:38.046066  5621 net.cpp:396] inception_5a/relu_pool_proj -> inception_5a/pool_proj (in-place)
I1129 22:09:38.046087  5621 net.cpp:144] Setting up inception_5a/relu_pool_proj
I1129 22:09:38.046100  5621 net.cpp:151] Top shape: 16 128 7 7 (100352)
I1129 22:09:38.046110  5621 net.cpp:159] Memory required for data: 870429904
I1129 22:09:38.046121  5621 layer_factory.hpp:77] Creating layer inception_5a/output
I1129 22:09:38.046136  5621 net.cpp:94] Creating Layer inception_5a/output
I1129 22:09:38.046147  5621 net.cpp:435] inception_5a/output <- inception_5a/1x1
I1129 22:09:38.046160  5621 net.cpp:435] inception_5a/output <- inception_5a/3x3
I1129 22:09:38.046174  5621 net.cpp:435] inception_5a/output <- inception_5a/5x5
I1129 22:09:38.046185  5621 net.cpp:435] inception_5a/output <- inception_5a/pool_proj
I1129 22:09:38.046200  5621 net.cpp:409] inception_5a/output -> inception_5a/output
I1129 22:09:38.046257  5621 net.cpp:144] Setting up inception_5a/output
I1129 22:09:38.046267  5621 net.cpp:151] Top shape: 16 832 7 7 (652288)
I1129 22:09:38.046273  5621 net.cpp:159] Memory required for data: 873039056
I1129 22:09:38.046280  5621 layer_factory.hpp:77] Creating layer inception_5a/output_inception_5a/output_0_split
I1129 22:09:38.046293  5621 net.cpp:94] Creating Layer inception_5a/output_inception_5a/output_0_split
I1129 22:09:38.046300  5621 net.cpp:435] inception_5a/output_inception_5a/output_0_split <- inception_5a/output
I1129 22:09:38.046309  5621 net.cpp:409] inception_5a/output_inception_5a/output_0_split -> inception_5a/output_inception_5a/output_0_split_0
I1129 22:09:38.046320  5621 net.cpp:409] inception_5a/output_inception_5a/output_0_split -> inception_5a/output_inception_5a/output_0_split_1
I1129 22:09:38.046331  5621 net.cpp:409] inception_5a/output_inception_5a/output_0_split -> inception_5a/output_inception_5a/output_0_split_2
I1129 22:09:38.046344  5621 net.cpp:409] inception_5a/output_inception_5a/output_0_split -> inception_5a/output_inception_5a/output_0_split_3
I1129 22:09:38.046463  5621 net.cpp:144] Setting up inception_5a/output_inception_5a/output_0_split
I1129 22:09:38.046473  5621 net.cpp:151] Top shape: 16 832 7 7 (652288)
I1129 22:09:38.046481  5621 net.cpp:151] Top shape: 16 832 7 7 (652288)
I1129 22:09:38.046489  5621 net.cpp:151] Top shape: 16 832 7 7 (652288)
I1129 22:09:38.046499  5621 net.cpp:151] Top shape: 16 832 7 7 (652288)
I1129 22:09:38.046505  5621 net.cpp:159] Memory required for data: 883475664
I1129 22:09:38.046512  5621 layer_factory.hpp:77] Creating layer inception_5b/1x1
I1129 22:09:38.046527  5621 net.cpp:94] Creating Layer inception_5b/1x1
I1129 22:09:38.046535  5621 net.cpp:435] inception_5b/1x1 <- inception_5a/output_inception_5a/output_0_split_0
I1129 22:09:38.046548  5621 net.cpp:409] inception_5b/1x1 -> inception_5b/1x1
I1129 22:09:38.052155  5621 net.cpp:144] Setting up inception_5b/1x1
I1129 22:09:38.052175  5621 net.cpp:151] Top shape: 16 384 7 7 (301056)
I1129 22:09:38.052187  5621 net.cpp:159] Memory required for data: 884679888
I1129 22:09:38.052203  5621 layer_factory.hpp:77] Creating layer inception_5b/relu_1x1
I1129 22:09:38.052218  5621 net.cpp:94] Creating Layer inception_5b/relu_1x1
I1129 22:09:38.052230  5621 net.cpp:435] inception_5b/relu_1x1 <- inception_5b/1x1
I1129 22:09:38.052245  5621 net.cpp:396] inception_5b/relu_1x1 -> inception_5b/1x1 (in-place)
I1129 22:09:38.052286  5621 net.cpp:144] Setting up inception_5b/relu_1x1
I1129 22:09:38.052300  5621 net.cpp:151] Top shape: 16 384 7 7 (301056)
I1129 22:09:38.052311  5621 net.cpp:159] Memory required for data: 885884112
I1129 22:09:38.052322  5621 layer_factory.hpp:77] Creating layer inception_5b/3x3_reduce
I1129 22:09:38.052345  5621 net.cpp:94] Creating Layer inception_5b/3x3_reduce
I1129 22:09:38.052357  5621 net.cpp:435] inception_5b/3x3_reduce <- inception_5a/output_inception_5a/output_0_split_1
I1129 22:09:38.052374  5621 net.cpp:409] inception_5b/3x3_reduce -> inception_5b/3x3_reduce
I1129 22:09:38.056744  5621 net.cpp:144] Setting up inception_5b/3x3_reduce
I1129 22:09:38.056764  5621 net.cpp:151] Top shape: 16 192 7 7 (150528)
I1129 22:09:38.056772  5621 net.cpp:159] Memory required for data: 886486224
I1129 22:09:38.056785  5621 layer_factory.hpp:77] Creating layer inception_5b/relu_3x3_reduce
I1129 22:09:38.056799  5621 net.cpp:94] Creating Layer inception_5b/relu_3x3_reduce
I1129 22:09:38.056809  5621 net.cpp:435] inception_5b/relu_3x3_reduce <- inception_5b/3x3_reduce
I1129 22:09:38.056819  5621 net.cpp:396] inception_5b/relu_3x3_reduce -> inception_5b/3x3_reduce (in-place)
I1129 22:09:38.056833  5621 net.cpp:144] Setting up inception_5b/relu_3x3_reduce
I1129 22:09:38.056843  5621 net.cpp:151] Top shape: 16 192 7 7 (150528)
I1129 22:09:38.056849  5621 net.cpp:159] Memory required for data: 887088336
I1129 22:09:38.056856  5621 layer_factory.hpp:77] Creating layer inception_5b/3x3
I1129 22:09:38.056870  5621 net.cpp:94] Creating Layer inception_5b/3x3
I1129 22:09:38.056879  5621 net.cpp:435] inception_5b/3x3 <- inception_5b/3x3_reduce
I1129 22:09:38.056890  5621 net.cpp:409] inception_5b/3x3 -> inception_5b/3x3
I1129 22:09:38.066849  5621 net.cpp:144] Setting up inception_5b/3x3
I1129 22:09:38.066872  5621 net.cpp:151] Top shape: 16 384 7 7 (301056)
I1129 22:09:38.066880  5621 net.cpp:159] Memory required for data: 888292560
I1129 22:09:38.066895  5621 layer_factory.hpp:77] Creating layer inception_5b/relu_3x3
I1129 22:09:38.066910  5621 net.cpp:94] Creating Layer inception_5b/relu_3x3
I1129 22:09:38.066920  5621 net.cpp:435] inception_5b/relu_3x3 <- inception_5b/3x3
I1129 22:09:38.066931  5621 net.cpp:396] inception_5b/relu_3x3 -> inception_5b/3x3 (in-place)
I1129 22:09:38.066944  5621 net.cpp:144] Setting up inception_5b/relu_3x3
I1129 22:09:38.066953  5621 net.cpp:151] Top shape: 16 384 7 7 (301056)
I1129 22:09:38.066961  5621 net.cpp:159] Memory required for data: 889496784
I1129 22:09:38.066968  5621 layer_factory.hpp:77] Creating layer inception_5b/5x5_reduce
I1129 22:09:38.066984  5621 net.cpp:94] Creating Layer inception_5b/5x5_reduce
I1129 22:09:38.066993  5621 net.cpp:435] inception_5b/5x5_reduce <- inception_5a/output_inception_5a/output_0_split_2
I1129 22:09:38.067008  5621 net.cpp:409] inception_5b/5x5_reduce -> inception_5b/5x5_reduce
I1129 22:09:38.071041  5621 net.cpp:144] Setting up inception_5b/5x5_reduce
I1129 22:09:38.071071  5621 net.cpp:151] Top shape: 16 48 7 7 (37632)
I1129 22:09:38.071079  5621 net.cpp:159] Memory required for data: 889647312
I1129 22:09:38.071096  5621 layer_factory.hpp:77] Creating layer inception_5b/relu_5x5_reduce
I1129 22:09:38.071111  5621 net.cpp:94] Creating Layer inception_5b/relu_5x5_reduce
I1129 22:09:38.071122  5621 net.cpp:435] inception_5b/relu_5x5_reduce <- inception_5b/5x5_reduce
I1129 22:09:38.071135  5621 net.cpp:396] inception_5b/relu_5x5_reduce -> inception_5b/5x5_reduce (in-place)
I1129 22:09:38.071152  5621 net.cpp:144] Setting up inception_5b/relu_5x5_reduce
I1129 22:09:38.071161  5621 net.cpp:151] Top shape: 16 48 7 7 (37632)
I1129 22:09:38.071168  5621 net.cpp:159] Memory required for data: 889797840
I1129 22:09:38.071176  5621 layer_factory.hpp:77] Creating layer inception_5b/5x5
I1129 22:09:38.071192  5621 net.cpp:94] Creating Layer inception_5b/5x5
I1129 22:09:38.071199  5621 net.cpp:435] inception_5b/5x5 <- inception_5b/5x5_reduce
I1129 22:09:38.071213  5621 net.cpp:409] inception_5b/5x5 -> inception_5b/5x5
I1129 22:09:38.074117  5621 net.cpp:144] Setting up inception_5b/5x5
I1129 22:09:38.074133  5621 net.cpp:151] Top shape: 16 128 7 7 (100352)
I1129 22:09:38.074141  5621 net.cpp:159] Memory required for data: 890199248
I1129 22:09:38.074151  5621 layer_factory.hpp:77] Creating layer inception_5b/relu_5x5
I1129 22:09:38.074163  5621 net.cpp:94] Creating Layer inception_5b/relu_5x5
I1129 22:09:38.074172  5621 net.cpp:435] inception_5b/relu_5x5 <- inception_5b/5x5
I1129 22:09:38.074182  5621 net.cpp:396] inception_5b/relu_5x5 -> inception_5b/5x5 (in-place)
I1129 22:09:38.074193  5621 net.cpp:144] Setting up inception_5b/relu_5x5
I1129 22:09:38.074203  5621 net.cpp:151] Top shape: 16 128 7 7 (100352)
I1129 22:09:38.074209  5621 net.cpp:159] Memory required for data: 890600656
I1129 22:09:38.074216  5621 layer_factory.hpp:77] Creating layer inception_5b/pool
I1129 22:09:38.074229  5621 net.cpp:94] Creating Layer inception_5b/pool
I1129 22:09:38.074239  5621 net.cpp:435] inception_5b/pool <- inception_5a/output_inception_5a/output_0_split_3
I1129 22:09:38.074249  5621 net.cpp:409] inception_5b/pool -> inception_5b/pool
I1129 22:09:38.074326  5621 net.cpp:144] Setting up inception_5b/pool
I1129 22:09:38.074337  5621 net.cpp:151] Top shape: 16 832 7 7 (652288)
I1129 22:09:38.074344  5621 net.cpp:159] Memory required for data: 893209808
I1129 22:09:38.074352  5621 layer_factory.hpp:77] Creating layer inception_5b/pool_proj
I1129 22:09:38.074373  5621 net.cpp:94] Creating Layer inception_5b/pool_proj
I1129 22:09:38.074380  5621 net.cpp:435] inception_5b/pool_proj <- inception_5b/pool
I1129 22:09:38.074393  5621 net.cpp:409] inception_5b/pool_proj -> inception_5b/pool_proj
I1129 22:09:38.077702  5621 net.cpp:144] Setting up inception_5b/pool_proj
I1129 22:09:38.077720  5621 net.cpp:151] Top shape: 16 128 7 7 (100352)
I1129 22:09:38.077728  5621 net.cpp:159] Memory required for data: 893611216
I1129 22:09:38.077740  5621 layer_factory.hpp:77] Creating layer inception_5b/relu_pool_proj
I1129 22:09:38.077755  5621 net.cpp:94] Creating Layer inception_5b/relu_pool_proj
I1129 22:09:38.077764  5621 net.cpp:435] inception_5b/relu_pool_proj <- inception_5b/pool_proj
I1129 22:09:38.077775  5621 net.cpp:396] inception_5b/relu_pool_proj -> inception_5b/pool_proj (in-place)
I1129 22:09:38.077787  5621 net.cpp:144] Setting up inception_5b/relu_pool_proj
I1129 22:09:38.077796  5621 net.cpp:151] Top shape: 16 128 7 7 (100352)
I1129 22:09:38.077803  5621 net.cpp:159] Memory required for data: 894012624
I1129 22:09:38.077811  5621 layer_factory.hpp:77] Creating layer inception_5b/output
I1129 22:09:38.077821  5621 net.cpp:94] Creating Layer inception_5b/output
I1129 22:09:38.077828  5621 net.cpp:435] inception_5b/output <- inception_5b/1x1
I1129 22:09:38.077836  5621 net.cpp:435] inception_5b/output <- inception_5b/3x3
I1129 22:09:38.077846  5621 net.cpp:435] inception_5b/output <- inception_5b/5x5
I1129 22:09:38.077853  5621 net.cpp:435] inception_5b/output <- inception_5b/pool_proj
I1129 22:09:38.077862  5621 net.cpp:409] inception_5b/output -> inception_5b/output
I1129 22:09:38.077919  5621 net.cpp:144] Setting up inception_5b/output
I1129 22:09:38.077929  5621 net.cpp:151] Top shape: 16 1024 7 7 (802816)
I1129 22:09:38.077936  5621 net.cpp:159] Memory required for data: 897223888
I1129 22:09:38.077944  5621 layer_factory.hpp:77] Creating layer pool5/7x7_s1
I1129 22:09:38.077955  5621 net.cpp:94] Creating Layer pool5/7x7_s1
I1129 22:09:38.077961  5621 net.cpp:435] pool5/7x7_s1 <- inception_5b/output
I1129 22:09:38.077973  5621 net.cpp:409] pool5/7x7_s1 -> pool5/7x7_s1
I1129 22:09:38.078021  5621 net.cpp:144] Setting up pool5/7x7_s1
I1129 22:09:38.078030  5621 net.cpp:151] Top shape: 16 1024 1 1 (16384)
I1129 22:09:38.078037  5621 net.cpp:159] Memory required for data: 897289424
I1129 22:09:38.078044  5621 layer_factory.hpp:77] Creating layer pool5/drop_7x7_s1
I1129 22:09:38.078054  5621 net.cpp:94] Creating Layer pool5/drop_7x7_s1
I1129 22:09:38.078061  5621 net.cpp:435] pool5/drop_7x7_s1 <- pool5/7x7_s1
I1129 22:09:38.078088  5621 net.cpp:396] pool5/drop_7x7_s1 -> pool5/7x7_s1 (in-place)
I1129 22:09:38.078126  5621 net.cpp:144] Setting up pool5/drop_7x7_s1
I1129 22:09:38.078136  5621 net.cpp:151] Top shape: 16 1024 1 1 (16384)
I1129 22:09:38.078143  5621 net.cpp:159] Memory required for data: 897354960
I1129 22:09:38.078150  5621 layer_factory.hpp:77] Creating layer loss3/classifier_output
I1129 22:09:38.078163  5621 net.cpp:94] Creating Layer loss3/classifier_output
I1129 22:09:38.078171  5621 net.cpp:435] loss3/classifier_output <- pool5/7x7_s1
I1129 22:09:38.078183  5621 net.cpp:409] loss3/classifier_output -> loss3/classifier_output
I1129 22:09:38.078415  5621 net.cpp:144] Setting up loss3/classifier_output
I1129 22:09:38.078425  5621 net.cpp:151] Top shape: 16 2 (32)
I1129 22:09:38.078433  5621 net.cpp:159] Memory required for data: 897355088
I1129 22:09:38.078443  5621 layer_factory.hpp:77] Creating layer loss3/classifier_output_loss3/classifier_output_0_split
I1129 22:09:38.078454  5621 net.cpp:94] Creating Layer loss3/classifier_output_loss3/classifier_output_0_split
I1129 22:09:38.078460  5621 net.cpp:435] loss3/classifier_output_loss3/classifier_output_0_split <- loss3/classifier_output
I1129 22:09:38.078469  5621 net.cpp:409] loss3/classifier_output_loss3/classifier_output_0_split -> loss3/classifier_output_loss3/classifier_output_0_split_0
I1129 22:09:38.078480  5621 net.cpp:409] loss3/classifier_output_loss3/classifier_output_0_split -> loss3/classifier_output_loss3/classifier_output_0_split_1
I1129 22:09:38.078552  5621 net.cpp:144] Setting up loss3/classifier_output_loss3/classifier_output_0_split
I1129 22:09:38.078560  5621 net.cpp:151] Top shape: 16 2 (32)
I1129 22:09:38.078569  5621 net.cpp:151] Top shape: 16 2 (32)
I1129 22:09:38.078577  5621 net.cpp:159] Memory required for data: 897355344
I1129 22:09:38.078583  5621 layer_factory.hpp:77] Creating layer loss3/loss
I1129 22:09:38.078593  5621 net.cpp:94] Creating Layer loss3/loss
I1129 22:09:38.078600  5621 net.cpp:435] loss3/loss <- loss3/classifier_output_loss3/classifier_output_0_split_0
I1129 22:09:38.078609  5621 net.cpp:435] loss3/loss <- label_val-data_1_split_4
…
