…
I0122 01:41:27.794073  5497 net.cpp:322] The NetState phase (0) differed from the phase (1) specified by a rule in layer accuracy
I0122 01:41:27.794348  5497 net.cpp:58] Initializing net from parameters:
state {
phase: TRAIN
level: 0
stage: ""
}
layer {
name: "train-data"
type: "Data"
top: "data"
top: "label"
include {
phase: TRAIN
}
transform_param {
mirror: true
crop_size: 224
mean_file: "/media/myuser/120Gb/DIGITS/digits/jobs/20161129-185048-9470/mean.binaryproto"
}
data_param {
source: "/media/myuser/120Gb/DIGITS/digits/jobs/20161129-185048-9470/train_db"
batch_size: 128
backend: LMDB
}
}
layer {
name: "conv1"
type: "Convolution"
bottom: "data"
top: "conv1"
param {
lr_mult: 1
decay_mult: 1
}
param {
lr_mult: 2
decay_mult: 0
}
convolution_param {
num_output: 96
kernel_size: 11
stride: 4
weight_filler {
type: "gaussian"
mean: 0
std: 0.01
}
bias_filler {
type: "constant"
value: 0
}
}
}
layer {
name: "relu0"
type: "ReLU"
bottom: "conv1"
top: "conv1"
}
layer {
name: "cccp1"
type: "Convolution"
bottom: "conv1"
top: "cccp1"
param {
lr_mult: 1
decay_mult: 1
}
param {
lr_mult: 2
decay_mult: 0
}
convolution_param {
num_output: 96
kernel_size: 1
stride: 1
weight_filler {
type: "gaussian"
mean: 0
std: 0.05
}
bias_filler {
type: "constant"
value: 0
}
}
}
layer {
name: "relu1"
type: "ReLU"
bottom: "cccp1"
top: "cccp1"
}
layer {
name: "cccp2"
type: "Convolution"
bottom: "cccp1"
top: "cccp2"
param {
lr_mult: 1
decay_mult: 1
}
param {
lr_mult: 2
decay_mult: 0
}
convolution_param {
num_output: 96
kernel_size: 1
stride: 1
weight_filler {
type: "gaussian"
mean: 0
std: 0.05
}
bias_filler {
type: "constant"
value: 0
}
}
}
layer {
name: "relu2"
type: "ReLU"
bottom: "cccp2"
top: "cccp2"
}
layer {
name: "pool0"
type: "Pooling"
bottom: "cccp2"
top: "pool0"
pooling_param {
pool: MAX
kernel_size: 3
stride: 2
}
}
layer {
name: "conv2"
type: "Convolution"
bottom: "pool0"
top: "conv2"
param {
lr_mult: 1
decay_mult: 1
}
param {
lr_mult: 2
decay_mult: 0
}
convolution_param {
num_output: 256
pad: 2
kernel_size: 5
stride: 1
weight_filler {
type: "gaussian"
mean: 0
std: 0.05
}
bias_filler {
type: "constant"
value: 0
}
}
}
layer {
name: "relu3"
type: "ReLU"
bottom: "conv2"
top: "conv2"
}
layer {
name: "cccp3"
type: "Convolution"
bottom: "conv2"
top: "cccp3"
param {
lr_mult: 1
decay_mult: 1
}
param {
lr_mult: 2
decay_mult: 0
}
convolution_param {
num_output: 256
kernel_size: 1
stride: 1
weight_filler {
type: "gaussian"
mean: 0
std: 0.05
}
bias_filler {
type: "constant"
value: 0
}
}
}
layer {
name: "relu5"
type: "ReLU"
bottom: "cccp3"
top: "cccp3"
}
layer {
name: "cccp4"
type: "Convolution"
bottom: "cccp3"
top: "cccp4"
param {
lr_mult: 1
decay_mult: 1
}
param {
lr_mult: 2
decay_mult: 0
}
convolution_param {
num_output: 256
kernel_size: 1
stride: 1
weight_filler {
type: "gaussian"
mean: 0
std: 0.05
}
bias_filler {
type: "constant"
value: 0
}
}
}
layer {
name: "relu6"
type: "ReLU"
bottom: "cccp4"
top: "cccp4"
}
layer {
name: "pool2"
type: "Pooling"
bottom: "cccp4"
top: "pool2"
pooling_param {
pool: MAX
kernel_size: 3
stride: 2
}
}
layer {
name: "conv3"
type: "Convolution"
bottom: "pool2"
top: "conv3"
param {
lr_mult: 1
decay_mult: 1
}
param {
lr_mult: 2
decay_mult: 0
}
convolution_param {
num_output: 384
pad: 1
kernel_size: 3
stride: 1
weight_filler {
type: "gaussian"
mean: 0
std: 0.01
}
bias_filler {
type: "constant"
value: 0
}
}
}
layer {
name: "relu7"
type: "ReLU"
bottom: "conv3"
top: "conv3"
}
layer {
name: "cccp5"
type: "Convolution"
bottom: "conv3"
top: "cccp5"
param {
lr_mult: 1
decay_mult: 1
}
param {
lr_mult: 2
decay_mult: 0
}
convolution_param {
num_output: 384
kernel_size: 1
stride: 1
weight_filler {
type: "gaussian"
mean: 0
std: 0.05
}
bias_filler {
type: "constant"
value: 0
}
}
}
layer {
name: "relu8"
type: "ReLU"
bottom: "cccp5"
top: "cccp5"
}
layer {
name: "cccp6"
type: "Convolution"
bottom: "cccp5"
top: "cccp6"
param {
lr_mult: 1
decay_mult: 1
}
param {
lr_mult: 2
decay_mult: 0
}
convolution_param {
num_output: 384
kernel_size: 1
stride: 1
weight_filler {
type: "gaussian"
mean: 0
std: 0.05
}
bias_filler {
type: "constant"
value: 0
}
}
}
layer {
name: "relu9"
type: "ReLU"
bottom: "cccp6"
top: "cccp6"
}
layer {
name: "pool3"
type: "Pooling"
bottom: "cccp6"
top: "pool3"
pooling_param {
pool: MAX
kernel_size: 3
stride: 2
}
}
layer {
name: "drop"
type: "Dropout"
bottom: "pool3"
top: "pool3"
dropout_param {
dropout_ratio: 0.5
}
}
layer {
name: "conv4-1024"
type: "Convolution"
bottom: "pool3"
top: "conv4"
param {
lr_mult: 1
decay_mult: 1
}
param {
lr_mult: 2
decay_mult: 0
}
convolution_param {
num_output: 1024
pad: 1
kernel_size: 3
stride: 1
weight_filler {
type: "gaussian"
mean: 0
std: 0.05
}
bias_filler {
type: "constant"
value: 0
}
}
}
layer {
name: "relu10"
type: "ReLU"
bottom: "conv4"
top: "conv4"
}
layer {
name: "cccp7-1024"
type: "Convolution"
bottom: "conv4"
top: "cccp7"
param {
lr_mult: 1
decay_mult: 1
}
param {
lr_mult: 2
decay_mult: 0
}
convolution_param {
num_output: 1024
kernel_size: 1
stride: 1
weight_filler {
type: "gaussian"
mean: 0
std: 0.05
}
bias_filler {
type: "constant"
value: 0
}
}
}
layer {
name: "relu11"
type: "ReLU"
bottom: "cccp7"
top: "cccp7"
}
layer {
name: "cccp8_output"
type: "Convolution"
bottom: "cccp7"
top: "cccp8_output"
param {
lr_mult: 1
decay_mult: 1
}
param {
lr_mult: 2
decay_mult: 0
}
convolution_param {
num_output: 2
kernel_size: 1
stride: 1
weight_filler {
type: "gaussian"
mean: 0
std: 0.01
}
bias_filler {
type: "constant"
value: 0
}
}
}
layer {
name: "relu12"
type: "ReLU"
bottom: "cccp8_output"
top: "cccp8_output"
}
layer {
name: "pool4"
type: "Pooling"
bottom: "cccp8_output"
top: "pool4"
pooling_param {
pool: AVE
kernel_size: 6
stride: 1
}
}
layer {
name: "loss"
type: "SoftmaxWithLoss"
bottom: "pool4"
bottom: "label"
top: "loss"
}
I0122 01:41:27.794535  5497 layer_factory.hpp:77] Creating layer train-data
I0122 01:41:27.794997  5497 net.cpp:100] Creating Layer train-data
I0122 01:41:27.795011  5497 net.cpp:408] train-data -> data
I0122 01:41:27.795037  5497 net.cpp:408] train-data -> label
I0122 01:41:27.795054  5497 data_transformer.cpp:25] Loading mean file from: /media/myuser/120Gb/DIGITS/digits/jobs/20161129-185048-9470/mean.binaryproto
I0122 01:41:27.795722  5505 db_lmdb.cpp:35] Opened lmdb /media/myuser/120Gb/DIGITS/digits/jobs/20161129-185048-9470/train_db
I0122 01:41:27.823748  5497 data_layer.cpp:41] output data size: 128,3,224,224
I0122 01:41:28.077879  5497 net.cpp:150] Setting up train-data
I0122 01:41:28.077920  5497 net.cpp:157] Top shape: 128 3 224 224 (19267584)
I0122 01:41:28.077931  5497 net.cpp:157] Top shape: 128 (128)
I0122 01:41:28.077939  5497 net.cpp:165] Memory required for data: 77070848
I0122 01:41:28.077960  5497 layer_factory.hpp:77] Creating layer conv1
I0122 01:41:28.077988  5497 net.cpp:100] Creating Layer conv1
I0122 01:41:28.077999  5497 net.cpp:434] conv1 <- data
I0122 01:41:28.078018  5497 net.cpp:408] conv1 -> conv1
I0122 01:41:28.556176  5497 net.cpp:150] Setting up conv1
I0122 01:41:28.556208  5497 net.cpp:157] Top shape: 128 96 54 54 (35831808)
I0122 01:41:28.556217  5497 net.cpp:165] Memory required for data: 220398080
I0122 01:41:28.556243  5497 layer_factory.hpp:77] Creating layer relu0
I0122 01:41:28.556260  5497 net.cpp:100] Creating Layer relu0
I0122 01:41:28.556268  5497 net.cpp:434] relu0 <- conv1
I0122 01:41:28.556279  5497 net.cpp:395] relu0 -> conv1 (in-place)
I0122 01:41:28.556506  5497 net.cpp:150] Setting up relu0
I0122 01:41:28.556519  5497 net.cpp:157] Top shape: 128 96 54 54 (35831808)
I0122 01:41:28.556525  5497 net.cpp:165] Memory required for data: 363725312
I0122 01:41:28.556534  5497 layer_factory.hpp:77] Creating layer cccp1
I0122 01:41:28.556550  5497 net.cpp:100] Creating Layer cccp1
I0122 01:41:28.556557  5497 net.cpp:434] cccp1 <- conv1
I0122 01:41:28.556568  5497 net.cpp:408] cccp1 -> cccp1
I0122 01:41:28.562552  5497 net.cpp:150] Setting up cccp1
I0122 01:41:28.562582  5497 net.cpp:157] Top shape: 128 96 54 54 (35831808)
I0122 01:41:28.562590  5497 net.cpp:165] Memory required for data: 507052544
I0122 01:41:28.562610  5497 layer_factory.hpp:77] Creating layer relu1
I0122 01:41:28.562628  5497 net.cpp:100] Creating Layer relu1
I0122 01:41:28.562636  5497 net.cpp:434] relu1 <- cccp1
I0122 01:41:28.562647  5497 net.cpp:395] relu1 -> cccp1 (in-place)
I0122 01:41:28.562845  5497 net.cpp:150] Setting up relu1
I0122 01:41:28.562856  5497 net.cpp:157] Top shape: 128 96 54 54 (35831808)
I0122 01:41:28.562863  5497 net.cpp:165] Memory required for data: 650379776
I0122 01:41:28.562871  5497 layer_factory.hpp:77] Creating layer cccp2
I0122 01:41:28.562888  5497 net.cpp:100] Creating Layer cccp2
I0122 01:41:28.562896  5497 net.cpp:434] cccp2 <- cccp1
I0122 01:41:28.562906  5497 net.cpp:408] cccp2 -> cccp2
I0122 01:41:28.564605  5497 net.cpp:150] Setting up cccp2
I0122 01:41:28.564626  5497 net.cpp:157] Top shape: 128 96 54 54 (35831808)
I0122 01:41:28.564635  5497 net.cpp:165] Memory required for data: 793707008
I0122 01:41:28.564703  5497 layer_factory.hpp:77] Creating layer relu2
I0122 01:41:28.564718  5497 net.cpp:100] Creating Layer relu2
I0122 01:41:28.564726  5497 net.cpp:434] relu2 <- cccp2
I0122 01:41:28.564736  5497 net.cpp:395] relu2 -> cccp2 (in-place)
I0122 01:41:28.565214  5497 net.cpp:150] Setting up relu2
I0122 01:41:28.565227  5497 net.cpp:157] Top shape: 128 96 54 54 (35831808)
I0122 01:41:28.565235  5497 net.cpp:165] Memory required for data: 937034240
I0122 01:41:28.565243  5497 layer_factory.hpp:77] Creating layer pool0
I0122 01:41:28.565258  5497 net.cpp:100] Creating Layer pool0
I0122 01:41:28.565265  5497 net.cpp:434] pool0 <- cccp2
I0122 01:41:28.565276  5497 net.cpp:408] pool0 -> pool0
I0122 01:41:28.565345  5497 net.cpp:150] Setting up pool0
I0122 01:41:28.565356  5497 net.cpp:157] Top shape: 128 96 27 27 (8957952)
I0122 01:41:28.565362  5497 net.cpp:165] Memory required for data: 972866048
I0122 01:41:28.565399  5497 layer_factory.hpp:77] Creating layer conv2
I0122 01:41:28.565418  5497 net.cpp:100] Creating Layer conv2
I0122 01:41:28.565425  5497 net.cpp:434] conv2 <- pool0
I0122 01:41:28.565435  5497 net.cpp:408] conv2 -> conv2
I0122 01:41:28.597241  5497 net.cpp:150] Setting up conv2
I0122 01:41:28.597276  5497 net.cpp:157] Top shape: 128 256 27 27 (23887872)
I0122 01:41:28.597285  5497 net.cpp:165] Memory required for data: 1068417536
I0122 01:41:28.597299  5497 layer_factory.hpp:77] Creating layer relu3
I0122 01:41:28.597314  5497 net.cpp:100] Creating Layer relu3
I0122 01:41:28.597323  5497 net.cpp:434] relu3 <- conv2
I0122 01:41:28.597337  5497 net.cpp:395] relu3 -> conv2 (in-place)
I0122 01:41:28.597559  5497 net.cpp:150] Setting up relu3
I0122 01:41:28.597570  5497 net.cpp:157] Top shape: 128 256 27 27 (23887872)
I0122 01:41:28.597578  5497 net.cpp:165] Memory required for data: 1163969024
I0122 01:41:28.597584  5497 layer_factory.hpp:77] Creating layer cccp3
I0122 01:41:28.597601  5497 net.cpp:100] Creating Layer cccp3
I0122 01:41:28.597609  5497 net.cpp:434] cccp3 <- conv2
I0122 01:41:28.597621  5497 net.cpp:408] cccp3 -> cccp3
I0122 01:41:28.601838  5497 net.cpp:150] Setting up cccp3
I0122 01:41:28.601857  5497 net.cpp:157] Top shape: 128 256 27 27 (23887872)
I0122 01:41:28.601867  5497 net.cpp:165] Memory required for data: 1259520512
I0122 01:41:28.601886  5497 layer_factory.hpp:77] Creating layer relu5
I0122 01:41:28.601897  5497 net.cpp:100] Creating Layer relu5
I0122 01:41:28.601905  5497 net.cpp:434] relu5 <- cccp3
I0122 01:41:28.601914  5497 net.cpp:395] relu5 -> cccp3 (in-place)
I0122 01:41:28.602156  5497 net.cpp:150] Setting up relu5
I0122 01:41:28.602169  5497 net.cpp:157] Top shape: 128 256 27 27 (23887872)
I0122 01:41:28.602175  5497 net.cpp:165] Memory required for data: 1355072000
I0122 01:41:28.602183  5497 layer_factory.hpp:77] Creating layer cccp4
I0122 01:41:28.602198  5497 net.cpp:100] Creating Layer cccp4
I0122 01:41:28.602206  5497 net.cpp:434] cccp4 <- cccp3
I0122 01:41:28.602219  5497 net.cpp:408] cccp4 -> cccp4
I0122 01:41:28.606463  5497 net.cpp:150] Setting up cccp4
I0122 01:41:28.606489  5497 net.cpp:157] Top shape: 128 256 27 27 (23887872)
I0122 01:41:28.606498  5497 net.cpp:165] Memory required for data: 1450623488
I0122 01:41:28.606511  5497 layer_factory.hpp:77] Creating layer relu6
I0122 01:41:28.606524  5497 net.cpp:100] Creating Layer relu6
I0122 01:41:28.606533  5497 net.cpp:434] relu6 <- cccp4
I0122 01:41:28.606544  5497 net.cpp:395] relu6 -> cccp4 (in-place)
I0122 01:41:28.606745  5497 net.cpp:150] Setting up relu6
I0122 01:41:28.606756  5497 net.cpp:157] Top shape: 128 256 27 27 (23887872)
I0122 01:41:28.606763  5497 net.cpp:165] Memory required for data: 1546174976
I0122 01:41:28.606770  5497 layer_factory.hpp:77] Creating layer pool2
I0122 01:41:28.606781  5497 net.cpp:100] Creating Layer pool2
I0122 01:41:28.606788  5497 net.cpp:434] pool2 <- cccp4
I0122 01:41:28.606802  5497 net.cpp:408] pool2 -> pool2
I0122 01:41:28.606848  5497 net.cpp:150] Setting up pool2
I0122 01:41:28.606858  5497 net.cpp:157] Top shape: 128 256 13 13 (5537792)
I0122 01:41:28.606865  5497 net.cpp:165] Memory required for data: 1568326144
I0122 01:41:28.606873  5497 layer_factory.hpp:77] Creating layer conv3
I0122 01:41:28.606889  5497 net.cpp:100] Creating Layer conv3
I0122 01:41:28.606897  5497 net.cpp:434] conv3 <- pool2
I0122 01:41:28.606907  5497 net.cpp:408] conv3 -> conv3
I0122 01:41:28.659898  5497 net.cpp:150] Setting up conv3
I0122 01:41:28.659929  5497 net.cpp:157] Top shape: 128 384 13 13 (8306688)
I0122 01:41:28.659939  5497 net.cpp:165] Memory required for data: 1601552896
I0122 01:41:28.659955  5497 layer_factory.hpp:77] Creating layer relu7
I0122 01:41:28.659975  5497 net.cpp:100] Creating Layer relu7
I0122 01:41:28.659983  5497 net.cpp:434] relu7 <- conv3
I0122 01:41:28.659994  5497 net.cpp:395] relu7 -> conv3 (in-place)
I0122 01:41:28.660198  5497 net.cpp:150] Setting up relu7
I0122 01:41:28.660209  5497 net.cpp:157] Top shape: 128 384 13 13 (8306688)
I0122 01:41:28.660243  5497 net.cpp:165] Memory required for data: 1634779648
I0122 01:41:28.660251  5497 layer_factory.hpp:77] Creating layer cccp5
I0122 01:41:28.660269  5497 net.cpp:100] Creating Layer cccp5
I0122 01:41:28.660275  5497 net.cpp:434] cccp5 <- conv3
I0122 01:41:28.660287  5497 net.cpp:408] cccp5 -> cccp5
I0122 01:41:28.670528  5497 net.cpp:150] Setting up cccp5
I0122 01:41:28.670552  5497 net.cpp:157] Top shape: 128 384 13 13 (8306688)
I0122 01:41:28.670560  5497 net.cpp:165] Memory required for data: 1668006400
I0122 01:41:28.670574  5497 layer_factory.hpp:77] Creating layer relu8
I0122 01:41:28.670590  5497 net.cpp:100] Creating Layer relu8
I0122 01:41:28.670600  5497 net.cpp:434] relu8 <- cccp5
I0122 01:41:28.670611  5497 net.cpp:395] relu8 -> cccp5 (in-place)
I0122 01:41:28.670811  5497 net.cpp:150] Setting up relu8
I0122 01:41:28.670822  5497 net.cpp:157] Top shape: 128 384 13 13 (8306688)
I0122 01:41:28.670830  5497 net.cpp:165] Memory required for data: 1701233152
I0122 01:41:28.670837  5497 layer_factory.hpp:77] Creating layer cccp6
I0122 01:41:28.670855  5497 net.cpp:100] Creating Layer cccp6
I0122 01:41:28.670862  5497 net.cpp:434] cccp6 <- cccp5
I0122 01:41:28.670873  5497 net.cpp:408] cccp6 -> cccp6
I0122 01:41:28.679601  5497 net.cpp:150] Setting up cccp6
I0122 01:41:28.679630  5497 net.cpp:157] Top shape: 128 384 13 13 (8306688)
I0122 01:41:28.679639  5497 net.cpp:165] Memory required for data: 1734459904
I0122 01:41:28.679662  5497 layer_factory.hpp:77] Creating layer relu9
I0122 01:41:28.679678  5497 net.cpp:100] Creating Layer relu9
I0122 01:41:28.679687  5497 net.cpp:434] relu9 <- cccp6
I0122 01:41:28.679698  5497 net.cpp:395] relu9 -> cccp6 (in-place)
I0122 01:41:28.680169  5497 net.cpp:150] Setting up relu9
I0122 01:41:28.680182  5497 net.cpp:157] Top shape: 128 384 13 13 (8306688)
I0122 01:41:28.680189  5497 net.cpp:165] Memory required for data: 1767686656
I0122 01:41:28.680197  5497 layer_factory.hpp:77] Creating layer pool3
I0122 01:41:28.680209  5497 net.cpp:100] Creating Layer pool3
I0122 01:41:28.680217  5497 net.cpp:434] pool3 <- cccp6
I0122 01:41:28.680227  5497 net.cpp:408] pool3 -> pool3
I0122 01:41:28.680279  5497 net.cpp:150] Setting up pool3
I0122 01:41:28.680289  5497 net.cpp:157] Top shape: 128 384 6 6 (1769472)
I0122 01:41:28.680295  5497 net.cpp:165] Memory required for data: 1774764544
I0122 01:41:28.680302  5497 layer_factory.hpp:77] Creating layer drop
I0122 01:41:28.680313  5497 net.cpp:100] Creating Layer drop
I0122 01:41:28.680320  5497 net.cpp:434] drop <- pool3
I0122 01:41:28.680330  5497 net.cpp:395] drop -> pool3 (in-place)
I0122 01:41:28.680362  5497 net.cpp:150] Setting up drop
I0122 01:41:28.680371  5497 net.cpp:157] Top shape: 128 384 6 6 (1769472)
I0122 01:41:28.680378  5497 net.cpp:165] Memory required for data: 1781842432
I0122 01:41:28.680385  5497 layer_factory.hpp:77] Creating layer conv4-1024
I0122 01:41:28.680402  5497 net.cpp:100] Creating Layer conv4-1024
I0122 01:41:28.680410  5497 net.cpp:434] conv4-1024 <- pool3
I0122 01:41:28.680420  5497 net.cpp:408] conv4-1024 -> conv4
I0122 01:41:28.907460  5497 net.cpp:150] Setting up conv4-1024
I0122 01:41:28.907501  5497 net.cpp:157] Top shape: 128 1024 6 6 (4718592)
I0122 01:41:28.907510  5497 net.cpp:165] Memory required for data: 1800716800
I0122 01:41:28.907527  5497 layer_factory.hpp:77] Creating layer relu10
I0122 01:41:28.907546  5497 net.cpp:100] Creating Layer relu10
I0122 01:41:28.907555  5497 net.cpp:434] relu10 <- conv4
I0122 01:41:28.907568  5497 net.cpp:395] relu10 -> conv4 (in-place)
I0122 01:41:28.907938  5497 net.cpp:150] Setting up relu10
I0122 01:41:28.907949  5497 net.cpp:157] Top shape: 128 1024 6 6 (4718592)
I0122 01:41:28.907956  5497 net.cpp:165] Memory required for data: 1819591168
I0122 01:41:28.907964  5497 layer_factory.hpp:77] Creating layer cccp7-1024
I0122 01:41:28.907981  5497 net.cpp:100] Creating Layer cccp7-1024
I0122 01:41:28.907989  5497 net.cpp:434] cccp7-1024 <- conv4
I0122 01:41:28.908002  5497 net.cpp:408] cccp7-1024 -> cccp7
I0122 01:41:28.965492  5497 net.cpp:150] Setting up cccp7-1024
I0122 01:41:28.965569  5497 net.cpp:157] Top shape: 128 1024 6 6 (4718592)
I0122 01:41:28.965577  5497 net.cpp:165] Memory required for data: 1838465536
I0122 01:41:28.965595  5497 layer_factory.hpp:77] Creating layer relu11
I0122 01:41:28.965615  5497 net.cpp:100] Creating Layer relu11
I0122 01:41:28.965626  5497 net.cpp:434] relu11 <- cccp7
I0122 01:41:28.965638  5497 net.cpp:395] relu11 -> cccp7 (in-place)
I0122 01:41:28.966019  5497 net.cpp:150] Setting up relu11
I0122 01:41:28.966032  5497 net.cpp:157] Top shape: 128 1024 6 6 (4718592)
I0122 01:41:28.966038  5497 net.cpp:165] Memory required for data: 1857339904
I0122 01:41:28.966047  5497 layer_factory.hpp:77] Creating layer cccp8_output
I0122 01:41:28.966063  5497 net.cpp:100] Creating Layer cccp8_output
I0122 01:41:28.966070  5497 net.cpp:434] cccp8_output <- cccp7
I0122 01:41:28.966083  5497 net.cpp:408] cccp8_output -> cccp8_output
I0122 01:41:28.967437  5497 net.cpp:150] Setting up cccp8_output
I0122 01:41:28.967452  5497 net.cpp:157] Top shape: 128 2 6 6 (9216)
I0122 01:41:28.967458  5497 net.cpp:165] Memory required for data: 1857376768
I0122 01:41:28.967470  5497 layer_factory.hpp:77] Creating layer relu12
I0122 01:41:28.967480  5497 net.cpp:100] Creating Layer relu12
I0122 01:41:28.967488  5497 net.cpp:434] relu12 <- cccp8_output
I0122 01:41:28.967499  5497 net.cpp:395] relu12 -> cccp8_output (in-place)
I0122 01:41:28.967694  5497 net.cpp:150] Setting up relu12
I0122 01:41:28.967705  5497 net.cpp:157] Top shape: 128 2 6 6 (9216)
I0122 01:41:28.967712  5497 net.cpp:165] Memory required for data: 1857413632
I0122 01:41:28.967720  5497 layer_factory.hpp:77] Creating layer pool4
I0122 01:41:28.967730  5497 net.cpp:100] Creating Layer pool4
I0122 01:41:28.967736  5497 net.cpp:434] pool4 <- cccp8_output
I0122 01:41:28.967748  5497 net.cpp:408] pool4 -> pool4
I0122 01:41:28.967974  5497 net.cpp:150] Setting up pool4
I0122 01:41:28.967985  5497 net.cpp:157] Top shape: 128 2 1 1 (256)
I0122 01:41:28.967993  5497 net.cpp:165] Memory required for data: 1857414656
I0122 01:41:28.967999  5497 layer_factory.hpp:77] Creating layer loss
I0122 01:41:28.968016  5497 net.cpp:100] Creating Layer loss
I0122 01:41:28.968024  5497 net.cpp:434] loss <- pool4
I0122 01:41:28.968032  5497 net.cpp:434] loss <- label
I0122 01:41:28.968042  5497 net.cpp:408] loss -> loss
I0122 01:41:28.968055  5497 layer_factory.hpp:77] Creating layer loss
…
I0122 01:41:28.970249  5497 net.cpp:322] The NetState phase (1) differed from the phase (0) specified by a rule in layer train-data
I0122 01:41:28.970535  5497 net.cpp:58] Initializing net from parameters:
state {
phase: TEST
}
layer {
name: "val-data"
type: "Data"
top: "data"
top: "label"
include {
phase: TEST
}
transform_param {
crop_size: 224
mean_file: "/media/myuser/120Gb/DIGITS/digits/jobs/20161129-185048-9470/mean.binaryproto"
}
data_param {
source: "/media/myuser/120Gb/DIGITS/digits/jobs/20161129-185048-9470/val_db"
batch_size: 128
backend: LMDB
}
}
layer {
name: "conv1"
type: "Convolution"
bottom: "data"
top: "conv1"
param {
lr_mult: 1
decay_mult: 1
}
param {
lr_mult: 2
decay_mult: 0
}
convolution_param {
num_output: 96
kernel_size: 11
stride: 4
weight_filler {
type: "gaussian"
mean: 0
std: 0.01
}
bias_filler {
type: "constant"
value: 0
}
}
}
layer {
name: "relu0"
type: "ReLU"
bottom: "conv1"
top: "conv1"
}
layer {
name: "cccp1"
type: "Convolution"
bottom: "conv1"
top: "cccp1"
param {
lr_mult: 1
decay_mult: 1
}
param {
lr_mult: 2
decay_mult: 0
}
convolution_param {
num_output: 96
kernel_size: 1
stride: 1
weight_filler {
type: "gaussian"
mean: 0
std: 0.05
}
bias_filler {
type: "constant"
value: 0
}
}
}
layer {
name: "relu1"
type: "ReLU"
bottom: "cccp1"
top: "cccp1"
}
layer {
name: "cccp2"
type: "Convolution"
bottom: "cccp1"
top: "cccp2"
param {
lr_mult: 1
decay_mult: 1
}
param {
lr_mult: 2
decay_mult: 0
}
convolution_param {
num_output: 96
kernel_size: 1
stride: 1
weight_filler {
type: "gaussian"
mean: 0
std: 0.05
}
bias_filler {
type: "constant"
value: 0
}
}
}
layer {
name: "relu2"
type: "ReLU"
bottom: "cccp2"
top: "cccp2"
}
layer {
name: "pool0"
type: "Pooling"
bottom: "cccp2"
top: "pool0"
pooling_param {
pool: MAX
kernel_size: 3
stride: 2
}
}
layer {
name: "conv2"
type: "Convolution"
bottom: "pool0"
top: "conv2"
param {
lr_mult: 1
decay_mult: 1
}
param {
lr_mult: 2
decay_mult: 0
}
convolution_param {
num_output: 256
pad: 2
kernel_size: 5
stride: 1
weight_filler {
type: "gaussian"
mean: 0
std: 0.05
}
bias_filler {
type: "constant"
value: 0
}
}
}
layer {
name: "relu3"
type: "ReLU"
bottom: "conv2"
top: "conv2"
}
layer {
name: "cccp3"
type: "Convolution"
bottom: "conv2"
top: "cccp3"
param {
lr_mult: 1
decay_mult: 1
}
param {
lr_mult: 2
decay_mult: 0
}
convolution_param {
num_output: 256
kernel_size: 1
stride: 1
weight_filler {
type: "gaussian"
mean: 0
std: 0.05
}
bias_filler {
type: "constant"
value: 0
}
}
}
layer {
name: "relu5"
type: "ReLU"
bottom: "cccp3"
top: "cccp3"
}
layer {
name: "cccp4"
type: "Convolution"
bottom: "cccp3"
top: "cccp4"
param {
lr_mult: 1
decay_mult: 1
}
param {
lr_mult: 2
decay_mult: 0
}
convolution_param {
num_output: 256
kernel_size: 1
stride: 1
weight_filler {
type: "gaussian"
mean: 0
std: 0.05
}
bias_filler {
type: "constant"
value: 0
}
}
}
layer {
name: "relu6"
type: "ReLU"
bottom: "cccp4"
top: "cccp4"
}
layer {
name: "pool2"
type: "Pooling"
bottom: "cccp4"
top: "pool2"
pooling_param {
pool: MAX
kernel_size: 3
stride: 2
}
}
layer {
name: "conv3"
type: "Convolution"
bottom: "pool2"
top: "conv3"
param {
lr_mult: 1
decay_mult: 1
}
param {
lr_mult: 2
decay_mult: 0
}
convolution_param {
num_output: 384
pad: 1
kernel_size: 3
stride: 1
weight_filler {
type: "gaussian"
mean: 0
std: 0.01
}
bias_filler {
type: "constant"
value: 0
}
}
}
layer {
name: "relu7"
type: "ReLU"
bottom: "conv3"
top: "conv3"
}
layer {
name: "cccp5"
type: "Convolution"
bottom: "conv3"
top: "cccp5"
param {
lr_mult: 1
decay_mult: 1
}
param {
lr_mult: 2
decay_mult: 0
}
convolution_param {
num_output: 384
kernel_size: 1
stride: 1
weight_filler {
type: "gaussian"
mean: 0
std: 0.05
}
bias_filler {
type: "constant"
value: 0
}
}
}
layer {
name: "relu8"
type: "ReLU"
bottom: "cccp5"
top: "cccp5"
}
layer {
name: "cccp6"
type: "Convolution"
bottom: "cccp5"
top: "cccp6"
param {
lr_mult: 1
decay_mult: 1
}
param {
lr_mult: 2
decay_mult: 0
}
convolution_param {
num_output: 384
kernel_size: 1
stride: 1
weight_filler {
type: "gaussian"
mean: 0
std: 0.05
}
bias_filler {
type: "constant"
value: 0
}
}
}
layer {
name: "relu9"
type: "ReLU"
bottom: "cccp6"
top: "cccp6"
}
layer {
name: "pool3"
type: "Pooling"
bottom: "cccp6"
top: "pool3"
pooling_param {
pool: MAX
kernel_size: 3
stride: 2
}
}
layer {
name: "drop"
type: "Dropout"
bottom: "pool3"
top: "pool3"
dropout_param {
dropout_ratio: 0.5
}
}
layer {
name: "conv4-1024"
type: "Convolution"
bottom: "pool3"
top: "conv4"
param {
lr_mult: 1
decay_mult: 1
}
param {
lr_mult: 2
decay_mult: 0
}
convolution_param {
num_output: 1024
pad: 1
kernel_size: 3
stride: 1
weight_filler {
type: "gaussian"
mean: 0
std: 0.05
}
bias_filler {
type: "constant"
value: 0
}
}
}
layer {
name: "relu10"
type: "ReLU"
bottom: "conv4"
top: "conv4"
}
layer {
name: "cccp7-1024"
type: "Convolution"
bottom: "conv4"
top: "cccp7"
param {
lr_mult: 1
decay_mult: 1
}
param {
lr_mult: 2
decay_mult: 0
}
convolution_param {
num_output: 1024
kernel_size: 1
stride: 1
weight_filler {
type: "gaussian"
mean: 0
std: 0.05
}
bias_filler {
type: "constant"
value: 0
}
}
}
layer {
name: "relu11"
type: "ReLU"
bottom: "cccp7"
top: "cccp7"
}
layer {
name: "cccp8_output"
type: "Convolution"
bottom: "cccp7"
top: "cccp8_output"
param {
lr_mult: 1
decay_mult: 1
}
param {
lr_mult: 2
decay_mult: 0
}
convolution_param {
num_output: 2
kernel_size: 1
stride: 1
weight_filler {
type: "gaussian"
mean: 0
std: 0.01
}
bias_filler {
type: "constant"
value: 0
}
}
}
layer {
name: "relu12"
type: "ReLU"
bottom: "cccp8_output"
top: "cccp8_output"
}
layer {
name: "pool4"
type: "Pooling"
bottom: "cccp8_output"
top: "pool4"
pooling_param {
pool: AVE
kernel_size: 6
stride: 1
}
}
layer {
name: "accuracy"
type: "Accuracy"
bottom: "pool4"
bottom: "label"
top: "accuracy"
include {
phase: TEST
}
}
layer {
name: "loss"
type: "SoftmaxWithLoss"
bottom: "pool4"
bottom: "label"
top: "loss"
}
I0122 01:41:28.970708  5497 layer_factory.hpp:77] Creating layer val-data
I0122 01:41:28.970870  5497 net.cpp:100] Creating Layer val-data
I0122 01:41:28.970881  5497 net.cpp:408] val-data -> data
I0122 01:41:28.970897  5497 net.cpp:408] val-data -> label
I0122 01:41:28.970911  5497 data_transformer.cpp:25] Loading mean file from: /media/myuser/120Gb/DIGITS/digits/jobs/20161129-185048-9470/mean.binaryproto
I0122 01:41:28.975819  5509 db_lmdb.cpp:35] Opened lmdb /media/myuser/120Gb/DIGITS/digits/jobs/20161129-185048-9470/val_db
I0122 01:41:28.980456  5497 data_layer.cpp:41] output data size: 128,3,224,224
I0122 01:41:29.343130  5497 net.cpp:150] Setting up val-data
I0122 01:41:29.343168  5497 net.cpp:157] Top shape: 128 3 224 224 (19267584)
I0122 01:41:29.343178  5497 net.cpp:157] Top shape: 128 (128)
I0122 01:41:29.343185  5497 net.cpp:165] Memory required for data: 77070848
I0122 01:41:29.343195  5497 layer_factory.hpp:77] Creating layer label_val-data_1_split
I0122 01:41:29.343220  5497 net.cpp:100] Creating Layer label_val-data_1_split
I0122 01:41:29.343230  5497 net.cpp:434] label_val-data_1_split <- label
I0122 01:41:29.343241  5497 net.cpp:408] label_val-data_1_split -> label_val-data_1_split_0
I0122 01:41:29.343256  5497 net.cpp:408] label_val-data_1_split -> label_val-data_1_split_1
I0122 01:41:29.343324  5497 net.cpp:150] Setting up label_val-data_1_split
I0122 01:41:29.343335  5497 net.cpp:157] Top shape: 128 (128)
I0122 01:41:29.343343  5497 net.cpp:157] Top shape: 128 (128)
I0122 01:41:29.343350  5497 net.cpp:165] Memory required for data: 77071872
I0122 01:41:29.343358  5497 layer_factory.hpp:77] Creating layer conv1
I0122 01:41:29.343377  5497 net.cpp:100] Creating Layer conv1
I0122 01:41:29.343385  5497 net.cpp:434] conv1 <- data
I0122 01:41:29.343396  5497 net.cpp:408] conv1 -> conv1
I0122 01:41:29.346374  5497 net.cpp:150] Setting up conv1
I0122 01:41:29.346397  5497 net.cpp:157] Top shape: 128 96 54 54 (35831808)
I0122 01:41:29.346405  5497 net.cpp:165] Memory required for data: 220399104
I0122 01:41:29.346424  5497 layer_factory.hpp:77] Creating layer relu0
I0122 01:41:29.346438  5497 net.cpp:100] Creating Layer relu0
I0122 01:41:29.346446  5497 net.cpp:434] relu0 <- conv1
I0122 01:41:29.346457  5497 net.cpp:395] relu0 -> conv1 (in-place)
I0122 01:41:29.346657  5497 net.cpp:150] Setting up relu0
I0122 01:41:29.346668  5497 net.cpp:157] Top shape: 128 96 54 54 (35831808)
I0122 01:41:29.346675  5497 net.cpp:165] Memory required for data: 363726336
I0122 01:41:29.346683  5497 layer_factory.hpp:77] Creating layer cccp1
I0122 01:41:29.346699  5497 net.cpp:100] Creating Layer cccp1
I0122 01:41:29.346707  5497 net.cpp:434] cccp1 <- conv1
I0122 01:41:29.346719  5497 net.cpp:408] cccp1 -> cccp1
I0122 01:41:29.352977  5497 net.cpp:150] Setting up cccp1
I0122 01:41:29.353008  5497 net.cpp:157] Top shape: 128 96 54 54 (35831808)
I0122 01:41:29.353016  5497 net.cpp:165] Memory required for data: 507053568
I0122 01:41:29.353034  5497 layer_factory.hpp:77] Creating layer relu1
I0122 01:41:29.353049  5497 net.cpp:100] Creating Layer relu1
I0122 01:41:29.353057  5497 net.cpp:434] relu1 <- cccp1
I0122 01:41:29.353068  5497 net.cpp:395] relu1 -> cccp1 (in-place)
I0122 01:41:29.353281  5497 net.cpp:150] Setting up relu1
I0122 01:41:29.353291  5497 net.cpp:157] Top shape: 128 96 54 54 (35831808)
I0122 01:41:29.353299  5497 net.cpp:165] Memory required for data: 650380800
I0122 01:41:29.353307  5497 layer_factory.hpp:77] Creating layer cccp2
I0122 01:41:29.353322  5497 net.cpp:100] Creating Layer cccp2
I0122 01:41:29.353328  5497 net.cpp:434] cccp2 <- cccp1
I0122 01:41:29.353340  5497 net.cpp:408] cccp2 -> cccp2
I0122 01:41:29.373610  5497 net.cpp:150] Setting up cccp2
I0122 01:41:29.373643  5497 net.cpp:157] Top shape: 128 96 54 54 (35831808)
I0122 01:41:29.373677  5497 net.cpp:165] Memory required for data: 793708032
I0122 01:41:29.373699  5497 layer_factory.hpp:77] Creating layer relu2
I0122 01:41:29.373714  5497 net.cpp:100] Creating Layer relu2
I0122 01:41:29.373723  5497 net.cpp:434] relu2 <- cccp2
I0122 01:41:29.373734  5497 net.cpp:395] relu2 -> cccp2 (in-place)
I0122 01:41:29.374011  5497 net.cpp:150] Setting up relu2
I0122 01:41:29.374022  5497 net.cpp:157] Top shape: 128 96 54 54 (35831808)
I0122 01:41:29.374029  5497 net.cpp:165] Memory required for data: 937035264
I0122 01:41:29.374037  5497 layer_factory.hpp:77] Creating layer pool0
I0122 01:41:29.374052  5497 net.cpp:100] Creating Layer pool0
I0122 01:41:29.374058  5497 net.cpp:434] pool0 <- cccp2
I0122 01:41:29.374068  5497 net.cpp:408] pool0 -> pool0
I0122 01:41:29.374140  5497 net.cpp:150] Setting up pool0
I0122 01:41:29.374150  5497 net.cpp:157] Top shape: 128 96 27 27 (8957952)
I0122 01:41:29.374156  5497 net.cpp:165] Memory required for data: 972867072
I0122 01:41:29.374163  5497 layer_factory.hpp:77] Creating layer conv2
I0122 01:41:29.374181  5497 net.cpp:100] Creating Layer conv2
I0122 01:41:29.374188  5497 net.cpp:434] conv2 <- pool0
I0122 01:41:29.374199  5497 net.cpp:408] conv2 -> conv2
I0122 01:41:29.448822  5497 net.cpp:150] Setting up conv2
I0122 01:41:29.448858  5497 net.cpp:157] Top shape: 128 256 27 27 (23887872)
I0122 01:41:29.448868  5497 net.cpp:165] Memory required for data: 1068418560
I0122 01:41:29.448881  5497 layer_factory.hpp:77] Creating layer relu3
I0122 01:41:29.448896  5497 net.cpp:100] Creating Layer relu3
I0122 01:41:29.448905  5497 net.cpp:434] relu3 <- conv2
I0122 01:41:29.448916  5497 net.cpp:395] relu3 -> conv2 (in-place)
I0122 01:41:29.449125  5497 net.cpp:150] Setting up relu3
I0122 01:41:29.449136  5497 net.cpp:157] Top shape: 128 256 27 27 (23887872)
I0122 01:41:29.449143  5497 net.cpp:165] Memory required for data: 1163970048
I0122 01:41:29.449151  5497 layer_factory.hpp:77] Creating layer cccp3
I0122 01:41:29.449167  5497 net.cpp:100] Creating Layer cccp3
I0122 01:41:29.449174  5497 net.cpp:434] cccp3 <- conv2
I0122 01:41:29.449187  5497 net.cpp:408] cccp3 -> cccp3
I0122 01:41:29.453400  5497 net.cpp:150] Setting up cccp3
I0122 01:41:29.453423  5497 net.cpp:157] Top shape: 128 256 27 27 (23887872)
I0122 01:41:29.453430  5497 net.cpp:165] Memory required for data: 1259521536
I0122 01:41:29.453449  5497 layer_factory.hpp:77] Creating layer relu5
I0122 01:41:29.453462  5497 net.cpp:100] Creating Layer relu5
I0122 01:41:29.453470  5497 net.cpp:434] relu5 <- cccp3
I0122 01:41:29.453480  5497 net.cpp:395] relu5 -> cccp3 (in-place)
I0122 01:41:29.453965  5497 net.cpp:150] Setting up relu5
I0122 01:41:29.453977  5497 net.cpp:157] Top shape: 128 256 27 27 (23887872)
I0122 01:41:29.453985  5497 net.cpp:165] Memory required for data: 1355073024
I0122 01:41:29.453992  5497 layer_factory.hpp:77] Creating layer cccp4
I0122 01:41:29.454006  5497 net.cpp:100] Creating Layer cccp4
I0122 01:41:29.454015  5497 net.cpp:434] cccp4 <- cccp3
I0122 01:41:29.454025  5497 net.cpp:408] cccp4 -> cccp4
I0122 01:41:29.457991  5497 net.cpp:150] Setting up cccp4
I0122 01:41:29.458016  5497 net.cpp:157] Top shape: 128 256 27 27 (23887872)
I0122 01:41:29.458024  5497 net.cpp:165] Memory required for data: 1450624512
I0122 01:41:29.458036  5497 layer_factory.hpp:77] Creating layer relu6
I0122 01:41:29.458050  5497 net.cpp:100] Creating Layer relu6
I0122 01:41:29.458057  5497 net.cpp:434] relu6 <- cccp4
I0122 01:41:29.458068  5497 net.cpp:395] relu6 -> cccp4 (in-place)
I0122 01:41:29.459370  5497 net.cpp:150] Setting up relu6
I0122 01:41:29.459390  5497 net.cpp:157] Top shape: 128 256 27 27 (23887872)
I0122 01:41:29.459398  5497 net.cpp:165] Memory required for data: 1546176000
I0122 01:41:29.459406  5497 layer_factory.hpp:77] Creating layer pool2
I0122 01:41:29.459419  5497 net.cpp:100] Creating Layer pool2
I0122 01:41:29.459427  5497 net.cpp:434] pool2 <- cccp4
I0122 01:41:29.459439  5497 net.cpp:408] pool2 -> pool2
I0122 01:41:29.459498  5497 net.cpp:150] Setting up pool2
I0122 01:41:29.459539  5497 net.cpp:157] Top shape: 128 256 13 13 (5537792)
I0122 01:41:29.459547  5497 net.cpp:165] Memory required for data: 1568327168
I0122 01:41:29.459554  5497 layer_factory.hpp:77] Creating layer conv3
I0122 01:41:29.459576  5497 net.cpp:100] Creating Layer conv3
I0122 01:41:29.459584  5497 net.cpp:434] conv3 <- pool2
I0122 01:41:29.463004  5497 net.cpp:408] conv3 -> conv3
I0122 01:41:29.611021  5497 net.cpp:150] Setting up conv3
I0122 01:41:29.611048  5497 net.cpp:157] Top shape: 128 384 13 13 (8306688)
I0122 01:41:29.611057  5497 net.cpp:165] Memory required for data: 1601553920
I0122 01:41:29.611071  5497 layer_factory.hpp:77] Creating layer relu7
I0122 01:41:29.611086  5497 net.cpp:100] Creating Layer relu7
I0122 01:41:29.611095  5497 net.cpp:434] relu7 <- conv3
I0122 01:41:29.611106  5497 net.cpp:395] relu7 -> conv3 (in-place)
I0122 01:41:29.611315  5497 net.cpp:150] Setting up relu7
I0122 01:41:29.611327  5497 net.cpp:157] Top shape: 128 384 13 13 (8306688)
I0122 01:41:29.611335  5497 net.cpp:165] Memory required for data: 1634780672
I0122 01:41:29.611341  5497 layer_factory.hpp:77] Creating layer cccp5
I0122 01:41:29.611358  5497 net.cpp:100] Creating Layer cccp5
I0122 01:41:29.611366  5497 net.cpp:434] cccp5 <- conv3
I0122 01:41:29.611377  5497 net.cpp:408] cccp5 -> cccp5
I0122 01:41:29.642603  5497 net.cpp:150] Setting up cccp5
I0122 01:41:29.642645  5497 net.cpp:157] Top shape: 128 384 13 13 (8306688)
I0122 01:41:29.642653  5497 net.cpp:165] Memory required for data: 1668007424
I0122 01:41:29.642670  5497 layer_factory.hpp:77] Creating layer relu8
I0122 01:41:29.642688  5497 net.cpp:100] Creating Layer relu8
I0122 01:41:29.642699  5497 net.cpp:434] relu8 <- cccp5
I0122 01:41:29.642712  5497 net.cpp:395] relu8 -> cccp5 (in-place)
I0122 01:41:29.642958  5497 net.cpp:150] Setting up relu8
I0122 01:41:29.642969  5497 net.cpp:157] Top shape: 128 384 13 13 (8306688)
I0122 01:41:29.642977  5497 net.cpp:165] Memory required for data: 1701234176
I0122 01:41:29.642984  5497 layer_factory.hpp:77] Creating layer cccp6
I0122 01:41:29.643002  5497 net.cpp:100] Creating Layer cccp6
I0122 01:41:29.643010  5497 net.cpp:434] cccp6 <- cccp5
I0122 01:41:29.643021  5497 net.cpp:408] cccp6 -> cccp6
I0122 01:41:29.669149  5497 net.cpp:150] Setting up cccp6
I0122 01:41:29.669185  5497 net.cpp:157] Top shape: 128 384 13 13 (8306688)
I0122 01:41:29.669194  5497 net.cpp:165] Memory required for data: 1734460928
I0122 01:41:29.669217  5497 layer_factory.hpp:77] Creating layer relu9
I0122 01:41:29.669234  5497 net.cpp:100] Creating Layer relu9
I0122 01:41:29.669242  5497 net.cpp:434] relu9 <- cccp6
I0122 01:41:29.669253  5497 net.cpp:395] relu9 -> cccp6 (in-place)
I0122 01:41:29.669456  5497 net.cpp:150] Setting up relu9
I0122 01:41:29.669468  5497 net.cpp:157] Top shape: 128 384 13 13 (8306688)
I0122 01:41:29.669476  5497 net.cpp:165] Memory required for data: 1767687680
I0122 01:41:29.669482  5497 layer_factory.hpp:77] Creating layer pool3
I0122 01:41:29.669494  5497 net.cpp:100] Creating Layer pool3
I0122 01:41:29.669502  5497 net.cpp:434] pool3 <- cccp6
I0122 01:41:29.669512  5497 net.cpp:408] pool3 -> pool3
I0122 01:41:29.669565  5497 net.cpp:150] Setting up pool3
I0122 01:41:29.669575  5497 net.cpp:157] Top shape: 128 384 6 6 (1769472)
I0122 01:41:29.669582  5497 net.cpp:165] Memory required for data: 1774765568
I0122 01:41:29.669589  5497 layer_factory.hpp:77] Creating layer drop
I0122 01:41:29.669601  5497 net.cpp:100] Creating Layer drop
I0122 01:41:29.669608  5497 net.cpp:434] drop <- pool3
I0122 01:41:29.669618  5497 net.cpp:395] drop -> pool3 (in-place)
I0122 01:41:29.669651  5497 net.cpp:150] Setting up drop
I0122 01:41:29.669662  5497 net.cpp:157] Top shape: 128 384 6 6 (1769472)
I0122 01:41:29.669669  5497 net.cpp:165] Memory required for data: 1781843456
I0122 01:41:29.669677  5497 layer_factory.hpp:77] Creating layer conv4-1024
I0122 01:41:29.669692  5497 net.cpp:100] Creating Layer conv4-1024
I0122 01:41:29.669700  5497 net.cpp:434] conv4-1024 <- pool3
I0122 01:41:29.669713  5497 net.cpp:408] conv4-1024 -> conv4
I0122 01:41:29.984277  5497 net.cpp:150] Setting up conv4-1024
I0122 01:41:29.984308  5497 net.cpp:157] Top shape: 128 1024 6 6 (4718592)
I0122 01:41:29.984315  5497 net.cpp:165] Memory required for data: 1800717824
I0122 01:41:29.984329  5497 layer_factory.hpp:77] Creating layer relu10
I0122 01:41:29.984344  5497 net.cpp:100] Creating Layer relu10
I0122 01:41:29.984352  5497 net.cpp:434] relu10 <- conv4
I0122 01:41:29.984364  5497 net.cpp:395] relu10 -> conv4 (in-place)
I0122 01:41:29.984566  5497 net.cpp:150] Setting up relu10
I0122 01:41:29.984577  5497 net.cpp:157] Top shape: 128 1024 6 6 (4718592)
I0122 01:41:29.984585  5497 net.cpp:165] Memory required for data: 1819592192
I0122 01:41:29.984592  5497 layer_factory.hpp:77] Creating layer cccp7-1024
I0122 01:41:29.984608  5497 net.cpp:100] Creating Layer cccp7-1024
I0122 01:41:29.984616  5497 net.cpp:434] cccp7-1024 <- conv4
I0122 01:41:29.984629  5497 net.cpp:408] cccp7-1024 -> cccp7
I0122 01:41:30.059037  5497 net.cpp:150] Setting up cccp7-1024
I0122 01:41:30.059068  5497 net.cpp:157] Top shape: 128 1024 6 6 (4718592)
I0122 01:41:30.059077  5497 net.cpp:165] Memory required for data: 1838466560
I0122 01:41:30.059090  5497 layer_factory.hpp:77] Creating layer relu11
I0122 01:41:30.059105  5497 net.cpp:100] Creating Layer relu11
I0122 01:41:30.059114  5497 net.cpp:434] relu11 <- cccp7
I0122 01:41:30.059128  5497 net.cpp:395] relu11 -> cccp7 (in-place)
I0122 01:41:30.059622  5497 net.cpp:150] Setting up relu11
I0122 01:41:30.059633  5497 net.cpp:157] Top shape: 128 1024 6 6 (4718592)
I0122 01:41:30.059640  5497 net.cpp:165] Memory required for data: 1857340928
I0122 01:41:30.059648  5497 layer_factory.hpp:77] Creating layer cccp8_output
I0122 01:41:30.059667  5497 net.cpp:100] Creating Layer cccp8_output
I0122 01:41:30.059675  5497 net.cpp:434] cccp8_output <- cccp7
I0122 01:41:30.059687  5497 net.cpp:408] cccp8_output -> cccp8_output
I0122 01:41:30.060772  5497 net.cpp:150] Setting up cccp8_output
I0122 01:41:30.060786  5497 net.cpp:157] Top shape: 128 2 6 6 (9216)
I0122 01:41:30.060792  5497 net.cpp:165] Memory required for data: 1857377792
I0122 01:41:30.060803  5497 layer_factory.hpp:77] Creating layer relu12
I0122 01:41:30.060813  5497 net.cpp:100] Creating Layer relu12
I0122 01:41:30.060820  5497 net.cpp:434] relu12 <- cccp8_output
I0122 01:41:30.060829  5497 net.cpp:395] relu12 -> cccp8_output (in-place)
I0122 01:41:30.061393  5497 net.cpp:150] Setting up relu12
I0122 01:41:30.061405  5497 net.cpp:157] Top shape: 128 2 6 6 (9216)
I0122 01:41:30.061413  5497 net.cpp:165] Memory required for data: 1857414656
I0122 01:41:30.061420  5497 layer_factory.hpp:77] Creating layer pool4
I0122 01:41:30.061430  5497 net.cpp:100] Creating Layer pool4
I0122 01:41:30.061437  5497 net.cpp:434] pool4 <- cccp8_output
I0122 01:41:30.061450  5497 net.cpp:408] pool4 -> pool4
I0122 01:41:30.061671  5497 net.cpp:150] Setting up pool4
I0122 01:41:30.061681  5497 net.cpp:157] Top shape: 128 2 1 1 (256)
I0122 01:41:30.061688  5497 net.cpp:165] Memory required for data: 1857415680
I0122 01:41:30.061695  5497 layer_factory.hpp:77] Creating layer pool4_pool4_0_split
I0122 01:41:30.061705  5497 net.cpp:100] Creating Layer pool4_pool4_0_split
I0122 01:41:30.061712  5497 net.cpp:434] pool4_pool4_0_split <- pool4
I0122 01:41:30.061723  5497 net.cpp:408] pool4_pool4_0_split -> pool4_pool4_0_split_0
I0122 01:41:30.061734  5497 net.cpp:408] pool4_pool4_0_split -> pool4_pool4_0_split_1
I0122 01:41:30.061784  5497 net.cpp:150] Setting up pool4_pool4_0_split
I0122 01:41:30.061794  5497 net.cpp:157] Top shape: 128 2 1 1 (256)
I0122 01:41:30.061802  5497 net.cpp:157] Top shape: 128 2 1 1 (256)
I0122 01:41:30.061810  5497 net.cpp:165] Memory required for data: 1857417728
I0122 01:41:30.061816  5497 layer_factory.hpp:77] Creating layer accuracy
I0122 01:41:30.061836  5497 net.cpp:100] Creating Layer accuracy
I0122 01:41:30.061844  5497 net.cpp:434] accuracy <- pool4_pool4_0_split_0
I0122 01:41:30.061852  5497 net.cpp:434] accuracy <- label_val-data_1_split_0
I0122 01:41:30.061861  5497 net.cpp:408] accuracy -> accuracy
…
